logs/rsl_rl/unitree_go2_flat/2024-09-26_16-39-18/exported/policy.onnx (onnx, 163093 bytes, 8 tensors)

actor.0.weight f4 [128, 45]
00000000: 95fa 983d 358a d43e 5da2 fa3e 6851 8e3e
00000010: 0e37 863d c412 063e 8439 2ebe 9e73 19be
00000020: 68cb 61bf 3ad1 df3e 32aa 81be 7938 27bf
00000030: 8428 dcbe f8aa 09bc 7c71 cf3e 153b 0b3f
00000040: 56f6 933e f148 6e3e c1b7 cebd 166f d4bd
00000050: 0cc6 193f fd87 6a3d 33d8 a23d da68 69bd
00000060: 335c 0fbc 6ffa 783d 8348 393d 2316 21bd
00000070: 26a1 df3c 06a8 2a3c 0fa2 923d cb98 0b3c
00000080: a05d 223c 3a24 87be 7626 bcbc 2786 8f3d
00000090: 088d 093e a4bb 0ebe cccc c43d efdb c93d
000000a0: 6f17 66be cc9d 3ebd 0098 fdbd e194 853d
000000b0: ab7f aa3e e835 26bd 4343 a13e 3b1c d0bd
000000c0: 3c9f 89be 50dc 1f3e 5bbe 203e 07f7 c93e
000000d0: 8fea e53d d060 c73e 5e29 8ebc 7ed9 d2be
000000e0: e1d8 203e 1225 fabc 5543 ecbd c04d 8dbc
000000f0: fbbf 54bf 9390 82bf aaf5 88bd 15b9 50bd
00000100: eade e0bc e60a 19be d3c0 d6bc 3107 db3d
00000110: 7a7c c7bd 2d92 d7bd f515 56bd 0816 033e
00000120: 10b4 823d f6b1 b1bd cf10 583c c6e5 ff3d
00000130: 9d57 433d 1a95 083d 8eb7 623e ecd3 57be
00000140: e479 ff3d 134f b43d 0e7c 023e 4272 2d3d
00000150: 6660 73bd 2ac0 f3be 5b68 cabd 455c 08bc
00000160: 2cc0 0abe c715 243e 326d 1e3e 232a 733e
00000170: 2680 ac3d f2cc 8e3d 133e 08bf 2c0b cbbd
00000180: 1958 f93c 4886 803e cf95 84bd fe7f ba3e
00000190: 9680 d3be cd0f c8be 5307 813d 1303 c73e
000001a0: 4b7e 4f3e 3a0a 393e e92a 7ebf 3ffc b13e
000001b0: ece5 a1bd b69e 203c 3b05 5c3e 8915 0dbc
000001c0: b699 5f3d a884 c53d 89c2 423d e874 d33c
000001d0: c391 8d3d ebe3 14be f55a b33c 898b 883d
000001e0: bcb4 5a3e a6b8 55bd 431d 0d3d 2342 2dbd
000001f0: 9407 3c3e 7974 c93b a8ff e53d 7dcd ca3d
00000200: 469e 09bd 84c4 8f3d 80b0 01be 8c96 b7bd
00000210: 9b6c 47bd cb08 8dbe 8ad9 37be 9c5a 95bd
00000220: 506e cbbd 67f3 73be b38e d6be e3db 9e3f
00000230: 3adf 273e 8dda abbe 8c09 713e e8dd 863d
00000240: f3fe 40bf 6e0e 5cbe a898 c6be 1609 18be
00000250: e1da 7b3e 7a04 073a 47f8 a2bd a035 a33c
00000260: 28b0 88bd 599a f33e 5c1b 30be 30c9 593e
00000270: f543 1d3e 366f 6fbd 2537 a3bd f9c3 c2bc
00000280: 99d4 b53d f295 63bc 0acd efbc f217 c8bd
00000290: 1b6d 9e3c 9abf 103c 7666 1fbd de79 bbbd
000002a0: 3ae0 d0bc 0134 4a3e 5e66 d33d e6a3 d4bd
000002b0: 7c6d 96be 721c 02bd 5833 d1bc 68ff 79be
000002c0: f75a 273e ad21 27be 5ecd 6c3d 47d7 5ebe
000002d0: eaaf 20be 6adb a23d 594f 1f3e fabd 5c3e
000002e0: 5006 c23f 5f28 f83d cc94 2d3e 8606 c4be
000002f0: ec4d e93d 1c85 55bd f8af 55be 90af 60bf
00000300: a495 49be 42a0 9cbe 6f6a 37be bee5 323d
00000310: 21ae dbbe ea80 99be cb89 b93e 4fbc 04be
00000320: 63b2 733e a27d 0cbe c600 883b 1a2c 1b3d
00000330: 6321 f8bd 7b7a c13d a225 54bd b7b3 cebd
00000340: 6d86 3d3d fd6c 03be ccbe adbc b387 47bd
00000350: 2983 85bd 5efa 283d a680 e93d 32a4 0b3d
00000360: f41f bd3c 8f03 9ebd 97fd c43d a760 48bd
00000370: 498e 3cbe 9630 f73d daf4 edbd 6093 0b3e
00000380: 24b7 3f3d 29de 9f3d 7739 43bd 968e 9e3e
00000390: 0591 073f f8dd b13e a6f5 273e d9ee b23c
000003a0: 0538 49be 0567 c9be 1a2c 103f 2383 0abd
000003b0: a146 b7be 3ef3 b63d dad2 4abd 4455 ca3d
000003c0: 1162 6e3f cfef 4ebf 9ddb cabc 2e3a 8bbd
000003d0: 55fa 8fbd 27b2 803e b58f 943d e0c8 9abd
000003e0: 19c6 353d 1353 6b3d cec2 7abd 7e1c 3dbe
000003f0: 9046 f73c 7466 2d3d ce92 81bb c0e3 e03c
0.0746967 0.41511694 0.48951998 0.27796483 0.065534696 0.13093096 -0.17014128 -0.1498551
-0.88201 0.43714315 -0.2532516 -0.65320545 -0.4299966 -0.0084025785 0.4051627 0.5438703
0.28898877 0.23270012 -0.10093642 -0.103727505 0.6006782 0.057258595 0.07951393 -0.05698476
-0.008750009 0.060785707 0.04523517 -0.03932775 0.027298521 0.0104160365 0.071598165 0.008520315
0.009910017 -0.26394826 -0.022967558 0.070080094 0.13432705 -0.13938767 0.096093744 0.09856402
-0.22469877 -0.046537206 -0.12382507 0.06522537 0.33300528 -0.040578753 0.3149663 -0.101616345
-0.268793 0.15611386 0.15697615 0.3944628 0.11226379 0.3894105 -0.01735371 -0.41181558
0.15707733 -0.030535255 -0.1153628 -0.017248988 -0.8310544 -1.020037 -0.06687482 -0.050957758
-0.027450044 -0.14945564 -0.026214993 0.10694731 -0.09740539 -0.10525928 -0.052267034 0.12801373
0.063820004 -0.086765215 0.013187601 0.12494998 0.047690976 0.03334532 0.22140333 -0.21076936
0.12474421 0.08804145 0.12742636 0.042345293 -0.059418105 -0.47607547 -0.098831855 -0.00832278
-0.1354987 0.16023932 0.15471342 0.23746543 0.0842288 0.06972684 -0.5321972 -0.0991424
0.030437516 0.25102448 -0.06473886 0.36425775 -0.4130904 -0.39074555 0.06300225 0.38869533
0.2026302 0.18070307 -0.99284226 0.3476276 -0.07905182 0.009803465 0.2148637 -0.008611091
0.05458995 0.09644443 0.047548804 0.025812581 0.069125675 -0.14540069 0.021893958 0.06667239
0.21358007 -0.052178048 0.034451734 -0.0422994 0.18362266 0.006147918 0.11230403 0.09902475
-0.033598207 0.07019904 -0.12664986 -0.089642614 -0.04868756 -0.2754577 -0.17954078 -0.07292673
-0.0993315 -0.2382332 -0.41905746 1.2410854 0.16393748 -0.3356518 0.23538798 0.06585294
-0.7538902 -0.2148988 -0.38788342 -0.14847216 0.24595214 0.00051505084 -0.079575114 0.019923031
-0.06674224 0.47578695 -0.17197937 0.21268153 0.15357955 -0.05845567 -0.07969502 -0.023775088
0.088784404 -0.01389073 -0.029272575 -0.09770192 0.019339135 0.008834744 -0.038916074 -0.09154104
-0.025497545 0.197464 0.10322259 -0.10382824 -0.29380405 -0.03176541 -0.025537178 -0.24413836
0.16343294 -0.1632144 0.05781304 -0.2176181 -0.15692106 0.07952006 0.15557612 0.21556845
1.5158176 0.12117075 0.16951293 -0.38286227 0.113918155 -0.052128896 -0.20867908 -0.8776789
-0.1968599 -0.30591017 -0.17911695 0.04367613 -0.42906287 -0.29981166 0.3623794 -0.12962459
0.23798518 -0.137198 0.004150483 0.037883855 -0.12115743 0.094471894 -0.051793702 -0.10092872
0.046270777 -0.12834544 -0.021209143 -0.048713397 -0.065191574 0.041254394 0.11401491 0.034092136
0.023086525 -0.077155225 0.09618681 -0.0489203 -0.18413652 0.12069814 -0.11618967 0.13630438
0.046805516 0.078060456 -0.047662225 0.3096816 0.5295566 0.3473966 0.16402301 0.021842407
-0.19650276 -0.3933641 0.56317294 -0.033816468 -0.35796073 0.089331135 -0.04951749 0.098795444
0.9311839 -0.8083467 -0.024762923 -0.06798206 -0.07030169 0.2513592 0.072539724 -0.07557845
0.044378374 0.057452273 -0.061220936 -0.184679 0.030185014 0.042334035 -0.003954268 0.02745235

actor.0.bias f4 [128]
00000000: 49bd fb3d 1175 19bd ffd1 3b3d cef2 50be
00000010: fc6b 4a3d e919 52be 8090 2abd 810d 0bbc
00000020: dc6c 4a3d a222 25bd 7cf6 6fbd 1c39 4bbd
00000030: e244 72bc 5b5b 04be 5e76 c3bd 0339 ffbd
00000040: 1346 aabe aa66 16bd 1596 24bb 5896 f7bd
00000050: cfbe 9f3d f196 37be 4d35 07be 2ae6 843d
00000060: c306 2fbe 1953 d3bd ed90 93bd 1548 98bd
00000070: 52e4 21be 68fa b83d b9e5 d6bd 4c1d debd
00000080: 2459 9f3d cde0 003c 5228 a1bd 9f08 d93c
00000090: 66ba c4bd 8de7 bbbd 3cb4 013d 1926 bbbd
000000a0: 06e2 183e d4e0 9fbd 2fa4 d03d b5bf d8bd
000000b0: f47a edbd 2846 34bd b2f9 613d 160a 71bd
000000c0: 18c4 3f3e 1c7b 18be f0b8 47be 36e6 24be
000000d0: d2e6 85bd e90d 833c 444a 833d 718b c8bd
000000e0: c051 b13b d120 a2bc 00a4 37be 7e16 723b
000000f0: e64f 54bd 68ab 04be 5f30 babd 1a0e 00bd
00000100: 9fc6 173e e9d9 9c3c 8bb1 f4bd 2e6c af3c
00000110: ba0b 42bd 9580 6a3c 6ac8 0ebe b261 f0bd
00000120: ff59 3c3d 896f 85bc 8b2b 343d 0912 883c
00000130: 1b5c 5c3d df97 083e 1996 ae3d 3227 05bc
00000140: 3471 2ebe 1a3f 5f3d d2fd 4abd 0635 ddbd
00000150: af40 213e 9623 30be c408 15be 844e 883d
00000160: 81b8 403c 0c8e f5bd ee6d 493d f52b c9bd
00000170: 461c 46b9 2ac9 08be 5173 273d 6999 bf3c
00000180: ba3c 8d3b 4fdb ff3d b940 2a3e 388d 59bd
00000190: 57b8 a3bd 1db0 d53d 7eaf 0f3d 8e92 07be
000001a0: b533 e4bd 3214 96bd da46 2a3e b03c 70bd
000001b0: 3dda 55be 9bdc 4fbc f815 133e b0dc cabd
000001c0: 202c 52be 4248 acbd a1d7 273d 60fb 0f3e
000001d0: 92d4 50be 3144 2abe fac1 0fbe ab0a a8bd
000001e0: ee89 23be e4b3 ad3d b62b b63d 6a07 dabd
000001f0: e842 ca3d 72af 1c3e e708 d53d b844 85bd
0.12291963 -0.03746516 0.045854565 -0.20405123 0.04941939 -0.20517696 -0.041641712 -0.008487106
0.049420223 -0.04031623 -0.058584675 -0.04961501 -0.014786931 -0.12925474 -0.09544061 -0.12462046
-0.33256587 -0.036719 -0.002511387 -0.12089223 0.07800066 -0.17928673 -0.13203926 0.06489213
-0.17092423 -0.10318584 -0.07205377 -0.074356236 -0.15809754 0.09032136 -0.10493035 -0.10845432
0.07780674 0.007866097 -0.078690186 0.026493369 -0.09605865 -0.09175024 0.031666026 -0.09138126
0.14929971 -0.078065544 0.101875655 -0.1058344 -0.11595717 -0.04401222 0.05516977 -0.05884751
0.18727148 -0.14890712 -0.19504142 -0.16103444 -0.06538166 0.015997844 0.064106494 -0.09792221
0.0054113567 -0.019791039 -0.17933655 0.0036939676 -0.05183401 -0.12956011 -0.09091257 -0.03126345
0.14821862 0.019146876 -0.11947926 0.021413889 -0.047374465 0.014312883 -0.1394364 -0.11737384
0.045984264 -0.016288536 0.04398684 0.016610162 0.053798776 0.13339184 0.085247226 -0.008127021
-0.17035371 0.054503538 -0.04955847 -0.10801129 0.15747331 -0.17201075 -0.14554125 0.06655601
0.011762739 -0.11989984 0.049177103 -0.09822837 -0.00018893284 -0.13357988 0.04088146 0.023388581
0.0043102177 0.12493002 0.16626252 -0.053113192 -0.079941444 0.104339816 0.03507947 -0.132395
-0.11142675 -0.07328071 0.1662859 -0.058651626 -0.20884033 -0.012686874 0.14363849 -0.09905374
-0.20524645 -0.084122196 0.040977124 0.14060736 -0.20393589 -0.16627575 -0.1403884 -0.0820516
-0.15970585 0.08481577 0.08895056 -0.10645945 0.098760426 0.15301302 0.104020886 -0.06507248

actor.2.weight f4 [128, 128]
00000000: c478 36be 2674 fd3b c934 283c 69a3 083e
00000010: b6c6 58bc 5375 ff3d 607d 37bd 4ba1 36bd
00000020: 719c bcbd c83d f3bd 3a77 90bd b8ea dbbd
00000030: 213d 573c 2761 1cbd cd71 383d 91b3 c4bd
00000040: bcd9 e83d 3d8e 15bd bca4 9f3c c4ab 953c
00000050: 917e 90bd 67b9 b73d 2498 b23d 4970 1bbb
00000060: 40f2 cbbc bd9a febc 6fb5 40bd a44c 713d
00000070: ea0f 86bc 2822 abbc 72f4 0fbd a5e3 d33d
00000080: 5e9a 06be b50b 7abd 4f0a b53b c552 e6bb
00000090: b844 9dbd d297 f6bd a8b6 9cbc b0a5 de3c
000000a0: 85ba b03d 106e 5abd ae23 e13d 8bdc 45bd
000000b0: 0fff 18bc 7593 5f3c f0a9 97bc ad5e ccbc
000000c0: 85ee 2d3c cf75 9abb 6b9f efbb 83e2 93bd
000000d0: 06a2 a63d 5ce4 f7bd ef7f a9bd 1601 9cbd
000000e0: 9d59 9a3d 402a 9b3d 0179 93bc 43c4 dbbc
000000f0: ba66 67bc 573b 21bc fd2f 2f3d 3cc3 023d
00000100: 77a7 fdbc 6255 58bc c43b 483c 830b b3bd
00000110: 8270 13bd c364 243e 63c3 abbd 08b4 25be
00000120: 50d4 8e3c 3220 323d e872 cd3d 7b5f 9cbb
00000130: af39 38bd 52bd 87bc 76d1 27be e9fc 49bd
00000140: 8d68 d8bb e99b 2cbe 86bc 3e3c a6d2 24be
00000150: 8f06 b6bd 658a 7f3d 33eb 773d 4715 033e
00000160: dfa5 82bd 9ed9 e43d 9839 d9bc 500f 383d
00000170: 240b d0bd d951 bebd dd7d 78bd 98f3 183d
00000180: 5686 3e3c a980 823d 6d02 19be f48f 5f3c
00000190: bf00 563c abc0 13be 70c4 62bc 4876 e1bc
000001a0: 203f 8cbc 124a 6d3d f586 a73b b5c6 29bc
000001b0: 8265 ce3d 8947 aabc add7 37bd 189b 27bd
000001c0: bbd6 5dbb f8a7 073e e2d7 0bbe 5b32 d1ba
000001d0: 36f8 043e 91f0 bd3d 7954 29bd 6277 b6bd
000001e0: f1c0 83bd 0d04 873c dcc9 68bd 775e 9bbd
000001f0: bf38 25bd 7b4e ebbd 2deb a0bc 2cec 413d
00000200: 15da 673d 04f3 02be 9dbc ebbc 621b 283d
00000210: 65bb 763d 0b78 203e 0818 bbbd a5b9 46be
00000220: 7f3f 963c 8438 f3bd 1367 133c 417d 8ebd
00000230: be0a 9e3d a183 0bbc bfec 1abd db75 153d
00000240: df77 b9bd e24b 41bd d861 9fbd d3e0 b73d
00000250: 5637 bbbc 8225 05be 90b5 50bd 0e69 3ebd
00000260: 36af 463d ec0c 6a3d 5ed5 d83b ea0b 583d
00000270: 99d9 b8bd 9f2d a0bd 4e48 f6bd 352e dabd
00000280: 3bfb a03d 9e4d 52bb 0aa9 2ebd 1d34 cdbd
00000290: 8776 223d a002 643c 96cc 1dbd 688e 993d
000002a0: 94ee 8fbc d290 1a3d da38 913e 7219 01be
000002b0: 68b8 09be feb1 b5bd 7e3f 7dbd 8597 b9bd
000002c0: 9083 e23c d7c2 443d b309 febd 8e0b 3f3c
000002d0: cff2 2abe 4917 963c 5d18 05bd 91c3 cfbd
000002e0: 5f66 19bd 9f2d 243d 0ca2 a1bb 1f48 a7bd
000002f0: 5f00 28bc a326 153d 7d3f 60bd b458 95bd
00000300: 0520 90bd ca43 aabd aa1c 45bd c50c dfbd
00000310: 19af e0bd 8cfc d7bc b730 83bd 8517 18be
00000320: 715b 9bbd e80a 13bd 15f2 4c3d 5ec9 4a3e
00000330: b76f b7bd eb92 093d 02c6 b0bd d8fe 8e3c
00000340: fcf3 c3bd 3306 6b3b bf3d a7bd e102 ec3b
00000350: c3aa 12be 6dca 9cba 7ed8 1dbd 4d6e 28be
00000360: 6a95 8ebd 56e0 f73c f9e6 c8bd f540 c33c
00000370: 793c 03be f51a e73d 611f 813c 76ff 3e39
00000380: 693e e0bc ff5f e33c c966 58be d773 903a
00000390: 1a6b 983c b1b7 eabd 46b7 f7bc b237 273e
000003a0: e3c9 133b 3903 14bb b1e0 ebbd 907e 26bd
000003b0: 2994 b63c b2fb 8ebc 07c4 c6bd 4b71 8abd
000003c0: d5f6 babb c563 743b 4f24 f33b 3ca5 d6bd
000003d0: aa53 153d 1d50 823d e0d9 05be 59f4 ec3c
000003e0: 1a52 04be f841 c63c 2159 b6bd 462e a9bd
000003f0: e6d4 ecbd d05d 9bbd a42a 703d fa5d c9bd
-0.17819506 0.0077347932 0.010266491 0.13343586 -0.01323097 0.1247355 -0.0447973 -0.044587415
-0.09209526 -0.11877018 -0.07053991 -0.107381284 0.013137133 -0.03817859 0.045030404 -0.09604562
0.113696545 -0.036512602 0.019487731 0.01827038 -0.070553906 0.089709096 0.08720425 -0.002371805
-0.024895787 -0.031079644 -0.04704803 0.05891098 -0.01636501 -0.02089031 -0.03514523 0.10346154
-0.13144824 -0.06104632 0.0055249105 -0.00702891 -0.07679123 -0.12040676 -0.019130066 0.027178615
0.08629326 -0.05332762 0.109931335 -0.04830603 -0.009338154 0.013645996 -0.01851365 -0.024947489
0.0106159495 -0.004713751 -0.0073127053 -0.07220938 0.08136372 -0.12104103 -0.082763545 -0.076173946
0.075366236 0.07576418 -0.018002035 -0.026826983 -0.014123613 -0.009840808 0.042770375 0.03192447
-0.030963643 -0.013203951 0.0122212805 -0.0874243 -0.035995968 0.16054063 -0.083868764 -0.16181958
0.017435223 0.043487735 0.10031682 -0.0047721243 -0.044976886 -0.016569767 -0.16388497 -0.04931346
-0.0066042603 -0.1685635 0.011641627 -0.16095981 -0.0888797 0.062387843 0.060527038 0.12801085
-0.06379294 0.1117432 -0.02651672 0.04493648 -0.10158375 -0.09292955 -0.060666908 0.037341684
0.011628708 0.06372196 -0.14942332 0.013645161 0.013061701 -0.14428966 -0.01384078 -0.027522221
-0.017119944 0.057931967 0.0051125237 -0.010362317 0.10077955 -0.020786064 -0.04488342 -0.040919393
-0.0033849913 0.13247669 -0.13656572 -0.0015960442 0.1298531 0.092744 -0.041340325 -0.08909489
-0.06433285 0.016481424 -0.056833133 -0.07586377 -0.04033732 -0.11489578 -0.01964339 0.04734437
0.056604464 -0.12788016 -0.028776461 0.04104174 0.060237307 0.15670793 -0.09135443 -0.19406755
0.018340824 -0.11876014 0.008996743 -0.06957484 0.07716893 -0.0085152695 -0.037823435 0.03648935
-0.09056067 -0.047191508 -0.07782334 0.08978429 -0.022853535 -0.1300259 -0.0509544 -0.046486907
0.048506938 0.05714123 0.006617232 0.052745737 -0.090258785 -0.078212015 -0.1202551 -0.106533445
0.078604184 -0.003208972 -0.042641677 -0.100197054 0.039663818 0.0139166415 -0.038525186 0.07497865
-0.017569818 0.037735768 0.28363687 -0.12607363 -0.13449252 -0.0887184 -0.06182813 -0.09062103
0.027650625 0.048037376 -0.12404194 0.01166047 -0.16694187 0.01832165 -0.032493938 -0.10144723
-0.037451144 0.04008257 -0.0049326476 -0.08168053 -0.010253995 0.0364138 -0.054748047 -0.072923094
-0.07037357 -0.08313711 -0.04812304 -0.108911075 -0.10970897 -0.02636554 -0.06405776 -0.14852722
-0.075858004 -0.035899073 0.050035555 0.19803378 -0.08956855 0.033587378 -0.08631517 0.017455503
-0.09568021 0.003586185 -0.08166074 0.0072024916 -0.14322953 -0.0011962183 -0.03853654 -0.16448326
-0.06962092 0.030258339 -0.098096795 0.023834685 -0.12816037 0.112844385 0.015762033 0.00018214979
-0.02737351 0.027755735 -0.2113296 0.0011020851 0.018605758 -0.114608176 -0.030238759 0.1632984
0.0022550754 -0.0022584929 -0.11517466 -0.040648043 0.022287445 -0.017454002 -0.09705358 -0.0675989
-0.005705694 0.0037290913 0.0074201 -0.10480735 0.03645674 0.06362937 -0.13071394 0.028925108
-0.12921944 0.024201378 -0.08903719 -0.08260779 -0.11564045 -0.07586253 0.058634415 -0.09832378

actor.2.bias f4 [128]
00000000: e112 8fbe b51d 75bd 8d68 2bbc c9ac 16be
00000010: eee1 23be 7251 973d 9d63 d5bb 3d02 debc
00000020: e448 37bd 7ade 8dbc ec95 843d 46da 813c
00000030: e307 ae3b 52a6 e2bd a458 99bc 8836 f5bd
00000040: 053a fcbc c91e d9bd facd 013c 8d10 b7bd
00000050: b6fc 0bbd 521a 1c3d ffe2 e9b9 5ad8 18bd
00000060: 3667 89bd b6b4 9bbd b91f d93d 6dab 46bd
00000070: fd0b 8d3d 2ada 12bd 8619 e83c ca69 293d
00000080: 9b68 9cbc dd54 48bb 5e74 6cbd 0d43 7dbd
00000090: 3758 d9bc 0179 b8bb 586e 423d aecf 0bbe
000000a0: c1b9 153d 5040 aebd 401c c7bb d211 c1bd
000000b0: 6d9f c73d 2562 393d eb82 07bd 5cc9 4cbd
000000c0: 13a5 0e3d bbe7 913c 0605 54bd 4ef2 8bbe
000000d0: 0f46 e6bd a652 4eb7 f657 773d 14d4 bfbd
000000e0: bf74 fc3a 0dd8 a9bd 043a 12bb b24d 17be
000000f0: 1d2a 47bd 4bf3 963c 446d 11bc 1995 5cbd
00000100: 0523 a1bd ffee 9bbc 1f36 06be 0d6b c7bd
00000110: fdf2 753d 9fcb 64bd 77aa d6ba 5315 8fbe
00000120: 11e5 16be a2c2 8a3c feab 05be e34e ddbc
00000130: 7298 de3c bb5b c9bd f70f 36bc 1460 4abd
00000140: 3ba1 9bbc 3e32 acbd ed30 85bd be2c 25bd
00000150: eed9 8fbe 718a 42bb e431 c3bd 0484 1cbd
00000160: a704 943d 1400 dcbd d352 31be 8995 f7bd
00000170: f6a4 abbd d82a 09be 59e4 5bbd 50af 52bd
00000180: 6876 57bd 7a86 52bd ce2f 98bd dddc 793d
00000190: 5be4 5f3d d5e4 bc3d 6760 a5bc e5b6 79be
000001a0: a2da c03c 429d 7c3d e4c0 12be 7e62 09bd
000001b0: 35c7 d2bd 30b3 40bd 2a65 8dbd cd51 1fbf
000001c0: 1e9a c6bc e49b 95bd d720 fabd 0749 8dbd
000001d0: 3982 7f3c dda5 f8bc 7414 843c 9b05 1e39
000001e0: 51c6 75be 7963 39bd 1ab7 8cbc fe25 9d3d
000001f0: 7789 b33c 7a48 983c 7989 edbd ca83 bdbd
-0.2794409 -0.059842784 -0.010461939 -0.1471435 -0.16004154 0.07388581 -0.006512119 -0.027100677
-0.04474725 -0.017318 0.06473908 0.015851151 0.0053109988 -0.11066879 -0.018719025 -0.11973292
-0.030789385 -0.10601575 0.007922644 -0.08938704 -0.03417655 0.03811104 -0.00044610348 -0.037315704
-0.06709139 -0.07602827 0.10601754 -0.048503328 0.06887052 -0.03585259 0.028332483 0.041360654
-0.019092849 -0.003056816 -0.057728164 -0.061831523 -0.026531322 -0.005629659 0.047468513 -0.13653442
0.0365541 -0.085083604 -0.0060763657 -0.09427227 0.09747205 0.045259614 -0.033083837 -0.04999672
0.034825396 0.017810693 -0.051762603 -0.273333 -0.11243831 -1.22978e-05 0.06038662 -0.093666226
0.0019260867 -0.082931615 -0.0022312412 -0.14775732 -0.048624147 0.018426558 -0.008876149 -0.053853128
-0.078680076 -0.01903486 -0.13106583 -0.09737215 0.060046185 -0.05585825 -0.0016377707 -0.27945957
-0.1473582 0.016938511 -0.13053891 -0.027015155 0.027172301 -0.09831949 -0.011112205 -0.049408033
-0.01899778 -0.084080204 -0.065034725 -0.040325873 -0.28095955 -0.0029684568 -0.09531 -0.038211837
0.0722745 -0.107422024 -0.17316751 -0.120890684 -0.08381073 -0.1339525 -0.053684566 -0.051436722
-0.052603155 -0.051397778 -0.07430993 0.061001647 0.054661136 0.09223334 -0.02018757 -0.24386175
0.023541752 0.06167341 -0.14331394 -0.033541195 -0.10291902 -0.047045887 -0.06904061 -0.62234193
-0.02424341 -0.073051244 -0.12213295 -0.068986945 0.015595012 -0.030352527 0.016123034 0.00015070142
-0.24001433 -0.04526088 -0.017177153 0.07673262 0.021916134 0.018589247 -0.115984865 -0.092536524

actor.4.weight f4 [128, 128]
00000000: 192b 3fbc 3d43 45bd 28b7 9bbe d03b e83c
00000010: 6fca 4f3d e358 963c 1673 74be c84e 84bd
00000020: 4b03 d03d 849e 743e 31fa 303e a4d3 18be
00000030: dcf7 c83b f6fd 27be eaef 023e f2c6 5c3c
00000040: 21cf 0f3c 5170 163e 9187 bf3d c304 08bd
00000050: fa01 263d 2f06 153d 3d09 383d 1a09 5dbd
00000060: 1fd0 5fbe 3ae0 c73d e6c5 843d ffe3 03bc
00000070: 587d acbd 3148 073d 128a b4bd 1e7d 383e
00000080: ddf8 b43d 7c3a 223e d259 703d 0698 0a3e
00000090: 03a4 a53c 39d5 99bd 8a75 7bbd 7ff6 30bd
000000a0: fee8 e93d 3c91 f9bd e265 65bc 2400 933d
000000b0: ab8b 80bc ba2f 0fbd fd07 f3bd 6d97 ebbc
000000c0: 6c0d ebbc 55ac b8bc a590 cbbc 964f 3cbd
000000d0: 323b f33d 297d 213e a676 ff3c 2fb7 f0bd
000000e0: e25f b03d d2aa bbbc e220 c93c 9205 d5bc
000000f0: a36a 5b3d 6587 423d 1e47 cd3d 29b1 df3c
00000100: 4d37 70bd bf4c 453d a947 48bc 094d bebd
00000110: 41d6 a0bd 53ab 6fbd 6530 27be 819e 87bc
00000120: b988 243d b59d 6f3e 3775 233d d002 47bd
00000130: 6cd0 5ebe 782d d3bd dbd2 01bc dfd8 7d3b
00000140: 8848 8f3d 8c53 c5bd 1259 143d e05e ae3d
00000150: 63c3 773d 2114 c93d d29d ab3a c423 91bd
00000160: 7df5 913d dc7c 2abe 0ee3 f0bd f223 5cba
00000170: 17c7 ea3d d734 92bd 1986 6cbd 3616 48bd
00000180: 8f6b a7bd 918d 073e 3924 553d 3960 703d
00000190: 5e50 e93c 1729 f8bc b2d3 c8bd d97e 473c
000001a0: 1ce5 b8bb 45c9 25be 0a5d 8ebd 2eaa 3cbc
000001b0: 4b6f c33d f2b2 7d3d 409e c1ba d563 85bd
000001c0: 1f67 33bb 5543 973b b782 d0bd 85c1 aebd
000001d0: c9f1 22bc 0f57 283d ab2a 1ebc badf 02bd
000001e0: a409 b3bd 416e c0bb b3ef 86bd 2e72 09be
000001f0: 9f0a 933d b590 8e3d 6cbd 9cbc 4923 e63d
00000200: 026a 90bd e0ea 6dbd 7bf1 3bbe 6f00 d93d
00000210: 2fb9 663c fa2d 88bc ca51 27be 8067 7e3d
00000220: b909 e93d e9af 4c3d 97ca 0d3e cb0b f0bd
00000230: 75a3 afbc 3fa5 bebd b137 b7bc 217a b3bb
00000240: 53f4 7e3d ea47 ac3d c0e4 39bd 4e98 b1bc
00000250: 29b5 a0bb fcf3 fc3b 30d0 9b3d 040b ea3c
00000260: 1ad9 08be 3b04 d23d 122e 373d babd 2ebd
00000270: 725a aabd 9426 fabd b5ce 6e3d 29c8 e93d
00000280: 12af 2e3c 8ae3 153e 7b81 89bd 46c7 a33d
00000290: 5040 66bd b6b3 8a3a bcbf 25bc 07fb fcbd
000002a0: 8cf9 a13c fa59 21be 4977 85bc 6053 323d
000002b0: b57f 263d c6a8 d23c 84f3 123c 80a5 0a3c
000002c0: c8bd 16bc f2ae b43d 9cfe 87bd 3d4b 2cbd
000002d0: 7719 8b3b ca07 8d3d f9b2 643d 6b28 e6bd
000002e0: 3b13 b33c 6b11 a13d 7645 063d dc2f 983d
000002f0: 009a 35bd 5464 9ebc ff08 cd3c 3cf4 d03c
00000300: 31b3 0abd acfc fb3d 6261 d1bd 6495 d4bd
00000310: 5b4a a73d b61c 293d e250 39bd 124c 3cbd
00000320: 8e62 e2bc 48c6 703b c440 0d3d 1ce1 0abd
00000330: 8a17 65bd 18e6 c3bd c754 933c 51e9 b73d
00000340: 5b02 0cbc e3ee dfbd 54ca 3bbd 1e0e 503d
00000350: 4987 95bd 6fed 29be a85e aa3d fe9c 9dbc
00000360: 5fc6 e9bc c635 48be 0b23 98bd cede 7abd
00000370: 2d03 e93d 9150 23bd a2de bf3c 8859 71bb
00000380: c9a2 bdbd 61dd 833d 7263 223e 046e 25bd
00000390: e982 5bbd 1640 873c cd50 3ebc 5e3f 82bd
000003a0: 22ba a0bd 3b83 93bd 5c22 0f3d 85a4 db3d
000003b0: b95d 3d3d 5b2a a73d 46a1 7a3c c7e8 45bc
000003c0: 4cba cfbc de8b 1abd d194 1fbe e2f2 a43d
000003d0: 2a6e ec3d 2fc1 97bc 9787 5fbd 61e8 a5bd
000003e0: c0e0 11be a4ae 893d b1fe 803c cb83 8e3d
000003f0: 4e4e 463d ea30 ce3d 005b 823b 4f2b 193b
-0.01166799 -0.048159827 -0.30413175 0.028348833 0.050730165 0.018352931 -0.23872027 -0.06460339
0.10156878 0.23888594 0.1728294 -0.14924484 0.0061330628 -0.16405472 0.12786832 0.013475167
0.008777411 0.14691283 0.09352029 -0.033207666 0.04052923 0.03638285 0.044930685 -0.053963758
-0.21856736 0.09759565 0.06483059 -0.008049964 -0.08422345 0.03302783 -0.08815397 0.18016478
0.088365294 0.15842623 0.05867941 0.13534555 0.020219808 -0.07511372 -0.06139139 -0.043203827
0.11421393 -0.121859044 -0.014001342 0.07177761 -0.015691599 -0.034957625 -0.11866758 -0.028758729
-0.028692923 -0.022543112 -0.024849245 -0.045974337 0.11876525 0.15770401 0.031184506 -0.117536895
0.08612038 -0.022908602 0.024551813 -0.026003633 0.053568494 0.047492404 0.1002333 0.027306156
-0.05864649 0.048168894 -0.012224116 -0.09292037 -0.07853366 -0.058512997 -0.16327055 -0.016555073
0.04016945 0.23400004 0.039906707 -0.048586667 -0.21759194 -0.10311407 -0.007923807 0.0038734002
0.06996256 -0.09635076 0.036217757 0.0851419 0.06048907 0.098182924 0.0013093299 -0.070869
0.07126901 -0.16649193 -0.11762057 -0.000839769 0.114637546 -0.07138985 -0.057745073 -0.048849307
-0.08174812 0.13237597 0.052036498 0.058685515 0.028480705 -0.03029303 -0.09806003 0.012176239
-0.0056425463 -0.1619006 -0.069513395 -0.011515183 0.09542712 0.061938234 -0.0014771894 -0.06513182
-0.0027374697 0.004616181 -0.10181182 -0.08533005 -0.009945341 0.04109865 -0.0096537275 -0.031951644
-0.08742073 -0.0058725183 -0.06588688 -0.13422462 0.0717976 0.069611944 -0.019133292 0.11237199
-0.070514694 -0.058085322 -0.18353836 0.10595786 0.014082237 -0.016623486 -0.16339794 0.062110424
0.113788076 0.04997245 0.13846813 -0.11720999 -0.021440247 -0.09308862 -0.022365423 -0.0054772054
0.062244724 0.08412154 -0.04538417 -0.02167907 -0.0049044085 0.007719515 0.07608068 0.028569706
-0.13364068 0.10254713 0.04472167 -0.042661406 -0.08318032 -0.122143894 0.0583026 0.11415131
0.010661857 0.1463758 -0.067141496 0.07996993 -0.056213677 0.0010582122 -0.010116514 -0.12352567
0.019772314 -0.1575698 -0.016292231 0.043536544 0.040649135 0.025715243 0.008969191 0.00846231
-0.009200521 0.08822431 -0.0664036 -0.04206394 0.004244979 0.06886251 0.055834744 -0.11238178
0.021859756 0.0786465 0.032781087 0.074310035 -0.04433632 -0.01933495 0.025028704 0.025507085
-0.033862296 0.12304053 -0.102236524 -0.103800565 0.08168479 0.041287147 -0.04524315 -0.045970984
-0.027634885 0.0036739279 0.034485593 -0.033906087 -0.05593065 -0.09565371 0.01798476 0.089800484
-0.008545483 -0.10934236 -0.045847252 0.050794713 -0.07301194 -0.1659448 0.083188355 -0.019239899
-0.028536974 -0.19551763 -0.07428559 -0.06124764 0.11377559 -0.039871756 0.02342159 -0.0036827046
-0.092595644 0.06438709 0.15858248 -0.040388122 -0.053591643 0.01651005 -0.011615944 -0.063597426
-0.07848002 -0.072027646 0.034944877 0.10724739 0.04623196 0.081623755 0.01529724 -0.012079424
-0.025357388 -0.037731044 -0.15584113 0.08054139 0.115444496 -0.018524734 -0.054572668 -0.081009634
-0.14245892 0.06722763 0.015746446 0.06958731 0.04841452 0.10067923 0.003978133 0.0023371761

actor.4.bias f4 [128]
00000000: 0a2d ab3d 0766 333d 9307 29be 7d7d aabd
00000010: 0936 66bd 6c80 7bbd 2e43 90bd 4d26 d23d
00000020: 55d8 75bd 2e62 a1bd 7b8c 2abd 99ca dd3c
00000030: cb77 40be 5968 c5bd fbca 5c3d 60f1 c9bc
00000040: 1f68 dabc 4a5f bfbd e9a9 993d 0bee 87bc
00000050: 0d2e cf3b 9077 0dbc 523e 40be 5c9a a4bd
00000060: 80d1 99bc 4a62 963d 1809 febd 971f ffbd
00000070: 122e f03c 8a72 14be a4bc c6bd 1195 71bd
00000080: f8f2 033c 008a d4bc 1491 8fbc 8707 1f3c
00000090: 6d89 a93c d225 1a3d d649 273d acca 933d
000000a0: 12bf 4bbc 94da 973d 10fe cabd 2adb 263b
000000b0: ceab 1abe 2e00 0f3e 7398 573d 45c4 2dbd
000000c0: d77e 84bd 7bcb f4bc 8b0c 4bbe e3d9 843c
000000d0: 69c8 39be ae7b 2c3d 9d3f 763d f5a2 5cbe
000000e0: 86c0 ba3d ce64 5cbd 88e4 c83d 0cdd 293d
000000f0: 2a4b a4bd 29a4 133e 4f38 0bbe 869e 2a3d
00000100: 11d1 1439 3697 e1bd bdc1 14bc 2e00 203d
00000110: 245d 43be 5aa1 23bd 9c54 763c 2bd1 7a3d
00000120: 035e cbbd 14fb b83d 44b3 22bd bca3 093e
00000130: 30ee 15be 6108 71be 2e9f cabc ea50 45bd
00000140: d6ac 4dbe 8e07 2b3d 9fe9 6dbd 87a4 5ebc
00000150: 1c91 3cbe ff98 8c3d 40c2 32bd 3a7c b8bd
00000160: cf87 43be 6862 dabc 6f87 1dbd 3575 bdbd
00000170: 1035 503d 2665 c4bd 8a56 05be 3f42 053d
00000180: bd0e 36bd 6cca 4dbd d6c5 28be d163 063d
00000190: d08d 91bc 4a07 0c3d e98a 18ba 0f25 62bd
000001a0: bdc8 0ebe e84f c43d 75b2 633d 86a1 dcbd
000001b0: 64e8 9fbd 65f5 bf3d 01c0 74be bb60 02be
000001c0: 8f23 39bd c93d 5cbe c8dc 593c 27ef a1bd
000001d0: 438b 3dbb 9dad 41bc 5fb6 913d 9b44 f63c
000001e0: bd56 40bd 45be 0ebd 9802 42bd 66e5 74bd
000001f0: 3163 b3bc 70c2 a3bd 12a8 09bd d123 0fbe
0.083582 0.043798473 -0.16506796 -0.08324716 -0.056203876 -0.06140177 -0.070440635 0.102612115
-0.060020763 -0.078800544 -0.04163788 0.027074145 -0.18795697 -0.09639043 0.053904515 -0.02465123
-0.026660977 -0.09344347 0.07503111 -0.016593 0.0063226284 -0.008634463 -0.18773773 -0.08037254
-0.018776655 0.07342966 -0.12404078 -0.12457197 0.029318843 -0.14496818 -0.09703949 -0.05898005
0.008053534 -0.02594471 -0.017525233 0.0097063845 0.020695413 0.037633725 0.0408419 0.07216391
-0.012435691 0.07414737 -0.0991174 0.0025460222 -0.15104601 0.13964912 0.05263562 -0.042423505
-0.06469505 -0.029882183 -0.19829004 0.016217178 -0.18142857 0.042110138 0.06011926 -0.21546538
0.09118752 -0.053807072 0.09809214 0.041470572 -0.08022149 0.14418091 -0.13595699 0.041655086
0.00014192263 -0.11015169 -0.009079394 0.03906267 -0.19078499 -0.0399488 0.015034821 0.061234634
-0.09930041 0.09032264 -0.039721742 0.13441366 -0.14641643 -0.23538353 -0.024734106 -0.04817287
-0.20085463 0.04175525 -0.058084127 -0.013589031 -0.1841473 0.06865119 -0.043642282 -0.09008069
-0.19094776 -0.026658252 -0.038459238 -0.09250871 0.050831854 -0.09589605 -0.13021293 0.03253388
-0.04444765 -0.050241873 -0.16481718 0.032810036 -0.017767817 0.03418664 -0.0005819039 -0.055211123
-0.13943763 0.095855534 0.05559011 -0.10772996 -0.07807997 0.09372977 -0.23901369 -0.12732212
-0.045199927 -0.21507944 0.013297267 -0.07906943 -0.0028922118 -0.011821178 0.07114863 0.03006201
-0.04695772 -0.034849424 -0.047365755 -0.059789084 -0.021897884 -0.079960704 -0.03360755 -0.13978507

actor.6.weight f4 [12, 128]
00000000: 0671 b73b f3ce adbc 5bb7 2b3d adae b73d
00000010: 5896 f63c 69be 6d3d 27a5 cabd 2a69 6abd
00000020: 2647 f239 7f78 143d aec7 9c3d b7e1 42bd
00000030: 4df7 fc3c 9a40 fdbb 2be4 623d 0646 883d
00000040: 0929 debc a359 9ebc 3de1 15bd b3c8 9d3c
00000050: 43d0 5b3d 86f2 973d 1053 6d3d 893f 273c
00000060: 80c9 2bbd 5901 0d3d c2ff a73d 3a5d 373d
00000070: 0c2d 3d3d 13fe cc3d aabb 2fbd 7a3e 263d
00000080: f6ff 433c ddde febb 561f 1fbc 9536 1f3d
00000090: 9233 1ebc 041d 923c 2af0 d73b b858 bfbd
000000a0: 5d56 793c f586 923c 12b1 6d3d 3e7a af3c
000000b0: d491 763d fc1c 68bd 11f1 a53b 145e 0f3d
000000c0: a4eb 0e3d a34e 5f3d a5cd d8bb 90b9 1ebd
000000d0: 497f adbc 591b 863d 684c 57bd 3845 883d
000000e0: 76cb 2cbd aa53 203d 07ee 523c e0d1 a03c
000000f0: 7418 02be 3352 54bd 3447 323d 3691 84bd
00000100: 5766 d4bc 2f64 823d e6f1 87bd 2abf a13c
00000110: d11c 303d 0392 503d 0614 83bc 6daf 523c
00000120: 4e09 863d 907d 15bd efea 523c ceee 33bd
00000130: 19a5 153c f6db bd3d e115 343d 7985 7ebc
00000140: a670 c5bb 9ff0 b4bc 6bd1 c7bc e09e ffbc
00000150: 9fc5 a13d 8fdb 373c ccdc f83c 7637 243d
00000160: 38dd 563c f5be 683d e59d abbd dd66 153c
00000170: efac 9dbd fe19 c63c 5c41 38bb fad9 653c
00000180: 3cc8 7fbc 89cf 613c b7dd 1dbd 4bfc 593c
00000190: e5cc c3bc 01ad 10bd 09c3 773d 6a50 623d
000001a0: ce1f d9bc 8509 423c 9afc 9abd 244a 24bd
000001b0: 1068 2c3d 8a92 9fbc 6a56 cc3d 2990 0f3e
000001c0: 91ee 94bd 157f 75bc 5249 653d 16a1 bfbb
000001d0: 5254 393d 7786 a3bc b7b2 64b9 cd08 3b3d
000001e0: 205b b13d 8584 ce3c cf04 aa3c 3981 fabb
000001f0: 280c 00bd c26a 043d e6b3 c93d 0685 b8bc
00000200: 311b 203b 7f2a d1bc f1e4 d13c bd59 e53d
00000210: c51b 713d fbca 803d 3cf4 e83d a7b6 683d
00000220: 4177 fdbd 1f2a 9a39 146d 95bc d789 c23d
00000230: bfcf 153c 2ad8 c739 3c45 313d ddc2 383d
00000240: 2a50 b33b 2eb8 bd3c 6364 d9bc 60f6 c13d
00000250: b1f6 76bd 9a02 a1bc 674d a73c a9c3 fbbc
00000260: 24f9 14bd 2dd9 69bd cc46 173c 6e91 4dbc
00000270: 0e04 b2bc 6e72 81bd d330 163d d1f7 1e3d
00000280: fc8d a7bd 49d9 323d 1d56 b6bd 3f1a 2a3c
00000290: c756 ae3a 0c05 6fbc 9689 c33c d6ab e1bc
000002a0: 1d6d bf3c 7baa 77bd 182b b8bc a178 39bd
000002b0: 4ad9 c5bc d36d a6bc 14ed 51bc 8ac7 96bd
000002c0: 7bd5 5dbc b837 163e 36d0 ba3c a497 ebbb
000002d0: 3d79 1abd d2f5 bc3c 0c8f a83c 4f14 cdbc
000002e0: b172 2cbd e68f 59ba dfe6 90bc 8e4e 163d
000002f0: fcad 343d b242 b93d 9260 0fbd 8079 4a3d
00000300: 6f42 473d c072 87bd 6ccf a33c 24e5 cf3c
00000310: 6d4a 293d a16b b7bd fc70 cc3c fb9d cabc
00000320: 83b0 b9bd f585 30bd 9a34 2d3d b2c4 9a3d
00000330: dbab 023c f523 80bd 7742 d33c cb86 ebbc
00000340: 1c2f 543b 2efa 773d 2a5e bbbd 3cd4 6cbc
00000350: e6ac b4bc c053 d63b 0024 d53b f89f 0cbd
00000360: a87c 0abd eec9 70bd ef6b a23c a15f 0cbd
00000370: ca60 4dbd 322e 92bb 3509 26bd 2297 54bd
00000380: f5c1 11bd b308 323c a8dd 28ba 6855 6fbc
00000390: d3dc e0bc 3653 5abd d29b efbd 8ff7 dd3b
000003a0: 336c b8bd 72f0 153d 905e 48bd 3a93 b23b
000003b0: 32da 99bd 7a49 e8bc 128b f03c 7b47 2abd
000003c0: 83ac 99bd df17 063c 1695 69bc 4493 4bbd
000003d0: bc86 5dbd 666c 8e3d 87fb 72bc f586 7b3d
000003e0: 9a12 c2bb f57a 463d 2958 f73c c527 243b
000003f0: 96e8 b03c 3507 a23c c831 523d 04b3 103d
0.0055981902 -0.021216845 0.04192291 0.08968864 0.030100986 0.058042917 -0.098947816 -0.0572292
0.00046210847 0.036247727 0.076552734 -0.04757854 0.030879641 -0.0077286484 0.05539338 0.06653981
-0.027119176 -0.019329851 -0.036591757 0.01926074 0.05366541 0.074193045 0.057940543 0.010208019
-0.041940212 0.034425113 0.08203079 0.044766642 0.04618554 0.10009398 -0.04290358 0.040586926
0.011962881 -0.007778032 -0.009712061 0.038870413 -0.00965585 0.017836101 0.006589909 -0.09343094
0.0152183445 0.017886618 0.058030196 0.021420594 0.060197666 -0.056668267 0.0050641377 0.03500183
0.034892693 0.054518353 -0.0066163116 -0.038751185 -0.021178858 0.06548185 -0.0525631 0.066538274
-0.042186223 0.03914229 0.012874133 0.019631326 -0.1270464 -0.051836204 0.043524936 -0.06473009
-0.025927706 0.06366765 -0.06637935 0.019744474 0.04299623 0.050920498 -0.016000759 0.012859208
0.065447435 -0.0364967 0.012873395 -0.043928914 0.009133601 0.0927047 0.043966178 -0.015534752
-0.0060253916 -0.022087393 -0.02439185 -0.031203687 0.07899021 0.01122178 0.030378722 0.040091954
0.013114266 0.056822736 -0.08379725 0.009118763 -0.07699 0.024182316 -0.002811513 0.01402902
-0.015611704 0.01378239 -0.038541522 0.01330478 -0.023901412 -0.03532124 0.060488734 0.05525247
-0.026504423 0.01184309 -0.07567711 -0.04010977 0.04209143 -0.019479055 0.0997742 0.14019836
-0.072720654 -0.014983912 0.055978127 -0.0058480604 0.04524643 -0.019961579 -0.00021810351 0.04566269
0.08659959 0.025209675 0.020754246 -0.007644799 -0.031261593 0.032328375 0.09848766 -0.022524368
0.002443027 -0.025532959 0.025621863 0.11198757 0.058864374 0.062887155 0.11374709 0.056814816
-0.123762615 0.00029404552 -0.018240489 0.09498947 0.009143769 0.00038117293 0.043278918 0.04510771
0.005472203 0.023159113 -0.026537126 0.094708204 -0.060293857 -0.01965456 0.02042265 -0.030732946
-0.03637041 -0.05709188 0.009233188 -0.01254688 -0.021730449 -0.06320654 0.036667656 0.038810555
-0.08181378 0.04366425 -0.089031436 0.010382234 0.0013301008 -0.014588606 0.023869317 -0.027547758
0.023367459 -0.060465317 -0.022481486 -0.045281056 -0.024151463 -0.02031604 -0.0128128715 -0.07362278
-0.013539667 0.14669693 0.02280436 -0.007189708 -0.037713278 0.023066435 0.020576023 -0.025034098
-0.042101566 -0.00082993356 -0.017688213 0.03669601 0.044111237 0.09045924 -0.035004206 0.049432278
0.04864734 -0.06613684 0.019996367 0.025377817 0.041330744 -0.089560755 0.024956219 -0.024733534
-0.0906687 -0.0430965 0.042286493 0.07557048 0.007975544 -0.06256858 0.025788529 -0.028750798
0.0032376712 0.060541324 -0.0914882 -0.0144548975 -0.0220551 0.0065407455 0.0065045357 -0.034332246
-0.033810288 -0.058786325 0.019826857 -0.034270886 -0.050141133 -0.0044610733 -0.040536124 -0.051901944
-0.035585362 0.010866332 -0.0006441721 -0.014607765 -0.027449047 -0.053302012 -0.11699642 0.006773896
-0.09005012 0.03660626 -0.048918307 0.0054496797 -0.075123206 -0.028355349 0.029363189 -0.041572075
-0.07503607 0.008184402 -0.014256736 -0.04970099 -0.05408357 0.06954269 -0.014830477 0.061408002
-0.0059226276 0.048457105 0.030193405 0.0025048119 0.02159528 0.019778827 0.051317006 0.035326973

actor.6.bias f4 [12]
00000000: 8a11 7ebd 8091 903a 803d 373d f32b f73d
00000010: 3ece e0bd e452 83bd 86fd c2bd cf7c 253d
00000020: b4c3 c53d 08bf 503d 8ccb 443e 3232 453e
-0.062028445 0.001102969 0.044736385 0.120689295 -0.109768376 -0.064122945 -0.09521012 0.04040223
0.09656468 0.05096343 0.19218272 0.19257429
