logs/rsl_rl/unitree_go2_flat/2024-07-13_17-23-22/exported/policy.onnx (onnx, 163093 bytes, 8 tensors)

actor.0.weight f4 [128, 45]
000000 b0 16 21 3e 31 44 40 be 85 75 df be d4 be c6 be
       0.15731311 -0.18776013 -0.43644348 -0.38817465
000010 67 54 64 bf 35 ce 00 3d 6f f8 64 3e 81 00 8e 3d
       -0.8919129 0.031446654 0.22360395 0.0693369
000020 8b 45 55 3f 2a 22 50 3e 28 a2 10 bf 1d 9b 56 3e
       0.8330924 0.20325533 -0.5649743 0.20957609
000030 4e da 9a 3e 6d 25 03 be a5 49 18 bf 2d f1 2b bf
       0.30244678 -0.12807246 -0.5948737 -0.6716488
000040 bd 32 cc 3e 3a ea 28 be ef ef f1 bd 88 7c 02 3f
       0.3988246 -0.164956 -0.11813342 0.5097127
000050 6e 60 ac be ae 6d 24 3c fd c0 72 3d b1 bf 0e 3e
       -0.3366732 0.010035915 0.05926608 0.13940312
000060 1f 96 c0 bd e6 22 48 3d dc bb ab 3d a8 8b 7b 3c
       -0.09403633 0.048861407 0.08385441 0.015353121
000070 7d 4b 28 3d 33 fa 8f bd ac 6d 03 3d a7 f8 4c bd
       0.041087616 -0.070301436 0.032087013 -0.05004182
000080 dd 15 6e bd 55 15 11 3d 46 cf 9a 3d 20 83 aa 3c
       -0.05812632 0.035420734 0.075590655 0.020814478
000090 75 b2 d6 3d 44 63 95 3c c2 ce 45 bd 5f 23 f3 bc
       0.10483257 0.01823581 -0.048292883 -0.029679952
0000a0 95 99 28 be db bf 30 3e d8 2d 5f bc 99 07 50 3e
       -0.16464837 0.17260687 -0.01362177 0.20315398
0000b0 17 c5 01 3e 58 25 8d bd f4 35 04 3d 04 40 dd be
       0.1267284 -0.068918884 0.032278016 -0.43212903
0000c0 f4 8d b1 be 91 96 31 3f e1 ac 4a 3e 6e 67 9a 3d
       -0.34678614 0.6937037 0.1979251 0.07539259
0000d0 a0 6d 41 3e d5 47 a7 3e 70 b7 25 be 6c a6 2a 3f
       0.18889475 0.3267199 -0.16183257 0.6666019
0000e0 83 b7 9d 3e 32 18 68 be 60 d5 43 bf d4 fe ee 3d
       0.3080407 -0.2266548 -0.7649746 0.11669698
0000f0 2c 85 f8 be bd e1 5a be e5 12 34 be 01 70 83 3d
       -0.48539102 -0.21375175 -0.17585333 0.064178474
000100 e6 c1 b6 be 75 49 88 be 28 c5 e1 3d c8 5a 37 3d
       -0.35694808 -0.26618543 0.11023933 0.04476431
000110 9e eb 1e be fa 6c 93 bd ba c2 bf bd dd e4 2f be
       -0.15519568 -0.0719852 -0.09363313 -0.17177148
000120 ad aa 41 3d a5 6f ab 3b 12 de a6 bd b3 d9 75 3b
       0.04728191 0.005231815 -0.08147825 0.0037513792
000130 10 42 f6 bc 6b b4 1c bd 31 c2 b8 3d b8 1b dd bc
       -0.030060798 -0.038257997 0.09021414 -0.026990756
000140 95 08 19 3e 99 30 fa bb eb 93 44 3b 2d 51 9d 3d
       0.1494468 -0.007635188 0.0029995393 0.07681499
000150 60 15 8f 3b 6b a2 5a be e0 3f 34 bc 23 58 87 3e
       0.004366562 -0.2135102 -0.011001557 0.2643443
000160 f5 e1 36 be 25 af 22 bd b2 0b 27 3d 64 09 d8 be
       -0.17859633 -0.039717812 0.040782638 -0.42194664
000170 f6 45 7b bd 68 82 2b 3d 7b 45 bb be 52 34 6b bd
       -0.061346017 0.041872412 -0.36576447 -0.057422943
000180 84 d0 d4 bd f1 52 a9 3e 50 51 20 3f 4c a1 2c 3f
       -0.10391334 0.33071092 0.62624073 0.6743362
000190 ce ff d7 3d 09 10 98 3d 5b 87 23 3e 80 13 1a bd
       0.10546838 0.074249335 0.15969603 -0.037616253
0001a0 99 94 8d 3d db 5b 4a bd b0 a9 f8 3d ae 14 9f be
       0.069131084 -0.049404006 0.1214174 -0.31070465
0001b0 0b 93 b7 3e 99 a8 a0 3e 68 97 07 3e 88 db 17 bd
       0.35854372 0.3137863 0.1324135 -0.037074596
0001c0 be d2 64 bc 8d c1 93 bd c8 99 0e 3e f6 66 bf bd
       -0.0139662605 -0.07214651 0.1392585 -0.0934581
0001d0 4d 0e dd bd 17 3a 54 3d 21 46 21 bd d5 4b e8 3c
       -0.10793743 0.05181321 -0.03937352 0.028356472
0001e0 3c 43 ab 3d 06 9e 4f 3d 70 99 cc 3d 5c 3e 27 3e
       0.08362433 0.050687812 0.099902034 0.16332382
0001f0 95 f6 ab 3b 86 35 92 bd fc e4 96 3e 5b 89 10 3e
       0.0052479007 -0.07139115 0.29471576 0.14114897
000200 be 42 16 3e 6e bf 19 3e 55 85 6f 3e 4f b5 24 3c
       0.14673898 0.15014431 0.23390706 0.010052993
000210 bf 1d 11 3c 24 54 2c be c8 d5 8b bd 26 d7 0c be
       0.00885719 -0.16828972 -0.06827885 -0.13753948
000220 40 22 3b bd 34 cc f3 be 1c ed a0 be ff 83 9b be
       -0.04568696 -0.47616732 -0.314309 -0.30374143
000230 57 dd 6c be 37 54 c8 bd c6 55 fa bd f0 5c 5a 3e
       -0.2313131 -0.09781688 -0.12223391 0.21324515
000240 d6 8b 9e be a7 76 4b bf e8 0d 64 bd 00 70 b7 3d
       -0.3096606 -0.79477924 -0.055677325 0.08956909
000250 06 e0 61 3c c8 ed 22 3e 7c 66 e6 bd a1 5a 3e be
       0.0137863215 0.15911019 -0.11250016 -0.1858926
000260 7c 82 23 3f 9a 54 6c 3e cd 28 02 3f f9 39 a9 3c
       0.6387098 0.23079148 0.5084351 0.020657526
000270 c2 db 48 3c ac 0f 07 bd 5d 18 d8 bd 97 ff 4c bd
       0.012259426 -0.03297393 -0.10551522 -0.050048437
000280 9e bc 6d 3d ba 44 0e 3d 3b 77 88 bd df 62 f5 bc
       0.058041207 0.03473351 -0.066633664 -0.029954372
000290 09 0d 65 3d cf f9 36 3a 76 75 a0 bc 47 65 58 bd
       0.055920634 0.00069799734 -0.01958726 -0.05283096
0002a0 bb 39 14 be 20 4b 57 be ff 9b 1e bd e5 b6 46 3d
       -0.14475147 -0.21024752 -0.03872299 0.048514266
0002b0 d0 d0 06 3e 5f 59 e5 3b 4b d1 c0 bd 0d f5 e7 3d
       0.13165593 0.0069991793 -0.094149195 0.113260366
0002c0 7d 15 ad 3d ee 5c 08 3c 8b 2b f7 bd 2d c8 a6 bd
       0.08451364 0.008322937 -0.12068852 -0.08143649
0002d0 2b d3 45 bd e9 8e 76 be 9d 24 88 be ff 94 b6 3d
       -0.04829709 -0.24077953 -0.26590434 0.089151375
0002e0 91 61 a7 3e a9 ab 20 be d7 da f8 be c5 21 be bd
       0.32691625 -0.15690483 -0.48604462 -0.09283785
0002f0 ea f4 09 3f 83 3a e9 3e 34 d6 4c bf f3 39 94 3e
       0.53889334 0.45552453 -0.8001435 0.28950462
000300 7f d8 d1 be 5b 1e cc 3e 9d 92 de 3e 2d 97 c0 3c
       -0.40985486 0.3986691 0.43471232 0.023509586
000310 60 c8 dd 3e 79 8d d4 be dd 92 83 3e 96 dc 43 be
       0.43316936 -0.41514185 0.25697985 -0.19127116
000320 a6 db a0 bc 53 61 46 bd 32 f4 06 3e 7a 4b 95 bd
       -0.019635987 -0.04843266 0.1317909 -0.07289787
000330 9d 5b 89 3d 4f c6 ab bd f0 c8 c1 3b 7c 6c 8f bd
       0.06706927 -0.08387434 0.005913846 -0.070031136
000340 06 48 e5 3c 02 69 c3 bc 36 2b 49 bd fa 9c 33 3d
       0.027988445 -0.023853783 -0.049113475 0.043850876
000350 1d ea 83 bd 74 25 80 bb 4d bf 0b 3d 5b 92 ba bc
       -0.06441138 -0.0039107148 0.034117986 -0.022774866
000360 21 82 7a 3d bd 7f dd 3d d7 cb 66 be b4 89 4b be
       0.061159257 0.1081538 -0.22538696 -0.19876748
000370 26 ad 6a 3e bf 71 0a 3e bc 29 7f 3d 4e 30 f6 3d
       0.22917613 0.13519953 0.06229566 0.12020932
000380 54 1e 89 bd 12 20 93 be f0 1d 34 be ca ab 57 be
       -0.06695238 -0.28735405 -0.17589545 -0.21061626
000390 1c b5 2f be a3 9f a1 be 50 42 34 be db 87 e4 3c
       -0.17158931 -0.31567106 -0.17603421 0.027896812
0003a0 2d d9 12 3d e1 93 aa 3e 06 6f a3 be 68 cf 01 bf
       0.035851646 0.33315948 -0.31920642 -0.507071
0003b0 d5 78 4c bf 89 65 3a 3d 3c 71 0f bc bf 76 ad 3c
       -0.79871875 0.045506988 -0.0087550245 0.021174787
0003c0 b8 2d 42 be a9 da 3b be 38 2f b2 bd d3 6a b3 3e
       -0.18962753 -0.18345131 -0.087004125 0.35042438
0003d0 c5 ee cb 3e dd 30 7e 3e cf 7b 78 bd 42 63 1a bd
       0.39830604 0.24823327 -0.060664948 -0.037692316
0003e0 29 c3 a7 bc e3 0c e7 bd b6 7a a7 3d 80 a6 5a bd
       -0.020478802 -0.11281755 0.08177702 -0.053381443
0003f0 e1 4e fe 3c 77 df d0 3c 19 31 81 3d 08 ed 62 3a
       0.031043472 0.025497181 0.06308193 0.0008656536

actor.0.bias f4 [128]
000000 40 79 33 be bd 41 2f be 6c de 59 3c 3b d6 cc bd
       -0.17526722 -0.17114921 0.013297658 -0.10001799
000010 de 4e 6b bd 05 62 24 3d 77 8f cf 3c 9f 2a 84 bd
       -0.05744826 0.04013254 0.025336964 -0.06453442
000020 96 3c dc bd 34 8f bb be a9 39 92 bc af 8f 0c be
       -0.10753743 -0.36632693 -0.01784976 -0.13726686
000030 c0 07 54 3e 1a be c7 bd 2a ed e6 3d 98 50 10 bc
       0.20706081 -0.09753056 0.11275704 -0.008808278
000040 62 a1 bd be 5b 73 8f 3e d9 c0 b0 3c db a2 51 bd
       -0.37037188 0.28017697 0.021576332 -0.0511807
000050 18 d0 67 be 15 fa 38 3d 3e 30 96 be f1 68 8a 3c
       -0.22637975 0.04516037 -0.2933368 0.016895743
000060 bd 39 ce be bf 55 6b be a7 35 70 be 3b 93 15 be
       -0.40278426 -0.22981928 -0.23457967 -0.14606945
000070 1c cd 27 3d e4 dc 5e 3c 3b 3b 03 be 26 3f f3 bd
       0.040967092 0.013602469 -0.12815563 -0.11877279
000080 09 5d 37 be 65 2c 03 be 73 07 3d 3e 85 c7 37 3d
       -0.17906584 -0.12809904 0.18459873 0.04486801
000090 51 ca 98 be cf 4a ec bd a1 be 66 be 94 6d 91 bd
       -0.29841855 -0.11537706 -0.22533657 -0.071009785
0000a0 2a 83 47 bd 24 42 ba bd 2b 9d f6 3d 0b 44 26 bd
       -0.048709072 -0.090946466 0.12041696 -0.040592235
0000b0 17 0f 81 be 5f d9 df 3d b5 d2 68 3d c3 76 0e 3e
       -0.25206825 0.10930132 0.05684157 0.13912492
0000c0 30 3d 2b be 0e 6e 6c bd 33 b9 42 3c 09 3f d9 3d
       -0.1672256 -0.057722144 0.011884975 0.10607726
0000d0 b8 9d 9c bc 89 d7 40 bd b2 2f 63 be 47 67 61 3d
       -0.019118175 -0.04708055 -0.22186163 0.055030134
0000e0 58 b0 40 be b2 dc 74 3e d3 0d 9b bd 3e e5 9c be
       -0.1881727 0.23912314 -0.07570996 -0.30643648
0000f0 b4 e4 39 3d 36 d8 63 bd c7 98 ad be 09 e4 44 3e
       0.045384124 -0.055626117 -0.33905622 0.19227614
000100 e2 12 e4 3d 9f a7 23 3c 7a 1b 00 3e 05 88 d9 bd
       0.11136414 0.009988694 0.12510481 -0.10621647
000110 a2 ef 52 3c d7 cd c0 bd 25 20 9f be 67 cd bd 3d
       0.012874516 -0.09414261 -0.31079212 0.09267693
000120 23 c6 98 bd 2b a2 e3 bd 25 97 48 3d 8e b1 ef 3d
       -0.074596666 -0.111149155 0.048972268 0.11703788
000130 44 ec 76 bd 6e 85 c1 3d fd 1c 12 3d 7b e0 36 be
       -0.060283914 0.09449278 0.035672177 -0.1785907
000140 4e 53 14 3e 40 0a fc bd e2 22 f8 3d f4 6c a3 bd
       0.14484903 -0.123066425 0.12116028 -0.079797655
000150 c4 79 f2 bd 97 1f 08 be e9 b9 39 be a4 39 01 3d
       -0.11839631 -0.132933 -0.18137325 0.03154911
000160 9b 52 f2 3b 43 32 4f be 54 e5 d6 bd fe 1d c1 bd
       0.0073951012 -0.20234017 -0.104929596 -0.09429549
000170 01 bc a9 bd 38 86 e9 3d 0d ed 19 3e 77 bc 8f be
       -0.08287812 0.11402553 0.15031834 -0.28073475
000180 f1 81 9b bd 07 f0 90 bd 73 bf 33 be 87 79 bf bd
       -0.07593144 -0.070770316 -0.17553501 -0.093493514
000190 06 4a 88 3d bb d3 ac be cf df 0e 3e 41 53 f9 3d
       0.06654744 -0.33755288 0.13952564 0.121740825
0001a0 cb 21 12 3e 46 06 30 3c 20 46 f3 bd a8 b0 9b 3d
       0.14270703 0.010743683 -0.1187861 0.07602054
0001b0 46 86 9b bc d0 ee c9 be 98 a1 9c 3e 7b 68 71 be
       -0.018984925 -0.39440012 0.30592036 -0.23575012
0001c0 1a cb aa bd 91 53 8a bc 29 22 11 be 75 ef 5c be
       -0.0833952 -0.01688555 -0.14173187 -0.2157572
0001d0 ee f3 5e be 09 b3 ee 3c 5c 2a e0 bd ce b3 41 be
       -0.2177274 0.029138105 -0.109455794 -0.18916246
0001e0 bc ae 21 3c 13 a4 49 3e 6f 46 72 bd 45 89 54 be
       0.00986832 0.19691496 -0.059149202 -0.20755489
0001f0 12 7a c4 bd 78 22 53 3e 6b 1d 90 be f9 81 4b 3e
       -0.095935956 0.20618618 -0.28147444 0.198738

actor.2.weight f4 [128, 128]
000000 84 7b b5 bd 72 c6 f3 bd 39 86 b7 bc bb 83 be bd
       -0.08861449 -0.11903085 -0.02240287 -0.09302469
000010 d6 a5 5f 3c ee 00 26 3b b4 48 ff bd 5c 86 ca 3d
       0.013650378 0.0025330144 -0.12465039 0.09888908
000020 11 69 91 3d 9e 12 52 be a9 2b d2 bc 72 8a 49 be
       0.07100118 -0.20514914 -0.025655584 -0.19681719
000030 15 04 c1 bd 40 a2 cd 3c 1e eb 5b bc b4 5c c3 3d
       -0.09424607 0.02510178 -0.0134227555 0.09539166
000040 ad 5b d4 3d 69 92 f2 bd 02 0c 4a 3d a3 41 ff 3d
       0.10369048 -0.11844332 0.049327858 0.12463691
000050 3d 2f d8 3d f4 c6 88 3d 8e 89 1d be d9 20 2e bd
       0.10555885 0.06678572 -0.15384504 -0.042511795
000060 a1 6f d4 3d 96 85 22 3e c8 97 f7 3d 8d 3d c2 bc
       0.10372854 0.15871271 0.12089497 -0.02371099
000070 9c 56 d1 3d 76 22 1c be ce 90 1c be 5a d7 47 be
       0.102215976 -0.15247521 -0.15289614 -0.19515744
000080 aa 32 e3 bd ab 95 a5 bc 85 d2 87 3c 51 ce a7 bc
       -0.11093648 -0.020212969 0.016579876 -0.020484122
000090 ba 76 7b bc 69 03 be 3d 96 50 24 bd df 89 42 3c
       -0.015348131 0.09277994 -0.040115915 0.011873691
0000a0 24 86 66 3c c5 49 ba 3c d5 03 c7 bd f1 6b 8f bd
       0.014070068 0.022740254 -0.09717528 -0.0700301
0000b0 fe 8b a8 bd 90 a3 80 bd 42 b6 cb bc a2 76 38 bb
       -0.082298264 -0.06281197 -0.02486718 -0.0028146883
0000c0 3a 62 16 3e 05 75 ff 3d 09 89 46 be ca 29 c0 3c
       0.14685908 0.124734916 -0.19388212 0.023457427
0000d0 a9 9c c1 3d 9c 28 fa bd 45 c7 f3 3d 43 9f 6a 3c
       0.09453709 -0.12214777 0.11903242 0.0143201975
0000e0 ed 62 20 bd 35 01 45 be 57 5b 44 bc 0f b2 06 bc
       -0.039156843 -0.19238742 -0.011984668 -0.008221163
0000f0 ff 51 7d be c6 1b 26 3e 3e d4 8e 3d f2 6b 10 be
       -0.2473831 0.16221532 0.06974076 -0.14103678
000100 b8 19 0f 3d a0 82 35 3c fa ee e0 3d 43 4c 0d 3e
       0.034936637 0.011078507 0.10983081 0.13798623
000110 41 09 09 be 70 3e 0b bc cc a0 d3 3d 41 c7 17 bd
       -0.13382436 -0.008498773 0.10333404 -0.037055258
000120 e4 48 40 be 95 b7 c4 bd 12 5e 6a bd 3e 73 54 bd
       -0.18777806 -0.09605328 -0.05721862 -0.051867716
000130 cf f4 58 bd 2c 11 5e 3c 11 48 21 bd 8e 9f f7 bd
       -0.052967843 0.013553899 -0.03937537 -0.120909795
000140 c2 5e 9b 3b f8 20 84 bd d2 19 47 be 6e fd 7f bd
       0.0047415206 -0.06451601 -0.19443443 -0.06249755
000150 76 09 27 bd 4f df 54 39 f5 1d d1 3b c6 8c 58 be
       -0.040780507 0.00020301084 0.006381745 -0.21147451
000160 c6 b5 ec bd 49 db 4e 3d 3c 8a 6d bd d5 64 f0 bc
       -0.11558108 0.050502095 -0.05799316 -0.029344955
000170 48 16 0c bd 22 54 a1 bd 49 af 2e bd 77 56 ae bd
       -0.034200937 -0.07877375 -0.042647634 -0.085125856
000180 b7 51 f0 bd 15 b8 86 bd e9 c6 4b 3c 9b d0 1f 3e
       -0.11734336 -0.065780796 0.012437561 0.1560692
000190 80 a6 89 bc 2d b2 09 3a 6e 70 a0 bc b2 3d 57 be
       -0.016803026 0.00052526855 -0.01958486 -0.21019629
0001a0 c6 5e ed 3d 27 79 44 bc fd 8e e6 bd 74 a2 66 bd
       0.11590342 -0.011991776 -0.112577416 -0.05630727
0001b0 7b 42 93 be ad 54 92 3d 5d 99 41 3e d3 42 11 3e
       -0.28761658 0.07145057 0.1890616 0.14185648
0001c0 29 7a 03 3c 3f 30 46 3d df 13 3b bc 4f 7d 94 3d
       0.008024731 0.048385855 -0.011418312 0.07250463
0001d0 3a 74 b4 bd e2 b7 73 3d 38 6d cf 3d 2d 19 91 bd
       -0.08811231 0.059501536 0.10128254 -0.0708488
0001e0 d8 ce a6 bd 2d 35 6e be 2f fd 70 3d 74 d8 e7 3c
       -0.08144921 -0.23262472 0.058835205 0.028301455
0001f0 19 3f 3c 3d f3 09 7e 3c 55 9b 02 3d e8 09 fa 3d
       0.045958612 0.015505302 0.031886417 0.12208921
000200 ca 26 58 bc 8b 7d 08 3d e4 b0 ba 3d 73 c6 07 3e
       -0.013192842 0.033322852 0.091157705 0.13259296
000210 a1 90 57 3e b8 ae fa 3d c9 81 d6 bc 2d b6 71 3d
       0.21051265 0.12240356 -0.026184933 0.059011627
000220 9f 32 da bc c9 c4 91 3d 02 72 8e bd e8 f3 c1 3d
       -0.026635466 0.07117612 -0.06955339 0.094703496
000230 44 c3 2e 3d 3f b4 7b 3d 3b a2 82 3b 23 00 41 3d
       0.04266669 0.061451193 0.0039866245 0.04711927
000240 80 85 a7 3c 64 b6 d4 bd f9 57 64 bd 97 e5 9c 3c
       0.0204494 -0.10386351 -0.05574796 0.019152446
000250 25 02 8a 3d 32 ef 22 3d 21 7c e9 3b 83 13 bf 3d
       0.0673869 0.039778896 0.007125393 0.093298934
000260 07 36 6e 3c 71 80 60 3e 35 c4 0a bc 7b f2 75 3d
       0.014539248 0.21923997 -0.008469631 0.0600457
000270 6a 7e 34 be 69 1e 42 3c 31 42 16 3e 8e 81 2a 3d
       -0.17626348 0.011848071 0.14673688 0.04162746
000280 8f 14 6f bd 7b 79 0c 3e 54 b2 ca bd eb 23 cb 3b
       -0.058369216 0.13718216 -0.09897295 0.00619935
000290 ca 1b 89 3e e6 ec 6d be 4e b8 0f bd c4 0f ed 3d
       0.26779014 -0.23234901 -0.035087876 0.11575273
0002a0 f7 c5 90 bd d9 fb a3 3d f9 3a b1 bd ff 8d c0 bd
       -0.07069009 0.080070205 -0.08653826 -0.094020836
0002b0 44 03 3b 3e d5 16 15 bc 44 a6 24 3d 73 e1 83 3d
       0.18262964 -0.009099682 0.040197626 0.064394854
0002c0 a4 80 36 3e 3a d2 7b 3d 93 e4 0e be 68 25 38 be
       0.1782251 0.061479785 -0.13954382 -0.1798302
0002d0 28 e8 55 3c ee b1 07 3e b4 61 22 bd 9c 59 a5 bd
       0.013055839 0.13251469 -0.03964396 -0.08073732
0002e0 4c c0 92 bd 6a fd c0 3d f8 14 c8 bc 49 fd f5 3c
       -0.07165584 0.09423335 -0.024424061 0.030028002
0002f0 99 ee f5 bd 49 39 18 be c8 44 91 3d 7c 77 1b 3d
       -0.120083995 -0.14865603 0.07093197 0.037955746
000300 e1 e1 d1 3d aa 69 ce 3c a6 42 07 be 68 e9 56 bd
       0.10248161 0.025196869 -0.13209018 -0.052468687
000310 71 ef ad bb 50 45 81 3d d1 39 27 bd 4b e5 72 3c
       -0.0053080847 0.063120484 -0.040826622 0.0148251755
000320 23 d4 07 3e b2 9c c9 3c b2 7a 18 be bb 4d 7e bd
       0.13264517 0.024610851 -0.14890555 -0.06208585
000330 cf 31 a2 3b 17 ee 14 bd 5c 1e 80 bc 7c e8 70 bd
       0.0049497853 -0.036359873 -0.015639476 -0.058815464
000340 08 54 50 3d d1 20 80 bc c1 a7 20 3c 9b 68 35 3d
       0.05086139 -0.015640648 0.009805621 0.044289213
000350 8e 90 03 be af fb c0 3d 84 ab d5 3c f6 64 4d 3c
       -0.12848112 0.09423005 0.026082762 0.012536278
000360 c4 fc b5 3d 8a e8 1a 3d 57 e7 b1 3c af 4c d1 3b
       0.08886102 0.037819423 0.021716757 0.006387315
000370 9e 53 7a bd 11 b6 7c be 46 58 e8 bc 85 fd 1f 3e
       -0.0611149 -0.24678828 -0.028362405 0.15624054
000380 0f ab 54 bd 6e a1 1e be 94 95 14 bd dd 7e bd 3c
       -0.051920947 -0.15491268 -0.03627546 0.023131782
000390 2c 6c 43 3c dd b3 3c 3e 8f a1 da 3d 79 00 30 bd
       0.011927646 0.18427987 0.10675346 -0.0429692
0003a0 b8 29 91 3d 14 1e ad 3d 23 21 4f bd ec 1d ed 3c
       0.07088035 0.084530026 -0.05056871 0.028944932
0003b0 85 50 c8 bd 11 f8 34 bb c4 13 68 bb 1c 90 65 3e
       -0.09780983 -0.002761368 -0.0035412172 0.22418255
0003c0 be ee 0a be cb 9f 1a 3d 93 4a 52 3c a9 11 20 be
       -0.13567635 0.037750047 0.012835163 -0.15631737
0003d0 3e b0 21 3d b3 60 12 bc b5 01 97 3d 2c f9 fa 3d
       0.03947472 -0.008934188 0.073733725 0.12254557
0003e0 aa bc b1 3d 85 7f 1b be a9 b9 91 3d 6a df fc 3d
       0.08678563 -0.15185364 0.0711549 0.123473
0003f0 81 46 33 3d e5 e2 88 bc e6 1e 05 bd 30 f5 64 bd
       0.04376841 -0.016709754 -0.03250017 -0.05589789

actor.2.bias f4 [128]
000000 28 b4 04 be 53 32 c1 bd 8d 72 05 be 3c 1a 8f be
       -0.12959349 -0.09433427 -0.13031979 -0.27949703
000010 cb 97 29 bc b8 c5 08 be 69 e6 8f bb 08 c3 d6 bd
       -0.010351132 -0.13356674 -0.0043914807 -0.10486418
000020 3f ef 95 bc 32 7e b7 bd 3c 9a 21 3d 40 49 2a be
       -0.018302558 -0.08959617 0.03945373 -0.16629505
000030 16 08 c6 bd bc 19 94 bd 97 53 95 3d 6b 04 7c 3b
       -0.09669511 -0.07231471 0.07291334 0.0038454782
000040 8f 95 ab bd 78 84 f3 bc 03 d2 22 3d c5 98 bc bd
       -0.083781354 -0.029726252 0.039751064 -0.09208826
000050 f1 bd ca bd 73 87 41 3d 59 a2 32 3b bc 40 c7 3c
       -0.0989951 0.047248315 0.0027257411 0.02432286
000060 51 bc 7a bd d5 b2 0a be e2 1d 57 be a7 bd d5 bd
       -0.06121475 -0.13544782 -0.21007493 -0.10436564
000070 fe db 96 bd 58 0d 37 be 0b 7d da bd 0e 09 ae 3d
       -0.07366179 -0.17876184 -0.10668381 0.08497821
000080 38 e3 4a bd ad 1c 45 bd d2 8a b0 bc 64 fb d6 bd
       -0.0495331 -0.04812305 -0.02155057 -0.10497168
000090 16 a8 a0 3d af 57 2b bd b7 c2 4b be 62 d1 29 be
       0.0784456 -0.04183167 -0.19898497 -0.1658378
0000a0 1d e8 06 bc 47 c0 ab be 80 1a 2a be b9 e7 34 3d
       -0.008234051 -0.33545133 -0.16611671 0.0441663
0000b0 e7 e6 e9 3c fa 37 dd bd c5 1a 2f be af 27 26 be
       0.028552486 -0.10801692 -0.17100056 -0.16226076
0000c0 af d7 89 be 8d 9f b3 bd 26 4e 3f 3c 5c 98 31 3e
       -0.26922366 -0.08770666 0.011676347 0.17343277
0000d0 0e 50 f1 bb 49 58 ae bd 43 e2 bb 3d 09 a6 38 bd
       -0.0073642796 -0.08512933 0.091740154 -0.04508022
0000e0 8f d5 ed bc 89 31 6d 3c 45 8c a4 bd ea f0 a0 bd
       -0.029032497 0.014477142 -0.08034567 -0.07858451
0000f0 40 f6 be 3d 9b a6 df bd 4e 94 9e bd cf 48 3f be
       0.09324312 -0.10920449 -0.077431306 -0.18680118
000100 87 6e 2b be 3b e5 92 bd bd 26 23 be 05 b1 cf bd
       -0.16741382 -0.071726285 -0.15932746 -0.10141186
000110 ee 68 94 bb bf 3c 1d be 6e d6 9c 3d 15 61 0f be
       -0.00452911 -0.15355204 0.07658087 -0.14001878
000120 e6 dd bd 3c f5 dc 0f bd 36 05 94 3d 4f 88 b8 3d
       0.023177098 -0.03512283 0.072275564 0.09010374
000130 a8 8c e8 bd 55 18 35 3e ba bc b5 bd 66 af 12 be
       -0.11354953 0.17685063 -0.08873887 -0.14324722
000140 05 03 48 be b3 c5 32 bc 48 1e 1b be c3 79 6d 3d
       -0.19532402 -0.010911393 -0.1514827 0.05797745
000150 ac 18 13 be c7 cd b2 3c 54 95 18 be a0 cc 58 3d
       -0.1436488 0.021826638 -0.14900714 0.05292952
000160 91 b4 9b bd d4 34 eb ba 61 af 40 be e8 22 29 be
       -0.076028 -0.0017944821 -0.18816902 -0.16517222
000170 5f 49 27 be 75 cd e6 bd 3e d7 be bc a4 8b 39 be
       -0.16336583 -0.112696566 -0.023295995 -0.18119675
000180 39 b5 2a bd d6 78 ad bd 2b 69 10 bd 7c 73 27 be
       -0.041676734 -0.08470313 -0.035256546 -0.16352648
000190 f2 b7 7e 3d 5a f3 d6 bd 90 59 80 3c 67 84 ea bd
       0.062187143 -0.104956344 0.015667707 -0.11451035
0001a0 fc 72 3b bd 26 05 0a be 23 2f 96 be 91 2a 59 3c
       -0.045763955 -0.13478526 -0.29332837 0.0132547775
0001b0 c2 9f 20 be 67 6d 86 3d 19 62 2d 3d 18 92 3f 3d
       -0.15685943 0.065638356 0.04232988 0.046770185
0001c0 61 3c 5a 3d 75 ab bc bd 15 bc 76 be 50 40 28 3c
       0.053280238 -0.0921239 -0.24095185 0.01026924
0001d0 ca 89 b8 3d 3e f7 06 be dc bf 26 be af 1c 7b bd
       0.09010656 -0.13180253 -0.16284126 -0.06130665
0001e0 46 d6 0b be d4 75 f6 bd c3 22 8e 3c bd 45 1f bd
       -0.13655958 -0.12034193 0.01735056 -0.038884867
0001f0 f4 ed 23 be 1c c6 84 be ba 62 d0 bd 7b 1e 04 3c
       -0.1600874 -0.25932395 -0.101750806 0.008063908

actor.4.weight f4 [128, 128]
000000 5b 52 8d 3d 09 e0 1e bd 0e 81 51 3d e3 43 43 3d
       0.06900474 -0.038787875 0.051148467 0.047672164
000010 79 37 88 bc 17 f0 03 bd 71 5a 1e 3d 66 28 34 3d
       -0.016628014 -0.03221139 0.03866047 0.04398384
000020 d9 5d 0d 3b 57 80 c6 3c 9f fb e5 bd c4 72 0b be
       0.002157083 0.02423112 -0.112296335 -0.13617998
000030 90 a6 f2 bd be 7f 35 bc 85 0f 4a 3d 93 73 19 3c
       -0.118481755 -0.011077819 0.049331207 0.009365934
000040 76 8d 5e bd f5 2d 0c bd 50 bf d8 3b 9e 69 58 3d
       -0.054334126 -0.034223516 0.006614603 0.0528351
000050 0f 2d c9 bd 32 f4 fa bd ee 69 be bc fa 09 0d bd
       -0.09823047 -0.12253608 -0.02324387 -0.034433343
000060 82 5e 65 3d 63 77 4a bd 15 0f 2e 3d 55 57 e0 3c
       0.055998333 -0.049430262 0.042494852 0.027385393
000070 a1 65 a1 3c e3 4f 6f 3d 7a 5e 41 bc fe 83 3d bd
       0.01970178 0.058425795 -0.01180231 -0.046268456
000080 33 9c f9 3b f0 60 1c bd a7 d3 fb ba de b5 49 3d
       0.0076174974 -0.038178384 -0.0019212858 0.049245708
000090 59 fb 2f 3d 28 08 29 bd a1 6e e5 3d 0a 78 de 3d
       0.042964313 -0.041267544 0.112027414 0.108627394
0000a0 80 b7 7f bd c2 48 30 bc 00 b8 2b 3e 52 c2 61 3d
       -0.06243086 -0.010759534 0.16769409 0.05511696
0000b0 bb e4 12 3d 6d b9 fd 3d 36 d0 d5 3c fa e1 1a 3d
       0.035862666 0.12388883 0.02610026 0.037813164
0000c0 8a 79 6f 3d 9b d5 ef bd 9f 7e 84 3d 4e 82 24 3d
       0.058465518 -0.11710664 0.064694636 0.04016333
0000d0 db 18 43 3c c5 12 b3 bd 53 7f 40 bd 62 58 a6 3d
       0.0119077815 -0.087438144 -0.046996426 0.081223264
0000e0 dc 95 57 3d 9d f3 8c bd 69 47 1c bd 30 65 78 bd
       0.05263315 -0.06882403 -0.03815404 -0.060643375
0000f0 82 c6 53 bd 38 10 88 3d 10 9f 87 bc d1 19 89 bc
       -0.051702984 0.066437185 -0.01655534 -0.016735943
000100 6e c1 64 3d b6 29 84 3d 11 87 d2 3c ee ca 16 3d
       0.05584853 0.06453268 0.02569917 0.036814623
000110 8d 50 a3 3c c1 ad a3 bd 2c b0 53 3c 8f 23 a1 3d
       0.01993587 -0.07992125 0.012920421 0.078681104
000120 2e f9 b8 bc 0b c6 7e bd 51 0e 73 3b 5d 2d 31 bd
       -0.022579756 -0.062200587 0.003708739 -0.043256152
000130 47 0c 16 bd 21 85 00 bd 59 f7 d9 3d ad 4f 93 bd
       -0.036632802 -0.03137696 0.10642881 -0.07192931
000140 5d 94 2d 3c 4b 60 56 bc 86 81 2c bd 9b 92 39 3d
       0.010594455 -0.0130844815 -0.04211571 0.04530583
000150 fa 24 b2 bd 90 71 99 3d 75 aa 15 bd 2f 38 69 bd
       -0.08698459 0.074923635 -0.036539514 -0.056938346
000160 16 24 bc 3c 11 42 49 3d 45 a4 0b bd fb a1 e2 bc
       0.022966426 0.04913527 -0.034092207 -0.027665129
000170 49 bf 26 be 8e 25 e3 bb b9 8b ce bd 7f dd fc bb
       -0.16283907 -0.006931967 -0.10085244 -0.007716834
000180 39 af 67 bb 5e 27 99 3c ea d6 f3 bc 49 f5 ae 3b
       -0.0035352244 0.01869553 -0.029765565 0.005339299
000190 b9 96 b8 3c dd c9 82 3d cc 1b df 3d 9c bc 54 bd
       0.022532808 0.063861586 0.10893974 -0.051937684
0001a0 13 43 8f 3d 5a 39 22 3d 66 4f 9b 3d de 24 bd 3d
       0.06995215 0.039605476 0.075835034 0.092355475
0001b0 a5 52 8e bc 7b 15 97 3c 07 80 06 bd d6 df 1b 3d
       -0.017373392 0.01844286 -0.03283694 0.038055263
0001c0 cd dd 6a bd f5 07 8d bd 7e 88 a0 38 86 06 37 bd
       -0.057340432 -0.06886283 7.654818e-05 -0.044683956
0001d0 12 b6 dd 3d 2f 6d 42 3d a1 6b 80 bd d9 83 b9 bc
       0.10825743 0.047467407 -0.062705286 -0.022645878
0001e0 7a bc c8 3d 7f 3d aa 3d fd 58 b5 3c 08 96 c0 3c
       0.09801574 0.08312511 0.02213716 0.02350904
0001f0 1f 7b 0d bd 3e b2 d6 3b 0e eb 56 3d 38 a1 ee bc
       -0.034541246 0.00655201 0.05247026 -0.02912961
000200 0a 74 4d 3d 51 66 52 bd c2 fe b2 3d c8 df 4f 3c
       0.05015949 -0.051367108 0.087399974 0.012687631
000210 35 78 2a 3e 00 23 99 3d 2a 04 c6 3c 5b 27 2c be
       0.16647418 0.07477379 0.024171907 -0.16811888
000220 7e d3 5d be 91 b3 b5 3d f0 68 ef 3c 03 5c 61 3e
       -0.21662709 0.0887214 0.029224843 0.22007756
000230 0f 7d 50 3d c8 97 08 3d 6f 32 63 3c 2b 88 59 3d
       0.050900515 0.033347875 0.013867005 0.053108376
000240 10 5e 6c bd a2 66 1d 3e a8 e7 bc bd 36 01 53 bd
       -0.057706892 0.15371183 -0.092238724 -0.051514827
000250 ec e4 e6 bd 50 10 d9 3d 0c f6 fd 3c 8d ef fe 3b
       -0.11274132 0.105988145 0.031001113 0.0077800215
000260 cd 71 cc 3d dd 90 b6 3d 72 66 0f 3e b3 6e 8f bc
       0.09982643 0.08914349 0.14003924 -0.01750884
000270 9d f0 a3 3d 76 a9 fa bd 10 20 2b 3e f3 c5 5b bd
       0.08004878 -0.12239353 0.1671145 -0.053655576
000280 64 93 1d 3c ba 15 1f bd 83 56 c6 3d fb 77 e8 3b
       0.00961766 -0.03883908 0.096844696 0.007094381
000290 53 17 0a 3e 3d e5 25 bc ed 91 94 38 fa 6b 84 bb
       0.1348546 -0.010125455 7.084371e-05 -0.004041192
0002a0 8c c0 c4 bd d2 ac 12 3d 4a d9 08 3e 25 4c 2f 3e
       -0.09607038 0.035809346 0.13364139 0.1711889
0002b0 b7 2a 86 bc 00 0a 55 bc 82 c6 e1 3d 6c 02 a4 bd
       -0.01637779 -0.0130028725 0.110241905 -0.080082744
0002c0 3c 69 98 bd 80 32 8a bc d2 67 ac bc 0a 46 35 be
       -0.07441947 -0.016869783 -0.0210456 -0.17702499
0002d0 a7 2a 08 be fb 48 a8 bd 26 1a 2c bb 1c 8b 27 3c
       -0.1329752 -0.08217045 -0.0026260703 0.010226037
0002e0 12 dc 0f bc da dd 61 3d 54 01 3d 3d d4 64 ea 3d
       -0.008780496 0.055143215 0.046143845 0.11445013
0002f0 3b 7a b8 3d d5 0b 83 bd 9f 72 25 be 59 d6 9e bc
       0.090076886 -0.06398741 -0.16157006 -0.019389318
000300 46 90 6a 3d 20 b6 28 3c 2a 4f 01 3e 8b 00 01 3d
       0.057266496 0.010297328 0.12627855 0.03149466
000310 a1 16 44 bd 1b 3e 2c 3e 9a d7 93 bb ad ab 95 3d
       -0.047873143 0.16820566 -0.0045117857 0.07308135
000320 37 c5 af bd 2a 0b 89 3d f0 ec 13 3c 9f 10 98 bd
       -0.085825376 0.066915825 0.009028658 -0.07425045
000330 eb ba 59 3e 78 60 05 3e e2 ea 0b 3c 88 69 f9 b9
       0.2126271 0.13025081 0.008539887 -0.00047571608
000340 01 60 19 3d b9 cb 44 bd 95 1a 0e bd 4b a4 98 bd
       0.037445072 -0.048045848 -0.03469332 -0.074532114
000350 90 66 e2 bc 1d a7 e3 bc da f2 6f bd bf bb 44 bd
       -0.027636796 -0.027789647 -0.05858121 -0.04803061
000360 41 d4 86 bd 3e 11 4a be 56 50 4c ba ef ea bc 3d
       -0.06583453 -0.1973314 -0.00077939534 0.092244975
000370 27 99 d3 3d 9b 82 be 3d 59 23 18 bd 7a c7 c5 bc
       0.10331946 0.09302255 -0.037143085 -0.02414297
000380 66 33 b1 3d 25 eb 19 bd b1 d3 c3 bc 87 b1 aa 3d
       0.086523816 -0.037577767 -0.023904653 0.08334642
000390 42 70 a2 3d 77 b3 d8 bd 0a 9f 69 3b a2 e6 ac 3d
       0.07931568 -0.10581105 0.0035647773 0.08442427
0003a0 37 d0 2a bc f6 24 32 bc 28 0e 27 3d 33 6c 52 3d
       -0.010425619 -0.01087307 0.040784985 0.051372718
0003b0 aa b3 c1 3d 86 ed 93 3d 38 22 ee 3d 97 ef 17 be
       0.09458096 0.072230384 0.116276205 -0.1483749
0003c0 bb f7 97 bd 84 b2 a0 bd 84 59 59 3d 90 a5 44 bd
       -0.07420298 -0.07846549 0.053063884 -0.048009455
0003d0 25 72 1b bd 5b 46 bb bc 41 33 c6 3d a8 e8 3c 3d
       -0.037950654 -0.022860697 0.09677745 0.046120316
0003e0 6e 27 3e 3c b1 99 22 3d 28 3c 09 3e 5e 6b ec bd
       0.01160608 0.039697353 0.13401854 -0.11543916
0003f0 a6 db 44 3e de ea 86 3c 0e 3a 17 bd 6e 49 07 be
       0.19224414 0.016469415 -0.0369206 -0.13211605

actor.4.bias f4 [128]
000000 40 80 63 bd 6c 90 25 bd 63 ba 0a be 90 e4 8a be
       -0.05554223 -0.040420935 -0.13547663 -0.27127504
000010 b0 1d 83 3d 73 f3 d0 bd 35 50 4b be 24 6d a0 bd
       0.06402147 -0.10202684 -0.19854815 -0.07833317
000020 99 89 0d bd d3 02 27 39 50 a3 77 3c f6 c6 e7 3c
       -0.03455505 0.00015927413 0.01511462 0.028293114
000030 45 c1 eb 3c bd d6 c9 bd d8 c2 1a be 00 7c d6 bd
       0.028778682 -0.09855411 -0.1511339 -0.1047287
000040 90 43 c4 bd 32 da c2 bd ec f4 bf 3c ef a9 3a bd
       -0.09583199 -0.09514274 0.023432218 -0.045572218
000050 85 ad 3e bd 26 3b 6f bd f0 fa 7f bd 91 12 bf bd
       -0.0465522 -0.058406018 -0.062495172 -0.09329713
000060 be 90 cb bd d3 ee d6 bc b1 24 66 3c ad 10 c2 bd
       -0.09939717 -0.026236927 0.014046834 -0.09475837
000070 b9 97 31 be 8a d4 79 bd 45 18 24 be 48 0f 49 bd
       -0.17343034 -0.06099371 -0.16024883 -0.04908684
000080 ea 0f 19 be e6 59 3b bd e9 5d 20 be c3 28 bf bd
       -0.14947477 -0.04574003 -0.15660824 -0.093339466
000090 04 0a a8 bd 77 0e 2f be da e0 89 bd 09 ca c4 bd
       -0.08205035 -0.17095362 -0.0673234 -0.09608848
0000a0 d6 05 1e bd a2 b0 bf bd 29 6d 30 bd 09 3f 26 be
       -0.038579784 -0.09359862 -0.043072853 -0.16234984
0000b0 52 16 b2 3c ed 67 06 be 9f c2 d3 3c fe 9f 31 be
       0.021739159 -0.13125582 0.025849639 -0.17346188
0000c0 2f 6b 77 be 32 51 23 be 2e 28 c5 bd 3a bd 8d bd
       -0.24161981 -0.15948942 -0.09626804 -0.06920858
0000d0 d1 7a 00 be c4 7a ee bd 90 8d 4c bd 4f 6b d3 bd
       -0.1254685 -0.116445094 -0.049939692 -0.10323202
0000e0 09 56 3d bd f6 a2 d3 bd 50 7e cd bd 3d d8 32 3d
       -0.046224628 -0.10333817 -0.10033858 0.043663252
0000f0 86 b5 d9 bd 0e 1d b9 bd 2d d0 56 be 88 91 ae 3c
       -0.10630326 -0.09038745 -0.2097785 0.02130963
000100 d2 db 28 be 06 6f 75 3d 87 97 4f bc 7d 09 f3 bd
       -0.16490105 0.059920333 -0.012670404 -0.11867044
000110 fa c9 7d 3d 7c e7 14 be b5 87 d2 bc 35 54 6a be
       0.061960198 -0.1454143 -0.025699476 -0.22883685
000120 31 75 13 bd c8 e0 9e bd 7c 16 3a be aa 81 a7 bd
       -0.036000434 -0.07757717 -0.1817264 -0.08179028
000130 4f de a0 3d 08 4b c6 bc ce 0a ba 3d 8f 11 d4 3b
       0.07854902 -0.0242057 0.09084092 0.0064718197
000140 b2 66 e5 bd 4d 56 9d 3d cd 43 39 be 61 89 15 bd
       -0.11201228 0.07682476 -0.1809227 -0.036507968
000150 11 a9 95 bd 7b 97 a0 bd f1 50 55 bd 47 d8 10 be
       -0.073076375 -0.078413926 -0.052079145 -0.14145003
000160 98 a3 42 be bb c5 d6 bd 59 f0 90 bd 01 39 15 3d
       -0.19007719 -0.10486933 -0.07077093 0.036431316
000170 c1 01 c6 bd 69 cf a8 3d 22 04 ad bc 22 69 70 bb
       -0.09668303 0.08242685 -0.021120135 -0.0036683758
000180 df 90 ae 3d 92 ec e2 bd 39 d3 11 be b9 94 b5 bd
       0.08523726 -0.110802785 -0.14240731 -0.08866257
000190 77 ad 0c be 36 5d 88 3c cf 09 0b be b1 5a 9e bd
       -0.13738047 0.016646009 -0.1357796 -0.07732142
0001a0 a9 2d 3f be b5 b5 9e bd aa 9a c7 3d 41 02 7f bd
       -0.18669762 -0.077495016 0.09746297 -0.06225801
0001b0 a0 f7 94 3d b1 51 b5 bc e5 a7 3c 3d 5b cd c5 3c
       0.07273793 -0.02213368 0.046058554 0.024145773
0001c0 a3 a3 bf 3d 9f 78 60 bc b1 ad 87 3d 9a 46 35 3d
       0.09357383 -0.013700633 0.06624926 0.044256784
0001d0 a7 38 7f be e7 85 8f 3d 51 31 34 3c 48 6a bb 3d
       -0.24923955 0.07007962 0.010998086 0.09151131
0001e0 06 95 f3 bd 26 7b 8c 3d c4 c8 65 be fb f9 8e bd
       -0.11893658 0.06859426 -0.22439867 -0.06981274
0001f0 50 5c b2 bd c2 ef 93 bd 91 1f 95 bd 39 21 84 bd
       -0.087090135 -0.072234645 -0.072814114 -0.06451649

actor.6.weight f4 [12, 128]
000000 cf c4 81 bc 48 fb 8c 3d b9 bf 87 bd 8c a3 12 3e
       -0.015840916 0.068838656 -0.06628365 0.143202
000010 bd 68 05 bd 59 bb c9 bd 40 35 cb 3d 45 3d 62 3b
       -0.03257059 -0.09850187 0.09922266 0.0034521383
000020 af 01 db bc 6d c0 e6 bb 2c b1 21 bb 9e 7c 39 bc
       -0.026734201 -0.007041982 -0.0024672253 -0.011321215
000030 7d ac 23 bc f7 78 54 bd e2 fe 9b 3c 76 46 6c 3d
       -0.009989855 -0.051873174 0.019042436 0.057684384
000040 47 2a 15 bd 04 08 20 bd b3 86 f8 bb 57 a0 20 bc
       -0.036417272 -0.039070144 -0.007584417 -0.009803853
000050 10 2b 32 bc 4a 49 99 3c 4f ff de 3c e4 d2 74 3c
       -0.010874525 0.018711705 0.02722135 0.014942858
000060 22 cb 09 be a9 fe 28 3c 1f a6 9a bc b9 24 32 bd
       -0.13456395 0.010314622 -0.01887804 -0.043492053
000070 72 e0 e5 bb ba f3 1d 3d 94 22 48 3d db 89 c3 3c
       -0.0070152814 0.038562514 0.0488611 0.023869446
000080 73 2a e0 bc 1e a9 ae 3d bf d1 38 3c b4 82 36 3c
       -0.027363991 0.0852835 0.011280476 0.0111395605
000090 11 a3 0a bd 5c 2f 0d bc c4 40 1f bc 0e ae 75 3d
       -0.03384692 -0.008617248 -0.009720031 0.059980445
0000a0 e2 00 fa bb 7e 84 04 3d 47 1e d7 3d ce 20 7c 3d
       -0.0076295 0.032352917 0.10503822 0.061554722
0000b0 bb 58 e3 3c 49 5f 2b 3d 3c c1 d4 3c 4d 0a a0 bc
       0.02775227 0.041838918 0.025971048 -0.019536162
0000c0 09 41 32 3b 0d 6f d8 3c 1a c5 87 3c 03 a1 68 bc
       0.0027199409 0.02642014 0.016573478 -0.014198544
0000d0 2d d0 65 3c 76 96 f9 bc 28 7a b5 3d 47 f1 0b 3c
       0.014026684 -0.030467253 0.0886119 0.008541412
0000e0 2d 9d 3a bb 1e e2 c8 bc 9b 54 01 3d 29 a3 c9 bb
       -0.0028475032 -0.024521884 0.031574827 -0.0061534834
0000f0 18 c8 7e bc fd 33 16 3d e8 8c 07 bd 83 0c b0 bc
       -0.015550636 0.036670674 -0.033093363 -0.021490341
000100 fb f0 3a 3d f3 f2 1d bc 60 7f 44 3a 0c 74 93 bc
       0.045639973 -0.009640443 0.0007495787 -0.017999671
000110 9c 82 5f bc 56 ba 03 bd 23 e4 a7 3a 9c f4 f6 ba
       -0.01364198 -0.032160126 0.0012809079 -0.001884121
000120 4e 29 d5 37 83 32 3d bc b8 0f 47 3c c3 65 8b 3c
       2.5410813e-05 -0.011547687 0.012149744 0.017016297
000130 83 bf a2 3a a9 71 f7 ba 0e 54 a5 3b cd 43 03 bd
       0.0012416694 -0.0018878478 0.0050454205 -0.03204708
000140 b0 bc ce 3c 05 03 e7 bc 20 b9 4d 3d 70 18 8b bc
       0.025236458 -0.028199682 0.050225377 -0.016979426
000150 8c 9b 29 3d 25 b1 c6 bc c9 a0 db bc 0b db fb bc
       0.041408107 -0.024254391 -0.026810067 -0.030744096
000160 20 4a c3 bd 46 ec a3 3d 7c 9f 01 bd f1 22 70 3d
       -0.095356226 0.0800405 -0.031646237 0.058627073
000170 97 f5 c8 bc 95 d0 df 3c 82 db a9 3b 8d d9 82 bd
       -0.024531169 0.02732114 0.005183638 -0.06389151
000180 89 42 b7 bc 6e f6 01 3d 02 ff 70 3c 89 75 3a 3c
       -0.022370594 0.031729154 0.014709236 0.011380562
000190 6e e1 e2 3c d8 c9 28 bd c8 1f 00 3d ca 96 b3 bc
       0.027695384 -0.04120812 0.03128031 -0.021922488
0001a0 06 0d 3a bc 0d 8d e7 3b 3c 45 b2 3b 73 a5 96 3c
       -0.011355644 0.007066375 0.0054403823 0.01838944
0001b0 00 c7 6f bc 6e c0 1a 3d 84 cc 05 3c 1c 6b de 3c
       -0.014634848 0.03778117 0.008166436 0.027150683
0001c0 de 65 35 bb d3 12 bc bc 77 90 57 3d 46 af 96 3b
       -0.0027679126 -0.022958195 0.052628007 0.004598531
0001d0 ce 10 1b bd fe a8 fc 3c d0 5a 00 3d 66 31 05 bd
       -0.037857823 0.0308423 0.031336606 -0.032517813
0001e0 86 56 cb bd 92 03 54 bc 51 e7 ec bd ad 34 35 3c
       -0.099286124 -0.012940304 -0.115675576 0.011059922
0001f0 ec 78 22 bd e1 14 b7 bc 24 d2 49 3b 15 fe fa ba
       -0.0396661 -0.022348823 0.003079542 -0.0019149209
000200 08 79 9c bb 63 81 d2 bc 3e a2 5f bd 9f dd 3e bd
       -0.0047751702 -0.025696462 -0.054598086 -0.046598073
000210 fc 9a 2c 3d 25 cb 92 3d c5 75 84 bb dc 59 7b bd
       0.042139992 0.07167653 -0.0040423595 -0.061364993
000220 a6 a3 7f bd d4 5c aa bc ea 9f 5b 3d b4 71 aa 3b
       -0.062411927 -0.020796217 0.053619303 0.0052015428
000230 33 a3 dd bc b0 6d a7 3c 01 0c 18 3c d3 4f 0f be
       -0.027055359 0.020438045 0.009280206 -0.13995294
000240 29 cc 2f 3b 77 4e 8e bd d1 bf 5e 3b 20 54 b6 bc
       0.002682457 -0.0694856 0.0033988843 -0.02225691
000250 70 6e 1b 3d b4 82 0c bc 9c 43 20 bc 2b 0d 80 bd
       0.03794712 -0.008576084 -0.009781744 -0.062525116
000260 c5 04 f6 bc d5 33 0c b8 6b 00 6d bc 6f cd 52 bd
       -0.030031571 -3.3426873e-05 -0.014465432 -0.051465448
000270 42 9d 09 3d 43 b4 4f bc 3c 07 8c 3d b8 90 f2 bb
       0.03359724 -0.012677255 0.06837317 -0.0074025057
000280 3d 7a 43 3d 7f 71 c0 3d 22 71 29 bd 25 78 01 bd
       0.047723997 0.09396648 -0.041367657 -0.03160872
000290 2f 89 12 3c 30 57 bd 3c 29 cd 19 3d f7 2d 60 3c
       0.00894384 0.023112863 0.03754917 0.013682834
0002a0 58 cd fc 3b 61 97 da 3c 87 7e 9b bc ee 9f 50 3c
       0.0077149086 0.026683511 -0.018981231 0.012733443
0002b0 fc ed b0 3c a9 a7 1b 3d 5a b5 01 bb 0f 57 42 bc
       0.021597855 0.03800169 -0.0019791932 -0.011861577
0002c0 f3 85 b1 3c 88 86 fb 3c c8 2c 26 bb a1 20 e1 3c
       0.021670317 0.030703798 -0.0025356282 0.027481379
0002d0 37 ea 84 bc 93 4b e7 3c ed 4b 81 bd c0 b0 8e 3c
       -0.016224964 0.028234279 -0.0631331 0.017418265
0002e0 ea 58 c9 3c 4d 41 be 3c bc 5c 25 bd 95 60 a6 3c
       0.02457853 0.023224497 -0.04037164 0.020309726
0002f0 d4 9c 12 bd 0e 6f b8 3c 65 04 60 bd 6e 90 9f bd
       -0.035794094 0.022513893 -0.05469169 -0.0779122
000300 39 fb 9b bc 11 99 15 bc cb 62 c4 bc c3 b9 70 bc
       -0.01904069 -0.009130732 -0.02397289 -0.014692727
000310 d0 9c 22 3d ca 0a 02 bd e8 96 a4 bc 28 bc 6a bc
       0.03970033 -0.03174857 -0.020091489 -0.0143270865
000320 a0 d7 f0 bc 61 6d 0d 3d cb a8 60 3c 7e 8c bc 3c
       -0.029399693 0.03452814 0.013712118 0.02301621
000330 7d e6 38 bc d7 dc b6 bb ab 21 2a 3b d7 6b a8 3a
       -0.011285421 -0.0055805254 0.002596001 0.0012849522
000340 6c 11 a4 3c 33 03 81 ba 15 cf 30 bc 4d 39 9b b7
       0.020027839 -0.0009842872 -0.01079156 -1.8504123e-05
000350 1a b8 13 bc 93 40 a8 3c f0 b5 2c 3d 78 b3 5e bd
       -0.009016061 0.020538604 0.042165697 -0.054370373
000360 06 dd f5 bc 00 f4 d1 3c 94 a8 08 bd 32 66 6d ba
       -0.030012619 0.025629044 -0.033363894 -0.0009056061
000370 be 73 36 bd 07 a6 38 3d 94 e1 49 bc f1 39 9b bc
       -0.044543974 0.04508021 -0.012321848 -0.018948527
000380 43 83 b6 3c 41 e8 08 3d 18 db 0a bc 50 2e 22 3d
       0.022279387 0.03342462 -0.008475088 0.03959495
000390 a5 1d d2 bb a8 8a d9 bc 9f 37 a5 3d 3d 63 80 bc
       -0.0064122253 -0.026555374 0.080672495 -0.01567232
0003a0 c2 82 4c 3c e1 07 88 bc ec 89 6a 3b bd 24 01 bd
       0.012482347 -0.01660532 0.0035787774 -0.031529177
0003b0 67 70 d6 bc 76 64 b9 3b 9a 22 f5 bb d7 68 41 bc
       -0.026176644 0.005657728 -0.0074809315 -0.011804781
0003c0 bd 08 77 3c db 68 3e 3c 08 3e ae bc 20 ae b9 3c
       0.015077767 0.011621679 -0.021269813 0.022666037
0003d0 00 71 07 bd 78 90 cb bc 9c 98 c2 3b c6 fb cb 3c
       -0.03306675 -0.024849162 0.0059386026 0.024900328
0003e0 9b b5 cf bd 69 4c cb 3c 89 d8 80 3b e3 8a c6 bb
       -0.1014206 0.024816709 0.003932063 -0.006059037
0003f0 0d aa 4d 3c 42 af be bc a4 78 d9 bc 9e 16 a9 3b
       0.01255275 -0.023276929 -0.026546784 0.005160167

actor.6.bias f4 [12]
000000 da 1e 21 be 8c 0a 68 3c cd 50 98 bd d8 e5 00 3d
       -0.15734425 0.014162671 -0.074372865 0.031469196
000010 79 96 98 3d 22 f6 22 be bd 48 c6 bd ac 8e 1a ba
       0.074505754 -0.15914205 -0.096818425 -0.00058958936
000020 37 80 4f 3e df 48 25 3d 89 57 c6 3c dc a7 48 3d
       0.20263754 0.0403527 0.024211662 0.04898821
