logs/rsl_rl/unitree_go2_flat/2024-07-13_18-10-14/exported/policy.onnx (onnx, 163093 bytes, 8 tensors)

actor.0.weight f4 [128, 45]
0	0xbd1cba92	-0.038263865
1	0xbee2c6c1	-0.44292262
2	0x3f6c625e	0.92337596
3	0x3e7d3eed	0.24731036
4	0x3ecddac8	0.4020598
5	0x3e64e50c	0.22353
6	0x3da1b9a2	0.07896735
7	0x3e33a3a5	0.17542894
8	0xbf1af8e2	-0.60536015
9	0xbee10ce6	-0.43955153
10	0x3f1e3f9f	0.6181583
11	0xbf0b0ec4	-0.54319406
12	0x3e727bba	0.2368001
13	0x3ef97e88	0.48729348
14	0xbf47bb11	-0.78019816
15	0x3f236e49	0.63840157
16	0xbf8c3197	-1.0952634
17	0x3f097451	0.5369311
18	0xbdf43231	-0.11923636
19	0xbdce0dd9	-0.10061235
20	0x3b1b5f41	0.0023707899
21	0xbc9e141e	-0.019296702
22	0xbc837645	-0.016047606
23	0xbd851148	-0.06497437
24	0xbd8ae51c	-0.067819804
25	0x3d632aa9	0.055460606
26	0x3d57fd61	0.052731875
27	0xbbeeaab5	-0.0072835335
28	0xbc9d1867	-0.019176675
29	0xbd45cd6c	-0.04829161
30	0x3c84c886	0.016208898
31	0x3cb013b7	0.021493776
32	0xbace3497	-0.0015732226
33	0xbdffd9fd	-0.1249275
34	0xbd4ef53b	-0.05052684
35	0xbdf6793c	-0.12034842
36	0xbdc48e2d	-0.095974304
37	0xbd3bc042	-0.04583765
38	0xbd907e78	-0.07055372
39	0xbd08c28e	-0.033388667
40	0xbb75d12c	-0.003750871
41	0x3e7412f7	0.2383536
42	0xbe998bba	-0.29989415
43	0xbb627f87	-0.0034560876
44	0xbdfc5a3e	-0.123219
45	0x3d82b883	0.06382849
46	0xbea5ed41	-0.32407573
47	0x3f6a4cf9	0.915237
48	0xbe8603f0	-0.2617488
49	0x3f14bd32	0.5810119
50	0xbd9a69e7	-0.075397305
51	0xbc2f5c5f	-0.010703175
52	0xbe440a26	-0.19144496
53	0xbfa5f266	-1.2964599
54	0x3f04ab86	0.51824224
55	0x3ec5c234	0.38624728
56	0xbee3fcea	-0.44528896
57	0xbee9fa54	-0.45698798
58	0x3e0dcc95	0.13847573
59	0xbcc46f4f	-0.023978857
60	0x3f1e8f9b	0.61937875
61	0xbf5a400d	-0.85253984
62	0xbc8bd516	-0.01706938
63	0xbe86aa80	-0.26301956
64	0xbe8aafd1	-0.27087262
65	0x3ee93077	0.45544788
66	0x3c86f30f	0.016473321
67	0xbd468a00	-0.04847145
68	0x3d8ebfd3	0.06970181
69	0xbcbfed7b	-0.02342867
70	0xbdd2f141	-0.10299922
71	0x3c4080e0	0.011749476
72	0x3c37f8a1	0.011228711
73	0x3bcd29b6	0.006261076
74	0xbcf759ba	-0.030194152
75	0xbc16876b	-0.00918756
76	0x3b26b81b	0.0025439325
77	0x3c3a8d10	0.011386171
78	0xbe322f33	-0.17400818
79	0xbe0d05f8	-0.13771808
80	0x3e6c79bb	0.23093311
81	0x3e4d5a70	0.2005403
82	0xbe383f5b	-0.17992918
83	0x3e28dead	0.16491194
84	0x3da3713c	0.07980582
85	0x3bfaaba5	0.007649856
86	0x3e25b1b7	0.16181074
87	0x3b3ac400	0.0028498173
88	0x3e1e2596	0.15444025
89	0x3df691de	0.12039541
90	0xbc9f8aab	-0.019475302
91	0x3e218b9a	0.1577591
92	0xbe91d91b	-0.2848595
93	0xbe7affdb	-0.24511664
94	0x3e87e6df	0.26543328
95	0x3ea67e43	0.32518205
96	0x3f301ff5	0.6879876
97	0xbf2d4239	-0.6767917
98	0x3eda5e20	0.42649937
99	0x3dc1dbc1	0.09465743
100	0xba70bfb1	-0.00091838377
101	0xbeba9f47	-0.36449644
102	0x3f238e56	0.6388906
103	0xbd84e711	-0.06489385
104	0x3e890391	0.26760533
105	0xbe8712e6	-0.26381606
106	0x3eac5efc	0.33666217
107	0x3ee2030e	0.44142956
108	0x3f113ce8	0.5673356
109	0xbe4ad427	-0.19807492
110	0xbd0e94e1	-0.03480995
111	0xbe1993c5	-0.14997776
112	0xbdd457fc	-0.10368344
113	0x3e0313aa	0.1280047
114	0x3d363622	0.04448522
115	0x3d4b730f	0.049670275
116	0x3d917a6f	0.071034305
117	0x3d835c6f	0.06414115
118	0xbd04db72	-0.03243584
119	0x3e2cbb7f	0.16868399
120	0x3dbd2552	0.09235634
121	0x3ccc7bde	0.024961408
122	0xbcee80d2	-0.02911416
123	0x3ec00761	0.3750563
124	0x3daf86c8	0.08570629
125	0xbe23cefc	-0.15996927
126	0xbdbadb13	-0.09123816
127	0xbcc515f4	-0.02405832
128	0x3d9dccfb	0.077051125
129	0xbe2a9aa5	-0.16660555
130	0x3eb171a2	0.34657007
131	0xbe431918	-0.19052541
132	0xbe4bbd09	-0.1989633
133	0xbebed12c	-0.3726896
134	0x3d870e73	0.06594553
135	0xbd055646	-0.03255298
136	0x3e0e1bba	0.13877764
137	0xbf13d315	-0.5774396
138	0x3e1b7fc2	0.15185454
139	0xbed84434	-0.42239535
140	0xbd96e2c2	-0.07367469
141	0x3d2091f7	0.039201703
142	0xba1f98f6	-0.00060881616
143	0x3fc78a69	1.5589114
144	0x3e7d3e1f	0.24730729
145	0xbe97a94e	-0.29621357
146	0x3f242d2c	0.64131427
147	0x3e7548e5	0.23953588
148	0xbefe6fb0	-0.49694586
149	0x3ea63282	0.3246041
150	0xbebd0460	-0.369174
151	0x3f4f132d	0.80888635
152	0x3cd355b0	0.025797695
153	0x3eeec1f7	0.46632358
154	0xbe06df34	-0.13171083
155	0x3ea5b095	0.32361284
156	0xbba6b3a4	-0.005087333
157	0xbd21e887	-0.039528396
158	0xbd5b4b97	-0.053538885
159	0x3d5b24fb	0.053502064
160	0xbcab01c2	-0.020874862
161	0x3d9348ba	0.07191606
162	0xbb1dee17	-0.0024098211
163	0xbbdc02c4	-0.006714197
164	0xbb290df1	-0.0025795663
165	0x3cc030e1	0.023460807
166	0xb9727562	-0.00023122647
167	0xba75de5c	-0.00093791424
168	0x3e90d327	0.28286096
169	0x3e3f66b4	0.18691522
170	0x3e5f8e42	0.21831611
171	0xbdbb33d9	-0.091407485
172	0xbd99c1cc	-0.07507667
173	0xbda44e9b	-0.08022805
174	0xbe81acce	-0.25327152
175	0xbc97b75c	-0.01852005
176	0xbde96408	-0.113960326
177	0x3cb8d0bd	0.022560472
178	0x3d3c2a89	0.045939002
179	0x3d912f49	0.07089097
180	0xbda43502	-0.08017923
181	0x3e0e85f1	0.13918282
182	0x3c7b53a5	0.015339767
183	0x3f869e20	1.0517006
184	0x3ecff6ea	0.40618068
185	0xbdfab864	-0.12242201
186	0xbedccc72	-0.4312473
187	0xbe3f6873	-0.18692188
188	0x3e4e0af9	0.20121373
189	0x3bf48f02	0.007463337
190	0x3e8beb8e	0.2732815
191	0x3e457671	0.19283463
192	0x3e0e74a3	0.13911681
193	0x3f83686f	1.0266246
194	0x3ed8862a	0.4228986
195	0x3edfa11f	0.43677613
196	0xbed68d7d	-0.41904822
197	0x3f2918b2	0.6605331
198	0x3db917ea	0.09037764
199	0x3d79790f	0.060906466
200	0x3edf13e3	0.4356986
201	0xbd353e1b	-0.04424868
202	0x3dafe549	0.085886545
203	0xbc0a227c	-0.008431073
204	0xbd012f88	-0.03153947
205	0xbdc598ba	-0.09648271
206	0x3d74e598	0.05978927
207	0x3d907416	0.07053392
208	0x3c261761	0.01013741
209	0xbcddcde7	-0.027075721
210	0x3d4a3123	0.049363267
211	0x3c79440a	0.015213976
212	0xbdb8fade	-0.09032224
213	0xbe678384	-0.22608763
214	0x3e709d5b	0.23497526
215	0x3e513680	0.20430946
216	0xbde48e4c	-0.111599535
217	0x3e109ea3	0.14123015
218	0x3d8db36e	0.06918989
219	0xbc916d97	-0.017752452
220	0x3dd60110	0.104494214
221	0xbc9e149c	-0.019296937
222	0x3c1bca64	0.009508703
223	0xbd3b82f9	-0.045779202
224	0xbe824dfa	-0.25450116
225	0xbe19d93f	-0.15024279
226	0x3efc4935	0.49274603
227	0xbd9fbe9e	-0.07800029
228	0x3e945726	0.2897274
229	0x3ec9c327	0.39406702
230	0x3c1865d2	0.00930162
231	0x3e7fe52f	0.2498977
232	0x3db25f95	0.08709637
233	0x3f4068a0	0.75159645
234	0xbeb81c3c	-0.3595904
235	0xbf188f06	-0.59593236
236	0xbf20ce1b	-0.6281449
237	0xbeb91353	-0.36147556
238	0xbe67b7f9	-0.22628774
239	0x3f044301	0.5166474
240	0x3e2d9c07	0.16954051
241	0x3f7c3de6	0.9853195
242	0xbf25bcfc	-0.6474149
243	0x3e213bc6	0.15745458
244	0xbe6a85e2	-0.22902635
245	0x3e82c059	0.25537375
246	0xbd200d81	-0.03907538
247	0xbe1130a8	-0.14178717
248	0x3cdaa512	0.02669004
249	0x3d0fcdd6	0.03510841
250	0x3bf3d754	0.0074414406
251	0x3d2a9296	0.0416437
252	0x3ceb21cb	0.028702637
253	0xbe0d4a37	-0.13797842
254	0x3d5e4224	0.054262295
255	0xbd25a164	-0.040437117

actor.0.bias f4 [128]
0	0xbd5ef956	-0.054437004
1	0xbdb47bdc	-0.08812687
2	0xbe6a1ffa	-0.2286376
3	0x3cc9e2b9	0.024644243
4	0x3e0a8fb9	0.13531388
5	0x3d47ab51	0.048747364
6	0xbe428e07	-0.18999492
7	0xbe848432	-0.25882107
8	0xbe8699ac	-0.26289117
9	0xbe2be961	-0.16788246
10	0xbe532ff7	-0.20623766
11	0xbe950b27	-0.2911007
12	0x3dc14c4c	0.094383806
13	0x3d8b08ed	0.06788812
14	0xbdca098b	-0.098651014
15	0xbdd10e60	-0.1020782
16	0x3dfb361a	0.122661784
17	0xbebca3ff	-0.3684387
18	0x3e620762	0.22073129
19	0xbebd9c9f	-0.37033555
20	0x3df2a108	0.118471205
21	0x3e3dffff	0.18554686
22	0xbeb8c218	-0.36085582
23	0xbe91e90f	-0.28498122
24	0xbdfad93e	-0.12248467
25	0xbe74c40c	-0.23902911
26	0x3d51fdd7	0.05126747
27	0x3c435825	0.011922871
28	0x3ca4d8b3	0.020122861
29	0xbbc992af	-0.0061515193
30	0xbe1eafaf	-0.15496705
31	0xbe0d1a81	-0.13779642
32	0x3dcdb3a1	0.10044027
33	0xbe3f171d	-0.18661161
34	0x3dbef8c1	0.0932479
35	0xbe4c7409	-0.19966139
36	0xbdb2942b	-0.08719667
37	0x3d699ba3	0.057033192
38	0xbd409843	-0.047020208
39	0x3d588262	0.052858718
40	0x3e8586b7	0.26079342
41	0x3e9bd258	0.30433917
42	0xbe48f93a	-0.19626322
43	0x3d79fe64	0.06103362
44	0xbba132b5	-0.004919375
45	0xbe1f430b	-0.15552919
46	0x3e410650	0.18850064
47	0x3d4af613	0.04955108
48	0xbd3c9c9f	-0.046047803
49	0x3e8af308	0.27138543
50	0x3de198be	0.110154614
51	0xbe985ddd	-0.29759112
52	0x3eb25129	0.34827545
53	0xbdbfbce5	-0.09362201
54	0x3e96e91f	0.29474732
55	0xbe351483	-0.17683606
56	0x3e6b5518	0.2298168
57	0x3ec2e14a	0.38062507
58	0x3d00e6d7	0.031470146
59	0xbd86bc5c	-0.065788954
60	0xbdc95cd7	-0.09832161
61	0xbe43f6cc	-0.19137114
62	0x3dbd2e3b	0.092373334
63	0xbeaf46ba	-0.34233648
64	0xbe2d78bf	-0.16940592
65	0xbf05a679	-0.5220714
66	0xbe3ee2d5	-0.18641217
67	0xbea6d297	-0.32582542
68	0xbe362d62	-0.1779075
69	0xbe5258fd	-0.20541759
70	0x3cac7ca9	0.021055536
71	0xbe5f68e8	-0.21817362
72	0xbe849de3	-0.25901708
73	0xbd462b70	-0.04838127
74	0xbe886170	-0.2663684
75	0x3e4912eb	0.19636123
76	0xbef96c78	-0.48715568
77	0xbe73ebe1	-0.2382045
78	0xbddd59bc	-0.10808131
79	0x3d1d854e	0.038457207
80	0xbe02b83b	-0.12765591
81	0xbd2e1925	-0.04250445
82	0x3e85dd73	0.26145515
83	0xbeacf0b8	-0.33777404
84	0xbd9e87b9	-0.07740731
85	0xbe62fc56	-0.22166571
86	0xbe9442cf	-0.2895722
87	0xbe0a08a4	-0.13479859
88	0x3d70ca63	0.05878676
89	0xbea771fe	-0.32704157
90	0x3e15c163	0.14624552
91	0xbca414c6	-0.020029437
92	0x3e460285	0.19336899
93	0xbcafe1fe	-0.021470066
94	0x3ec989e4	0.39363015
95	0xbe0ba6bd	-0.13637824
96	0x3c916f84	0.01775337
97	0x3d4570af	0.048203167
98	0xbe1e49e8	-0.1545788
99	0x3d9742c8	0.073857844
100	0x3d7f3942	0.062310465
101	0xbe14b565	-0.14522322
102	0x3c026294	0.007958073
103	0xbdd42b6e	-0.10359846
104	0xbed725a7	-0.42020914
105	0xbe15b479	-0.14619626
106	0xbead5c66	-0.33859557
107	0xbd37620d	-0.044771243
108	0xbe581b8b	-0.21104257
109	0xbe1ec522	-0.15504888
110	0x3e82a840	0.2551899
111	0xbcbdf039	-0.023185836
112	0x3df9f36e	0.12204634
113	0x3dd45a0b	0.10368737
114	0xbe206447	-0.15663253
115	0x3db9e88d	0.09077559
116	0xbea63681	-0.32463458
117	0x3e2a9673	0.16658954
118	0xbe40781a	-0.18795815
119	0x3e14a883	0.14517407
120	0x3e97ff58	0.29687
121	0xbe55328a	-0.2082006
122	0xbb46f845	-0.0030360383
123	0xbe381e24	-0.17980248
124	0x3d95f441	0.07321978
125	0xbe883428	-0.26602292
126	0xbedc28be	-0.42999834
127	0xbdb1f834	-0.08689919

actor.2.weight f4 [128, 128]
0	0xbd88548d	-0.06656752
1	0x3dcdd4a9	0.10050327
2	0xbca56193	-0.020188129
3	0xbd93ecbc	-0.07222888
4	0x3e23aaa1	0.15983059
5	0xbc9f9095	-0.019478122
6	0xbd509ab1	-0.050928775
7	0xbdfd3794	-0.12364116
8	0xbc9c1d8f	-0.019057063
9	0xbd73425b	-0.059389453
10	0x3cd27ff8	0.025695786
11	0x3e270e63	0.16314082
12	0x3c6b36d0	0.01435633
13	0x3d04b060	0.032394767
14	0xbe1ded5b	-0.15422575
15	0x3d6cd0bc	0.057816252
16	0x3df3d8ad	0.11906562
17	0x3cdc1d13	0.026869332
18	0xbe8ebd5e	-0.2787885
19	0x3cb3f8b7	0.021969182
20	0xbe3bafd1	-0.18328787
21	0xbd99b151	-0.075045235
22	0xbdec955c	-0.115519255
23	0xbd143d17	-0.036191072
24	0xbdc84e46	-0.097805545
25	0x3e5884f7	0.21144472
26	0x3e38bc5f	0.18040608
27	0xbe8e9018	-0.2784431
28	0x3da4d171	0.0804776
29	0xbe09ffe2	-0.13476518
30	0x3e302529	0.17201675
31	0x3da891b9	0.082309194
32	0xbe232b1a	-0.1593441
33	0xbd4ac4be	-0.049504034
34	0xbe8d058e	-0.275433
35	0xbd621ca4	-0.055203095
36	0x3c1d9486	0.00961793
37	0xbdd19ab6	-0.10234587
38	0xbe3ec586	-0.18630037
39	0x3df12f64	0.11776617
40	0x3dc59bab	0.09648832
41	0xbc91447f	-0.017732857
42	0xbe141023	-0.1445928
43	0xbdf7747b	-0.12082764
44	0xbc371e1c	-0.011176612
45	0x3e4d8de5	0.2007366
46	0xbdfa8785	-0.122328795
47	0x3c8643ba	0.016389716
48	0xbdae88f3	-0.08522215
49	0xbd6cf3ed	-0.057849813
50	0xbe0e853c	-0.13918012
51	0x3dd827f9	0.10554499
52	0x3e12566b	0.14290778
53	0xbd05337f	-0.032519814
54	0xbe18c0bc	-0.14917272
55	0x3da1bf6e	0.078978404
56	0xbe286730	-0.16445613
57	0xbeb32053	-0.349856
58	0xbc53f162	-0.012935968
59	0x3d91bce1	0.07116104
60	0x3e2f6ec6	0.171321
61	0x3c8a0c88	0.016851678
62	0xbe0fe90b	-0.14053743
63	0xbdea9726	-0.114546105
64	0xbdc99943	-0.098436855
65	0x3d8fdff4	0.070251375
66	0xbe0ee8f1	-0.13956048
67	0xbdda4bdd	-0.10659001
68	0x3cfc9ac6	0.03083552
69	0x3da7cb15	0.08193032
70	0x3c938962	0.018009845
71	0x3cd3b3ba	0.025842536
72	0x3da38a33	0.07985344
73	0x3dced1f2	0.10098638
74	0x3b88a6ff	0.004170298
75	0xbe15156c	-0.14558953
76	0xbda57652	-0.080792084
77	0x3e0f957c	0.14021868
78	0xbdb350d8	-0.08755654
79	0x3ce806b2	0.028323505
80	0x3e0f290f	0.13980506
81	0xbcdc33a2	-0.02688009
82	0xbebeaf4f	-0.37243125
83	0xbdd02c7a	-0.10164733
84	0xbdd0f969	-0.10203821
85	0xbd1d4e44	-0.038404718
86	0xbda50373	-0.080572985
87	0xbe737c5b	-0.23777907
88	0x3e909baf	0.28243777
89	0x3ccd56ba	0.025065769
90	0xbe166a04	-0.14688879
91	0x3bf18b52	0.0073713446
92	0xbc1f911c	-0.009739187
93	0x3d144847	0.03620174
94	0xbe208ee5	-0.1567951
95	0xbe3113a1	-0.17292644
96	0x3d5d88e3	0.054085623
97	0xbe4982f6	-0.19678864
98	0x3d33ad3d	0.043866385
99	0xbdff4e4c	-0.12466106
100	0xbe8890bc	-0.26672924
101	0x3d9c8b22	0.07643725
102	0xbe8feae0	-0.28108883
103	0x3d258896	0.04041346
104	0xbd9e9212	-0.077427045
105	0xbd8c1fbf	-0.068419926
106	0xbd1ff73f	-0.03905415
107	0xbd8fe6f7	-0.07026475
108	0xbd966eaa	-0.07345326
109	0xbdb4f921	-0.0883658
110	0x3ca02808	0.019550338
111	0xbe0c9a39	-0.13730706
112	0x3cb0a75a	0.021564174
113	0xbd5df204	-0.054185882
114	0xbe8061a3	-0.2507449
115	0x3d8b07f7	0.067886285
116	0x3cfa03fc	0.030519478
117	0xbe04f14b	-0.12982671
118	0xbdd24e0a	-0.10268791
119	0xbd29ae74	-0.041426137
120	0xbda70afa	-0.081563905
121	0x3e0b40fa	0.13599005
122	0xbdb4c749	-0.08827073
123	0x3e525461	0.2054
124	0xbc9e46cd	-0.01932087
125	0xbdc54753	-0.09632745
126	0xbc719fcd	-0.014747572
127	0xbe3e7aa9	-0.18601479
128	0xbdf1f06c	-0.11813435
129	0xbdb77a34	-0.08958855
130	0xbdb1ffaf	-0.08691346
131	0xbd523216	-0.051317297
132	0x3d12e651	0.035864178
133	0x3dffba6a	0.124867275
134	0xbbb5af31	-0.005544566
135	0xbd3aac3c	-0.04557441
136	0x3c4e9dd1	0.012610869
137	0xbddbe768	-0.107374966
138	0xbe52219f	-0.20520638
139	0x3e0f5975	0.13998969
140	0x3cfda5d1	0.030962856
141	0xbd45c619	-0.048284624
142	0xbe6943cd	-0.2277977
143	0x3d2392b5	0.039934833
144	0xbe37f005	-0.17962654
145	0x3e16d8df	0.14731167
146	0xbd698f2c	-0.057021305
147	0x3c00fcbb	0.007872756
148	0xbe9e5caf	-0.30930087
149	0xbd908a33	-0.070576094
150	0xbd577616	-0.05260285
151	0x3c9bf867	0.019039346
152	0xbd8314f1	-0.06400479
153	0x3d4a31da	0.04936395
154	0x3d2da580	0.04239416
155	0x3def487e	0.11683749
156	0x3d777e83	0.060423385
157	0xbe3516c9	-0.17684473
158	0x3cd2ab7c	0.025716536
159	0xbc40f766	-0.011777734
160	0xbde0ff5a	-0.109862044
161	0xbd28c11b	-0.041199785
162	0xbdd54aa7	-0.104146294
163	0xbe127cc1	-0.14305402
164	0xbc8887f8	-0.016666397
165	0xbc1303a5	-0.008973037
166	0xbe32a9ab	-0.17447536
167	0xbe6a7da7	-0.22899495
168	0x3d45ade1	0.048261527
169	0x3dc46d3d	0.09591148
170	0xbe4c6d13	-0.19963484
171	0xbb88a07d	-0.0041695223
172	0xbca26bc6	-0.019826781
173	0xbd9097a2	-0.07060172
174	0x3d029c48	0.031887323
175	0xbb5f55a5	-0.0034078148
176	0xbe23e717	-0.16006123
177	0x3d41712b	0.047227066
178	0xbd5ce1a1	-0.053926114
179	0x3dbaf375	0.09128467
180	0xbe1a0b4a	-0.15043369
181	0xbdd66922	-0.10469271
182	0xbb874ec1	-0.0041292612
183	0x3dfa5632	0.12223472
184	0xbccf7372	-0.025323603
185	0x3de91c8e	0.113823995
186	0xbe4e41b6	-0.20142254
187	0xbe04756f	-0.12935422
188	0xbc0666cf	-0.008203222
189	0xbdaea250	-0.085270524
190	0x3c5d5926	0.013510024
191	0xbdd6863e	-0.104748234
192	0x3e3b5579	0.18294324
193	0xbd8bf116	-0.06833093
194	0xbcf9d988	-0.030499235
195	0xbd955e42	-0.07293369
196	0x3db5cd63	0.08877065
197	0x3ba0ff24	0.0049132276
198	0x3d4c4a12	0.049875326
199	0x3d66c6bb	0.056341868
200	0x3c2e3e2c	0.01063494
201	0x3ddf0fc8	0.10891682
202	0xbd10a764	-0.035315886
203	0xbe5e7154	-0.21722919
204	0x3c5a3cd7	0.013320169
205	0xbd7351bd	-0.059404124
206	0x3d1839d8	0.03716454
207	0x3dd18f79	0.10232443
208	0x3e43de3a	0.19127741
209	0xbd434bae	-0.047679596
210	0xbd3689c6	-0.044564985
211	0xbb9fabe2	-0.004872785
212	0x3a6fd062	0.0009148178
213	0x3e4c022b	0.19922702
214	0x3dfcd212	0.12344755
215	0xbcef4143	-0.029205924
216	0xbd9753d1	-0.073890336
217	0xbe5cf65b	-0.21578352
218	0x3da4bc69	0.08043749
219	0xbe45c64c	-0.19313926
220	0xbd3df95c	-0.046380386
221	0x3de5b789	0.11216647
222	0xbe0558bf	-0.13022135
223	0xbd58f80f	-0.052970942
224	0x3cb30e07	0.021857275
225	0xbc223cea	-0.009902218
226	0x3e140933	0.14456634
227	0xbd6e7047	-0.058212545
228	0xbe98c7ba	-0.2983988
229	0xbde37d51	-0.111078866
230	0x3df4a908	0.11946303
231	0x3d8bc9c0	0.0682559
232	0xbbc5f8b6	-0.0060416115
233	0x3d9903f0	0.07471454
234	0xbd189b16	-0.037257276
235	0x3c2e3f10	0.010635152
236	0xbdcea6e0	-0.10090423
237	0xbdc3d4a4	-0.09562042
238	0xbcc467b1	-0.023975225
239	0x3e09afdc	0.13445991
240	0xbdb34e57	-0.087551765
241	0xbe8d6ab6	-0.27620476
242	0xbd74e4b4	-0.05978842
243	0xbc0f37f8	-0.008741371
244	0xbcf35fd2	-0.029708777
245	0xbdc22dca	-0.0948139
246	0xbd31f47e	-0.043446057
247	0xbdf471cd	-0.11935768
248	0x3de57aa0	0.112050295
249	0x3d5d8b9e	0.054088227
250	0xbcbeb7f1	-0.02328107
251	0xbd044239	-0.032289717
252	0x3e165dce	0.14684221
253	0x3d44c38e	0.048038058
254	0xbe267574	-0.16255742
255	0xbe30b94a	-0.17258182

actor.2.bias f4 [128]
0	0xbe858edb	-0.26085553
1	0xbe9282cc	-0.28615415
2	0xbb55492a	-0.003254483
3	0xbde088e3	-0.10963609
4	0xbd802e92	-0.062588826
5	0x3b5ace17	0.0033387
6	0xbe038425	-0.12843378
7	0xbe9e936d	-0.30971852
8	0xbd8e4464	-0.06946638
9	0x3d3b2c15	0.045696337
10	0xbd72040a	-0.059085883
11	0xbd144b47	-0.036204603
12	0xbe389a80	-0.18027687
13	0xbdcbb0f6	-0.09945862
14	0xbe3c40a1	-0.18384029
15	0xbdb20c7c	-0.086937875
16	0x3c9e0e1b	0.019293835
17	0xbe98a9aa	-0.29816943
18	0xbe29ca84	-0.1658116
19	0xbe7dcbf1	-0.24784829
20	0x3e215d82	0.15758327
21	0x3e6a8199	0.22901
22	0xbe91e66b	-0.28496107
23	0xbe2da0f8	-0.16955936
24	0xbe4fbfb2	-0.2028797
25	0xbd40d932	-0.047082134
26	0xbe9ce3a1	-0.30642417
27	0xbecc3683	-0.3988534
28	0x3d2ffa83	0.042963516
29	0xbe89eb2e	-0.2693724
30	0xbdc3ee0c	-0.09566888
31	0xbe8567f0	-0.2605586
32	0xbe0caea1	-0.1373849
33	0xbc22409f	-0.009903102
34	0xbeb8806d	-0.3603548
35	0xbdde678d	-0.108595945
36	0xbeb8c7a1	-0.36089805
37	0xbeac4c82	-0.3365212
38	0xbea81074	-0.32825053
39	0xbcb593c0	-0.02216518
40	0xbe96693b	-0.2937716
41	0xbee39156	-0.4444682
42	0x3d9ed18b	0.07754811
43	0x3ceffa96	0.029294293
44	0xbe179b96	-0.14805445
45	0x3db31806	0.087448165
46	0xbbd4f9e1	-0.0064995144
47	0x3c85e5e6	0.016344976
48	0xbe010c58	-0.12602365
49	0xbded159b	-0.115763865
50	0xbe2573fd	-0.16157527
51	0xbdd2628b	-0.10272702
52	0xbe552d25	-0.20818003
53	0xbde6099c	-0.112323016
54	0xbe980182	-0.2968865
55	0xbea96d88	-0.33091378
56	0xbd815bff	-0.06316375
57	0xbd28ae3e	-0.041181795
58	0xbdfb6ccc	-0.12276611
59	0xbd913a7a	-0.07091232
60	0xbdf518b7	-0.119676046
61	0xbe00344b	-0.12519948
62	0xbd467a92	-0.048456736
63	0xbdb3e2b3	-0.08783474
64	0xbe173719	-0.14767112
65	0xbe288e88	-0.16460621
66	0x3e00c526	0.12575206
67	0xbde24106	-0.110475585
68	0xbdd1f82f	-0.102524154
69	0xbe85cf04	-0.26134503
70	0xbd998a1c	-0.074970454
71	0x3c79dff9	0.015251153
72	0xbebaeb02	-0.36507422
73	0xbd8c9a41	-0.06865359
74	0xbe509c45	-0.20372112
75	0xbe3e9873	-0.18612842
76	0xbe3dd591	-0.185385
77	0xbe903f59	-0.2817333
78	0x3e3cf4cc	0.18452758
79	0x3dcdd8b6	0.100511
80	0xbda795be	-0.08182858
81	0xbe4eb346	-0.20185575
82	0xbde5be38	-0.11217922
83	0xbde36760	-0.111037016
84	0xbd2807c8	-0.041023046
85	0xbdb97676	-0.09055798
86	0xbead66e5	-0.33867565
87	0x3e198d67	0.14995347
88	0xbe534e96	-0.20635447
89	0x3ba2a58e	0.0049635833
90	0xbe03462a	-0.12819734
91	0xbe7c5a64	-0.24643856
92	0xbe8204b4	-0.25394213
93	0xbdebf4f6	-0.11521332
94	0xbe5b446e	-0.21412823
95	0xbda57af4	-0.08080092
96	0xbe645b8b	-0.22300546
97	0xbe5e82cb	-0.21729581
98	0x3dc3c978	0.095599115
99	0xbe62cf26	-0.22149333
100	0xbd97339b	-0.0738289
101	0xbe3f1c68	-0.1866318
102	0xbdf1f5f0	-0.11814487
103	0x3c7d8616	0.015473863
104	0x3c8a10e6	0.01685376
105	0x3c551834	0.013006259
106	0xbe0bbcc6	-0.1364623
107	0x3e268bff	0.16264342
108	0xbebafae7	-0.36519548
109	0xbe1f629c	-0.1556496
110	0xbea0ff4d	-0.3144478
111	0xbd171097	-0.036881056
112	0xbe1c9fc7	-0.15295325
113	0xbe9c7ab2	-0.3056236
114	0xbd41d540	-0.04732251
115	0xbe519054	-0.20465213
116	0x3ceb7905	0.02874423
117	0xbe9739e8	-0.29536366
118	0xbe1177dd	-0.1420588
119	0xbe938095	-0.28809038
120	0xbf21e672	-0.63242257
121	0xbe29765a	-0.16549054
122	0xbe76c196	-0.24097285
123	0xbcc8eef7	-0.02452801
124	0xbe0276c7	-0.12740622
125	0xbeaaf54a	-0.33390266
126	0x3dd784cf	0.10523378
127	0xbc26ad9f	-0.01017323

actor.4.weight f4 [128, 128]
0	0x3e101e06	0.14073953
1	0xbe0e70bc	-0.13910192
2	0xbde48511	-0.11158193
3	0xbf0598f4	-0.5218651
4	0x3de40c2f	0.11135136
5	0xbc6f979c	-0.014623549
6	0xbd04c78b	-0.03241686
7	0xbdb770b9	-0.08957047
8	0xbd81238d	-0.06305609
9	0xbd8c0b95	-0.068381466
10	0xbcf6c990	-0.03012541
11	0xbdcaf132	-0.099092856
12	0x3dda10b4	0.10647717
13	0x3ccb4bb6	0.024816375
14	0xbcaafacf	-0.020871548
15	0xbd5d51bb	-0.054033022
16	0x3e2c201a	0.16809121
17	0x3db6d3a7	0.08927088
18	0xbd686c71	-0.056744043
19	0xbe4dc1c4	-0.20093447
20	0x3d20f3a6	0.03929486
21	0xbe74ab83	-0.23893552
22	0x3d924614	0.071422726
23	0x3d21d122	0.039506085
24	0xbdd3cc25	-0.10341672
25	0x3d101cc2	0.035183676
26	0x3e0210d7	0.12701736
27	0x3d25570f	0.04036623
28	0x3cc3e55b	0.023913076
29	0xbe5a1983	-0.21298794
30	0x3da34bb7	0.07973426
31	0xbdc7c1cc	-0.09753761
32	0xbb1ae23a	-0.0023633377
33	0x3e35624b	0.17713277
34	0xbde6b85a	-0.11265631
35	0x3c9bce0a	0.019019146
36	0x3d180a49	0.037119184
37	0x3da75ab3	0.081715964
38	0x3e054d77	0.13017832
39	0x3d23b2ff	0.039965626
40	0xbc526576	-0.012841573
41	0xbe066f26	-0.13128337
42	0xbd8c9d01	-0.068658836
43	0xbe3b1b07	-0.18272029
44	0xbdb26e42	-0.08712436
45	0xbdf52a6c	-0.11970982
46	0xbd561720	-0.052268147
47	0x3d8e3091	0.06942857
48	0x3dfb97f0	0.12284839
49	0x3d04186a	0.032249846
50	0xbde21ee9	-0.11041052
51	0x3dbfa1e0	0.09357047
52	0x3e47f5fa	0.19527426
53	0x3db7714b	0.08957156
54	0x3cc0636e	0.023484912
55	0xbd8f534c	-0.069983095
56	0xbe304a04	-0.17215735
57	0xbdb1ef66	-0.0868824
58	0x3ab02f16	0.0013441767
59	0xbe2edf08	-0.17077267
60	0x3d6f4d01	0.058423046
61	0xbc8fecda	-0.017568994
62	0x3e44e108	0.19226468
63	0x3e1ff69e	0.1562142
64	0xbda4cc70	-0.08046806
65	0x3e3be029	0.18347229
66	0xbd8d4a55	-0.06898943
67	0x3d0d0710	0.034430563
68	0xbe504e4c	-0.20342368
69	0x3d96b55b	0.073588096
70	0x3d9ee827	0.07759123
71	0x3d06283a	0.032753207
72	0x3e1b1eb4	0.15148431
73	0x3d95305a	0.07284613
74	0x3e25cac9	0.16190638
75	0x3d1444d8	0.036198467
76	0xbe66c93a	-0.225377
77	0xbd876b2a	-0.06612237
78	0x3cac1edd	0.02101081
79	0xbe309b51	-0.17246749
80	0x3d9789e2	0.07399346
81	0xbe191be2	-0.14952043
82	0xbd38d497	-0.045124616
83	0x3c919499	0.017771052
84	0xbbe40e72	-0.00695973
85	0x3e650199	0.2236389
86	0x3d3ebede	0.046568744
87	0xbde22fc0	-0.11044264
88	0xbd749196	-0.059709154
89	0xbc291241	-0.0103192935
90	0x3e66706d	0.22503825
91	0x3e7b72e2	0.24555543
92	0x3bdbf857	0.006712954
93	0x3e2b1ce1	0.16710235
94	0x3d144225	0.036195893
95	0x3e060089	0.13086142
96	0x3d4a5fb1	0.049407665
97	0xbceb5cab	-0.028730711
98	0xbd3e7c5a	-0.04650531
99	0xbd6eb2ef	-0.058276113
100	0xbdf4c61f	-0.11951851
101	0xbc301a26	-0.010748422
102	0x3daf5267	0.08560639
103	0xbea49974	-0.32148325
104	0x3d9b2533	0.075754546
105	0x3dbf1b08	0.09331328
106	0xbc03616a	-0.008018831
107	0xbc865785	-0.016399154
108	0x3dc4c170	0.09607208
109	0x3db9770b	0.09055909
110	0xbc3a3335	-0.011364748
111	0xbdece098	-0.11566275
112	0xbd55689b	-0.052101713
113	0x3e5af108	0.21381009
114	0x3c21b256	0.009869179
115	0xbd141323	-0.036151063
116	0x3d3c3c29	0.04595581
117	0x3b064731	0.002048921
118	0xbba71701	-0.005099178
119	0x3e22c9df	0.1589732
120	0x3d7a8180	0.061158657
121	0xbe02c400	-0.1277008
122	0x3db793bb	0.08963724
123	0x3c999d97	0.018751903
124	0xbcd18bda	-0.025579382
125	0x3bb37c58	0.0054774694
126	0xbd12c098	-0.035828203
127	0x3d19d114	0.037552908
128	0x3d8ac3d7	0.06775635
129	0xbd0b090d	-0.03394418
130	0xbe0cbfc9	-0.13745035
131	0x3d9e0b2e	0.07716976
132	0xbd9efaeb	-0.077627026
133	0x3e2c7237	0.16840445
134	0xbe132626	-0.14370021
135	0x3cbed8c9	0.02329673
136	0x3db5832a	0.08862908
137	0xbdb6771a	-0.089094356
138	0x3d993018	0.07479876
139	0xbbbf26d0	-0.005833484
140	0xbb3a28a0	-0.0028405562
141	0x3d8d640c	0.06903848
142	0xbda93550	-0.08262122
143	0xbe02ed2a	-0.12785783
144	0xbdd58991	-0.10426629
145	0x3c8d0748	0.017215386
146	0xbd0fced7	-0.035109367
147	0x3ccb6642	0.024829034
148	0x3dc4a859	0.09602422
149	0x3bd977c4	0.0066365916
150	0x3d9f75d4	0.07786146
151	0x3e4460b3	0.19177513
152	0x3e56f66e	0.20992443
153	0x3d05dc34	0.032680705
154	0xbdae2508	-0.08503157
155	0x3d41a768	0.04727879
156	0xbe0019e8	-0.12509882
157	0xbde2fce4	-0.11083391
158	0xbe9310c0	-0.28723717
159	0x3c594877	0.013261906
160	0x3cfc2f44	0.030784257
161	0xbd4e5d11	-0.050381724
162	0x3e5ceb2a	0.21574083
163	0xbd2ceda2	-0.04221881
164	0x3e00b093	0.12567358
165	0x3e452d34	0.19255525
166	0x3e129463	0.14314418
167	0x3cdc0dfd	0.026862139
168	0xbd8acbcf	-0.06777155
169	0x3db0a42f	0.086250655
170	0x3d5ec3a7	0.054385807
171	0xbe50dc7b	-0.20396607
172	0x3e28f0e4	0.16498142
173	0xbd0bbdbd	-0.034116495
174	0xbd8112d6	-0.06302421
175	0x39849b0b	0.00025292518
176	0xbda26c4d	-0.07930813
177	0xbdf32d6d	-0.11873899
178	0x3ddfd961	0.109301336
179	0x3d9908cf	0.07472383
180	0x3da4b526	0.08042364
181	0x3de3448f	0.11097061
182	0x3b259f38	0.0025271904
183	0x3dc8bf24	0.09802082
184	0x3d0cd6b6	0.03438445
185	0xbcb3f3d7	-0.021966858
186	0x3e28d8b7	0.1648892
187	0x3c94ed54	0.018179573
188	0x3d413e84	0.04717876
189	0xbe074002	-0.13208011
190	0xbcf34170	-0.029694289
191	0xbc0bee22	-0.008540662
192	0x3db391ea	0.08768065
193	0x3cc91341	0.024545314
194	0x3b39b1a4	0.0028334642
195	0x3e6a9b6a	0.22910848
196	0xbc791593	-0.015202898
197	0x3c328ac4	0.010897342
198	0xbdfd14ff	-0.1235752
199	0x3d8c4f2d	0.06851039
200	0x3e9436ff	0.2894821
201	0xbcbdb684	-0.02315832
202	0x3d822c1c	0.063560694
203	0x3cfb1424	0.030649252
204	0xbe332dc5	-0.17497928
205	0x3dee26ac	0.1162847
206	0xbcf15e1c	-0.02946382
207	0xbd842f91	-0.06454385
208	0x3db2b1dd	0.08725331
209	0xbe00e073	-0.1258562
210	0x3daf1fa5	0.085509576
211	0x3a174545	0.0005770515
212	0xbd55493e	-0.052071802
213	0x3e12b389	0.143263
214	0x3d643fbd	0.055724848
215	0xbcdd9072	-0.027046416
216	0x3e2cd9ef	0.1688001
217	0xbbd7af1b	-0.0065821535
218	0xbd8d0cb3	-0.06887188
219	0x3e393643	0.18087105
220	0xbdff8709	-0.12476928
221	0x3e2f4a82	0.17118266
222	0xbc8049c3	-0.015660172
223	0x3d06d737	0.03292009
224	0x3e0698e8	0.13144267
225	0xbc2e12b5	-0.010624577
226	0xbd0b54f9	-0.034016583
227	0x3e2c7249	0.16840471
228	0x3cce26ec	0.025165044
229	0x3d344b14	0.044016913
230	0xbd48e4b1	-0.049046222
231	0xbe6da96a	-0.23209158
232	0xbdf6d535	-0.12052385
233	0x3cd9078e	0.02649286
234	0x3d22601d	0.039642442
235	0xbea08da1	-0.31358054
236	0x3da8d5e7	0.08243924
237	0x3d27682f	0.04087084
238	0xbdb6a4e2	-0.08918168
239	0xbdcfc596	-0.101451084
240	0x3e07c5ae	0.13259003
241	0xbe4bf67a	-0.19918242
242	0xbc7e0c40	-0.01550585
243	0xbd8b96b0	-0.06815851
244	0x3d1ffc2b	0.039058845
245	0x3de79cb6	0.11309187
246	0x3d74a365	0.059726138
247	0x3d5213d2	0.051288433
248	0x3e62d9d4	0.22153407
249	0x3e0e4c46	0.13896284
250	0xbc5d5084	-0.013507966
251	0xbddea70f	-0.10871708
252	0xbd86aab5	-0.065755285
253	0x3cc56077	0.02409385
254	0xbd8133d9	-0.06308717
255	0xbda07a25	-0.07835797

actor.4.bias f4 [128]
0	0xbd7eaa00	-0.062173843
1	0xbeac1b31	-0.33614495
2	0x3b82afb8	0.0039882325
3	0xbd8d8839	-0.06910748
4	0xbe08af14	-0.13348037
5	0xbce98aa3	-0.02850849
6	0xbd3086e3	-0.043097388
7	0xbd1f0f48	-0.038832933
8	0xbe49e915	-0.1971782
9	0xbd1fa72b	-0.038977783
10	0x3bf18dea	0.007371654
11	0xbdb97285	-0.09055046
12	0xbd50ff31	-0.05102462
13	0xbd297d5c	-0.041379318
14	0xbdb15910	-0.086595654
15	0xbe78a0db	-0.24280111
16	0xbdea111d	-0.11429045
17	0xbea6e088	-0.3259318
18	0xbd4b5984	-0.049645916
19	0x3d2989d7	0.04139122
20	0xbe325569	-0.17415394
21	0xbd54e4df	-0.05197608
22	0xbe5c35c0	-0.21504879
23	0x3b9a7fa6	0.004714924
24	0xbd411e5a	-0.047148086
25	0xbe8852a1	-0.2662554
26	0xbd804607	-0.06263357
27	0xbb39c08f	-0.0028343534
28	0xbe9cbcb4	-0.3061272
29	0xbdb79f00	-0.08965874
30	0xbe263c49	-0.16233934
31	0xbd9960ca	-0.07489164
32	0xbded999e	-0.11601566
33	0xbdb25bbf	-0.087089054
34	0xbe27ef64	-0.16399914
35	0xbe129472	-0.1431444
36	0xbdea6093	-0.11444201
37	0xbe4a925c	-0.19782394
38	0xbe8d6398	-0.27615047
39	0xbded110e	-0.115755185
40	0xbe4b2eb3	-0.19842033
41	0xbea5e1f1	-0.32398942
42	0xbe5b5c73	-0.21421985
43	0xbe2eea60	-0.17081594
44	0xbd1f3795	-0.038871367
45	0xbd704ab8	-0.058665007
46	0xbda88ac1	-0.0822959
47	0xbdfccc7f	-0.12343692
48	0xbe678593	-0.22609548
49	0xbe8116ee	-0.25212806
50	0xbe4f58f4	-0.20248777
51	0x3c8ce970	0.017201155
52	0xbd853361	-0.065039404
53	0xbe3a16ee	-0.1817281
54	0xbd9139ad	-0.07091079
55	0xbe055902	-0.13022235
56	0xbdbfefee	-0.09371935
57	0xbda0d06c	-0.07852253
58	0xbda5008f	-0.08056747
59	0xbdeb490e	-0.114885435
60	0xbdbd5c1d	-0.09246085
61	0xbe1cc596	-0.15309748
62	0xbe032580	-0.12807274
63	0xbdb994b7	-0.09061568
64	0xbe31999a	-0.1734375
65	0x3c666350	0.014061764
66	0xbe462b5b	-0.19352476
67	0xbd63004f	-0.055420216
68	0xbd6a2604	-0.05716516
69	0x3d287ec5	0.04113652
70	0xbd66d609	-0.056356464
71	0xbea2128a	-0.3165477
72	0xbe519777	-0.20467936
73	0xbe58dfb8	-0.21179092
74	0xbd680e8c	-0.056654498
75	0xbe223c48	-0.15843308
76	0xbdadcdf8	-0.08486551
77	0xbdc9a9b7	-0.09846824
78	0xbe48f942	-0.19626334
79	0xbe905b2b	-0.28194556
80	0xbc39a051	-0.011329726
81	0xbe6677e0	-0.22506666
82	0xbd551965	-0.05202617
83	0xbd96dab6	-0.073659346
84	0xbe043eef	-0.12914632
85	0xbdb7a1eb	-0.0896643
86	0xbdcf4524	-0.101206094
87	0xbde74dbb	-0.11294123
88	0x3d5448d5	0.05182727
89	0xbde8f048	-0.11373955
90	0xbcf8ea5c	-0.030385189
91	0x3d8bc5b7	0.068248205
92	0xbd949689	-0.07255275
93	0x3d9e192a	0.077196434
94	0xbd60f2ed	-0.054919172
95	0xbe596b48	-0.21232331
96	0x3b5e960c	0.0033963947
97	0xbe20012e	-0.1562545
98	0xbe11a64e	-0.14223596
99	0xbe32d645	-0.1746455
100	0xbe0a7862	-0.13522485
101	0xbdedd506	-0.116128966
102	0xbe988c67	-0.29794618
103	0xbd76ae4c	-0.060224816
104	0xbd4376e2	-0.047720797
105	0xbe22610e	-0.15857336
106	0xbd6054f2	-0.05476851
107	0xbe86bd90	-0.263165
108	0xbe8fda90	-0.28096437
109	0xbda4e386	-0.08051209
110	0xbc48694e	-0.012232138
111	0xbd476938	-0.04868433
112	0xbe67de16	-0.22643313
113	0xbe8ae156	-0.27125043
114	0xbde8d4b0	-0.11368692
115	0xbea96264	-0.3308288
116	0xbe3eee9e	-0.18645713
117	0xbe37a322	-0.17933324
118	0xbe820621	-0.253953
119	0xbdd8d9bd	-0.10588405
120	0xbe49c30d	-0.19703312
121	0xbe57b540	-0.21065235
122	0xbe0851b9	-0.13312425
123	0xbe3618a8	-0.17782843
124	0xbe6cfe7a	-0.2314395
125	0xbe2da461	-0.16957237
126	0xbe6054a4	-0.21907288
127	0x3c842753	0.016132032

actor.6.weight f4 [12, 128]
0	0x3d4f2133	0.05056877
1	0x3dbaf5c5	0.09128908
2	0x3ca601bf	0.020264504
3	0x3c3cc3a7	0.0115212565
4	0xbd927a21	-0.071522005
5	0xbc8845dd	-0.016634876
6	0xbd17a8ad	-0.037026096
7	0xbba7b0f6	-0.005117531
8	0x3da319fc	0.079639405
9	0xbc52b37c	-0.012860175
10	0x3c7f42ed	0.015579921
11	0xbc6eae95	-0.014567991
12	0xbd391422	-0.045185216
13	0x3d495a82	0.04915858
14	0xbd40c3a0	-0.047061563
15	0xbc8cf3c4	-0.01720608
16	0x3d9489d0	0.07252848
17	0xbd145eb2	-0.03622312
18	0xbd93b858	-0.07212895
19	0x3c6672ad	0.014065427
20	0xbd9d93ab	-0.07694181
21	0x3c967565	0.018366525
22	0xbd8a4b4a	-0.067526415
23	0x3d03da14	0.032190397
24	0xbc23c2ef	-0.009995206
25	0xbe1c5b04	-0.15269095
26	0x3d731f33	0.059355926
27	0x3cb9cad7	0.02267973
28	0xbb8c39e4	-0.004279362
29	0xbbc5af5e	-0.0060328683
30	0x3c44cf15	0.012012263
31	0xbda3fee9	-0.08007605
32	0x3ca9ef10	0.020743877
33	0x3c2ef884	0.010679368
34	0xbe29d09e	-0.16583487
35	0xbd903ddb	-0.07043048
36	0xbce1a72a	-0.02754553
37	0xbc805e25	-0.015669892
38	0xbe0da5f9	-0.13832845
39	0x3d8e6c7d	0.06954286
40	0xbdc4793a	-0.09593435
41	0xbc9ee750	-0.019397408
42	0xbd4a385b	-0.04937015
43	0xbd757aa0	-0.059931397
44	0x3b459cac	0.0030153198
45	0x3d216080	0.03939867
46	0xbbc0231a	-0.0058635594
47	0x3ca0e34a	0.01963963
48	0xbbf6eb57	-0.007535379
49	0x3cf6d038	0.030128583
50	0xbcb16378	-0.021653876
51	0x3d13d0de	0.036087863
52	0xbd476419	-0.048679445
53	0x3ce291e2	0.027657453
54	0x3c955916	0.018230956
55	0x3db9646f	0.09052359
56	0xbda01ef1	-0.078184016
57	0x3d586006	0.05282595
58	0x3d09212f	0.033478912
59	0x39a3608f	0.00031161724
60	0x3ba278d0	0.0049582496
61	0xbd4140f1	-0.047181074
62	0xbcdd0784	-0.026981123
63	0xbc060eac	-0.008182209
64	0x3d6fb3be	0.058521025
65	0xbcc18361	-0.023622217
66	0xbd89beb9	-0.067258306
67	0x3cc54aef	0.024083583
68	0xbd4bc8df	-0.049752112
69	0x3c46a117	0.012123368
70	0x3af868e8	0.0018952163
71	0xbc127c03	-0.0089406995
72	0xbc346700	-0.011010885
73	0x3dbddd6c	0.092707485
74	0xbd0082d4	-0.031374767
75	0x3d950625	0.072765626
76	0x3cd55404	0.026041038
77	0xbb3faa08	-0.0029245634
78	0x3d2a6f77	0.041610207
79	0x3c9f71f6	0.01946352
80	0xbccedc63	-0.025251573
81	0xbdbcc63d	-0.092174985
82	0xbd16ce4e	-0.03681784
83	0x3bb58651	0.0055396934
84	0x3d3cc1ed	0.04608338
85	0xbce1ed0f	-0.027578859
86	0xbd4df1f1	-0.05027956
87	0x3cbddce0	0.02317661
88	0xbd6e9c45	-0.0582545
89	0xbce8cfb8	-0.02841936
90	0x3c9c8aa1	0.019109072
91	0x3d1e6f48	0.038680345
92	0xbd4433a8	-0.047900826
93	0x3d117be3	0.03551854
94	0xbcc9c082	-0.024627928
95	0x3ca4061b	0.020022443
96	0x3c36aaa6	0.011149084
97	0x3b800c18	0.0039076917
98	0xbdda5d36	-0.1066231
99	0x3d13ec5c	0.03611408
100	0x3c898c21	0.016790451
101	0xbd147819	-0.036247347
102	0x3cb5d671	0.02219698
103	0x3c7a89c1	0.015291632
104	0xbcb527c2	-0.022113685
105	0x3d7a4bea	0.061107554
106	0x3c8c5f38	0.017135248
107	0x3cc1035c	0.023561172
108	0xbc5b5d2a	-0.013388911
109	0xbd5d8647	-0.054083135
110	0x3d279cc4	0.040920988
111	0x3cb21d3f	0.021742461
112	0xbd8149cd	-0.063129045
113	0x3d05aeeb	0.032637518
114	0x3dab9246	0.08377509
115	0xbbff3d3b	-0.0077892817
116	0xbcc7d718	-0.024394557
117	0x3cfb1ce6	0.030653428
118	0x3ba0f2a3	0.004911737
119	0xbd24a9d5	-0.040201027
120	0xbd291c89	-0.04128698
121	0xbd644185	-0.055726547
122	0xbd4cb032	-0.04997272
123	0xbd5abbcf	-0.053401764
124	0x3c020d29	0.007937708
125	0x3d21578a	0.039390124
126	0xbcdae105	-0.026718626
127	0x3cb2a7bf	0.021808503
128	0x3c9462bd	0.018113488
129	0xbd5025c3	-0.050817262
130	0xbd0d277f	-0.034461495
131	0x3ca44769	0.020053582
132	0x3c6ac61b	0.014329459
133	0xbd2eae3d	-0.042646635
134	0x3c7277cc	0.01479907
135	0xbcf7566c	-0.030192576
136	0x3c45f398	0.012082003
137	0xbcad23d2	-0.021135245
138	0x3c1d1e14	0.009589691
139	0x3d2d02a3	0.042238843
140	0xbd3937f9	-0.045219395
141	0x3d82c1af	0.063845985
142	0xbcee19a3	-0.029064959
143	0xbb33dfa7	-0.002744654
144	0xbd8f92d0	-0.07010424
145	0x3c534da4	0.012896929
146	0xb98d253a	-0.00026921352
147	0x3d21ebf9	0.03953168
148	0x3c250af4	0.010073412
149	0x3c37f53f	0.011227905
150	0xbd864822	-0.06556727
151	0x3be0be4f	0.006858624
152	0x3dd5e1b6	0.104434416
153	0x3d078818	0.033088773
154	0x3c6ecbc7	0.0145749515
155	0x3d9abbdb	0.07555362
156	0x3d1ceb17	0.038310137
157	0xbd4655b3	-0.048421573
158	0x39fc4ecd	0.00048123897
159	0x3d5b45d6	0.053533398
160	0x3d28597a	0.041100956
161	0x3d830626	0.06397657
162	0x3cc8268e	0.024432447
163	0x3d099c02	0.033596046
164	0x3d05f2db	0.03270231
165	0x3db8a600	0.09016037
166	0xbc866430	-0.016405195
167	0xbbce8a32	-0.0063030953
168	0x3caa82e3	0.020814365
169	0x3d9bdd4c	0.076105684
170	0x3d813274	0.06308451
171	0x3ca8a970	0.020588607
172	0xbcbdd49c	-0.02317267
173	0x3bd2d134	0.0064336304
174	0x3c619c15	0.013770123
175	0xbd8d2173	-0.068911456
176	0xbdced6c1	-0.10099555
177	0x3dd54b89	0.10414798
178	0x3b9fb18e	0.004873461
179	0xbd60e491	-0.054905478
180	0xbca5e10d	-0.020248914
181	0xbb37e1c9	-0.0028058162
182	0xbd57cdba	-0.05268643
183	0xbd31ae58	-0.043379158
184	0x3c89db7e	0.016828295
185	0xbca2aba7	-0.01985724
186	0x3cbb3c25	0.022855828
187	0xbd1cb5e6	-0.03825941
188	0x3d698632	0.057012744
189	0xbcfd0037	-0.030883892
190	0xbd4007ef	-0.046882566
191	0xbd8628f8	-0.06550783
192	0xbc890c99	-0.01672964
193	0x3d60f101	0.05491734
194	0x3e30d0a7	0.17267095
195	0x3cab8763	0.02093858
196	0x3c9d1447	0.019174708
197	0xbd4e6df2	-0.05039782
198	0x3d23870e	0.03992372
199	0x3dce1446	0.100624606
200	0xbde4945d	-0.111611106
201	0x3d774ce2	0.060376056
202	0xbc8e1954	-0.017346062
203	0x3cef8fcb	0.02924337
204	0xbcaee016	-0.021347087
205	0x3b77b18d	0.0037795037
206	0xbc22547f	-0.009907841
207	0xbdcb3f1c	-0.099241465
208	0x3c932399	0.01796131
209	0x3d9ea4bf	0.077462666
210	0xbd2add55	-0.041714985
211	0x3b17317f	0.0023070273
212	0x3d848071	0.06469811
213	0x3d975000	0.07388306
214	0x3d9fa7a3	0.07795646
215	0x3daf0f78	0.08547872
216	0xbd89fdd9	-0.06737871
217	0x3d08c4a8	0.03339067
218	0x3d843812	0.06456007
219	0xbcaa891c	-0.020817332
220	0xbd84c58f	-0.06482994
221	0x3c8b6e7a	0.017020453
222	0xbd767b07	-0.06017592
223	0x3dc8f56b	0.09812435
224	0xbcb20a7f	-0.02173352
225	0xbda79391	-0.08182443
226	0x3d1f3d27	0.03887668
227	0xbcf318e0	-0.029674947
228	0x3d4e62d0	0.050387204
229	0xbd3ca571	-0.046056215
230	0x3d7208da	0.059090473
231	0xbcd50a36	-0.026005846
232	0x3b7546b9	0.0037426187
233	0x3d1efae1	0.038813476
234	0xbc03ed64	-0.008052204
235	0xba444c2e	-0.00074881583
236	0xbc9919b0	-0.018689007
237	0x3d33ec69	0.04392663
238	0x3d54a3b8	0.051913947
239	0xbd4a2964	-0.04935588
240	0xbaea4a52	-0.0017874932
241	0x3c19573a	0.009359175
242	0x3ac35df0	0.0014905315
243	0x3c63fd0f	0.013915314
244	0x3d5221c4	0.051301733
245	0x3c9dbfca	0.019256491
246	0x3c9d9398	0.019235417
247	0xbd4d8c5c	-0.050182685
248	0xbce2238a	-0.027604837
249	0x3d4c2943	0.049844038
250	0xbba399f8	-0.0049927197
251	0xbca23e73	-0.019805169
252	0xbd187b52	-0.037226982
253	0xbd8656ff	-0.06559562
254	0x3e078c06	0.13237008
255	0xb9b973ae	-0.00035372138

actor.6.bias f4 [12]
0	0xbe03cb22	-0.12870458
1	0xbd323ce9	-0.04351512
2	0x3e0b52f1	0.13605858
3	0xbd52319e	-0.05131685
4	0xbe801541	-0.25016215
5	0xbea1b0d5	-0.31580225
6	0x3d92b994	0.071643025
7	0x3c2f2d58	0.010691963
8	0xbe3e988a	-0.18612877
9	0xbd97eb96	-0.07417981
10	0xbd75da07	-0.06002238
11	0xbd90f29c	-0.07077524
