logs/rsl_rl/unitree_go2_flat/2024-07-13_17-53-05/exported/policy.onnx (onnx, 163093 bytes, 8 tensors)

actor.0.weight f4 [128, 45]
000000 ae 46 4f 3b 60 5e ad be d4 b5 b1 be 23 3c b8 bf
       0.0031627822 -0.33861065 -0.34709036 -1.4393352
000010 21 08 ea 3e 2c 6a aa 3e 4b 7b 03 bc 1c ac 4b be
       0.45709327 0.33284128 -0.008025001 -0.19889873
000020 0d f1 76 3e d1 21 59 be 98 e6 be be 09 e1 56 3e
       0.24115391 -0.21204306 -0.37285304 0.20984282
000030 b4 bf c7 be 75 aa 99 be 17 99 d2 be 1b 88 38 be
       -0.39013445 -0.3001286 -0.41132423 -0.1802067
000040 8a 74 a3 be da 27 38 be 32 e1 90 bd 2f fa c2 be
       -0.3192485 -0.17983952 -0.070742026 -0.380815
000050 ad a1 b8 be ab 04 4c bc 91 f4 4a bd 3d 19 f8 bc
       -0.3606085 -0.012452285 -0.049549643 -0.030285472
000060 6f 1f a2 3c f9 cd a3 bd 5c 69 ba 3c a5 36 31 3d
       0.01979038 -0.079982705 0.022755317 0.043265004
000070 a9 f5 bd bb 3d 1e 97 bb 9b 55 88 bd 36 14 1e bd
       -0.0057971072 -0.004611759 -0.06656953 -0.038593493
000080 2c fb 15 bd 0c 94 23 3e 9f d8 b0 be 33 fc 2d 3e
       -0.03661649 0.15974444 -0.3454027 0.16990738
000090 47 dd 85 3e e4 d9 4c be d7 52 e2 3d ff 26 7a 3e
       0.26145384 -0.20004994 0.11050957 0.24428938
0000a0 e8 ee bd bc b4 5f a9 be 73 5c a8 3e 5a 89 1f bd
       -0.023185208 -0.33080828 0.32883033 -0.038949348
0000b0 7f ce 3e be 0c e0 5e 3e 8f 39 88 3e 1f 8f a9 bd
       -0.1863346 0.21765155 0.26606414 -0.08279251
0000c0 8e 25 0a 3f 31 1a 31 bf d4 37 8d 3c a2 e4 8e bf
       0.53963554 -0.6918059 0.017238535 -1.1163523
0000d0 40 c3 05 be e8 9f 82 be d3 31 dc 3e 93 2d 13 3f
       -0.13062763 -0.25512624 0.43006763 0.57491416
0000e0 d4 63 4d 3d 0d a4 b4 3e 6a 64 cd be d1 3b 2e bf
       0.05014403 0.3528141 -0.40115672 -0.6806002
0000f0 65 5d b1 3e 66 18 fe 3e 16 08 29 be 4f 4b 04 bf
       0.34641567 0.4962799 -0.16506991 -0.5167741
000100 21 85 77 3d 72 ca 20 3d 21 97 a7 3c 3d 26 b8 3d
       0.060429696 0.039255567 0.020457806 0.089916684
000110 a6 81 db 3b 05 25 50 3d 14 cf 3d 3c a6 41 a8 bd
       0.006698805 0.050816555 0.011585016 -0.082156464
000120 87 32 15 bd a7 37 5f 3d f0 87 34 3d 92 27 02 3d
       -0.03642514 0.054496434 0.044074953 0.03177602
000130 b2 7d 32 bd 9e 25 ad 3c 66 39 27 be d3 73 42 3e
       -0.043576904 0.021136101 -0.1633049 0.18989496
000140 9f 71 34 3e be c6 5e 3c 49 e6 46 3d 98 61 86 bd
       0.17621468 0.0135971885 0.04855946 -0.06561583
000150 a1 7a 9d 3d c7 fa 02 bd 69 29 e3 3d 1b 29 20 be
       0.07689405 -0.03197744 0.11091883 -0.1564068
000160 24 0f 87 bd 92 be 0b bc 58 d3 22 bd 0d 57 ca bd
       -0.06594685 -0.008529322 -0.039752334 -0.09879885
000170 a8 51 12 bd bb 85 1f be 67 f9 61 3f 3e a5 12 be
       -0.035722405 -0.15578358 0.8827118 -0.14320847
000180 aa b4 08 be eb 2f 14 3e 5d 79 17 bf 47 d6 88 be
       -0.13350168 0.14471404 -0.5916956 -0.2672598
000190 47 bd 68 bf 3a 91 d1 be 8a ae aa be 86 e8 0f bf
       -0.90913814 -0.40931112 -0.33336288 -0.5621418
0001a0 c2 d1 2d 3f a2 bb 97 3e 29 0f 85 bf ac 4f 71 be
       0.6789819 0.2963534 -1.0395252 -0.23565549
0001b0 61 c7 82 3d 23 08 b2 be b8 e4 96 be 1c 4c 89 ba
       0.06385685 -0.34771833 -0.29471374 -0.0010474953
0001c0 75 d5 ba bc d6 1d 81 bc 94 95 15 3d dd 4d d0 3c
       -0.022806862 -0.015761297 0.036519602 0.025427753
0001d0 80 9d 5c bd e6 81 24 be d1 94 2e 3d 66 8e 6f 3c
       -0.05386114 -0.16065177 0.04262239 0.014621353
0001e0 98 1a 8a bd 66 b7 28 3a ac 2f 66 bc a7 18 f4 bd
       -0.067433536 0.000643602 -0.014049452 -0.119187646
0001f0 35 02 85 bc bd 09 99 3d af 09 27 be 0a ce 23 be
       -0.016236404 0.074725606 -0.16312288 -0.15996566
000200 c5 d6 52 bd fd 78 31 3e 5d ea ad 3d 10 d3 ab be
       -0.05147435 0.1733131 0.08491967 -0.33559465
000210 ea be ab 3c c5 46 17 3e c5 97 cd bd ad 4d 5a be
       0.020965058 0.1477309 -0.10038713 -0.21318693
000220 96 6c 49 bd 4c 7f e6 3e 84 46 ce bc e9 e1 b7 3e
       -0.04917582 0.45018995 -0.025180109 0.35914543
000230 11 ed ee 3d f4 bf 90 be d0 85 d0 3d 9f 3a 34 be
       0.116663106 -0.2827145 0.10181773 -0.17600487
000240 db f0 8d be df c7 28 3d 22 9d 22 bf 42 09 19 be
       -0.2772282 0.041206237 -0.63521016 -0.14944938
000250 95 e6 e9 bd ec 77 cd be 53 5c 63 bc e1 55 6f bf
       -0.11420933 -0.40130556 -0.013876992 -0.93490416
000260 59 7f 31 3d a8 fe d4 be 63 fa 78 bd 50 4c 42 3d
       0.04333434 -0.41600537 -0.060785662 0.04743606
000270 2b 7c 3d bd 23 7f 0a bd 5a 5a 0f bd 13 95 71 3d
       -0.046260994 -0.033812653 -0.034998275 0.05898006
000280 b1 41 8b 3d e2 57 11 bd 03 74 43 3c c1 bf 1a 3d
       0.06799639 -0.035484202 0.011929515 0.037780527
000290 64 e5 f0 3d b9 0e 3a bc 75 82 e0 ba f0 23 68 3d
       0.11762503 -0.011356049 -0.0017128723 0.056674898
0002a0 c0 49 84 be 9b 81 e2 bd 03 9a e5 bd 41 5b c3 3d
       -0.25837517 -0.110598765 -0.11211016 0.0953889
0002b0 67 00 a2 bd c9 d5 c0 3c f5 7e 06 3e 9e 89 95 bd
       -0.07910233 0.02353944 0.13134368 -0.07301639
0002c0 24 34 01 be 8c c4 93 bd f7 ca 21 be e7 88 3e 3d
       -0.12617546 -0.07215223 -0.15800081 0.04651728
0002d0 d8 4a 65 be c2 11 97 3d 2b 55 65 bf 15 ed 70 3e
       -0.22391832 0.07376434 -0.8958308 0.2352794
0002e0 37 73 06 40 39 df b0 3e d8 84 4f bc 65 63 0e bd
       2.1007822 0.34545305 -0.01266595 -0.03476276
0002f0 26 e9 4d 3f 60 b1 a9 bf e8 45 1a 3f dc f0 69 bd
       0.8043388 -1.3257256 0.6026292 -0.057114467
000300 a0 8b c1 3e 88 10 0e 3e 03 f8 aa 3e c9 cf b8 be
       0.37801838 0.13873494 0.33392343 -0.36096027
000310 a3 4c 67 3e 56 fe b5 ba be 40 82 3f 17 5e 45 bc
       0.22587828 -0.0013885002 1.0176008 -0.012046359
000320 4c 85 e2 3e 17 ff 58 bd a6 34 bd 3c 5f 86 94 bd
       0.44242322 -0.052977648 0.023096394 -0.07252192
000330 06 cf 9a bc ae aa 3a bc 3f d4 d4 3d c1 1e 3d 3d
       -0.018897545 -0.011393232 0.10392045 0.046171907
000340 94 58 97 3d 65 8f d9 bc d3 a3 0b 3e 0e 21 ff 3c
       0.07389942 -0.026557634 0.13636713 0.031143691
000350 ff de 76 3c 99 55 96 3d cb ba bc be 21 f9 02 3b
       0.015067815 0.07340545 -0.36861262 0.0019984918
000360 5a de 30 3e 8d 32 9e 3c 29 bd 6e bd 1d 75 b3 bd
       0.1727232 0.019311214 -0.058285866 -0.08762572
000370 56 ba 0a be 28 43 29 be 48 b2 a2 3e 27 36 c6 bd
       -0.13547644 -0.16529524 0.31776643 -0.096782975
000380 96 3a 47 be 4b 79 a0 bd f9 0e 0e be d2 1d 5c 3c
       -0.19455943 -0.07835635 -0.13872899 0.013434844
000390 e7 73 15 3e 45 3b 92 3f ac da 02 be 46 06 9f 3e
       0.14594994 1.1424338 -0.12778729 0.31059474
0003a0 aa 6a c3 be 20 6c fc 3e a6 19 53 bf 48 66 c6 be
       -0.38167316 0.49301243 -0.8246101 -0.3874991
0003b0 45 be 84 bf 98 dc 20 3f 10 6b 3c 3e c6 1e af 3d
       -1.0370566 0.628366 0.18400216 0.085507914
0003c0 d3 6b a3 bc 17 0f 63 be 8f c8 3d 3f 14 cd 37 3f
       -0.019948876 -0.22173725 0.74134153 0.717973
0003d0 60 b4 2a 3e 17 fe c6 3e 56 54 77 3d 52 bf 9a 3d
       0.1667037 0.3886573 0.060383163 0.07556023
0003e0 fa 6b 4a be ae 3b 77 3d 88 00 c6 3c c1 d4 c4 bd
       -0.19767752 0.06035965 0.024170175 -0.09610892
0003f0 53 c3 64 be a8 03 16 3e 5a 8a 43 bc 1e 59 9c bd
       -0.22340135 0.14649832 -0.011934841 -0.07634185

actor.0.bias f4 [128]
000000 67 27 c1 be ed 5a 88 be 7e cb e8 bd d4 8f 48 be
       -0.37725374 -0.2663187 -0.11366938 -0.19586116
000010 d2 54 69 bc 9e bd a4 bd e2 87 42 3e a0 f4 91 be
       -0.014241414 -0.08043979 0.18997148 -0.28506947
000020 98 2a 9a be ee 0d 15 3c 28 5f 8b be 00 56 c9 3d
       -0.3011062 0.009097559 -0.27221036 0.09830856
000030 81 36 53 3e 89 79 a6 3c c2 f2 c1 be 9e 56 f5 bd
       0.2062626 0.020321624 -0.37880522 -0.119794115
000040 c0 2f 24 3e e6 38 65 be a9 4a db bd 95 a2 a1 3d
       0.1603384 -0.22384986 -0.107076 0.07892338
000050 07 03 42 3e 6f 5d bc bd cb 38 92 bd 45 30 ce bd
       0.18946467 -0.091975085 -0.07139739 -0.100678004
000060 06 6b 03 bc 57 6c 9b be 0b ff 29 3e 6c 81 68 bd
       -0.008021122 -0.30356094 0.16601197 -0.05676405
000070 2b c8 0a bd fe fd 44 bd 5c 99 c8 bd b9 85 f8 bd
       -0.0338823 -0.04809379 -0.09794876 -0.121348806
000080 9b 41 38 3e 3a 3f 70 be 7c a8 a9 3d e1 0b 6e be
       0.17993777 -0.23461619 0.08284089 -0.23246719
000090 29 5f 3c 3d c1 c8 58 be c2 43 4a be 79 13 37 be
       0.04598919 -0.21170332 -0.1975241 -0.17878522
0000a0 08 f3 ab bd 49 82 05 3d 7b 53 99 be 13 a4 5f be
       -0.08395964 0.032594953 -0.29946503 -0.21839933
0000b0 97 34 0f 3e 6b 1a 56 3e 48 4c c0 bd fa af cc bc
       0.13984905 0.20908515 -0.093895495 -0.024986256
0000c0 26 9f 6c 3e dd f1 af 3e 3f 15 be bd b6 51 02 bd
       0.23107585 0.34364215 -0.09281396 -0.031816207
0000d0 0d 9c 5f 3e c1 cb fa bd 68 90 98 3d 02 8f 8c 3e
       0.21836872 -0.12245894 0.07449418 0.27452856
0000e0 39 00 58 3d af d4 87 be 5a 34 95 bb af 98 49 be
       0.052734587 -0.26529452 -0.00455336 -0.1968715
0000f0 42 8d 85 bd 40 92 47 be 77 e6 e0 bd ef fd 13 3e
       -0.065210834 -0.19489384 -0.10981458 0.14452337
000100 18 82 64 bd 18 47 73 be dd 1a c8 3c 10 7e 5c be
       -0.05578813 -0.23757589 0.024426872 -0.21532464
000110 95 68 04 bd a9 93 87 3d 46 47 4a bd bb 28 22 be
       -0.0323263 0.06619961 -0.049384378 -0.1583585
000120 64 c0 cc be 58 5f 1e be f6 f5 e7 3e ad 35 69 be
       -0.39990532 -0.15466058 0.4530484 -0.22774382
000130 ce 22 79 be 44 86 00 3e c5 d8 e1 3d 20 cb 21 be
       -0.24329683 0.12551218 0.11027674 -0.15800142
000140 5c cf df 3d 2f 72 e5 be 80 88 e0 3c 0c 8b 1f 3e
       0.109282225 -0.44813678 0.027408838 0.15580386
000150 b1 29 89 be 6b e3 d3 bc af fd d2 bd 3c ec f2 3d
       -0.2678962 -0.025865277 -0.103022926 0.118614644
000160 23 40 13 be e5 49 3c bc aa a2 4e 3e e1 f5 81 bd
       -0.14379935 -0.011492227 0.20179239 -0.06345726
000170 0f 46 1a 3e d3 67 34 3e 51 55 72 be 84 4b dc bd
       0.15065788 0.17617731 -0.23665358 -0.10756591
000180 a4 b9 be 3d 3a 80 86 be e8 b5 f9 bd 81 d5 4c 3d
       0.09312752 -0.26269704 -0.12192899 0.0500083
000190 af c7 03 3e 2b 68 64 3e a7 b2 58 3e d8 e3 a0 be
       0.12869142 0.22305362 0.211619 -0.3142383
0001a0 fe 90 79 bd 86 97 a8 be 05 62 40 3d 14 23 2d bd
       -0.06092929 -0.32928103 0.04696848 -0.04226978
0001b0 d4 8d fb bd b7 f8 8b bc a2 66 84 be 86 41 ee 3d
       -0.12282911 -0.01708637 -0.25859553 0.11633591
0001c0 2f 82 25 bd c8 6a f7 bd 8f 1c bc be 6b 3e bc bd
       -0.040407356 -0.12080914 -0.36740538 -0.09191593
0001d0 55 dc 30 be 0f 31 15 3e 69 23 b8 bd 7e 52 1b bc
       -0.1727155 0.14569496 -0.08991129 -0.009480117
0001e0 f2 c5 86 3b 6c c5 48 be 29 80 0d be 62 78 88 bd
       0.0041129524 -0.1960656 -0.1381842 -0.06663586
0001f0 58 4e d3 3e a9 9e 88 3d a7 ea 8f 3d ee 31 29 bd
       0.4127071 0.06670887 0.07027178 -0.041307382

actor.2.weight f4 [128, 128]
000000 a0 96 81 bd ae 9a 28 3e 64 9f ac 3c c8 2c 8c 3d
       -0.063275576 0.16465256 0.021072097 0.06844479
000010 8a 20 5a 3e fd 67 4d 3d 0a e8 51 be 23 6f 4c bd
       0.21301475 0.050148 -0.20498672 -0.049910676
000020 3b ed 8e be 9a ae 0f be 3c 36 90 3e a2 5a d0 bd
       -0.27915367 -0.14031449 0.28166378 -0.10173537
000030 71 3e 98 3d b3 72 a2 3d c8 a4 f7 3c 2c 03 e9 3b
       0.07433785 0.079320334 0.030229941 0.007110974
000040 f5 9d 4c bd de c7 23 3e 12 71 1c bd e8 f5 f3 bd
       -0.049955327 0.15994212 -0.03819377 -0.11912137
000050 fd e5 97 3a 0b 45 b0 3d 2a f1 03 bd a2 db bf bd
       0.0011588928 0.08606919 -0.032212414 -0.093680635
000060 2f 1b 5e bd 96 43 8c bc 13 b1 11 be 6c e7 81 bd
       -0.054225143 -0.017122071 -0.14227705 -0.06342968
000070 6a 7d 4f 3e a3 f0 c4 3d 05 8f 5d 3c 8a 65 1f be
       0.20262685 0.0961621 0.013522868 -0.15566078
000080 03 64 3b be d0 06 81 3d 84 ee 72 3d 64 0d dc 3c
       -0.1829987 0.063001275 0.059309497 0.026861854
000090 fa e9 9b bc 07 1d 35 3d ba 75 8a 3d 49 41 fe 3d
       -0.019032467 0.044217136 0.06760736 0.12414796
0000a0 49 c6 40 bc 6d a0 d9 3c 5f 2a 84 3d a3 d0 43 3e
       -0.011766025 0.026565755 0.06453394 0.19122557
0000b0 b8 d9 f1 bd 49 d1 d1 bd 99 2b ff bd d4 7d 57 3e
       -0.11809105 -0.10244996 -0.124594875 0.21044093
0000c0 70 02 a5 be 27 c5 6a be 15 1e 88 3d 80 f0 1d be
       -0.32228422 -0.2292677 0.06646363 -0.15423775
0000d0 b8 2b 22 be c8 ee c4 bd aa 92 9d be ae dd 64 bd
       -0.1583699 -0.096158564 -0.30775958 -0.055875473
0000e0 f7 a5 a7 3d 3f 6d a3 3c 9b b5 18 bd bd 33 4a be
       0.08185952 0.019949554 -0.037282567 -0.19746299
0000f0 3c f3 86 ba 89 f0 8d 3c 1d 7e ca 3b 57 6f df 3d
       -0.0010295878 0.01732661 0.0061795847 0.10909908
000100 22 96 bd bc 3e ec 9c bd bb 35 17 3d 2e f8 30 3e
       -0.023142878 -0.07662247 0.036916476 0.17282173
000110 69 ed 52 bd 22 74 ba bc 30 08 68 bb 78 d0 70 3e
       -0.051495943 -0.022760455 -0.003540527 0.23517025
000120 2f b9 c5 bc 7a 66 c1 3d dc 89 88 be df 10 65 3d
       -0.024136154 0.09443374 -0.26667678 0.055924293
000130 de 5c 10 3e 52 85 d2 3c 13 ac 0e bc 8e 5d 34 be
       0.14097926 0.025698338 -0.008708018 -0.17613813
000140 0d 8d 72 3d 15 8a fc 3d 44 94 dc bd 76 9f cd be
       0.059216548 0.123310246 -0.10770467 -0.40160722
000150 17 41 0f 3e 9b 3a 9b bd 37 0a 90 be 7f 39 3a bd
       0.13989674 -0.075795375 -0.28132793 -0.04546499
000160 a8 56 82 bb 4e ce 3d bd 11 4e a1 bd 87 64 1c be
       -0.0039776154 -0.046339326 -0.07876218 -0.15272723
000170 f5 31 84 bd 8c 73 16 be d0 24 12 3e 22 31 24 3d
       -0.06454841 -0.14692515 0.14271855 0.04008592
000180 92 e5 29 3e c9 54 a5 bd 84 57 d5 3c 14 a8 db 3d
       0.1659148 -0.08072812 0.026042707 0.10725418
000190 53 71 46 ba 90 77 71 be 01 7d 10 3e 4e 48 39 3e
       -0.0007569987 -0.23580766 0.14110185 0.18093988
0001a0 11 f9 b8 3c c7 91 d4 bc 48 8d 96 3d 83 95 4c bd
       0.022579702 -0.025948418 0.07351166 -0.049947273
0001b0 42 80 9e 3e 65 e4 97 3d ab 26 c6 3d f9 9b 71 3d
       0.30957228 0.0741661 0.09675344 0.058986638
0001c0 ff 39 c3 bd 0e b3 d3 bd 35 cc a2 bc 05 dc 01 3d
       -0.09532546 -0.10336886 -0.019872764 0.031703968
0001d0 e8 77 9e bd d8 20 b6 3d 40 5a 01 3d ed 66 5e be
       -0.07737714 0.08892983 0.03158021 -0.2171895
0001e0 4f ac 1e be 5d d7 9f 3d bf da 00 3d ec c9 20 3c
       -0.15495418 0.07804749 0.031458613 0.009813767
0001f0 12 19 06 be f4 c1 bb bd 4a 75 3a 3d d8 ee 92 be
       -0.13095501 -0.09167853 0.04552201 -0.28697848
000200 cc 0c fd 3d c6 03 0a 3e e0 e2 41 be 74 77 91 3d
       0.123559564 0.13478002 -0.18934202 0.07102862
000210 6f e8 16 3e b6 ca 7e 3e cf 0e 4c bd fd d8 8c be
       0.14737104 0.24882016 -0.04981881 -0.275093
000220 7a 9c 10 3d f7 99 68 3d c7 a5 2b be 65 92 49 3e
       0.035305478 0.056787457 -0.16762458 0.19684751
000230 1e 0e 71 bc 95 a6 60 be b6 09 79 bc f7 d6 c7 bd
       -0.014712838 -0.21938546 -0.015200069 -0.09757798
000240 47 c9 38 3e 3f 9c 19 3e 97 f0 88 3d e9 ce 1e 3e
       0.18045531 0.1500101 0.06686514 0.15508617
000250 4d 2d d6 bd 5c b8 c8 3d 2f 0b 94 3c bf 74 58 be
       -0.10457859 0.09800789 0.018071739 -0.21138285
000260 2f 61 2a 3d 01 5a 50 3e 80 47 fb 3d 1b 9b 3d 3d
       0.041596588 0.20346834 0.12269497 0.0462905
000270 33 09 49 3d f9 aa 14 be 0e 01 65 bd c3 53 0b 3e
       0.04908104 -0.14518346 -0.05590921 0.13606171
000280 30 8d 08 3e ac f8 a9 3d 66 d9 59 3c 95 85 32 3e
       0.13335109 0.082993835 0.013296461 0.1743377
000290 c4 e3 83 3c ea 0e a3 3d 37 99 71 3d 89 0f 97 3e
       0.016099818 0.07961829 0.058984008 0.2950404
0002a0 e2 bc 81 3d 5d e6 65 bd 7a a2 78 3e 78 60 f3 3d
       0.06334855 -0.056127895 0.2428073 0.11883634
0002b0 a5 28 ac 3d ac 97 a5 ba 65 c8 9f 3a 45 0a 71 3d
       0.0840619 -0.0012633703 0.001219046 0.058847684
0002c0 5d 1b b4 3d 5b 09 e7 3a 29 2a ef bc ed 81 1c be
       0.08794282 0.001762669 -0.029194908 -0.15283938
0002d0 0a 71 0f 3e 72 eb 65 be 28 4f 37 3d 88 15 c9 3d
       0.14007965 -0.22453097 0.044753224 0.0981856
0002e0 12 83 9f bc 39 de 5a 3b a3 85 01 3e bb c8 db 3c
       -0.019471679 0.0033396615 0.12648635 0.026829114
0002f0 c0 29 62 3c 25 66 88 3d 1b 0f d9 bc 56 2f bd 39
       0.013803899 0.066601075 -0.02649646 0.00036084157
000300 35 ee 22 bd b1 b9 42 3d 78 ee 0f 3d 6e a0 27 be
       -0.039777953 0.04754037 0.03513953 -0.16369793
000310 af 53 36 3e 09 c0 22 be 2a 7c 16 3e d9 83 80 3e
       0.1780536 -0.15893568 0.14695802 0.25100592
000320 dd 0f 9c bd 73 ed dc b9 e7 8b 86 bd a4 3d 55 3d
       -0.07620213 -0.00042138583 -0.06569653 0.05206074
000330 e9 4b 71 bd 72 e1 8f 3d 8d d5 ad be e2 25 57 3d
       -0.058910284 0.07025422 -0.3395199 0.052526362
000340 a2 63 06 3e 69 16 e9 bc d7 5f fb bb d9 70 a7 bd
       0.13123944 -0.028453069 -0.007671337 -0.08175821
000350 51 87 10 3e e3 c3 12 3d 0b b8 16 be e9 7e bd 3d
       0.14114119 0.035831343 -0.14718644 0.09252722
000360 66 41 bf bd b1 da a4 3d d6 45 30 be 21 e2 16 bc
       -0.09338646 0.080495246 -0.1721414 -0.009209187
000370 cd ba a2 3d 05 9a 72 3d 97 8b 30 be b4 7e 56 bc
       0.07945786 0.059228916 -0.1724075 -0.013091732
000380 00 18 c0 bd 4e 01 b8 bd b6 cd 5a 3d 69 ce f6 3d
       -0.09379578 -0.08984624 0.053418837 0.12051088
000390 8f c8 2e 3c d6 65 8c be ea 62 d1 3c 46 82 94 3d
       0.010667934 -0.27421445 0.025559861 0.0725141
0003a0 ff 44 07 be 1c 2d 04 be f2 54 ee 3c 42 83 03 3d
       -0.13209914 -0.12907833 0.02909324 0.0321076
0003b0 60 57 de bd 8b 70 d0 3c 30 6f 06 3e e0 8e 1a be
       -0.10856509 0.02544429 0.13128352 -0.15093565
0003c0 95 88 b0 3e 3b 89 a8 bb 1f eb 24 3e c8 73 1b be
       0.34479204 -0.0051433123 0.16105317 -0.15180886
0003d0 a5 f8 98 bd 06 3e f9 3d 12 0c 1f 3d be e1 16 bf
       -0.074693 0.12170033 0.03882987 -0.58938205
0003e0 56 24 40 bc c4 ed 1b 3e 2e b3 46 bd 9b 57 f1 bd
       -0.011727413 0.15227419 -0.048510723 -0.117842875
0003f0 2b de af bd a8 dd 73 3e eb b4 c2 ba b4 65 06 3e
       -0.08587297 0.23815024 -0.0014854943 0.13124734

actor.2.bias f4 [128]
000000 61 a6 c0 be 5d e5 3b be 66 ad 89 be 5f c9 d6 3c
       -0.37626937 -0.18349214 -0.26890105 0.026219068
000010 45 a7 c1 be 14 d7 18 be b4 d1 a9 be 97 f0 bd bd
       -0.3782293 -0.14925796 -0.33167803 -0.092744045
000020 0b db 65 be 57 42 95 be 94 aa 9e be a1 78 ac be
       -0.2244684 -0.29152176 -0.30989516 -0.33685783
000030 ff de 5f be 93 7e 19 be da f0 f2 3b 24 db 18 3e
       -0.2186241 -0.1498969 0.0074139656 0.14927346
000040 ab 74 2d be 92 92 af be f3 af 2a 3d 8b d0 6d be
       -0.16939037 -0.34291512 0.041671705 -0.23224084
000050 48 5c bd ba f2 51 4a 3d d5 65 95 3d b9 0a 01 be
       -0.0014447058 0.049394555 0.072948135 -0.12601747
000060 29 42 d8 bd 72 11 84 be a5 93 fe bd 7a 50 d4 bd
       -0.10559494 -0.2579456 -0.12430505 -0.10366912
000070 80 fa 36 be 97 d2 46 be 22 6a 66 bd 54 fd 4f be
       -0.17868996 -0.19416271 -0.05625356 -0.20311481
000080 93 64 01 be d4 3a f8 bd 98 b4 09 3e 07 23 8b bd
       -0.12636022 -0.121205956 0.13447797 -0.0679379
000090 25 e5 0f be 3d e9 93 be d5 5c 73 be 47 d7 f8 bd
       -0.14052255 -0.28888884 -0.23765881 -0.12150436
0000a0 59 83 49 be ef 80 0b be 6d d9 51 be b1 89 63 3d
       -0.19679011 -0.13623403 -0.20493098 0.055551235
0000b0 a7 4a 93 be 6c 19 1b be 78 cd 19 be 49 d8 25 3d
       -0.28767893 -0.15146416 -0.15019786 0.04048947
0000c0 89 f1 37 be 41 79 2d be ab 73 8a be 9f cd 9d bd
       -0.17963232 -0.16940786 -0.27041373 -0.07705235
0000d0 a2 b5 fb 3d 22 4f 8e be e6 55 bc 3d 6b 80 b6 bd
       0.12290503 -0.2779475 0.09196071 -0.089112125
0000e0 e5 5d 9b be a5 3a dc 3d 38 4d dc bd aa bb 36 be
       -0.30345073 0.10753373 -0.10756916 -0.17845026
0000f0 f3 e5 2c be 85 41 f7 bd 40 13 6f be 84 3a db 3a
       -0.16884594 -0.12073044 -0.23347187 0.0016725813
000100 95 51 bf be b8 56 0a be 84 13 3e be a5 71 8b bd
       -0.3736693 -0.13509643 -0.18562132 -0.06808785
000110 cb 39 76 bd 6b cb 54 bd 2c 6e 1e be 14 7e 9e be
       -0.06011371 -0.051951807 -0.15471715 -0.30955565
000120 44 22 09 be 5c cf 04 be 0a 31 22 bd 90 00 df bd
       -0.13391978 -0.12969726 -0.03959755 -0.10888779
000130 58 33 1a be e5 73 cd bd f4 1b 2a be 46 05 f3 3c
       -0.15058649 -0.10031871 -0.16612226 0.0296656
000140 b3 46 0a be b5 0a ad be 0f 61 43 be c8 46 17 bb
       -0.13503532 -0.3379723 -0.19079994 -0.002308296
000150 42 46 62 3e 1c 92 d5 be 37 47 76 3b 79 e6 b9 be
       0.22097114 -0.41713035 0.0037579068 -0.3630865
000160 56 ad 25 bd 7f 44 d9 bd 37 31 5e 3d b6 8f a4 bd
       -0.04044851 -0.10608768 0.054246154 -0.08035223
000170 2a ea 29 be 53 2f ec 3c c5 87 d1 bd 49 be a4 bd
       -0.16593233 0.02883116 -0.10230974 -0.080441065
000180 e3 40 1c be ef a4 16 be d2 45 a3 3c 1f 06 47 be
       -0.15259127 -0.14711355 0.019930754 -0.19435929
000190 17 58 f8 bd e0 ca 49 be 9c 48 1b be 1b d1 2a be
       -0.12126177 -0.19706297 -0.15164417 -0.1668133
0001a0 ec 21 c3 be c6 8a 3c be 67 1e 54 be 82 8a 46 be
       -0.38111818 -0.18412313 -0.20714723 -0.19388774
0001b0 07 b0 24 be ce de 31 be 8b 5f 4e be ef 93 b0 3d
       -0.16082774 -0.1737015 -0.20153634 0.08621966
0001c0 44 86 d8 3d 30 e8 61 bd 54 5f 45 be fe d5 e7 bd
       0.10572484 -0.055153072 -0.19274646 -0.11320113
0001d0 7d f0 96 be 85 ea 54 be 0b 9a 13 bd d3 0f 68 be
       -0.29480353 -0.20792587 -0.03603558 -0.22662286
0001e0 03 53 b2 be 08 c0 79 be ce e1 64 be e4 cb 83 be
       -0.34828958 -0.2438966 -0.22351763 -0.25741494
0001f0 16 c1 b3 3d 0c 39 bb bd 9e a3 89 3d 19 40 5b be
       0.087770626 -0.0914174 0.067206606 -0.2141117

actor.4.weight f4 [128, 128]
000000 7e c4 87 bd 91 a2 29 be 87 09 27 be b7 f1 46 be
       -0.06629275 -0.1656592 -0.16312228 -0.19428144
000010 a1 ed eb bd 12 92 9e bd ee 7b f4 bd 56 80 0b bd
       -0.115199335 -0.077427045 -0.119377 -0.034057938
000020 bb 82 43 bc 05 ce 1f be 59 e8 b8 bd 65 2f 8e be
       -0.011933024 -0.15605934 -0.09028692 -0.27770534
000030 fc 85 30 bd fe 6a 09 3e 6a dc c9 bd ff 50 d2 3d
       -0.043096527 0.1341972 -0.09856494 0.10269355
000040 da 1d 0d bc 44 29 47 3e d4 0d 74 3d 5e 37 23 be
       -0.008613074 0.19449335 0.0595835 -0.1593909
000050 72 79 92 bd 36 a2 92 bd a3 e3 ca bd 6a 08 b7 3d
       -0.0715207 -0.071598455 -0.099066995 0.08937152
000060 7c 58 bc bd b0 2a 04 bb d3 e5 4c be 84 d6 b5 bd
       -0.091965646 -0.0020167045 -0.20009546 -0.08878806
000070 c5 45 ba 3d b5 ff f0 3c fc 03 2c be 92 0d d7 3d
       0.09095339 0.029418806 -0.16798395 0.10500635
000080 dc 8c 47 bd 67 37 30 3d 6c cb 80 bd 18 17 23 bc
       -0.04871832 0.043021586 -0.062888 -0.009954236
000090 f1 e1 a7 bc 2c d6 d1 bd c9 9e 4d bc 3a 98 c5 ba
       -0.02049348 -0.10245928 -0.012550064 -0.0015075274
0000a0 5c 06 4c bd 01 ce 22 3e b2 dd b5 bc 38 7a 02 3c
       -0.049810752 0.15898897 -0.02220044 0.0079637095
0000b0 e2 65 66 bd 7a fc 22 bc 55 f8 4d 3e 9b 91 b3 bd
       -0.056249507 -0.00994789 0.20114262 -0.087680064
0000c0 9b 1b e4 3c 3b 73 27 be 3a b8 0d 3e cf 45 4f bc
       0.027845195 -0.1635255 0.13839808 -0.012650921
0000d0 6d 28 76 bd 0b 65 b6 3d 2e 28 6f bd 33 9b 10 bc
       -0.060097147 0.08905991 -0.058387928 -0.008826065
0000e0 d9 66 14 3d be a6 58 be 93 fd ba 3c 48 82 3d bd
       0.036230896 -0.21157357 0.022825992 -0.046266824
0000f0 54 61 a1 3b 8e 5a 18 3d 78 b0 62 bd f5 30 bb bd
       0.0049249325 0.037195735 -0.055344075 -0.09140197
000100 47 50 c0 bd 84 7d 82 bd 4b e2 4d bc e2 a7 c0 3d
       -0.09390312 -0.063715965 -0.0125661595 0.09407021
000110 c7 bb 55 be af b6 4e bc be a2 8a 3c d8 72 f0 3c
       -0.20872413 -0.012616797 0.016923305 0.029351637
000120 f6 eb ba 3a 9d 18 d9 3d 19 06 a3 bd 66 19 04 be
       0.0014260996 0.10600398 -0.079601474 -0.12900314
000130 9b 3b 6e 3d b3 42 27 bd c2 da 96 bc fe e3 e7 3c
       0.058162313 -0.040835094 -0.018414859 0.028306957
000140 d2 ad 11 bd 77 81 53 bd f3 03 a1 3b b6 74 62 bd
       -0.03556616 -0.05163714 0.004913801 -0.055287085
000150 08 d1 8d 3b 99 8d ac 3c 42 b3 13 be 7b 3b b0 3d
       0.004327897 0.021063613 -0.1442385 0.08605095
000160 d7 2f f9 bc b3 c4 5b 3e b0 1f d9 bd b6 1f 74 bd
       -0.03041832 0.21461754 -0.10601747 -0.059600554
000170 6b 9e 9b bc 7c 05 12 be 42 2d 81 3d 95 ff c2 bb
       -0.018996438 -0.14259905 0.0630746 -0.005950878
000180 17 24 f7 3d ad b5 1a bd 26 75 20 bd fc e9 f4 3c
       0.120674305 -0.037770916 -0.03917422 0.029896729
000190 a9 4f bc 3c 0e e9 cb 3d 70 3d 2f 3e 2f 97 5b 3d
       0.022987204 0.09956561 0.1711328 0.053610977
0001a0 5b ba 33 be 40 07 03 3e 1f 43 4e bd 93 c0 16 bc
       -0.17551558 0.12795734 -0.05035698 -0.009201187
0001b0 86 0a e2 3c 6f 63 fa 3d d7 9a 04 be 29 97 3d bd
       0.027592909 0.12225997 -0.12949692 -0.046286736
0001c0 95 10 8d bd 0a 16 7f bd b7 81 bc bd 2c fa 1a be
       -0.068879284 -0.062276877 -0.09204429 -0.15134495
0001d0 1b 26 15 bd 33 03 30 3d bb 6b 4b be d6 f2 13 3e
       -0.036413293 0.0429718 -0.19865315 0.14448103
0001e0 b6 07 b2 3c 68 94 2b be a8 d1 b0 3b eb 8c 86 3d
       0.021732192 -0.16755831 0.0053960867 0.06569847
0001f0 7a 1b 07 be ae 52 2a 3d 3a 58 9a bc 4e 64 82 be
       -0.13194075 0.041582756 -0.018840898 -0.2546715
000200 f6 b2 1e bd b2 a2 17 3e 8b fb 4b bd c0 9e 9e bb
       -0.03874489 0.14808157 -0.049800437 -0.004840702
000210 25 53 14 3e a3 3b 7f 3d 4a bd 4d 3e dc 57 59 bd
       0.14484842 0.062312733 0.2009174 -0.053062305
000220 76 a6 05 3e 40 3f af 3e bc 82 5e 3e ce f1 ab bd
       0.13051781 0.34227943 0.21729559 -0.0839573
000230 7d 81 56 3e 86 08 19 3e 49 a9 84 bd 9d 5a 72 be
       0.20947833 0.14944658 -0.06477601 -0.23667379
000240 ba a0 3d 3e b6 d9 bd bc f4 94 89 bc dc c0 e0 3d
       0.18518344 -0.023175102 -0.01679466 0.10974285
000250 e6 c5 ea bd 21 3d eb bd 6f 34 14 be 2a 0d 71 bd
       -0.114635274 -0.11486269 -0.14473127 -0.058850445
000260 2b 83 4c 3c 5b 70 62 bc 17 18 a9 3d e9 34 5f bc
       0.012482445 -0.013820733 0.08256548 -0.013623455
000270 eb c3 14 3c 28 56 d5 3b d6 b3 a5 bd bd 0a 25 be
       0.009079914 0.0065105148 -0.080909416 -0.16117378
000280 38 87 a8 3c 6f 81 e3 bd 3c 8a a0 3c 32 ab 44 be
       0.02057229 -0.11108672 0.019597165 -0.19205931
000290 08 2c 0f bd 38 74 63 3d 97 e0 22 3d d6 c3 71 3c
       -0.0349541 0.055530757 0.039764967 0.014756164
0002a0 02 62 6d 3d e4 76 05 be 46 66 fc 3d 2f 2a c8 3d
       0.057954796 -0.13033634 0.123241946 0.09773671
0002b0 a8 51 fc 3c 19 b0 33 3e 93 79 1b 3e 53 d3 25 3e
       0.030800655 0.17547645 0.15183096 0.16193895
0002c0 66 43 1b be 23 ea 1a 3d e6 46 91 3d 59 2e 29 be
       -0.15162429 0.037820946 0.07093601 -0.16521586
0002d0 05 9c 28 be 96 a2 00 3e 63 de ec bd fc a3 80 be
       -0.16465767 0.12562022 -0.115658544 -0.2512511
0002e0 7a 71 02 3e 47 ac 22 bc ed 06 4a 3d f0 df 97 3c
       0.127386 -0.009928769 0.04932301 0.018539399
0002f0 52 47 32 3d e6 87 81 bd dc 0e 47 3d 5d 03 81 3b
       0.043525048 -0.06324749 0.048598155 0.0039371685
000300 4a 57 f4 3d 45 b5 34 be 38 e2 1a 3e 19 d2 c6 bd
       0.119307116 -0.17647274 0.15125358 -0.09708042
000310 55 e0 46 bd 22 33 a3 be 85 58 87 3d a6 10 03 3d
       -0.048553783 -0.3187495 0.06608681 0.0319983
000320 b8 ca f1 bc 8f 20 9b 3b a9 93 62 3e a9 bc 87 3d
       -0.02951561 0.004734106 0.2212664 0.06627781
000330 8d 5f 6f be c1 e9 e6 3d 2d f5 0b 3d de 1d a3 3c
       -0.23376293 0.11275054 0.034169365 0.019911703
000340 9e 98 84 3d c2 0d f5 bc e0 bc 78 bb 61 da 82 be
       0.06474422 -0.029913787 -0.0037954375 -0.25557235
000350 6e d9 87 be c6 3a 96 3e b6 d2 d0 bd 09 0c 28 3e
       -0.26533073 0.29341716 -0.1019644 0.16410841
000360 76 e3 3f bd 28 c5 4a 3e 0b 1d db bc 91 5f 3e 3d
       -0.046847783 0.19801772 -0.026747247 0.046477858
000370 47 6c 3d 3e 5b f3 fe 3d ff 83 86 3d 86 e9 3f bd
       0.18498336 0.1244876 0.06568145 -0.046853565
000380 8c 21 98 3e 68 74 65 be fc 0e 1e bd 0a da 7b b9
       0.29713094 -0.22407687 -0.03858851 -0.00024018451
000390 5b 52 37 3e 44 f4 20 3d 08 11 c3 3b c5 25 72 3d
       0.1790251 0.03929545 0.005952958 0.05911805
0003a0 cd 95 31 3e 45 66 ce bc 42 fd be be 59 d9 28 3e
       0.173423 -0.02519525 -0.37302595 0.16489162
0003b0 c0 bd 88 be 51 81 64 bc 99 66 10 3e 37 ad 01 bc
       -0.26707268 -0.013946847 0.14101638 -0.007914833
0003c0 d1 7b 4f bd b7 07 f2 bc 25 3b 82 bd f7 4e 80 3c
       -0.05065519 -0.029544694 -0.06358937 0.015662653
0003d0 34 97 e4 3d a7 12 29 be f8 85 dd 3c 4e 13 d1 bd
       0.11161652 -0.16511022 0.02704142 -0.1020876
0003e0 8f e2 0e 3e 37 b6 0c 3e 16 98 09 3e cc 1f 20 3e
       0.13953613 0.13741384 0.13436922 0.1563713
0003f0 ea 7b 0f bd 49 2d 1b 3d 62 e4 1d 3e 7c 84 a7 3d
       -0.035030283 0.037884984 0.15419152 0.08179566

actor.4.bias f4 [128]
000000 3d ac 46 bd b8 7f 89 be ff c1 3c be 88 a9 65 be
       -0.048504103 -0.26855254 -0.18433379 -0.22427952
000010 db 40 12 3d 79 21 45 be 61 03 07 be e2 01 0c be
       0.035706382 -0.1925105 -0.13184883 -0.13672593
000020 fd bb 71 be c9 62 65 be e4 f3 8c be c4 4c cc 3c
       -0.23606868 -0.22400965 -0.27529824 0.024938948
000030 83 50 88 bb 28 1e ed bd 3c 19 ad bc f6 09 10 be
       -0.0041599884 -0.115780175 -0.021130197 -0.140663
000040 48 ce 5f be 57 2a 8c be 02 6c 1a bd a0 88 63 3d
       -0.21856034 -0.27376053 -0.03770066 0.055550218
000050 67 5b 23 be 5e 31 3a 3c b6 75 99 bd e1 69 8c be
       -0.15952836 0.011364309 -0.07493155 -0.2742453
000060 a0 b7 2f be 10 bb 66 bd af 72 c7 be 6b fd 30 be
       -0.17159891 -0.05633074 -0.38954684 -0.17284171
000070 49 0d 09 be b8 82 41 be 7e 15 31 be a2 05 3a bd
       -0.13383974 -0.18897521 -0.17293355 -0.045415528
000080 9d 17 13 be 8f cc c7 bd 9a f9 90 be 93 ec 1c bc
       -0.14364477 -0.09755813 -0.2831543 -0.009577888
000090 56 29 5a bd f3 da b8 bc 8f 8c 6d be 84 41 8a ba
       -0.053262077 -0.02256534 -0.2319815 -0.001054809
0000a0 99 68 ae be 42 f5 15 be 7e 25 16 bd 04 09 c8 bd
       -0.34064177 -0.1464434 -0.03665685 -0.097673446
0000b0 a4 4f 18 3c e1 8c b6 bc 4a cd 33 ba 67 04 29 be
       0.009296332 -0.022283973 -0.00068588986 -0.16505586
0000c0 bc d3 fc bd 5c 0c 48 be 8e 23 ea be 90 fd 6c bd
       -0.123450726 -0.19535965 -0.4573025 -0.057859004
0000d0 18 e2 73 be 19 1a 11 be 02 6a dc bd ec b1 a0 bd
       -0.23816717 -0.14170112 -0.10762407 -0.07846436
0000e0 61 ea 05 be 71 96 c2 bc 23 e4 e8 bd a9 d9 f0 bd
       -0.1307769 -0.023753377 -0.113716386 -0.117602654
0000f0 ea de 3b be 57 eb c4 bd 98 3b 4c be 3e c4 ed bd
       -0.18346754 -0.096152 -0.19944608 -0.11609696
000100 ab d5 9d be c6 c8 9e bb 5e 6e 19 be 98 1c 47 bd
       -0.30827078 -0.0048457114 -0.14983508 -0.048611253
000110 74 32 56 be 16 30 11 be 00 75 73 be 08 be 30 be
       -0.20917684 -0.141785 -0.237751 -0.17259991
000120 64 99 83 bc 17 f1 6e be c8 ef 3c bd df 32 6f be
       -0.016064353 -0.23334156 -0.04612711 -0.2335925
000130 9b 1b 49 be b6 bb e4 bd c1 e0 96 be 07 47 30 bd
       -0.19639437 -0.111686155 -0.2946835 -0.043036487
000140 fd ee 66 be ac 45 e6 bd 7d 1d 3f 3d cc b2 3e bd
       -0.22552104 -0.112437576 0.04665898 -0.046557233
000150 73 56 b5 bc d9 1e 26 be 90 2d e4 bd b7 06 89 bd
       -0.022135949 -0.16222705 -0.11141503 -0.06690734
000160 96 b5 9a bd b0 bc b3 bc 3e d6 03 be c7 86 d8 3c
       -0.07554166 -0.02194056 -0.12874696 0.026431454
000170 72 81 fd bd 25 f1 41 bd c8 20 c2 bd 46 dd a1 bd
       -0.12378205 -0.047349114 -0.09478909 -0.07903533
000180 e1 bd 2c be 92 23 03 bd f3 f5 2f be a7 24 1c bd
       -0.16869308 -0.032016344 -0.17183666 -0.038120892
000190 93 8f 92 bd 93 77 77 bb 8c f8 47 be 8a 0a d6 be
       -0.07156291 -0.003776048 -0.19528407 -0.41804916
0001a0 36 36 30 3b a5 38 fe bd f7 98 85 be 3a cc 38 3c
       0.002688778 -0.12413148 -0.26093265 0.01127916
0001b0 ee 24 4a be 49 be 27 be c5 da 0b be c0 1c 4e be
       -0.1974065 -0.16381182 -0.13657673 -0.20128155
0001c0 ee 76 b2 bc 10 02 88 3c a3 da 6c be 11 39 18 3d
       -0.021785226 0.016602546 -0.23130278 0.037163798
0001d0 a5 8a 22 be 8f 54 2a 3d 5f 73 83 be dc 8b 43 bc
       -0.15873201 0.041584548 -0.2567396 -0.011935201
0001e0 f2 8b e6 bd 26 4f 80 bd fa 2e 22 be f5 43 7e bd
       -0.11257161 -0.06265096 -0.15838233 -0.062076528
0001f0 f5 29 12 3c 95 90 23 be df 58 0f be 69 af 96 bd
       0.008921136 -0.15973122 -0.13998745 -0.073576756

actor.6.weight f4 [12, 128]
000000 e0 1b 0e 3d 72 a9 c7 bd d6 5e 94 bb 50 bf 4d 3d
       0.034694552 -0.09749116 -0.004527907 0.050231278
000010 81 19 9e ba c1 97 04 3d 9a 93 00 3d 7b 96 49 bd
       -0.0012062044 0.032371286 0.031390764 -0.049215775
000020 86 f5 d6 bc c5 81 bd 3b 15 75 45 bc 53 d6 70 bc
       -0.026240122 0.005783292 -0.01205184 -0.014699536
000030 bc ca 76 bc c6 b7 ce 3b 87 50 35 bd a5 3c b0 3c
       -0.015062984 0.0063085286 -0.04426625 0.021513293
000040 3c 7a 20 3d 61 31 92 bd 19 f8 fb bb 9f 70 d8 bc
       0.03917907 -0.071383245 -0.0076894877 -0.02642089
000050 00 99 2d 3c ef c1 31 bd 3d 27 98 3d 90 a2 94 bc
       0.01059556 -0.04339784 0.07429359 -0.018143922
000060 0a 78 2d bd c4 9a 2c bd 98 98 b5 3d ea 4f 05 3d
       -0.042350806 -0.042139784 0.088669956 0.032546915
000070 09 e2 ca 3d cb 54 ec bc 38 b4 11 3d 42 cf dd bc
       0.09906394 -0.028849026 0.03557226 -0.027076367
000080 27 d4 61 3d cf f6 9f bc 8f 17 b4 bd bd 16 66 bd
       0.055133965 -0.019526867 -0.08793556 -0.05617403
000090 f9 fc da bb 9d 51 3d bd 2b 96 7e 3b ec df 8d 3b
       -0.0066829887 -0.04622041 0.0038846831 0.004329672
0000a0 44 8c 42 bd a8 6f 29 bd 69 f0 17 3d 84 fc 2e 3d
       -0.04749705 -0.04136625 0.037094507 0.042721286
0000b0 81 79 34 3d ff 50 05 3d 32 50 a6 3d 51 bf b3 3b
       0.044061188 0.032547947 0.08120765 0.005485453
0000c0 e2 9c a6 3c f5 fb f7 3c e2 0d 1c 3d 25 90 d2 3d
       0.02033848 0.03027151 0.038099177 0.102814
0000d0 a7 38 96 bc 37 8f 23 bd ef fb 94 bd dc b3 c7 bc
       -0.01833756 -0.039931502 -0.07274615 -0.024377756
0000e0 e2 a1 b8 3b 77 46 b4 3b 88 b6 9f 3b 40 d7 90 3b
       0.0056345323 0.005501564 0.0048740543 0.004420191
0000f0 f0 0a c7 bd fe 3f f3 bd 91 a5 d3 bc 0f 48 b6 3c
       -0.09718883 -0.1187744 -0.025835784 0.022251157
000100 c8 4c 6f bc 7d b0 40 bd a0 94 ae 3c 39 43 69 bd
       -0.014605708 -0.047043312 0.021311104 -0.056948874
000110 a3 3c 0f bd 83 86 27 bd b8 22 02 bd 38 39 93 bc
       -0.034969937 -0.040899765 -0.03177139 -0.01797162
000120 5c 55 d6 3a 11 37 81 bd 74 c0 1a bd 87 3c 1f bc
       0.0016352343 -0.06309331 -0.037781194 -0.009719021
000130 1d 7c 30 3d d7 9a d2 3d 2a f4 7b bb 22 5d 0f bd
       0.043087114 0.102834396 -0.0038445094 -0.035000928
000140 6e 35 90 bd 62 b5 64 bc fa e9 4b 3c f1 fc f8 3d
       -0.07041441 -0.013959261 0.012445921 0.1215762
000150 90 00 d6 bd 28 a6 d0 3d d9 29 a7 3d d9 b0 c4 bd
       -0.10449326 0.10187942 0.08162279 -0.096040435
000160 b6 dc 27 bb fb 1b f9 3d 0e 70 93 bd e6 74 47 bb
       -0.0025613732 0.1216354 -0.07199107 -0.0030434667
000170 4e 51 9e bd cb 9d 2a 3a c1 c6 85 bc 80 0f c0 3d
       -0.077303514 0.00065084983 -0.016330125 0.093779564
000180 8f 2d e4 3c 2d de aa bc aa 1a 4e 3b fc 8d 57 bd
       0.027853755 -0.020857895 0.0031448998 -0.05262564
000190 ea 2a 8a bc 86 15 c1 bc 4a 89 61 bd 9d c7 b5 bc
       -0.016866166 -0.023569833 -0.05506257 -0.02218991
0001a0 c1 94 ad 3b a9 3c ce bc 9c 35 4b bd 2e 0c 8e 3c
       0.005297274 -0.02517541 -0.049611673 0.017339792
0001b0 5f 09 07 3b b5 a7 60 3d 3c 80 8a 3b 96 4c 2c bc
       0.002060495 0.054847438 0.0042267125 -0.010516306
0001c0 d5 c4 7c 3d 89 b9 12 3d 09 1f a6 bc 72 d5 bf 3d
       0.06171115 0.03582147 -0.02027847 0.09366883
0001d0 24 ab 22 3d e1 ad dc ba 9e 0c a6 3d 6d 5c a8 bc
       0.039713994 -0.0016836488 0.08107875 -0.020551885
0001e0 e6 92 98 bd c7 d0 8b 3d 5c fa b0 3d 1c 6b 55 bd
       -0.07449894 0.068269305 0.08641502 -0.0521041
0001f0 0e 86 5a 3d 67 c1 0b bd d3 43 0f 3d b6 70 b0 bd
       0.0533505 -0.03411999 0.03497679 -0.08615248
000200 af b3 6d bd 24 9a b5 3d d1 e3 61 3c 73 dc 4c 3c
       -0.058032688 0.088672906 0.013787226 0.012503731
000210 9a e8 65 bd b1 01 df 3c 54 6f c2 3d b1 d6 e5 3b
       -0.05613003 0.027222486 0.094938904 0.0070141186
000220 85 6b 23 bc 6b 35 ff 3b c8 26 e0 bc cd 37 7e 3c
       -0.009974365 0.0077883503 -0.027362242 0.015516234
000230 07 71 87 bd c9 7c a1 3c fc 6c f0 bc f7 d5 ca b8
       -0.06613355 0.019712823 -0.029348843 -9.671965e-05
000240 b3 39 b4 bd 43 b9 af bc 9c fb 2a bd 11 e4 c0 bd
       -0.08800068 -0.021450644 -0.04174386 -0.094185
000250 e6 c0 4f 3c 37 e5 30 bd 12 71 30 39 f2 cb 29 bd
       0.012680268 -0.043187346 0.0001682679 -0.041454263
000260 20 13 8b 3d 98 86 95 3c 87 2d 59 3d 42 a5 05 3d
       0.06790757 0.018252656 0.053021934 0.032628305
000270 8b 3f 82 bd 4e 82 bb bd 82 6f 09 3d 93 51 93 bc
       -0.06359776 -0.09155713 0.033553608 -0.017983234
000280 5b 7b 07 bd b8 dd 53 bc 75 ae 9b bd d9 ed 5b 3c
       -0.033076625 -0.01293128 -0.076016344 0.0134234065
000290 2b 7e f8 3d 7d 7f b7 bb 97 f3 14 3d 92 18 4d 3c
       0.1213344 -0.0055999146 0.036365118 0.012518065
0002a0 4e 19 2f 3d 7c 50 80 bc 8f c4 d8 bb 13 2b db bd
       0.04274874 -0.015663378 -0.0066152285 -0.10701575
0002b0 c9 cf 4d bd b4 b7 0b 3c a3 4b 00 bd 37 5b e0 3c
       -0.050246987 0.008527685 -0.031322133 0.027387245
0002c0 f7 8d 80 3c 72 10 68 3d b4 4c 5e 3d a4 aa 7e bd
       0.015692694 0.05665631 0.05427237 -0.062174454
0002d0 c0 8d e5 3d ad 32 74 3d b7 8d 0b 3d ff 8b fa bc
       0.11208677 0.05961864 0.034070697 -0.030584333
0002e0 7a a6 4e 3d d1 c7 8f 3b 4b d1 40 3b 73 42 01 3b
       0.050451733 0.0043878336 0.0029421623 0.0019723445
0002f0 97 31 23 3d 95 d0 12 3d 62 35 b4 3c f9 99 80 3d
       0.039842214 0.03584345 0.021998111 0.06279368
000300 cb 0a fc 3d 08 73 3d bd 86 d9 2c bd 0f 82 41 3d
       0.12306746 -0.04625228 -0.042199634 0.047243174
000310 ae db 4e bc 1e 1c 62 bc 51 dc 81 3c 49 c0 1c bc
       -0.012625618 -0.013800649 0.015852125 -0.009567329
000320 f9 4b 47 3d 9a 73 44 3d 0f b3 6a bd b9 a1 48 bd
       0.048656438 0.04796181 -0.05729967 -0.048982356
000330 cf 0a 0c 3d 5e f8 c3 bd 7f 50 ab bd 29 1f 2e 3c
       0.034189995 -0.09568857 -0.08364963 0.010627546
000340 e1 5d e2 ba 9c 8f 16 bd 11 64 60 bc 18 de 46 3d
       -0.001727041 -0.03675805 -0.013695733 0.04855165
000350 e1 8c b1 3c fd eb 06 3c 8b fe 85 3b a7 d1 da 3c
       0.021673622 0.008234975 0.004089182 0.026711298
000360 8a 7c 8d bc 40 29 59 3d 68 3e 38 bb e5 cd 48 3d
       -0.017271299 0.053017855 -0.002811337 0.04902448
000370 b5 3e 82 bd e9 fb f3 bb cc ce 83 3d d4 88 d3 bc
       -0.06359617 -0.0074458015 0.06435928 -0.02582208
000380 7e 8c 70 bd db 17 c4 3d e2 89 14 bc 61 e5 6e 3d
       -0.058727734 0.095748626 -0.009066077 0.05832422
000390 79 fc 07 3d 16 55 66 bd 3a c0 76 3d 24 c8 a4 3c
       0.03319976 -0.056233488 0.060241915 0.020114966
0003a0 b2 0d 09 3e f6 2e c1 bc 34 02 b7 3c 4f c0 ee 3c
       0.1338413 -0.023581963 0.022339918 0.029144434
0003b0 de b2 94 3d 96 75 e6 bc cf 9e 78 3c 8e c5 9e 3c
       0.07260679 -0.028132241 0.015174582 0.01938131
0003c0 6f a4 1c 3d 8b f5 99 bd 54 72 81 bd 19 99 37 bd
       0.038242754 -0.07517537 -0.063206345 -0.04482374
0003d0 b7 be ef bb 1b 89 dd bc f6 c2 82 39 10 01 ba ba
       -0.007316436 -0.027042916 0.0002494079 -0.001419099
0003e0 71 38 a5 3c f2 aa 89 bd 41 91 bb bd 7a 56 9a bc
       0.020168515 -0.06722058 -0.09158564 -0.018840063
0003f0 cd d7 28 bc 79 b8 18 bc ef 33 9d 3a 2e b3 8d 3d
       -0.010305357 -0.009321325 0.0011993627 0.069189414

actor.6.bias f4 [12]
000000 d8 f0 0c be 55 9f ac 3d b6 0c 52 bd 4e a9 57 bc
       -0.1376375 0.08428828 -0.051281653 -0.013162924
000010 d5 d8 65 be 6c 2c 84 be fa a3 76 bd be 9f 49 3e
       -0.22445996 -0.2581514 -0.060214974 0.19689843
000020 fe 92 11 be 01 fe b7 bd 14 1e 13 be 99 48 17 bd
       -0.1421623 -0.08983994 -0.14366943 -0.03693447
