logs/rsl_rl/unitree_go2_flat/2024-07-09_17-37-15/exported/policy.onnx (onnx, 163093 bytes, 8 tensors)

actor.0.weight f4 [128, 45]
000000 00 8a bc bd cf 5d 14 be 16 52 28 3f 53 a5 08 bf
       -0.09206009 -0.1448891 0.65750253 -0.53377265
000010 98 b6 73 3a ac e9 de bd e1 6c 8e bd 67 51 f8 3d
       0.0009296923 -0.10884413 -0.06954361 0.12124901
000020 9a 3b fe be 2d f7 4f 3e e4 dd 46 3f 50 0c 4e be
       -0.49654847 0.20309134 0.7768233 -0.20121884
000030 1e 8a 18 3e 4c 43 e1 be be 2c 27 bf 37 5a 5c 3e
       0.14896438 -0.43996656 -0.65302646 0.21518789
000040 4c 31 89 be 78 58 c4 bd 1d 91 03 be fa b8 24 bd
       -0.26795423 -0.095871866 -0.12848325 -0.04021547
000050 b7 33 00 3f 22 d8 68 3c d2 d6 1a 3d e8 19 30 3d
       0.5007891 0.014211686 0.037802525 0.042993456
000060 d8 1d 0f be 3e 7d 96 3c eb 07 c3 bd 3e dd 3f 3d
       -0.13976228 0.018370267 -0.095229946 0.046841852
000070 12 93 12 3e b1 36 c4 3d 0a a5 28 bd 68 29 43 bd
       0.14313915 0.09580744 -0.04117302 -0.04764691
000080 73 ee cd 3a e4 06 19 bd fb d6 9c b9 9e 13 52 bd
       0.0015711322 -0.037360087 -0.00029914812 -0.05128824
000090 f8 ec 0e 3e a2 db fa bc ed 38 9a bc 78 c1 81 3d
       0.13957584 -0.030622307 -0.018825972 0.06335729
0000a0 48 42 36 3d 14 a6 9a bd b1 e5 e0 bd aa d3 19 3e
       0.044496804 -0.07551208 -0.1098131 0.1502215
0000b0 4b 85 65 3d ba ca 39 be d6 45 4f 3e dc f6 0a be
       0.05603532 -0.1814374 0.20241484 -0.13570732
0000c0 aa 4e 64 3d b1 12 21 bd 9d fb 45 3d d2 00 00 3e
       0.055739082 -0.039324466 0.04833566 0.12500313
0000d0 18 3d 00 bd 19 7c 69 3e e4 89 6c 3e 1d d0 09 3f
       -0.031308264 0.22801246 0.23099476 0.5383318
0000e0 2f 70 e1 3e b7 30 dc 3e a9 6a e9 be 2b a4 b4 3d
       0.44030902 0.43005916 -0.45589188 0.08820375
0000f0 51 5f 01 be a2 d8 9a bd 7b 96 0e be 90 75 7c bd
       -0.12634017 -0.07560851 -0.13924591 -0.061635554
000100 4f 68 28 3e 6b 7f 91 3e 09 d4 e2 bd 2e c9 1d 3d
       0.1644604 0.28417525 -0.11075599 0.038521938
000110 5b 0b 05 be 0c 98 f5 bc 79 02 1d 3e 67 35 8b 3d
       -0.12992613 -0.029979728 0.15332974 0.06797295
000120 72 b1 09 be 66 67 f0 3d c9 9d 98 bd 25 d4 99 bc
       -0.13446596 0.11738472 -0.0745197 -0.018777916
000130 04 e6 e2 3d e1 56 1f 3e e7 ec 2f 3e 46 a1 76 3e
       0.11079028 0.15560485 0.17180215 0.24084958
000140 75 47 6f 3e 4b f0 8c 3d 91 c7 ba 3c 19 96 9f 3c
       0.23367102 0.0688177 0.022800239 0.019480752
000150 98 a4 e2 3c 4d e3 7b be cf f2 1b bd 98 1a e0 bd
       0.027666375 -0.24598427 -0.038073357 -0.10942572
000160 3e 4f 00 be 8c ab e6 bd 9f 81 a9 bd e6 bf c6 be
       -0.12530228 -0.11263189 -0.082766764 -0.38818282
000170 b9 40 8a 3d 69 df aa be d8 37 46 3d 3a f3 3b 3d
       0.06750626 -0.33373573 0.0483931 0.045886256
000180 d3 b2 09 3e be 6b e9 3d 9d c1 11 3f f4 0d c5 be
       0.13447122 0.11397503 0.56936055 -0.38487208
000190 d0 97 72 ba e2 86 6a 3e b3 0d 00 bf 70 51 88 3e
       -0.0009254189 0.22903016 -0.50020903 0.26624632
0001a0 e0 7d d0 be 82 f3 c1 bd 0f be 0b 3d 5d 14 9b be
       -0.40721035 -0.094702736 0.0341168 -0.30288973
0001b0 9c 95 80 bd 75 ab 80 3e 15 47 93 be cd 09 ec bd
       -0.06278536 0.2513081 -0.2876517 -0.11525307
0001c0 f3 55 fd bd 7c 77 93 3c a2 e3 81 3c bb a7 5f 3d
       -0.12369909 0.01800131 0.015855614 0.05460332
0001d0 c5 c3 54 3d 14 12 88 bd d4 23 8b 3d 1f 69 2a bd
       0.051944513 -0.06644073 0.06793943 -0.041604158
0001e0 b4 14 e5 3d 08 15 e9 bd c6 4c b0 3d 8b b6 f1 bd
       0.111855894 -0.113809645 0.08608393 -0.118023954
0001f0 d0 11 9d 3d 87 fa b5 bc bb bf 51 bd 8a d8 93 3e
       0.07669413 -0.022214187 -0.05120824 0.28876144
000200 f7 a1 97 be 89 7e 36 be 3e 94 e3 bb e3 60 9a bd
       -0.29615757 -0.17821707 -0.006945162 -0.07538011
000210 f6 0d 89 bd e1 85 71 3e f9 c7 75 be b6 11 c3 3d
       -0.06692116 0.23586227 -0.24002065 0.095248625
000220 3d 44 09 3e 52 35 4b 3e 85 0b 01 bf 11 c3 01 3e
       0.13404937 0.19844559 -0.504082 0.12672068
000230 84 a9 91 3d da 25 bf bd c2 9e b4 bb 10 1a 15 bc
       0.07112411 -0.093333915 -0.0055120895 -0.009100452
000240 50 85 24 3f f2 61 1a 3f 7d 12 39 3e ed f6 e1 3e
       0.6426592 0.603057 0.18073459 0.44133702
000250 ae 52 20 be fd eb f2 bb ed 71 39 3f 52 81 50 3e
       -0.1565654 -0.007413386 0.7243946 0.20361832
000260 5c aa 90 bd 34 7c 04 3e a9 e6 aa 3d 91 bf 3a 3e
       -0.070637435 0.12938005 0.08344776 0.1823714
000270 b1 c7 c9 ba 20 8c e8 bd 06 72 12 3d aa 40 99 3c
       -0.0015394596 -0.11354852 0.035753272 0.018707592
000280 38 ef 8b 3d be 60 cf 3d 18 f7 09 bc 50 f5 b9 bb
       0.06832737 0.10125874 -0.008420728 -0.0056749955
000290 43 56 06 3d 5a 80 91 bc 92 7f 3b 3b 2c 87 15 bc
       0.03279711 -0.017761398 0.0028609973 -0.009126466
0002a0 c9 b4 81 3d 0a 29 1f 3e 09 10 18 3e aa 4d 10 3e
       0.0633331 0.15542999 0.14849867 0.14092126
0002b0 ee 87 ca 3d 05 9b 3d bd b2 5e c0 3d 66 fe 84 3b
       0.09889208 -0.046290416 0.09393062 0.004058647
0002c0 d2 3b 7d bd 8d 2f 50 3e 7a c2 5c bb 4c b7 d4 3d
       -0.061824627 0.20330639 -0.0033685253 0.103865236
0002d0 39 1c a2 bd 2e 41 dd 3e 9c 3c 76 3e b8 40 1c 3e
       -0.07915539 0.4321379 0.24046558 0.15259063
0002e0 9d a2 02 3f e1 50 0b be f4 af f4 3d 80 cd 81 3c
       0.5102938 -0.13605072 0.11947623 0.01584506
0002f0 d8 97 97 3e a2 50 01 3e be fc a5 3e 01 7c 9d 3e
       0.29608035 0.12628415 0.3241939 0.3075867
000300 15 b6 18 3f c4 f1 d4 be 96 58 83 be 51 00 86 bd
       0.59652835 -0.41590703 -0.25653523 -0.06543029
000310 f3 42 fa bd 01 22 bc be 53 e1 7c 3d d9 58 4b 3d
       -0.12219801 -0.36744693 0.061738323 0.04964528
000320 4c 9a cb 3d cb af 96 bd 77 36 1e 3d a9 88 76 3d
       0.09941539 -0.073577486 0.03862616 0.060188923
000330 33 27 e4 bd e6 85 4e be 1a 34 0b 3d 91 e3 4e 3d
       -0.11140289 -0.20168266 0.033985235 0.050509993
000340 34 67 fd 3d d3 e2 93 3d 29 88 49 3d 91 c6 c5 3c
       0.123732 0.07220998 0.049202118 0.024142535
000350 05 8d ca 3d b6 22 83 bb 34 d2 c8 3d 55 e8 2e 3e
       0.098901786 -0.0040019406 0.09805718 0.17080815
000360 c9 5c 24 3e 8a a3 05 3e 61 a2 11 3e 85 de 23 bd
       0.1605102 0.13050666 0.14222099 -0.040007133
000370 7f dc 39 be 10 1c 44 be 6c 2d 2a be e7 1d 2e 3d
       -0.18150519 -0.1915133 -0.1661889 0.042508986
000380 f8 05 41 3d 4e bd 0e be 1f 5c 93 3c 68 43 30 3e
       0.047124833 -0.13939402 0.017988263 0.17213213
000390 80 77 f0 bd 03 2b e0 3e 15 5a e9 bc c4 99 b0 bd
       -0.11741543 0.43782815 -0.028485337 -0.086230785
0003a0 87 9b b1 bd 6a c8 90 bd 87 01 ac bd 6a 6e ea 3e
       -0.086722426 -0.07069476 -0.08398729 0.45787364
0003b0 a7 0f 01 3e a7 82 d8 be 74 fa 82 be 3d 7b dc be
       0.12603627 -0.4228718 -0.25581706 -0.43062773
0003c0 21 07 5d be 59 3c ac be 06 06 7d 3e 6b 7d 02 bb
       -0.2158475 -0.33639792 0.24709329 -0.001991118
0003d0 f5 a6 10 be 9f 17 71 3e 37 ea 4a 3d 43 63 df 3b
       -0.14126189 0.23544167 0.04953977 0.006817253
0003e0 f0 cc eb bd 33 58 bd 3d 27 11 82 3d b2 63 2b 3d
       -0.11513698 0.09245338 0.06350928 0.041843124
0003f0 dd d5 42 be 0b 2f 1d 3e a4 ce 9c 3d ca ac 7d bd
       -0.19026895 0.15349977 0.07656601 -0.061932363

actor.0.bias f4 [128]
000000 2f f8 7c bd 04 e2 89 bd 7f cb 67 bc 71 c7 43 3c
       -0.061760124 -0.06732562 -0.014147638 0.011949406
000010 b4 85 ff 3d 85 18 1f 3d 54 2c ea bc 6f 7e 44 3d
       0.12476674 0.038841743 -0.02858559 0.04797214
000020 e2 e4 a5 bd a8 b3 a6 3d bc d3 c9 bd c5 90 63 3e
       -0.081002966 0.081397355 -0.09854838 0.22223194
000030 2b 46 bf 3d e6 1c 87 be 65 c3 b4 bd ce 89 81 bd
       0.09339555 -0.26389235 -0.08826331 -0.06325112
000040 c6 99 b2 bc 7e ad a3 bb 24 20 bc bd 6d d3 9c bc
       -0.02180184 -0.004995047 -0.09185818 -0.019143784
000050 f7 1a f1 3d 2c 49 71 3d 2c f6 26 be 94 09 23 3b
       0.11772721 0.058907673 -0.16304845 0.0024877535
000060 e7 ab 08 be f9 eb b9 bc ac d1 bf bd 34 4e c3 bd
       -0.13346826 -0.022695528 -0.093661636 -0.095364004
000070 4d 0c 2a 3e 6d 87 fd bc e2 74 0b 3e 5b 1e dc 3d
       0.16606255 -0.030948365 0.13618806 0.10747977
000080 f0 6e 65 3e aa 0a 04 be 51 0c 94 3d 9f 26 10 be
       0.224056 -0.12894693 0.07228912 -0.14077233
000090 58 9d b9 bd 97 50 2c 3d 62 8a 01 be 3b 7e d1 3d
       -0.09063214 0.042069044 -0.12650445 0.10229155
0000a0 63 1b fe 3c b0 d1 35 3e df d1 63 be b7 6f ab bd
       0.031018918 0.1775577 -0.22248028 -0.08370917
0000b0 02 1d ed bc 9d 51 82 bd 4f 99 9a 3d 6a 12 4b be
       -0.028944496 -0.06363223 0.075487725 -0.19831243
0000c0 b7 88 5f 3c f9 86 45 bd f0 39 e8 bc 7c 63 07 be
       0.013643435 -0.048224423 -0.02834794 -0.13221544
0000d0 3a 50 16 be b3 fa 16 3d 4c d8 e9 3d 6c 4f f0 3c
       -0.14679042 0.03686018 0.114182085 0.029334746
0000e0 2d 04 2f 3c 3c 5f 1b be a7 4b dc bb 5b 42 40 be
       0.010682148 -0.15173048 -0.0067228856 -0.18775313
0000f0 b2 3c 28 be 29 04 e4 bd d9 ee f6 bc 29 e8 99 3d
       -0.16429403 -0.11133606 -0.030143188 0.07514984
000100 d6 f0 f0 bd 9a 67 21 be 29 a7 9e bd 4f d1 92 bd
       -0.11764686 -0.15762177 -0.07746727 -0.07168829
000110 3a 39 5d be 6a 81 a3 3c b4 bc c6 3d b3 8b 2e 3d
       -0.21603861 0.01995917 0.09703961 0.042613696
000120 44 de 00 be 13 10 a6 bc 99 d7 2c 3d fd 2c 32 be
       -0.12584788 -0.020271337 0.042197797 -0.17399974
000130 5c 3a 7e bd 06 6c 03 be 52 d6 9e bc 56 fa 6e bc
       -0.062067375 -0.12834176 -0.019389305 -0.014586052
000140 3b 3a a2 bc f7 20 e6 bd 42 8b 8b 3d e2 8c aa bc
       -0.019803157 -0.11236756 0.06813671 -0.020819131
000150 55 20 69 3d d2 9e 0b be a0 c5 10 3e 34 c7 88 bd
       0.0569156 -0.13634804 0.14137888 -0.0667862
000160 c7 3d c7 bd 0f e1 7b 3d b6 da 3c 3d c3 e1 09 bd
       -0.0972858 0.06149393 0.046107017 -0.03366257
000170 62 49 34 be bb 1e b2 bd 59 de f2 3c f1 88 92 bc
       -0.17606118 -0.086972676 0.02964704 -0.017887564
000180 15 07 0d 3d 31 d8 86 bd 03 d6 c7 3c 2f 33 05 be
       0.034430582 -0.06584204 0.02439404 -0.13007806
000190 f2 b3 93 bb c9 3f f3 bd b9 bb b4 bc ed 2d d6 bd
       -0.004507535 -0.118774004 -0.02206217 -0.104579784
0001a0 b7 51 2a bd 9a 53 03 be 46 05 81 3d be 2d 46 3e
       -0.041581836 -0.1282486 0.06299834 0.19353387
0001b0 c6 61 85 3d 59 54 0e bd f8 f3 81 be 78 ee ec bd
       0.065127894 -0.03474841 -0.25381446 -0.11568922
0001c0 a7 f6 8c bc 2b f7 49 be fb 34 38 be 12 3e 8d 3c
       -0.017207457 -0.19723193 -0.1798896 0.017241511
0001d0 b0 59 a6 3b bc 85 18 3e ad bb 37 be ba 82 90 3d
       0.0050766096 0.14894766 -0.17942686 0.07056184
0001e0 40 b2 01 bd b2 22 4b 3c c6 a6 b0 3c fd bc 6a 3c
       -0.031664133 0.012398409 0.021563899 0.014327285
0001f0 f2 42 64 3c 86 49 a9 3c 68 81 83 3d 1e c3 99 be
       0.013931977 0.020664942 0.06421167 -0.30031675

actor.2.weight f4 [128, 128]
000000 cf 05 cc 3d da 80 ef 3c 57 3d 18 be 8f c0 99 3d
       0.099620454 0.029236246 -0.1486715 0.07507431
000010 61 c6 0b be 5f 07 29 3c 44 1b 9c 3c 43 91 c6 3d
       -0.13649894 0.010316699 0.01905597 0.09695675
000020 af 62 61 3d f2 62 1e bd 03 56 62 bd c7 52 86 bd
       0.055025753 -0.03866858 -0.05525781 -0.06558757
000030 86 98 0e be c1 a6 5b 3d e3 db bb bd 3f bb 03 bd
       -0.1392537 0.053625826 -0.091727994 -0.032160994
000040 48 3d 50 3d 66 ba 26 bd b7 fc 4a 3d 5c 51 00 bd
       0.050839692 -0.040705107 0.049557414 -0.03132759
000050 78 1c 12 be a8 82 a3 bd 60 2f 08 3d 32 28 73 3d
       -0.14268672 -0.07983905 0.033248305 0.059364505
000060 3f 5d 6c 3c eb e3 0b be 4c e5 9a bd 6f 0b b7 bd
       0.0144265285 -0.13661163 -0.07563266 -0.08937728
000070 d7 32 84 bd d8 5d 3d bd c7 1c 6f 3d 88 fa 93 bc
       -0.064550094 -0.046232074 0.058377054 -0.018063799
000080 bb 41 ba 3c bb 5f ce 3c 5f 19 10 be 2f 3b c1 bd
       0.02273642 0.025192132 -0.14072178 -0.094351165
000090 f3 57 83 bd d8 7c de bb 76 cb 28 3e a5 06 82 bd
       -0.06413259 -0.006789785 0.16483864 -0.063489236
0000a0 3b e1 01 3e 9f 5f 7c 3c 2c 36 65 3c 46 f3 8f 3b
       0.12683575 0.015403657 0.013989966 0.004393014
0000b0 15 af 87 bd a1 c4 92 3d 2b 8c 89 bd f6 a6 10 bd
       -0.06625191 0.0716641 -0.06716188 -0.035315476
0000c0 8d ac 0d 3d 76 75 08 3e 75 86 60 bd 9a 85 13 be
       0.034588385 0.13326058 -0.05481573 -0.14406434
0000d0 f2 7e 3e 3d 52 37 25 3c 16 82 83 bd 4f 61 2a 3d
       0.046507783 0.01008399 -0.06421296 0.041596707
0000e0 49 54 48 3d 26 a8 14 bd 36 a7 c6 3d 14 b2 3e 3c
       0.048908506 -0.03629317 0.09699862 0.011639137
0000f0 1b a6 98 bb d5 8d 0d 3e f8 b8 45 3e b4 43 0a 3e
       -0.004658473 0.13823636 0.19308841 0.13502389
000100 c9 88 7e bd a5 e2 57 3d 1e 4d 7d 3d b4 c3 34 3d
       -0.062142167 0.05270638 0.061841123 0.04413195
000110 1e 3f 46 bb 2d 7e 7f 3d 38 ca 09 bd 9a 36 c5 bd
       -0.0030250023 0.06237619 -0.033640116 -0.09629555
000120 e2 fa 19 be f9 f9 93 3d 9f 73 e1 3d 4d 65 87 bc
       -0.1503711 0.07225413 0.11008381 -0.016527796
000130 41 89 4a 3d d7 ba e8 bc a0 11 b7 bc fa e6 f0 bd
       0.0494473 -0.028409405 -0.022347271 -0.11762805
000140 33 8b 60 bd 38 93 f9 3c a9 8c ae 3c 4d e1 cc bd
       -0.05482025 0.030465707 0.021307306 -0.1000391
000150 8c 46 93 bc 6e 82 c8 bd 72 e0 b9 bd 40 3c 04 3d
       -0.017977975 -0.097905025 -0.09076013 0.03228402
000160 f4 4b 0d bc a6 af a5 3c 38 b4 23 bd 95 ac bb bd
       -0.008624066 0.020225357 -0.039966792 -0.09163777
000170 1f 5a 51 bd e7 b0 c6 3d 62 8a 9c 3d d9 a0 39 bd
       -0.051111337 0.0970171 0.07643582 -0.045319412
000180 3a 0d 9b bd bd ce 27 3e ff a1 c9 38 79 42 1a bd
       -0.07570882 0.16387458 9.614601e-05 -0.03766105
000190 c3 d7 25 bd 04 08 53 3c f6 bf 84 3c 5d cd 1c be
       -0.04048897 0.012880329 0.016204815 -0.15312715
0001a0 56 22 6e 3d 84 a5 57 3d cd 98 65 bd 44 7a a7 3d
       0.058138214 0.052648082 -0.056053925 0.08177617
0001b0 3a 3e 26 bd e4 f9 86 ba 3e de 5f bd 57 7b 9d bd
       -0.040586688 -0.0010297862 -0.054655306 -0.07689541
0001c0 c1 6e 19 bc 3c bc bf 3c a0 7e e9 3d ce cf 0e be
       -0.009364785 0.023405187 0.11401105 -0.13946459
0001d0 53 b1 fd 3b d2 a5 27 be db 8b 27 3e 3d f3 60 bd
       0.007742086 -0.16371849 0.16361944 -0.05491947
0001e0 14 52 41 bb 93 f7 64 bd 08 16 32 3e 64 c5 5f 3d
       -0.0029498385 -0.055900168 0.17391217 0.054631606
0001f0 e4 a7 0c 3d 4c 39 86 3d 12 d6 9a bd 68 f3 8c 3d
       0.0343398 0.06553897 -0.07560362 0.068823636
000200 62 56 07 bd 35 55 c4 3c 5b ab ea bd 38 81 fe bb
       -0.033041365 0.023966411 -0.11458465 -0.007766869
000210 3e 5c d9 bd 99 be fd bd fb c8 7c 3d 1e 53 05 be
       -0.10613297 -0.12389869 0.061715107 -0.13019988
000220 a9 2b f0 3d 26 7e 48 bd 70 34 30 bd 95 76 99 ba
       0.117270775 -0.04894843 -0.04301876 -0.0011708314
000230 30 28 91 3c 16 a2 67 bb c6 ce 05 3e 0d 61 22 bd
       0.017719358 -0.0035344413 0.13067159 -0.039643336
000240 33 da 50 3e dc 3b df bd 59 ad a5 bd da 14 eb 3c
       0.20395736 -0.10900089 -0.08089704 0.028696466
000250 1a f5 8d 3d f0 45 d2 bd db 99 da 3c 2d 3d 32 bc
       0.06931515 -0.10267246 0.026684692 -0.010878843
000260 b8 31 98 bd 67 67 a7 3c bd c9 cb bc 99 a9 7d bd
       -0.07431358 0.020435048 -0.02487647 -0.06192932
000270 23 0a 51 bd 99 b1 8b 3d 82 94 c5 3d ad 89 fb 3c
       -0.051035058 0.068209834 0.09647466 0.030705297
000280 73 87 bf 3b e8 8d 13 3e 99 56 a4 b9 9f fb 1e 3e
       0.005845004 0.14409602 -0.00031345038 0.15525673
000290 0e c8 ac 3c 7f 44 14 3d eb e8 94 bd 95 80 3e 3d
       0.021091487 0.036198135 -0.07270988 0.046509344
0002a0 1a 5b ec bd a4 5c f7 3d 1b e7 e9 bd a9 a1 b8 bd
       -0.11540814 0.12078217 -0.11421033 -0.09015209
0002b0 c3 f9 8d bd e5 0a 09 bd a5 3f d2 bc 83 47 16 be
       -0.06932404 -0.033457655 -0.025665114 -0.14675717
0002c0 13 8b ca 3c d7 6d 5c bd 30 18 d7 3d f3 08 2b 3d
       0.024724519 -0.05381569 0.1050266 0.04175658
0002d0 25 e0 95 bd 39 d2 58 3c d6 dc 53 bd 8d dc 5e 3d
       -0.07318143 0.013233715 -0.051724277 0.054409552
0002e0 54 7a 02 3e 9a 78 f8 bc a9 de bc 3d a7 b3 ae bd
       0.12741977 -0.030330945 0.092221566 -0.0853036
0002f0 d5 25 02 3e 41 86 2f 3d 53 a7 97 bd 97 a1 ca 3d
       0.12709744 0.042852644 -0.074049614 0.09894102
000300 7a f3 02 3e 8f f8 6d 3d 5c cc 3d 3d aa 67 21 3c
       0.12788191 0.058098372 0.04633747 0.009851376
000310 21 46 01 bd 6d 41 ec bd c7 43 e1 bc ab a1 b2 3d
       -0.03156102 -0.115359165 -0.027498139 0.08722242
000320 54 39 48 bc 64 75 f4 bc 2d 73 99 bc 89 54 94 be
       -0.012220699 -0.029841132 -0.018731678 -0.28970745
000330 8e 60 d8 bd 5e 3a e0 bd 90 cc c4 bd 0f 78 0e 3d
       -0.10565291 -0.10948633 -0.0960933 0.034782466
000340 75 8c 0c bd fd 3d ee bd 22 73 0f bd 0a b1 b0 bd
       -0.034313638 -0.11632917 -0.03502191 -0.086275175
000350 c7 47 07 3d af 17 be 3d 3a 2b 6d bd 4e 74 a1 3d
       0.033027437 0.09281861 -0.057902552 0.078835115
000360 b3 80 84 3d ca 3b 6d 3b de a7 c6 bc 44 ca 40 3e
       0.0646986 0.0036198967 -0.024249967 0.18827158
000370 d9 d3 11 3e 16 f3 09 be 74 be 33 3d c1 f8 71 bc
       0.1424097 -0.13471636 0.043882802 -0.01476878
000380 19 70 46 3e d9 49 cb 3d 5e 74 dd 3b 1e 8d b2 3d
       0.193787 0.09926195 0.006758257 0.08718322
000390 54 9e f8 bc 34 c6 81 3d 71 11 39 bd fe 7d 02 be
       -0.030348934 0.06336632 -0.04518265 -0.12743375
0003a0 cf 78 3a 3d e6 52 80 3d 85 cc 03 be 35 0b c6 3c
       0.04552537 0.062658116 -0.12870987 0.024175266
0003b0 62 0a ad 3d 59 24 65 3c cd 9a 81 bd 55 5f 35 be
       0.08449246 0.013985717 -0.06328354 -0.17712148
0003c0 7e 6f 6e 3c 67 c1 fc 3c 13 80 7d bd 07 65 a0 3c
       0.014552949 0.03085394 -0.06188972 0.019579424
0003d0 7a fb 58 bd b1 ab bc 3d a5 16 28 bd b6 f3 aa bd
       -0.0529742 0.09212435 -0.04103722 -0.083472654
0003e0 88 77 f8 bc 6c 0a a3 3d e3 a9 05 3e 31 2b 9d 3d
       -0.030330434 0.07960972 0.13053088 0.07674254
0003f0 f1 e2 a7 bd 4e 09 6a bd ff 74 6b 3d 93 04 88 3d
       -0.081975825 -0.05713778 0.057484623 0.066414975

actor.2.bias f4 [128]
000000 cf c0 3e bd a1 21 b1 bd a4 1a 82 bc cf 62 89 bd
       -0.046570595 -0.08648992 -0.015881844 -0.06708299
000010 08 2b a8 bb e7 46 a5 bc 2a 80 7a 3a 64 e3 9f bd
       -0.005132083 -0.02017541 0.0009555841 -0.07807043
000020 75 59 19 3d 03 10 ba bb f1 a9 42 3d ae 41 c8 3c
       0.03743883 -0.0056781783 0.04752535 0.024445381
000030 e6 be fc bd 3a 7a 97 bd 25 04 ca bc cd 63 38 bd
       -0.123410985 -0.0739636 -0.02466018 -0.045017052
000040 46 81 c9 bd 35 0e f6 bb 10 1b 10 3a 7d ec 09 3d
       -0.0983911 -0.007509018 0.00054971967 0.0336728
000050 6e 82 00 bd 91 6b 63 bd 6e 07 eb bc 84 e6 88 3d
       -0.031374387 -0.055522505 -0.028690066 0.06684592
000060 55 b2 f4 3d 3b 44 35 bd b8 4b 08 3c 5a 8b dc bc
       0.11948077 -0.044254523 0.008318834 -0.026921917
000070 01 8b 6c bd c2 45 49 bd 68 7f 9d 3d 70 db 72 bd
       -0.057749752 -0.04913879 0.076903164 -0.059291303
000080 b9 92 1d be 87 73 18 bc 92 a8 3f be 57 a5 4e be
       -0.15388002 -0.009304888 -0.18716648 -0.2018026
000090 6d d3 c3 3c 0f 38 80 bd 41 97 80 bd 2e 41 10 3c
       0.023904527 -0.06260692 -0.062788494 0.008804603
0000a0 54 1b d4 3b ca c7 ba bd ec 15 95 3b ca 6e 19 be
       0.0064729843 -0.09120138 0.0045497324 -0.14983669
0000b0 e6 df 52 bd df a1 dc bd 66 ad 0f bc 9d 4d 83 bd
       -0.051483057 -0.10773062 -0.008769369 -0.06411288
0000c0 f2 e5 27 3d f6 c6 32 be 08 eb e6 bd 1e 55 2c bd
       0.040990777 -0.1745871 -0.112752974 -0.04207336
0000d0 bc 7f 15 be c2 43 b7 bd 04 96 ea bd 9f 13 8c be
       -0.14599508 -0.08948471 -0.114543945 -0.2735872
0000e0 19 37 75 bd 89 04 a2 bd 7e ed 16 be 12 f1 5c bc
       -0.059867 -0.07911021 -0.14739034 -0.01348521
0000f0 eb e2 47 be 20 f3 61 bd 13 bb 38 be 20 90 ef bd
       -0.19520156 -0.055163503 -0.18040113 -0.116974115
000100 61 ea d9 3c 09 2f a5 bc b2 b7 29 be db 7c 72 bd
       0.026601018 -0.02016403 -0.1657398 -0.059201103
000110 e6 82 42 bd 6d a5 23 be 8e 60 f7 bd 95 8c 59 bd
       -0.047488116 -0.15981074 -0.12078963 -0.053112585
000120 91 0e c4 bd 54 2e f8 bd 80 1c 40 3d 82 60 12 be
       -0.09573091 -0.121182114 0.04690218 -0.14294627
000130 4f 6c 8c bd 90 19 7e bd bb 87 c0 bd 56 6e f8 3d
       -0.06856596 -0.062036097 -0.094008885 0.1213042
000140 86 07 8c 3d 86 ce 89 bd 28 2c 59 3d 73 51 ac 3b
       0.068373725 -0.06728844 0.053020626 0.005258733
000150 53 9c dc bd 98 26 42 bd 5b e2 c1 bc 42 3b f7 b9
       -0.10772004 -0.047400087 -0.023667505 -0.00047155662
000160 e3 c7 0c bd 09 dd 8d bd fe 09 a0 bd 44 86 41 bc
       -0.034370314 -0.06926925 -0.07814406 -0.011811797
000170 71 f0 0d be a7 4d 5e 3c 01 7d 73 bd c2 74 c1 bd
       -0.13861252 0.013568318 -0.059445385 -0.09446098
000180 a8 09 e3 bd c9 30 b1 bd d7 af 13 bd 03 79 59 bb
       -0.11085826 -0.08651883 -0.036056366 -0.00331837
000190 89 d8 52 3d 0a 64 ce bd 64 99 a8 bc 3a 75 5b 3d
       0.051476035 -0.10077675 -0.020580955 0.053578593
0001a0 8f ae bf bc c6 c1 18 be 46 d7 3c bd 04 54 85 3b
       -0.023398666 -0.14917669 -0.04610374 0.0040688533
0001b0 09 49 71 bd 42 cf bb bd d0 6e 8d bd b7 37 f0 bd
       -0.058907542 -0.09170391 -0.069059014 -0.11729377
0001c0 7c 46 09 3d f0 af 43 3d 4a 75 c0 bd c5 ed ea bd
       0.033514485 0.04777521 -0.09397371 -0.11471132
0001d0 1a b5 15 bd b2 7b 9f bc 81 44 97 bd c0 b8 8e 3c
       -0.036549665 -0.019468162 -0.07386113 0.01742208
0001e0 ff fd 07 be bc b1 b8 bd 4f 33 11 be 18 a9 fa bd
       -0.13280486 -0.09018275 -0.14179729 -0.12239283
0001f0 1d 91 f7 bd 5e 3c a1 3b de ee be bd 34 f7 b4 3c
       -0.12088225 0.0049205264 -0.09322904 0.022090532

actor.4.weight f4 [128, 128]
000000 42 20 61 bd fe f4 9a 3c 15 7c 72 3b 7a 3f 74 bc
       -0.054962404 0.01891565 0.0037000228 -0.014907712
000010 fd cd c8 bb 3d 4d 9f 3d 96 b7 be 3b d7 d1 11 bc
       -0.0061280713 0.07778404 0.005820225 -0.008900127
000020 44 bd 8b bd 68 77 24 3c a4 5a ae bc 2a ca db bb
       -0.06823209 0.010038234 -0.021283455 -0.0067074494
000030 a1 95 1e 3d 51 2a a0 3d 24 b0 32 3d 54 b6 b6 3d
       0.038716916 0.07820571 0.043625012 0.08921495
000040 00 05 a0 3d 10 be 11 bd fe 17 0b 3c fb 56 22 3c
       0.07813454 -0.03558165 0.008489607 0.009908433
000050 af 07 05 3d 6c b1 a9 3c 32 cd 64 bc 75 41 33 bd
       0.03247803 0.020714484 -0.013964938 -0.043763597
000060 0d cb 0d bd 49 21 7a bd e9 b0 56 bd 91 49 21 bd
       -0.034617472 -0.0610669 -0.05241481 -0.0393768
000070 e9 21 2c 3d b9 a5 96 3a 2d d5 51 3d df 69 75 bc
       0.042024527 0.0011493481 0.05122869 -0.014978855
000080 1d 7c 81 3d 25 6d ee ba a2 1a 94 bd 7b e7 e0 bc
       0.06322501 -0.0018190487 -0.07231642 -0.027454128
000090 95 09 00 bd d6 e6 95 bd f3 a9 ab bd 25 89 01 bc
       -0.031259138 -0.07319419 -0.083820246 -0.007906233
0000a0 2b 1b e3 3c db b5 8d 3c d1 7c 4d bd d5 14 c5 3d
       0.027722916 0.01729863 -0.050167862 0.09623114
0000b0 21 3c b5 bd 26 e4 1f 3d 7f ad b5 bc 2b 79 c0 bc
       -0.08849359 0.03903594 -0.022177456 -0.023495277
0000c0 7f a0 da bd dc ad 98 bd 9f ff b1 3d 4d 40 7a 3d
       -0.106751435 -0.07455036 0.08691334 0.06109648
0000d0 e8 b5 d1 ba 92 86 9a 3d 86 50 2e bc 4e d0 b2 bc
       -0.0015999647 0.075451985 -0.0106393155 -0.021827843
0000e0 56 7a 9f bd 99 0c 9b bd 41 3f 05 3e 10 80 f7 3c
       -0.077870056 -0.07570762 0.1301241 0.030212432
0000f0 d6 88 61 3b 1f aa 8a 3d 70 a2 e7 3c eb 7f 07 3c
       0.0034413836 0.06770729 0.028275698 0.008270244
000100 59 9f 69 bc c2 68 1b 3d c9 d5 14 3d 44 c8 2b bd
       -0.014259183 0.0379417 0.036336694 -0.041939035
000110 d5 dd 03 bd f8 6a 31 bd c9 99 31 bd 02 64 05 bd
       -0.032193977 -0.043314904 -0.04335955 -0.032566078
000120 67 f6 a5 bc ed ab 85 bd 3a a4 d9 3c 85 fd 14 3d
       -0.020259095 -0.06526933 0.026567567 0.036374588
000130 a3 7d 9f bd 0d 80 f7 bc 3e 46 ff 3c 7e 15 bc bd
       -0.07787635 -0.030212427 0.031161424 -0.09183787
000140 99 3d 9a bc c6 11 21 bd 15 d8 19 bd da 34 01 bd
       -0.0188282 -0.03932359 -0.037559588 -0.031544544
000150 e6 4a 5c 3c f6 13 7d bd 8c 72 28 bd 9a 84 4b 3d
       0.013445592 -0.061786614 -0.041124865 0.049687006
000160 e6 0d 54 bd 13 b3 46 3c fb 89 82 bb 65 0a d1 bc
       -0.051771067 0.012127656 -0.0039837337 -0.025517652
000170 85 b2 68 3d e4 b6 0e bd c0 b5 c8 3c a9 68 73 bc
       0.056810874 -0.034842387 0.024500728 -0.014856496
000180 3d 4d 8a 3d 69 e5 b3 3d 07 64 d0 3c 7a 18 a0 3d
       0.06753013 0.08783991 0.025438322 0.078171685
000190 06 41 c0 3c 22 b9 08 bc db c3 08 bd ab 27 1c 3d
       0.023468506 -0.00834492 -0.033389907 0.038123768
0001a0 c0 0f 0c ba 3b 50 2d 3d 8d 0b 94 bd de 12 f4 bc
       -0.0005342923 0.04231284 -0.07228766 -0.029794153
0001b0 11 52 c9 3c 3c bd c0 bc d0 fb 4d ba 53 39 a5 ba
       0.024575265 -0.023527734 -0.00078576524 -0.0012605585
0001c0 4e 3c ee 3c 82 3e 5d bd 28 1d b9 3c f4 63 23 3d
       0.02908149 -0.05401469 0.02259691 0.039890245
0001d0 b1 c0 a0 3d 9e 49 7f bd 76 a0 94 bd a0 a8 03 3d
       0.07849253 -0.062326066 -0.07257168 0.032143235
0001e0 7b c0 26 3d bc 1d 3a 3d 7a da ad bd d0 52 71 bb
       0.040710907 0.045438513 -0.08488937 -0.0036823042
0001f0 a8 6a c4 3d 29 2e a4 bd 5b fe d2 bc e1 68 3b bc
       0.095906556 -0.08016617 -0.025756052 -0.011438579
000200 1c 61 a7 3c 7e 1c 35 bd 37 4e 92 bd 28 da c6 3d
       0.020432048 -0.044216625 -0.071438245 0.09709579
000210 5f 26 ba 3c 70 05 b0 3d 10 0a 00 3b fc 52 ae bc
       0.022723375 0.08594787 0.0019537248 -0.021279804
000220 15 9f eb bc c4 be 14 3e 32 3b 06 bd f5 88 20 3d
       -0.02876238 0.14525896 -0.032771297 0.039193112
000230 3f d8 45 3d e7 bf 8c bd ae 9d e2 3c b4 bb f9 bd
       0.04830193 -0.0687254 0.027663078 -0.12194005
000240 bb db 15 bd 6d aa 6f 3d 20 fc 4e bd a0 cd 01 bc
       -0.036586504 0.05851214 -0.050533414 -0.00792256
000250 fc 4a 58 bd 4d a1 f2 bd 79 37 d2 bd bd 1f d0 bc
       -0.052805886 -0.11847172 -0.10264487 -0.025405759
000260 5a 0f 0c bb 41 ed c5 3d 0c 76 0c 3c 90 f3 6f 3c
       -0.0021371455 0.09664393 0.008573066 0.014645472
000270 28 2f 47 3a f7 5e 04 3d d4 68 ec bc c8 f9 f8 3d
       0.00075982744 0.032317128 -0.02885858 0.12157017
000280 72 a9 85 bd 61 26 9e bd a5 7a cc 3b 1f 48 e2 3d
       -0.0652646 -0.07722164 0.0062402063 0.11048912
000290 d9 b5 a2 3d da 72 82 3d c6 26 fa bb cb ce ea bc
       0.07944841 0.063695624 -0.0076340167 -0.02866306
0002a0 99 06 9a bd f8 94 17 3d 07 a4 58 bd 42 35 19 3d
       -0.0752079 0.037007302 -0.052890804 0.037404306
0002b0 29 33 90 bc 91 2b 00 3e 7c f9 bc 3d d2 8b 55 bc
       -0.01760252 0.1251662 0.09227273 -0.013033824
0002c0 35 51 74 3d 62 8e d1 ba 32 cf a1 bd f9 60 fe 3c
       0.059647758 -0.0015987868 -0.079008475 0.0310521
0002d0 d0 25 68 bc 32 57 d4 bd 8f cc db bc 64 41 a3 bc
       -0.014169171 -0.10368194 -0.02683094 -0.019928642
0002e0 00 a6 c5 bd 05 86 31 3d de 68 08 bd be de 5d bd
       -0.096508026 0.0433407 -0.033303134 -0.0541675
0002f0 8a af 22 bd 7c 64 27 3d 46 7a d9 3c 10 22 e4 bc
       -0.03971819 0.040867314 0.026547562 -0.027848274
000300 e5 fa f3 bc fd d6 7f 3d 2d 18 7b 3b b7 11 17 bd
       -0.029782722 0.06246089 0.003831397 -0.03688213
000310 68 ce 1c 3c 86 c6 fb 3b 70 96 d2 3d 17 b5 0e bd
       0.009570695 0.007683578 0.102826 -0.03484067
000320 ab 95 da 3c 84 28 e2 3c 93 cc 53 bd 74 a7 91 3c
       0.026682695 0.02760721 -0.05170877 0.017780043
000330 ec 70 0a 3d 73 d9 a5 3d 4f 32 10 3d 82 89 4b bc
       0.033799097 0.08098116 0.035204228 -0.012422921
000340 89 3d 8f 3d fc eb 8d 3d c5 8a d5 3d ad 2a 22 bd
       0.06994159 0.06929776 0.10426859 -0.03959148
000350 14 82 52 3c c0 db 11 bb 34 e1 41 bd 2e 3b 7e bc
       0.012848396 -0.0022256225 -0.04733391 -0.015517039
000360 6e 8f 12 bd 3c 44 90 bd 05 eb 13 3d c9 c6 ac bc
       -0.035781316 -0.07044265 0.036112804 -0.021090882
000370 2d 05 be 3d 51 8c 05 3e 20 34 6f bd 8d ff ca bd
       0.09278331 0.13041808 -0.05839932 -0.09912024
000380 81 bc 2d 3d fa 6e 52 3d 36 a2 4c bc 64 1b af bd
       0.0424161 0.051375367 -0.012489846 -0.08550146
000390 42 4e 11 3b 09 55 7d b9 22 e0 5f bd 45 d7 42 3c
       0.002217189 -0.00024159638 -0.05465711 0.011892145
0003a0 54 9f 11 3d 1a 8f 01 3d b7 a4 71 3d 18 30 9b 3d
       0.035552338 0.031630613 0.058994975 0.075775325
0003b0 e3 fd af 3c 50 f0 9d bc 7d c1 b9 bd cb ad 5b 3c
       0.021483367 -0.019279629 -0.09070108 0.013408135
0003c0 0a 31 cc bd 97 92 64 3c c0 a4 65 3d 2b 68 dc 3d
       -0.09970291 0.013950965 0.05606532 0.10762056
0003d0 7d 8c 79 3d 58 67 b7 bc c4 c5 79 bd 1e 2d 04 bc
       0.060924996 -0.022388145 -0.06097962 -0.008067397
0003e0 64 73 42 bd 69 7c 13 3d bb 85 8b bd 88 79 f3 bd
       -0.047473326 0.03600732 -0.068126164 -0.118884146
0003f0 53 c7 54 3c 88 2b e6 3d 11 4b be 3d 7a 18 cc bd
       0.012986976 0.11238772 0.092916615 -0.09965606

actor.4.bias f4 [128]
000000 33 0e e4 bb 1e 94 22 3d 03 fd 0a 3d 7c 2b 80 bd
       -0.0069597005 0.039692037 0.033932697 -0.06258294
000010 26 fe 7c bd 3b f0 6d bd 45 9c 3d 3d ee be 7d bc
       -0.061765812 -0.05809043 0.04629161 -0.015487416
000020 c6 d7 7c 3c 70 82 54 3d a5 90 ae bd 04 81 0b 3e
       0.015432304 0.051882207 -0.085236825 0.13623434
000030 7e bc 6f bd dc e0 33 be f9 c5 ff bd 34 07 c3 bc
       -0.05852937 -0.17566246 -0.12488932 -0.023807146
000040 81 9d 7a bd b2 3c 62 be d2 36 7e bd eb 11 a6 3b
       -0.061185364 -0.22093466 -0.062064 0.005068054
000050 35 bf 29 3d 25 15 c4 bd e4 a9 f6 3c 89 ee 12 be
       0.041442115 -0.095743455 0.030110307 -0.14348806
000060 68 53 15 be 26 13 d2 3d 8d 2f 70 bd 79 11 00 be
       -0.14582598 0.102575585 -0.058639098 -0.12506665
000070 49 0e ef bc eb 30 81 bd 11 31 79 3d 26 cd fb bd
       -0.029181616 -0.063081585 0.06083781 -0.12294988
000080 a7 48 e1 3c 96 35 6f bd 42 2a 4a bd b4 af 8c bc
       0.027500464 -0.058400713 -0.049356706 -0.017173626
000090 d0 e0 0b be ce 8c 98 bd 7f c7 88 bd b2 d3 53 be
       -0.13659978 -0.07448731 -0.06678676 -0.20686224
0000a0 e5 3d 83 bd 49 9a aa 3d f3 23 3c 3d 2a 84 fb bb
       -0.0640829 0.08330209 0.04593272 -0.0076756673
0000b0 25 76 56 bc cf 6c f7 bc 95 5f 8d bc c4 e2 49 3c
       -0.013089691 -0.030203251 -0.017257491 0.012322132
0000c0 b2 28 26 3c 6f 29 ba bd b1 97 9a bb d8 70 01 be
       0.010141538 -0.09089934 -0.00471779 -0.12640703
0000d0 68 87 07 bc b9 ca ec bd 80 40 10 bd 42 d6 a8 3a
       -0.008272029 -0.11562104 -0.035217762 0.0012881237
0000e0 3b 99 8e 3d b5 0c 3b bd 8f 66 bc bd 32 d0 21 bd
       0.0696282 -0.045666415 -0.09199249 -0.03950519
0000f0 3a a5 c6 bb bf 27 80 bc 0a 25 67 bb 41 51 0d be
       -0.006062177 -0.015643952 -0.003526988 -0.13800527
000100 91 6d 01 bd c3 7b d3 bd 75 7d a2 bc 40 eb 60 3d
       -0.03159863 -0.1032634 -0.019835213 0.054911852
000110 e6 2a 86 3d 38 bd af 3c 17 63 45 3c 96 03 bf bd
       0.06551151 0.021452531 0.012047551 -0.09326856
000120 33 79 05 3d 8a ab 11 bd fd 0e 63 bd 84 e1 0f be
       0.032586288 -0.035563983 -0.055434216 -0.14050871
000130 17 17 20 bd 77 31 77 bc 29 53 69 3d 2a 02 d7 bc
       -0.03908452 -0.015087477 0.056964073 -0.02624615
000140 c5 6b 1e 3d 42 35 dd 3d 52 cf c4 b9 2d 4b c0 bd
       0.038676996 0.10801174 -0.000375385 -0.09389339
000150 ff 9e 98 bd fc 56 76 3c 7d ed e4 bd c1 b4 4d 3d
       -0.07452201 0.015035387 -0.1117811 0.05022121
000160 99 19 8f 3d b1 48 d3 bd 68 56 32 3d 45 1a 03 be
       0.06987304 -0.10316599 0.043539435 -0.1280299
000170 cc 73 28 bd 32 00 4d 3d a6 3b 70 bd bc d8 8a 3d
       -0.041126058 0.050049014 -0.058650635 0.0677962
000180 89 0d 74 be 96 bb 65 3d db b3 25 bd e8 8c 81 bd
       -0.23833288 0.0560871 -0.040454727 -0.06325704
000190 b9 c1 2b be ac 53 76 bd 6f ca a7 3c 37 6b 8d bc
       -0.16773118 -0.06013839 0.02048227 -0.017263038
0001a0 dc 78 b3 3d 61 d7 24 be 06 ca b4 3d a3 26 b7 bd
       0.087632865 -0.16097786 0.088275954 -0.08942916
0001b0 e0 19 14 bc a5 56 37 bd 24 c6 5a 3c 74 92 07 be
       -0.009039372 -0.044760365 0.0133529045 -0.13239461
0001c0 d0 da 3a bd 08 2d de bc 62 e0 e1 bc ad 12 69 3d
       -0.045618832 -0.027121082 -0.027572814 0.056902576
0001d0 57 56 c9 3d 44 43 e3 bd a0 7c ee bd 47 c7 14 bd
       0.09830921 -0.11096814 -0.11644864 -0.03632286
0001e0 9c 4d d8 bd 75 a3 4d be ad d1 4a 3d 0f 1d 38 3d
       -0.10561678 -0.20081885 0.04951637 0.044949587
0001f0 8c f1 af 3c 88 91 40 bd 78 af 5b bd bf b5 3e 3c
       0.021477483 -0.04701379 -0.053634137 0.011640011

actor.6.weight f4 [12, 128]
000000 e6 4c 96 3c 19 2f c9 bc ee 0e 59 bc 73 47 6c 3c
       0.018347215 -0.02455859 -0.013248188 0.014421332
000010 68 d7 1c bc 72 e9 84 3d 3e 29 a3 3b 70 ed b4 bc
       -0.009572841 0.06489839 0.0049792817 -0.022085875
000020 40 eb 8b 3c 97 b7 1f 3c ed f7 99 bc 38 e9 2f 3c
       0.01707995 0.009748361 -0.018794978 0.010736756
000030 a5 7a 21 bd 5f 40 21 bd 29 4c 0a bb d0 0d f7 bc
       -0.039423604 -0.03936803 -0.0021102524 -0.030157954
000040 34 3d f3 3c 32 96 39 bd 69 ba 7f 3c fc d0 0d 3d
       0.02969227 -0.045309253 0.0156084085 0.03462313
000050 9b 95 ab 3a 0c 3a 57 bd 87 48 5e bc 85 cc c9 bc
       0.001309085 -0.052545592 -0.013567097 -0.024633655
000060 62 f6 c2 3c 12 73 85 bc c4 00 0b 3b bc 31 58 3d
       0.023799125 -0.016290221 0.0021210173 0.052781805
000070 cf c1 a4 3c 0a c7 68 3d 9d 6b e1 3c 50 dd 14 3c
       0.020111946 0.056830443 0.027517134 0.009085968
000080 40 21 11 3c 97 f8 f0 3c 32 7b d3 3a db 09 d3 bb
       0.008858025 0.029415412 0.0016134738 -0.006440384
000090 67 3f 66 bc 36 1b c1 3c a8 b5 58 3c 1b 75 48 3c
       -0.014053202 0.023572545 0.013226904 0.012234951
0000a0 c6 81 ce bc 19 fe 7b bd f8 85 3b 3b a5 7d 5f 3b
       -0.025208365 -0.061521623 0.0028613787 0.003410199
0000b0 3f 99 1f 3d 28 f6 05 3d a7 a4 9c 3c 7a 32 2d 3c
       0.038964506 0.032705456 0.019121481 0.010571117
0000c0 3d 40 19 bc 61 74 4f 3d 9e 63 4d 3b be bf 07 bc
       -0.0093536945 0.050648097 0.0031339894 -0.008285461
0000d0 72 7e 23 bd 11 ea da bc 86 39 c8 3b f8 93 cc 3c
       -0.03991551 -0.02672294 0.006110373 0.0249729
0000e0 6c 6f 19 bc 30 f5 e0 3b c5 b1 35 3d cb 04 72 3d
       -0.009364944 0.006865166 0.044358987 0.059086602
0000f0 17 22 e5 3b 3e f3 df bc d3 95 1b 3a a0 a3 81 bc
       0.006992589 -0.027337667 0.00059351063 -0.015825093
000100 aa 03 98 3b ba 90 7e 3c 8e fc 2e 3b e5 6b 5b 3c
       0.0046391087 0.015537435 0.0026700827 0.013392423
000110 5d 53 91 3c 03 c3 2c 3b 39 01 2e bd 03 b7 0d 3d
       0.017739946 0.0026361353 -0.042481635 0.03459836
000120 d2 0a 64 3c a3 b2 64 bc d2 45 9c bb 56 d6 3c bd
       0.013918595 -0.013958606 -0.0047690654 -0.046102844
000130 f2 04 2f 3c 5c ba be bb 38 5d 8d 3d 57 7b 8d 3d
       0.010682331 -0.0058205556 0.06902546 0.06908291
000140 b9 e1 74 bb e8 7d 33 bd 40 f6 24 ba 16 7c 55 3b
       -0.0037365986 -0.043821245 -0.00062927976 0.0032575182
000150 68 19 cc 3b 6b 1d 2a 3c 45 85 e3 bd 03 4b 74 ba
       0.0062286146 0.01038299 -0.111094035 -0.0009319039
000160 ea d7 62 3d 81 39 e8 bc 03 58 50 bc df b6 ce bc
       0.055381693 -0.028347732 -0.012716296 -0.025233684
000170 26 21 4a 3d 75 77 13 bd 6a 53 60 bd 9e fe 62 bc
       0.04934802 -0.036002595 -0.05476705 -0.013854651
000180 49 e5 20 bd e5 ec 4b 3d 10 31 8d bc 9c bd 96 3c
       -0.039281163 0.049786467 -0.017235309 0.01840096
000190 53 a9 51 bd 7b 2a d1 3c e1 72 1a 3d 8d 82 69 bb
       -0.05118687 0.025532952 0.037707213 -0.0035630793
0001a0 bd 00 1a bd 82 24 18 bc de 6e 2d 3c ca da 27 3d
       -0.03759836 -0.009286048 0.010585515 0.040980138
0001b0 cd 83 9f bc 7f 49 64 3c 85 5f 36 bb 77 26 a8 bd
       -0.019472027 0.013933538 -0.002782793 -0.082104616
0001c0 38 ff 82 bc 7b 86 16 bd 67 26 d0 ba 4f 8d bc 3b
       -0.015990838 -0.036749344 -0.0015880585 0.00575415
0001d0 31 cb c0 ba d2 45 7d 3a bd 7f 43 bd a7 9c 7d 3c
       -0.0014708993 0.0009661588 -0.047729243 0.015479243
0001e0 96 6d f8 bc ab cc da 3c 17 5f a3 3c f2 59 89 3b
       -0.030325692 0.026708921 0.019942803 0.0041916305
0001f0 e8 27 90 3c 58 9e 67 ba ce 2f 9d 3b de 7b e4 bb
       0.017597154 -0.0008835546 0.0047969585 -0.006972774
000200 06 45 f2 3b b2 95 08 bc 7f 2e 29 bd 20 da 41 bc
       0.007393482 -0.008336471 -0.041304108 -0.01183179
000210 e9 86 c2 3b d3 0c a4 3b f1 97 c8 bb f3 00 db bc
       0.0059364927 0.0050064116 -0.0061216285 -0.026733851
000220 9f a9 24 bc 75 5e 58 bb e1 9f c9 3d 36 af e0 bb
       -0.010050206 -0.0033015285 0.098449476 -0.0068568243
000230 af ac ac 3b 6f 18 9a bb 2c ca 2d 3d a1 f2 f7 bc
       0.005269609 -0.0047026197 0.042429134 -0.030267062
000240 08 2d dc 39 e8 a9 0a bc 9b d6 32 bc ed 31 b6 3c
       0.0004199522 -0.00846336 -0.010915424 0.022240603
000250 71 1d 9c 3b 38 54 2a bd 9a 30 43 3b 80 bc 2f 3c
       0.004764252 -0.041584224 0.0029783607 0.010726094
000260 3c d5 21 3a d1 65 6f 3b 08 a3 73 3b d6 03 c9 bc
       0.0006173437 0.0036529193 0.0037176032 -0.024537962
000270 59 20 44 3b 65 9e 17 bc d8 a4 85 3d a2 96 d9 3b
       0.0029926507 -0.009254073 0.06525582 0.0066402713
000280 a0 b7 67 3c f3 f7 56 b9 e0 a1 8d 3d ae 32 8f b8
       0.014142901 -0.00020500999 0.06915641 -6.828211e-05
000290 24 0d ed 39 77 a9 09 3d 69 a5 d2 bc dc a2 0c 3d
       0.00045213953 0.03360888 -0.02571364 0.034335002
0002a0 7d 7a 65 bc cd 92 18 bd b0 77 5d 3c 8c 2d 44 3a
       -0.014006254 -0.037249375 0.013517305 0.00074835937
0002b0 b8 d3 1d bd 18 b8 dd 3b 39 96 e8 3c 5b b4 5e 3a
       -0.03853199 0.0067663305 0.028391944 0.0008495503
0002c0 74 0f cb bc 2e 47 17 3d 1c 80 17 bc bb 85 53 bd
       -0.024787642 0.036933117 -0.009246852 -0.051641207
0002d0 77 49 07 3d f5 74 ec bc 3d 02 72 bc d7 ec a9 ba
       0.033029046 -0.028864363 -0.014771041 -0.001296426
0002e0 a4 d2 09 bd 95 f9 ef bb fa 31 6e 3c 1f 2a 76 bd
       -0.03364815 -0.0073234537 0.0145382825 -0.060098764
0002f0 a0 0b 99 bc 8c a3 ad 3c 2f 6f 44 ba 32 f6 fb bc
       -0.018682301 0.02119615 -0.0007493374 -0.030757044
000300 0d 08 bb 3b 1d 3a f7 bb 1d 22 24 3d f5 a5 c3 3b
       0.005707747 -0.0075447694 0.040071595 0.0059707114
000310 59 53 79 bc c4 6e fd 3c bd 66 9d bb 1b ad c8 bc
       -0.015217626 0.030936606 -0.004803507 -0.024496606
000320 6a 6d a0 3b 6d 61 13 3c 2f 25 6d 3c fb 85 c2 bc
       0.0048958557 0.008995396 0.014474197 -0.023745527
000330 fc 4e 65 bc 0a c9 19 3d dc d5 35 3c f1 de ad 3c
       -0.013995882 0.03754524 0.011098351 0.02122447
000340 0d d9 fc 3b a3 5f 63 bd 74 d1 b8 bb 48 9e c5 3b
       0.007716304 -0.05551113 -0.005640203 0.0060308315
000350 70 c6 06 3b ec 92 2e 3c 4e ef 49 3d c9 17 65 3c
       0.0020565055 0.010655146 0.049300484 0.013982722
000360 6c 8b 88 bd 2a d9 e6 bc ec 97 45 bc e6 7e ab 3c
       -0.066672176 -0.028179724 -0.012060147 0.020934533
000370 1d 85 09 bd 58 dc 0a bd 28 6d 08 3e a8 67 f2 3b
       -0.033574212 -0.033901542 0.1332289 0.0073976107
000380 01 cc 24 3c 06 ed ff 3c e1 f3 89 b9 47 4d db bb
       0.010058404 0.031240951 -0.0002631238 -0.006692562
000390 9b 39 a6 3c 12 ec b9 3b bd f9 75 3c 29 65 b6 bc
       0.02029114 0.0056738937 0.0150131555 -0.022265034
0003a0 58 6a e1 3b 2f ab e1 3c d8 ba 19 3c 42 84 1a ba
       0.0068791322 0.027547447 0.009382926 -0.0005894342
0003b0 4a 92 4a bd d0 58 86 3d 68 8a 1d 3d 27 09 f2 3c
       -0.04945592 0.065599084 0.038462073 0.02954538
0003c0 06 e1 e9 3a e5 99 20 bd 99 43 d6 3b 97 33 b5 3d
       0.0017843551 -0.039209265 0.00653882 0.088477306
0003d0 17 c8 af 3b df af 1b 3c 81 43 56 3d 7f af 2b 3c
       0.0053644287 0.00950238 0.05231047 0.010478853
0003e0 8f 15 98 3b 5e 81 a8 bc 36 03 95 3c 0f e9 34 3c
       0.004641242 -0.0205695 0.018190008 0.011041894
0003f0 c0 cf 0d bd c8 e5 32 3c a0 5b 07 bb c7 85 e2 ba
       -0.034621954 0.010919042 -0.0020653978 -0.00172823

actor.6.bias f4 [12]
000000 79 81 c1 3d 56 10 57 bd f5 ea a5 3d f0 d2 33 bb
       0.09448523 -0.052505814 0.08101455 -0.002743896
000010 b4 70 a9 3d 0e f2 a2 bb a7 be 37 3e e1 9e 67 3e
       0.082734495 -0.004972703 0.17943822 0.22619201
000020 04 d6 06 bd fe b7 38 be 40 4a 69 bc d6 89 fb bb
       -0.032918945 -0.18038937 -0.014238894 -0.0076763434
