logs/rsl_rl/unitree_go2_flat/2024-07-13_18-47-17/exported/policy.onnx (onnx, 163093 bytes, 8 tensors)

actor.0.weight f4 [128, 45]
00000000: 76f5 9ebd 2cbb ebbd 85e7 e8bd 8a3f 933c
00000010: b08d d5bb b156 093e 7574 873d 9466 9fbc
00000020: 92e0 deba 614b b4bd d49f 0f3e dbaa 083e
00000030: bb38 e43c 3783 c2bb b9c3 34bd f2ba e93d
00000040: 5b42 a23d 9303 8cbd 0df2 f6bd 4b85 7b3d
00000050: 458f 383b 85ed f7bd 8cd3 863d a5f9 81bd
00000060: 4e8b e0bc 4c73 f73c 9b71 e63d 4574 2e3d
00000070: f0f2 ca3c f702 c1bd 1d76 05bb c797 0bbe
00000080: 9282 e53d 75d3 df3d 3e4d e5bd 0149 1ebb
00000090: eb6d e03d 7e0a 73bd b2cb 9c3b 0211 043e
000000a0: a4ed 483d 39bd a0bd 32c6 c43d 3654 553d
000000b0: d140 b63d bb6e 083e 8adf 083b 6119 52bd
000000c0: d769 1a3d 4129 0a3e c5f7 cabc 4675 c73d
000000d0: 499f c9bc dfc7 933d 1655 adbd a084 61bd
000000e0: 8b81 17be 125b 9cbd f61f 0e3d b710 31bd
000000f0: f6b8 a2bd 9b71 0cbe fcbe 803c cfaa 13bc
00000100: a3d8 01bd 4053 1b3e bff5 d4bd 7c76 10ba
00000110: 5080 8a3d 86fc 133e 4a6f 8ebd 67b6 3cbd
00000120: ce6c b7bd bd5f cebd ac2b e23c 7cd4 03bd
00000130: 6c1e 6d3d 7d14 0a3e 1fb6 bebd a1d4 063c
00000140: 200b 4bbc 64b7 9bbc d758 a7bc 0ef0 8a3d
00000150: 5d47 9bbd 4455 193d ca5a 853c e478 5cbd
00000160: db79 4a3c a32b b4bd 4d39 113e 5584 053e
00000170: 6565 003e 85ca aabd 66d5 363c 8b5d 80bd
00000180: 051c 14be d0ed 923d 9dc3 babc 8cb5 febd
00000190: f6d3 06be 212f 76bd ae32 2dbd 429b 4e3c
000001a0: fd27 39bd ba50 0d3d 1420 62bd 7e14 62bd
000001b0: 8733 173e 6b64 963c 03ff 57bd c525 f03b
000001c0: 2d71 a13c 9fc3 afbd 9991 23bc 49d4 24bd
000001d0: 795a 14be ce75 e33d 95e5 b9bd a7ed 9bbd
000001e0: 59e6 123e cad0 0ebd 9e39 cfbd 62b3 02be
000001f0: c659 26bd f350 363d 7717 c4bd fb10 f4bd
00000200: 32f5 e5bd 63c9 ff3d 0be1 3d3c 8089 06be
00000210: 5dd1 1ebd 729e 603c 6324 37bd 8efd 9a3d
00000220: ba29 e43d e15a 6fbd 0e9d 693d 82cc ed3d
00000230: f700 11bd 2afd 7e3b 2224 b3bc d01f 98bc
00000240: b8d4 463d fcc5 d23d f152 01be c3d8 8bbc
00000250: 473d 04be 3792 e7bd 0c65 aebd 534d c53c
00000260: ce88 ee3d 322e 8abd 757b e1bb 99c2 8abc
00000270: 92e3 403d f958 ca3d c431 6abd add2 de3d
00000280: ba45 0abc f38e 753d 94b8 e13c a63a 18be
00000290: 8c32 08be 1c8c df3d 8cfa c13d a245 94bd
000002a0: 3fc2 debd 4fad 9dbd c73d 98bd 9f50 313a
000002b0: 49b8 bc3d a65e c23d e4ec c63d a8d0 0c3d
000002c0: a996 02be 2cd8 863d 6383 79bc 5142 d93d
000002d0: eb02 2abd 3202 e23d a6a2 e5bc bf40 e3ba
000002e0: 5ad2 873d f6db 893d 1b16 123d 71cc 77bd
000002f0: 9825 0a3e 2ce1 ecbd eee0 f0bc 0438 19be
00000300: e6bc f4bc 6e4d 583d f354 18be ba3e 5bbc
00000310: bb5d 963d f67a 8c3d 3cc6 033e e2dc 7b3d
00000320: 81b8 0d3d dc45 01bd e1df 603c d1a3 f9bc
00000330: 1643 e4bd c62f 9abd d338 163e 3c24 c2bd
00000340: 8126 b4bd 81d3 0cbe ee3c 303d ad3e 43bd
00000350: d446 153e 0e13 8dbd 9057 eabd 49f7 933b
00000360: e083 ddbd 5608 053e 33bf 26bd 4efb e7bd
00000370: 035d c23d 7bc7 d43c fe17 873d 7a88 153c
00000380: 2716 17bd a9d0 593b 6957 233d c8d9 553d
00000390: 011d bdbd d30c 023e e55d 06be 845b a53d
000003a0: 7068 633d c466 e8bd c0ee debc d711 2c3d
000003b0: 3301 c6bd 63af cc3c dc13 15be 1edb 02be
000003c0: 76e8 ad3c ee3a 1dbd b910 a0ba d41c 013d
000003d0: c21f ec3d d850 93bd 6549 fa3c 558a 0e3e
000003e0: 0395 bbbd db35 1abe 233b cc3d add6 68bd
000003f0: 665d 413c 51c8 debc 2f3d 143e 1c94 81bc
-0.07761662 -0.115103096 -0.11372284 0.017974634 -0.0065171346 0.13411976 0.06614009 -0.019458093
-0.0017004183 -0.0880344 0.14025813 0.13346426 0.027859082 -0.005936052 -0.04413197 0.1141261
0.079228126 -0.06836619 -0.12057886 0.061406415 0.0028161567 -0.1210585 0.06583318 -0.06346444
-0.027410176 0.030206345 0.11252137 0.042591352 0.024774045 -0.094243936 -0.002036459 -0.13632117
0.11206545 0.10929004 -0.111963734 -0.00241524 0.10958465 -0.059336178 0.0047850246 0.12897113
0.049054757 -0.07848591 0.09608115 0.052082263 0.088990815 0.1332349 0.0020885193 -0.051293734
0.037698593 0.134923 -0.024776349 0.09739165 -0.024612086 0.07215857 -0.084634945 -0.05505812
-0.1479551 -0.07634558 0.03469845 -0.04322883 -0.07945435 -0.13715212 0.015716068 -0.009012892
-0.03170074 0.15168476 -0.10398435 -0.00055108196 0.06762755 0.14451799 -0.069548205 -0.04607239
-0.089563 -0.100768544 0.027608715 -0.032185063 0.05789034 0.13484378 -0.093120806 0.008229406
-0.012392789 -0.019008346 -0.020428104 0.06784068 -0.07581971 0.03743483 0.016278643 -0.053826228
0.012358154 -0.087973855 0.14182015 0.13038762 0.12538679 -0.08339409 0.011159277 -0.06267842
-0.14463814 0.071742654 -0.022798354 -0.12436971 -0.13166794 -0.06010354 -0.04228466 0.012610259
-0.04520415 0.034500815 -0.055206373 -0.055195324 0.1476575 0.01835843 -0.052733433 0.007328721
0.019707287 -0.08582234 -0.009983444 -0.040241513 -0.14487638 0.11106454 -0.090769924 -0.07613688
0.14345683 -0.034867086 -0.101184115 -0.12763742 -0.04061296 0.044510793 -0.09574788 -0.11917301
-0.11228408 0.12489583 0.011589299 -0.1313839 -0.038773883 0.013709651 -0.044712435 0.07567893
0.11140771 -0.05843628 0.057034545 0.116112724 -0.03540131 0.0038908222 -0.021867815 -0.018569857
0.04854271 0.10291669 -0.12629296 -0.017071133 -0.12914 -0.11307185 -0.08515367 0.024084723
0.11647187 -0.06747092 -0.0068811723 -0.016938495 0.047092028 0.098802514 -0.057176366 0.10880027
-0.008439476 0.05995078 0.027553834 -0.14866123 -0.13300532 0.109153956 0.09471616 -0.07239844
-0.10876893 -0.076990716 -0.07433658 0.00067640276 0.09214837 0.09490709 0.09713152 0.034378678
-0.12752785 0.065842 -0.015229079 0.10608352 -0.04150669 0.11035575 -0.028031658 -0.0017338021
0.06631918 0.06731407 0.035665613 -0.060497705 0.13490903 -0.115663856 -0.02940413 -0.14962775
-0.02987523 0.052808218 -0.14876156 -0.013381654 0.073420964 0.068593904 0.12868589 0.061489947
0.034599785 -0.031560764 0.013725252 -0.030473622 -0.11145608 -0.07528643 0.14670114 -0.094795674
-0.087964065 -0.13752557 0.043026857 -0.047667194 0.145778 -0.068884 -0.114424825 0.0045155627
-0.10816169 0.12991461 -0.040709686 -0.113272294 0.09490397 0.025974026 0.06596373 0.009126777
-0.03688636 0.0033235943 0.039878283 0.052209646 -0.09234048 0.12700205 -0.13121755 0.08074096
0.05551952 -0.11347726 -0.027213454 0.0420092 -0.096681975 0.024985975 -0.14558357 -0.12778899
0.02122901 -0.038386278 -0.0012212015 0.031521633 0.11529495 -0.07193154 0.030552575 0.13919957
-0.09159281 -0.15059607 0.09972217 -0.056845356 0.011802053 -0.027195128 0.14476465 -0.015817694

actor.0.bias f4 [128]
00000000: e6a4 91bd d52d ee3d b29c f73d 29f6 d1bd
00000010: ed28 0f3b ab9b bd3d 966d 863d 7dbd f53b
00000020: 519a d13d 3b9a acbd 686f f93d db48 b7bd
00000030: 6edf b6bd 1d51 3b3d ae6a ecbc e009 e73d
00000040: 430f d6bd 605b 68bd 3493 9c3c df33 d5bd
00000050: 0c2d 0a3d d600 1abd 143e 7dbd 74da d3bd
00000060: 8e9f 12be f7de 973d 1477 ba3d 7e91 fbbd
00000070: 2fb1 163d 0d03 27bd 38d3 943d 6cef 013d
00000080: 011a bf3d bc4a ec3d 8190 b73d 0d83 56bd
00000090: 99e1 8a3d 8109 02be 1bf2 29bc a705 853d
000000a0: 074a 0abe 72fe 86bc 9ee5 133d 6745 4b3c
000000b0: e1d8 ea3d 68fd cc3c 5355 dc3d f9bc 02bc
000000c0: 213c 943d d5d7 98bd 3bcf b0bd f700 833c
000000d0: cd54 10be 0f20 75bd e462 fa3c f895 013d
000000e0: 2e3e 7fbc d3d0 133e 3539 1dbd 3825 cb3b
000000f0: ff3a 00be 90e9 2f3b 42ed 153e 0dbe 9ebc
00000100: 3f4f 423c cba4 96bd 2af0 cdbd de17 0f3d
00000110: ff69 55bd aa07 b03d 6000 823d 5ccb 84bd
00000120: f327 48bd fa37 edbc 91ff 12be ad2f d93d
00000130: beb9 f93d fc14 90bd 951a 813d ff95 0c3e
00000140: 93ac d3bd 87c2 093e 782c 05bd 039f 0cbe
00000150: c037 e7bd 762c d4bd 2310 5fbb ff4a d0bc
00000160: 74e4 e7bc 204f 2b3d 1340 d1bd 69ab f5bd
00000170: 2b87 30bd 2261 dcbd 08d1 c3bd afda b63d
00000180: b0ba 06be 60a5 bebd 592d 153e 1cd5 5abc
00000190: 22ed 34bc 0bc6 dc3d d32a a1bd e750 0d3e
000001a0: 085a 0f3e f053 8c3c 4adb 7fbd 197d 0cbe
000001b0: 02e7 593d f451 b8bd 37f9 003e 3926 e5bd
000001c0: 7895 ca3d 1e3c 03be 82f5 5bbd 4a68 19be
000001d0: 26a6 ef3d 333e 013d afd4 d63c f29f ebbd
000001e0: 860f 133e a7ad 8abd c145 f1bd 094e e4bd
000001f0: d1d4 b9bd 2167 7e3d 1b04 193e dd0c b5bd
-0.0711153 0.116298355 0.12090434 -0.102520294 0.0021844462 0.09258207 0.065638706 0.0074993954
0.10234512 -0.084278546 0.12179452 -0.08949443 -0.089293346 0.045731653 -0.028859463 0.112811804
-0.1045213 -0.056727767 0.01911316 -0.10410284 0.033734366 -0.037598453 -0.06182678 -0.10344401
-0.14318678 0.07415574 0.091047436 -0.1228361 0.03679007 -0.040774394 0.07266849 0.03172247
0.09331132 0.11537692 0.08963109 -0.052371074 0.067813106 -0.12698938 -0.010372664 0.06495219
-0.13504802 -0.01647875 0.036107652 0.0124066835 0.114671476 0.025023177 0.10758462 -0.007979625
0.07238031 -0.07463042 -0.08633276 0.015991671 -0.14094849 -0.059845027 0.030564733 0.031637162
-0.01557879 0.14435129 -0.038384635 0.006199505 -0.12522505 0.0026842095 0.14641288 -0.019377733
0.011859714 -0.073556505 -0.10055573 0.03493487 -0.05210304 0.08595212 0.06347728 -0.064841
-0.048866224 -0.028957356 -0.14355303 0.106047966 0.12193631 -0.070352525 0.06303898 0.13729094
-0.1033565 0.13453113 -0.03251311 -0.13732533 -0.1128993 -0.10360043 -0.0034036718 -0.025426386
-0.028307177 0.041823506 -0.10217299 -0.119955845 -0.043097656 -0.10760714 -0.09561354 0.08928429
-0.13157153 -0.093088865 0.1456808 -0.013356473 -0.011042865 0.10779961 -0.07869496 0.13800393
0.13999188 0.017129868 -0.06246499 -0.13719596 0.05319882 -0.09000006 0.12595068 -0.11188931
0.0989179 -0.12815902 -0.05370093 -0.1498119 0.11701612 0.03155346 0.026224462 -0.115051165
0.1436139 -0.06771403 -0.117808826 -0.111476965 -0.09073795 0.06211007 0.14942972 -0.08840344

actor.2.weight f4 [128, 128]
00000000: 1f65 3b3d d1de 44bd 14c8 b2bb 4a77 23bc
00000010: 7ee4 d83c ea7f b53d 040a 343d 5916 6d3d
00000020: 7bab ea3c ca5a 5a3d f6f1 b63d 4378 633d
00000030: cfed 073d 7158 bd3b d9e5 653d ca6c f63c
00000040: 547b 7fbc 687a 77bd 5fbc 043b 93e2 533c
00000050: d9c6 aa3d aa60 523d 44a2 a0bd d61e 553c
00000060: b973 6ebb 84d1 0a3d 8783 7dbd 2d9a 6bbd
00000070: f506 34bd d23e 39bd 888f 4f3d 8169 b83d
00000080: d24e b1bd fd52 6cbd a56e cbbb aaa1 4e3d
00000090: 2081 643d fa43 8bbd b594 b0bd 801c 7f3d
000000a0: 4956 59bd 5265 833c 2226 30bd 7600 b9bc
000000b0: 43c3 37bd ef86 a5bd 5a2f a5bc 6d2d a4bc
000000c0: c4d1 693d 7ba3 1bbc 45d6 f1bb 34bf 853c
000000d0: 23a4 fc3b 4c0a 993d b6c6 ca3c ca1b f7bc
000000e0: c70c 09bd 72b3 eb3c 79b7 623d fbb2 7f3b
000000f0: 4e35 a9bd fdef ec3c 64a2 a7bd 4a7b ba39
00000100: 005f 77bd 67ea 4d3d d7c9 c3bc 5981 52bd
00000110: 9f13 cf3c d07f a5bd b989 ab3d 9dd1 b6bd
00000120: 0e69 14bd 5194 8a3d a6e9 fc3b cc85 14bc
00000130: 27aa 0f3d c975 343d 01d9 ac3d c292 96bb
00000140: 7e58 3dbd 157b c63c 40be 2cbd f816 63bd
00000150: aa43 dcbc e4bc 7cbd 7f3c d9bc f43c 183d
00000160: bbfc a53d 0c73 5a3d 54d1 5bbc cc6e adbd
00000170: f107 193c 0d89 1a3d 47c5 e33c 7769 3a3d
00000180: 37ba 1b3c e741 333d 078a 4e3d 2e1a 56bd
00000190: 5f15 993c 48ab 5f3c 1f97 5fbd 7926 0bbd
000001a0: 276a 4a3d 61e1 39bd ea5a 483c d544 903d
000001b0: cc7e 833c 73ab dc3c 6f16 a7bb c8b2 693d
000001c0: 7ead ae3d 5415 64bd 9a10 8fbd 82a3 e6bc
000001d0: 75e1 423c 8f7f 123c d0c7 543d 7c6e 29bd
000001e0: 03ba 5abd 1e08 853d 8f15 f8bc cb59 a13d
000001f0: a89e 8b3d f859 b4ba febc 78bc f6fb 153d
00000200: 0321 66bd fe9c 90bb 4c42 443d 009c 86bd
00000210: eac1 f73c 54de 85bb a87e bbbc 0ff0 633d
00000220: 9f85 83bd 1023 ff3c 22cf 9c3d 98d1 b63d
00000230: 80ea e2bc 4d7e 97bd df7e 9c3d e246 a3bd
00000240: 42b4 34bd 68cd ed3c 2855 a8bd 9fd0 e9bc
00000250: eef7 71bd aa14 75bd cd6a 2bbd 2c4e a23c
00000260: 5a13 8f3a 8f17 fdbc 9550 93bd d7fd 1cbd
00000270: 998b 963c d197 833d b335 79bd 0056 92bd
00000280: b6b7 63bd 0a2b 17bd 9be9 43bd e6a8 52bd
00000290: 8e38 47bd 22b2 973c 40fe ecbb 0ebd 773d
000002a0: ebd4 a1bd 8404 803d dc8a 863d 36a5 113d
000002b0: afad 663d f3b4 88bd 7aac adbd 1977 60bd
000002c0: eba5 a23d 1e6d 29bd 67f6 79ba 286c 033c
000002d0: 4894 a43d 07a0 243d c709 953b 4f75 a63d
000002e0: 8485 933d 4d89 9abd f69b d73c 596b 743c
000002f0: f4ca 89bc f3a0 523d c4a8 803c 87c7 0e3d
00000300: de90 82bc d4b0 493d be8b 6f3d 2486 96bd
00000310: 2cc7 83bc f61d 213c a793 c0bb edca 9f3d
00000320: 2226 b5bc 6ae3 36bd 925e c1bc d7fe 603d
00000330: 6d3f 8a3d b928 08bc caf5 293d 8c57 6c3d
00000340: e030 4bbd f2e5 8f3d d174 7fbd e8b5 433c
00000350: 0e2a a3bd 2180 0b3d 25a7 d43b 0f8d 2c3b
00000360: 593d 653d dae2 a4bd d276 2d3d d39f 3e3d
00000370: 10ec 89bd 3b80 4ebd fe8a 30bd 7e05 2e3d
00000380: 7c77 783c e8cb 8b3d 3670 7e3d 4f46 86ba
00000390: c690 333d 8e76 e13b 8dbd 38bd 80c8 863d
000003a0: f752 4dbc 3fb9 9e3c c174 003d 42b2 943c
000003b0: 90ce 77bc 4300 e83b f1cd ebbc 3195 843d
000003c0: 48ed 8cbc 6cb5 b0bc c54a 56bd c5bb a2bd
000003d0: c3b3 bc3b 2c8e 123d d574 703d 7ba3 50bd
000003e0: 79d3 693c 3e1f 40bd 3d8d 8bbd f23d 8bbd
000003f0: 08f2 88bc 2127 09bd 1c71 fe3c 4dfe 213d
0.045750733 -0.048064057 -0.00545598 -0.009977171 0.026476141 0.08862288 0.043954864 0.05788264
0.028646221 0.05330924 0.08932869 0.055534612 0.033185776 0.0057783653 0.056127403 0.030081172
-0.015593369 -0.06041947 0.002025388 0.0129324375 0.083387084 0.051361717 -0.0784345 0.01300784
-0.0036384894 0.033891216 -0.061893012 -0.05752008 -0.043951947 -0.045225926 0.05067399 0.09004498
-0.08657612 -0.05769633 -0.006208258 0.050447144 0.055787206 -0.06800075 -0.086221136 0.06228304
-0.053060804 0.016039524 -0.043005116 -0.022583228 -0.04486395 -0.08082377 -0.02016418 -0.020041192
0.057084814 -0.009499426 -0.0073802792 0.016326524 0.0077099963 0.07472667 0.024752956 -0.030164618
-0.03345945 0.02877209 0.055350754 0.0039016593 -0.0826212 0.02892303 -0.081852704 0.00035568542
-0.060393333 0.05027237 -0.023899956 -0.051392887 0.02527791 -0.08081019 0.08375878 -0.08926699
-0.036233 0.0676657 0.0077182828 -0.009065103 0.03507438 0.04405764 0.08439828 -0.0045951316
-0.04622697 0.024228612 -0.042173624 -0.055441827 -0.026887733 -0.061703578 -0.026518105 0.037167504
0.08104845 0.053332373 -0.013416607 -0.084683985 0.009340272 0.037728358 0.02780403 0.045510735
0.009504846 0.04376402 0.050424602 -0.05227106 0.018686948 0.0136516765 -0.05458748 -0.033972237
0.04941764 -0.045380954 0.012228707 0.07044379 0.016051672 0.026937222 -0.00509911 0.057055265
0.08529185 -0.055684403 -0.06985588 -0.028154138 0.011894573 0.008941545 0.05194837 -0.04136513
-0.05340005 0.06495689 -0.030283717 0.07878455 0.06817371 -0.0013759723 -0.015181778 0.03661724
-0.056183826 -0.004413246 0.047914788 -0.065727234 0.030243833 -0.0040853415 -0.022887543 0.05564886
-0.064219706 0.031144649 0.07656695 0.089266956 -0.027699709 -0.07397137 0.07641386 -0.07972504
-0.04411722 0.02902861 -0.08219367 -0.028541861 -0.059074335 -0.05983416 -0.0418499 0.019812666
0.0010915801 -0.030895023 -0.07193104 -0.038328018 0.018377112 0.06425441 -0.060842227 -0.071453094
-0.055595122 -0.03690628 -0.047830205 -0.051430605 -0.04863792 0.018517558 -0.0072324574 0.06048303
-0.07901939 0.06250861 0.06569454 0.035557948 0.05631798 -0.06675138 -0.08480163 -0.05480108
0.079418026 -0.041363828 -0.0009535313 0.008021392 0.08036095 0.040191676 0.0045482847 0.081278436
0.072032005 -0.07545719 0.026319485 0.014918172 -0.016820408 0.051423024 0.015705474 0.034858253
-0.015938219 0.049240902 0.058482878 -0.07349804 -0.016086183 0.009833803 -0.0058769765 0.07802377
-0.02211291 -0.044650473 -0.023604665 0.054930534 0.06750379 -0.00831049 0.04149417 0.05770068
-0.049607158 0.070262805 -0.062367264 0.011945225 -0.07967006 0.03405774 0.0064896517 0.0026329195
0.05596671 -0.08051081 0.042349644 0.04653914 -0.067344785 -0.05041526 -0.043101303 0.042485707
0.015165206 0.068260014 0.06211873 -0.0010244342 0.04383924 0.006880588 -0.045102645 0.06581211
-0.012531987 0.019375442 0.031361345 0.018151406 -0.015124932 0.0070801093 -0.028784724 0.064737685
-0.017202988 -0.021570884 -0.0523174 -0.079459704 0.005758734 0.035780117 0.05870517 -0.050937157
0.01427161 -0.046904795 -0.068140484 -0.067989245 -0.016716972 -0.03348458 0.031059794 0.03954916

actor.2.bias f4 [128]
00000000: 9518 01bd f798 a93d e858 fcbb 1ad9 493d
00000010: 8faf ef3c 0fe7 a43c a799 57bc 5893 b23d
00000020: 91a8 4bbd bec2 3a3d 2104 a3bd 380f 42bd
00000030: 6f42 353c c05e 0d3c 793c 9c3d 6fdd 9d3d
00000040: 7921 85bd 5bbb b33d d614 eebc d872 91bd
00000050: 9fc7 9cbd 4b0a a9bd 5059 0f3d f7e6 f73c
00000060: ef33 df3c e34d 85bd 8e40 c2bc 6e82 ccbc
00000070: ff15 ac3c dcdd ff3c 1bdd 973d 5ce0 b6bc
00000080: f57d 89bd fba7 eebc 7714 6bbd d3cf 46bd
00000090: 08f2 0fbd 9d66 bfbc ee3f a4bc c302 343c
000000a0: 57d1 5e3d 7c3f b7bd 93dd 103d 607a 2b3c
000000b0: 658d 9f3d 57e3 e03c f8e7 dc3b 92c7 ecbb
000000c0: a57c 0fbd da1c 23bd 7036 77bc 0b76 933d
000000d0: 3a56 853d 0261 173d d9c6 793c 5a71 953a
000000e0: c838 873d 8d83 84bc 6d33 89bd 5626 103d
000000f0: d182 813d 5089 63bd 2646 9fbc b170 9dbd
00000100: 7a93 b2bd 53a0 73bd 1f2a d1bc c1c2 a43d
00000110: 802b aa3d b7d2 9c3d 2a95 a13d 304a bd3c
00000120: 526a 0dbd 3186 b03d 11d3 e9bc 7c62 f23a
00000130: 2178 4fbc 733e f33c 0f9c a33d dfe1 2dbd
00000140: 533d 2ebd a4af ee3b a51c 65bc 0227 c93b
00000150: 3406 6a3d 767d a83d d3df d73c 6def 473c
00000160: fdd1 973d b709 123d 80ff 56bd 9bf9 443d
00000170: c39d 69bd ddb6 71bc 360a 8e3c 49c1 e73c
00000180: 9a2c 4e3c 2ec9 d8bc 338a 673d 153a 593d
00000190: 9abb 6a3d 9abe 7fbd 9c53 7bbc 41e0 2fbd
000001a0: 8d8c c5bc c6e4 b3bd 59fa 33bd 291b df3c
000001b0: 76be 18bc 69d9 a2bc 4c27 833d 2e65 23bc
000001c0: 4abb f9bc 2842 ce3c eafa b23c 7e9e ab3d
000001d0: d502 2bbc 1320 5cbc 617c b5bc 8854 90bd
000001e0: 497e dfbc 7b53 373d f307 b93c 1a12 213d
000001f0: d96c 103d ea6a 3d3d e24d 923d 758b 66b9
-0.031517584 0.08281129 -0.007701028 0.04927931 0.029258518 0.020129709 -0.013159192 0.0871951
-0.049721304 0.045595877 -0.07959772 -0.047377795 0.011063202 0.008628547 0.07628722 0.07708251
-0.06500525 0.087759696 -0.02906267 -0.07101983 -0.07655262 -0.08253916 0.034997284 0.0302615
0.027246444 -0.06508996 -0.023712423 -0.024964537 0.021006582 0.03123372 0.074152194 -0.02232378
-0.067134775 -0.029132834 -0.057392564 -0.04853804 -0.03514293 -0.02336436 -0.020050015 0.010986987
0.05439886 -0.089476556 0.03536756 0.010466188 0.07790641 0.027452154 0.00674152 -0.007225939
-0.03503098 -0.039822437 -0.0150886625 0.07200249 0.06510587 0.03695775 0.015245163 0.0011401579
0.06602627 -0.01617601 -0.06699262 0.03519281 0.063237794 -0.055550873 -0.01944263 -0.0768751
-0.08719535 -0.05947907 -0.02553278 0.08044959 0.08309078 0.07657378 0.07889779 0.023106664
-0.034525223 0.08619345 -0.028543027 0.0018492485 -0.012662918 0.029692864 0.0798875 -0.042451736
-0.042538952 0.0072841216 -0.01398388 0.0061386833 0.057134822 0.08227055 0.026351845 0.01220308
0.07413099 0.035653796 -0.052489758 0.048089605 -0.05703522 -0.014753071 0.017338853 0.028290408
0.012583876 -0.026463117 0.05652828 0.053033907 0.057307817 -0.06243763 -0.015339758 -0.042938475
-0.024114871 -0.087838694 -0.043939922 0.02723463 -0.009322753 -0.01987906 0.0640398 -0.009972854
-0.030484814 0.02517803 0.02184816 0.08379839 -0.010437687 -0.013435381 -0.022154035 -0.07047373
-0.027281897 0.044757348 0.022586798 0.039323904 0.035260055 0.04624454 0.07143761 -0.00021986461

actor.4.weight f4 [128, 128]
00000000: 5c9a 35bc 9ebd 8e3c b1db 663d 7cc5 9a3d
00000010: 03ca 943d 3dfb d53c a0aa 18bd e028 40bd
00000020: 32b4 90bd 336f 6e3c 0830 4b3d 3a78 343d
00000030: 0d6c 6d3c 25e9 273d e6c1 9f3c 1bcf e4bc
00000040: 4d7e 933d f608 983c b812 833d caa2 313d
00000050: 5968 dcbc 17d1 013d c29d 30bd db2f 5bbd
00000060: 4427 8abd 780b 3b3d 7b0d 7d3d bd94 ed3c
00000070: d0a3 af3d 5bf4 133c 8edf 413c f913 49bd
00000080: 71bb 523d c48c 64bd 790d fa3b 9bfc d2bb
00000090: b49e 763d 5fc8 00bd 5d42 afbc 7011 793d
000000a0: 352c 243d 4ad0 dfbc 6364 7e3d d626 41bd
000000b0: 7c49 9fbd 05b5 953c ee5b 9ebd 76d7 b13c
000000c0: 8cf8 873c ee46 653c 4b40 89bd 9479 813d
000000d0: 7172 6c3d fa5c 523d bd37 383c 20d2 45bd
000000e0: 248f 253b 1af6 2bbd 4628 803d df0c 5dbd
000000f0: e64e 86bd 4ccf a73d 388c 523d 54e7 19bc
00000100: 0d5e 5b3c 70c4 553d 2958 52bd a4bd fcbc
00000110: c623 283d 3333 a4ba 6d75 81bd 9d51 48bd
00000120: bddd 6a3d a9d8 26bd 1ed3 2c3c 2b73 963d
00000130: b128 9e3d eb8a 273d 8092 583d 3f70 943d
00000140: bf79 9d3d 09bb 85ba 717f ee3c 3d57 b73d
00000150: b073 67bd 8e83 88bd 0f15 40bc 4d57 e33c
00000160: 0563 f0bb 3300 ffbc 4c51 a3bd 03c7 513d
00000170: ba1f 38bd 15d0 55bc 3e62 a1bd 4f3e 9f3d
00000180: 656b b23c d43d e23c d679 923d 29fd 9c3c
00000190: 2f7f 6b3d 3b39 8fba c87f 5fbd 3e09 93bd
000001a0: 5f9a 863d bfb9 d73c 29b5 7ebd d4dc 713c
000001b0: af3c 9ebd 0fd6 b63c 9be5 363d 8042 e9bb
000001c0: a77d 18bb 1035 b0bd 1b0b f43c 620d 5dbd
000001d0: c626 b53d 4c00 823c febe 843d 26c8 a6bd
000001e0: cb3f 053d 9a05 433d 70bc af3d 48e0 5ebd
000001f0: c958 9abb 21f0 8c3d 24d8 a53d 9821 6d3d
00000200: 6b51 0f3d dc6e 643d 3976 3bbc 62cb 893d
00000210: 1fe0 0c3d 6d6d 2d3c dbe0 593d 45a9 a4bd
00000220: 5475 5f3c 1fcb aebd d140 98bd d629 ffbc
00000230: ce99 043b cf7c f33c 583b 63bd bc4a f4bc
00000240: 9506 5bbd 6d27 e8b8 3123 b33d a19a aa3d
00000250: b861 a8bd ef07 b53b 74c6 9d3d a757 81bd
00000260: 254c 04bc 51e2 963d f363 e33c 0445 0cbd
00000270: dd6f 533d 3c2c a9bc 8f09 6e3d 7d03 b2bc
00000280: d70e 26ba fb18 443d 7737 b63d dce7 a1ba
00000290: bd1f 163d 9cb4 17bd b5d5 9d3d 74b9 0abc
000002a0: 1117 71bc 3adc 213d 2b86 0c3d 6def 133b
000002b0: e105 453a b0a3 86bd 6592 113d 0229 613d
000002c0: 8624 6cbd 39ec 2c3d 64e0 68bd 9859 d0bc
000002d0: 4999 52bd 159f 9b3d 4ed5 47bc 35bc a2bd
000002e0: 33fc 28bc 3960 ffbc 3043 b23d 38c2 b43d
000002f0: 4388 8dbd cd1e 723d 9fe3 16bb 9f70 8d3d
00000300: 8754 903d 75ac 4cbd 4462 8f3d a0ab d83c
00000310: a776 0fbd eb27 2dbd dd1d 823d 45cb 4c3d
00000320: a044 55bd bf51 ae3d 4269 333d cf57 2fbd
00000330: bcc8 7bbd dbb5 f73b 84b1 0c3d 1bd4 9d3d
00000340: 9fdc f53b ad8e 94bd 1aa2 f53c 22ea 9c3a
00000350: 1894 a33c 41ba cbbb fff8 96bd e3f0 ec3c
00000360: 6159 34bd a76b 1c3d a40b f5bc ff42 a2bd
00000370: e03e 7fbc 20a9 9cbd ef2f a63c 4336 11bc
00000380: 5c44 643d 5205 5dbd 5143 8e3d 6079 983d
00000390: 6d07 843a a0cd 3d3d 41f0 22bc 9b5c d2bc
000003a0: b521 8bbd b1ef 97bd 1fa1 0b3d aa37 bc3c
000003b0: 38e8 cb3c 2651 70bb 3b3a 0ebc 9c9d f23c
000003c0: d5b9 943d 62af 733d f7cc 9f3b a549 70bd
000003d0: 994f 17bd b0be b83d 4094 cdbc 9479 a53d
000003e0: 1ef5 423d 75ef 393d c04d 633d fde7 e7bc
000003f0: 46b6 28bd 96e4 a23d 8a36 96bd 3e64 a2bd
-0.011084165 0.0174244 0.056361858 0.075571984 0.07265093 0.026120776 -0.037272096 -0.04691398
-0.070656195 0.014552879 0.049606353 0.04405997 0.014491093 0.04099383 0.019501638 -0.027930787
0.07201824 0.01855896 0.06400055 0.04336814 -0.026905226 0.031693544 -0.0431192 -0.053512435
-0.067457706 0.045665234 0.061780434 0.029001588 0.08576167 0.009030427 0.011833085 -0.049091313
0.05144829 -0.055798307 0.0076310006 -0.0064388043 0.060209945 -0.03144109 -0.02139395 0.060807645
0.04008122 -0.027321 0.062107455 -0.047156177 -0.07777688 0.018274793 -0.07732378 0.021709185
0.016598009 0.013993962 -0.06701716 0.06322017 0.057726327 0.0513582 0.011243758 -0.048296094
0.002526232 -0.041982748 0.062576815 -0.053967353 -0.065580174 0.081938356 0.051403254 -0.009393532
0.013389123 0.05218929 -0.051353607 -0.030852146 0.04104974 -0.0012527466 -0.06321225 -0.048905957
0.057340372 -0.040733967 0.010548381 0.07346185 0.07722605 0.040903967 0.05287409 0.07247972
0.07689237 -0.0010202836 0.029113503 0.08952186 -0.056506813 -0.06665717 -0.011723771 0.02775159
-0.007336023 -0.031128025 -0.079744905 0.051215183 -0.04495213 -0.013050099 -0.07880066 0.07775556
0.021779725 0.027617373 0.071521446 0.019163685 0.05749434 -0.001092709 -0.05456522 -0.07179497
0.06572413 0.026333688 -0.062184487 0.014762122 -0.07726418 0.022318868 0.044652563 -0.007118523
-0.0023268254 -0.08603871 0.029790452 -0.05396784 0.08845286 0.015869282 0.06481741 -0.08143644
0.03253154 0.047612764 0.085808635 -0.05441311 -0.004710291 0.068817385 0.08097866 0.057893366
0.034989756 0.055769786 -0.011441761 0.06728245 0.034393426 0.010585171 0.053192955 -0.08040098
0.013638813 -0.08534836 -0.07434238 -0.031147879 0.0020233276 0.0297226 -0.055476516 -0.029820792
-0.053473074 -0.00011069966 0.087469466 0.083302744 -0.08221763 0.0055246274 0.077038676 -0.063155465
-0.008074795 0.07367385 0.02775762 -0.034245506 0.051620353 -0.020650975 0.058114585 -0.021730179
-0.0006334609 0.047875386 0.08897298 -0.0012352425 0.03665136 -0.037037477 0.07706777 -0.008467067
-0.014714972 0.039516665 0.03430764 0.0022573129 0.00075158296 -0.0657419 0.035540003 0.05497075
-0.05765202 0.042217467 -0.05685462 -0.025433347 -0.051415715 0.07598702 -0.012196852 -0.07946054
-0.010314035 -0.031173812 0.08704221 0.08826107 -0.069107555 0.059111405 -0.0023023856 0.069062464
0.07047372 -0.049969155 0.070011646 0.026449025 -0.035025265 -0.042274397 0.06353352 0.04999854
-0.0520674 0.085116856 0.043801554 -0.04280835 -0.061470732 0.0075595207 0.03434898 0.077064715
0.0075031067 -0.07253776 0.029984523 0.0011971632 0.019968078 -0.0062172716 -0.07371711 0.028923457
-0.04403055 0.038188603 -0.029912777 -0.07922935 -0.015578955 -0.076494455 0.020286528 -0.008863035
0.055729255 -0.053960152 0.06946433 0.074450254 0.0010073014 0.046338677 -0.009944976 -0.025678923
-0.067935385 -0.074187644 0.034089204 0.022975761 0.024891004 -0.0036669462 -0.008680875 0.02961617
0.07262007 0.05949343 0.0048767286 -0.058663983 -0.036941145 0.09020746 -0.025095105 0.0807983
0.047597043 0.04539438 0.05549407 -0.028308863 -0.041189454 0.079537556 -0.07334621 -0.07929276

actor.4.bias f4 [128]
00000000: 4e1e 7ebd cc1e 99bd 17b1 773d 6dc2 d23c
00000010: 2253 6abd 3737 8fbd cc2b 9bbc 85e6 8cbd
00000020: 512f b0bd 75a2 65bd fe44 43bd f43f df3c
00000030: 0182 afbc fbd7 4a3d 8d3f d73a dfb5 523d
00000040: 4f5c a03d 0fbb 18bd 21c4 c4bc 0439 e23c
00000050: 725a 003d 6f2f b13d d6ac 9bbc b931 b8bd
00000060: c361 9abd f7c2 953c ccfd af3d e6d1 483c
00000070: ad8e dbbc 3ceb 81bd 77fd c73b 1869 b93c
00000080: fc89 033d f56b 14bd dd6e 533d 7a3d 9e3d
00000090: e98b 59bd 66cd 073d 3ece ef3b 591d 58bd
000000a0: e6f8 04bc 3cdc ce3c 3536 5e3d f0c5 84bd
000000b0: a062 96bc 3897 9ebd 6f84 18bd 04f4 aebd
000000c0: fb03 3e3c d43c 9abc e954 63bd 1efe 4a3c
000000d0: 0a3e 8e3c b67a b93c adfe 803c ce0b 41bc
000000e0: 5803 61bd da8b 33bd 0758 223d 75ca a5bd
000000f0: c471 8cbd 8c35 9fbd 328c 8dbd 6d1e b5bd
00000100: b8a8 b0bd cc44 a1bc 409d 6139 5e1d 21bc
00000110: 5add a6bb de6f 923d 153b 7e3d 5f33 873d
00000120: 9e0b 9abc 1325 413d 221d b13c fd02 e6bc
00000130: 43ab 9a3d fd05 233b 19bf 19bc f8b3 093d
00000140: d71a 803d 3427 8fbc 2547 9bbd b8b4 b6bd
00000150: a111 78bd 1c27 8abd 5393 03bd 6322 023d
00000160: 29f4 1d3d 6847 06bd 2bf1 93bd 2dac 6dba
00000170: 7b15 df3c ad23 073d 439b 933d 9e8a 483c
00000180: 0930 a03d d44e 27bd d592 b13d 7315 ba3d
00000190: d0ad b8bc ee73 803d fc79 233d ebcf 3e3d
000001a0: 0000 75bc 40ba 073d 924a d23b 9d57 c1bb
000001b0: 0f22 8cbd aa2b 87bd 13e0 59bc 45e9 8d3d
000001c0: d2cf 1a3c 68a2 493d d351 85bd c390 293c
000001d0: d64e 80bc 02c1 003d a217 b3bd 0b67 7b3c
000001e0: c210 113d c05c a5bc 294f 933d 7da1 213d
000001f0: ced5 1fbd 9bd4 983d 8724 7e3d ade2 39bd
-0.06204062 -0.07476577 0.06047162 0.025727475 -0.057208188 -0.06992953 -0.018941782 -0.068799056
-0.08602775 -0.056063134 -0.047673218 0.027252175 -0.021424295 0.04952238 0.0016422138 0.051442977
0.078301065 -0.037287768 -0.024019303 0.027615078 0.031336255 0.08651625 -0.019003313 -0.08993859
-0.07538178 0.018281443 0.0859333 0.012257075 -0.026801432 -0.063436955 0.0061032134 0.02263312
0.032114014 -0.03623577 0.0516194 0.077265695 -0.053111944 0.033154868 0.007318287 -0.052762363
-0.008115983 0.0252515 0.054250915 -0.06483066 -0.018357575 -0.077436864 -0.037235674 -0.08542636
0.011597629 -0.018827833 -0.0555009 0.012389688 0.017363567 0.022641521 0.015746439 -0.0117826
-0.05493483 -0.043834545 0.03963473 -0.08095256 -0.068576366 -0.07773885 -0.06911506 -0.08843694
-0.086259305 -0.019686125 0.00021516252 -0.009833662 -0.005092305 0.07150243 0.062068064 0.06601595
-0.018804368 0.047154497 0.021620337 -0.028077597 0.07552197 0.0024875395 -0.00938394 0.033618897
0.06255119 -0.017474748 -0.07581929 -0.08921188 -0.060563687 -0.06745741 -0.03212292 0.031771075
0.038562927 -0.032782942 -0.072237335 -0.0009066489 0.027231922 0.032993007 0.07207348 0.01224008
0.07821662 -0.04084666 0.08670584 0.09086122 -0.022543818 0.06272112 0.039911255 0.046585005
-0.014953613 0.033136606 0.006417581 -0.005900337 -0.06842434 -0.06600125 -0.013298052 0.06929258
0.009448962 0.04922715 -0.06509747 0.010349455 -0.015662592 0.031434067 -0.08744742 0.015344392
0.035416372 -0.020185828 0.07192833 0.039460648 -0.03902226 0.07462426 0.062046554 -0.04538219

actor.6.weight f4 [12, 128]
00000000: 37ae 56bd 5130 103c 9aaf adbc 080c 61bd
00000010: 9116 f3bc 9b89 243c e717 603c 6b07 91bd
00000020: 01c6 9d3d b620 2c3b b16e ee3c 5c9c 843b
00000030: 77f9 073c 18b4 2bbd 33f4 d03b 4f31 4fbd
00000040: 2d1c 413c 03e9 393d b407 573d e931 ad3c
00000050: b972 053c d331 1ebd 6b12 9fbd a932 1fbd
00000060: 3ccf 0f3d 7d4e ce39 6c24 aa3c a7d6 a5bd
00000070: 1740 83bd f21e 4ebc 505f 6c3c 61fb 723d
00000080: 0d94 24bc 2a05 ac3d 3fff 91bd cc11 aebd
00000090: 7801 8fbd 0ae2 2c3c e04d 2c3d aacb 093c
000000a0: 149f 30bc 0f3b b63d 4b82 173a 8b12 323c
000000b0: 3eea 63bd eef6 70bd 7386 8bbd 5efd a93c
000000c0: 56ed fcba eb26 4d3d 5940 02bd 90b6 92bd
000000d0: e531 4b3d f940 723d 6c1a 05bd 836c aebd
000000e0: 79e7 95bd 1a59 ea3a aed3 d83c d463 9d3d
000000f0: a0ba 8d3d 5941 723d c7c5 1d3c d7e0 413d
00000100: fa45 b5bd 488a aebd 0c56 aa3d 9156 683d
00000110: e084 46bd a99b bb3c 7be2 9b3c 2af1 04bd
00000120: 929c 69bd 21be 023c c205 7ebc 2f99 7b3d
00000130: a53d 06bd 5862 a0b8 980f 13bd b938 1a3d
00000140: fd5c a73d fc8b 0fbd 17fe febc 76d2 793d
00000150: baea 933d 27ce 71bd 037d 933d bf59 363d
00000160: 8088 d3bc 91ad 9cbd 1f93 4c3c fea4 e1bc
00000170: 0445 a7bd 942b 3f3d e04b 75bd 562e 28bb
00000180: d911 ddbc 5bbc b63c 32ba ff3c 510a bb3b
00000190: bb78 94bd faac 5d3d ad18 2a3d 224d 823d
000001a0: 372a 813d 64ad 96bc cb2f 08bd 38a7 70bd
000001b0: 265e 6abd 4e89 233d 899c 49bd d899 1b3d
000001c0: fd34 99bd 8b1a eebb 89ce 393d f7ae 1cbd
000001d0: efa0 76ba ec40 303d 1315 133d e051 5dbd
000001e0: 2fd6 e2bc 2a2b a33d ea85 51bd b64b 81bc
000001f0: eb00 f43c a06b 0a3d aa56 ab3b 5bd8 123d
00000200: 297a 5bbd 5611 533d 424b d23c b697 183d
00000210: baaa 58bd 21d8 aaba aeb5 8b3d 8423 303c
00000220: 461e 033d ac4f 2a3d 4c03 85bd 6c09 ba3c
00000230: 5abb 62bd 5634 a2bd 37c0 53bd 595d 03bd
00000240: e9b1 433a c34e 0d3d 573c 4a3c 2417 a13d
00000250: 4c2e c43c 03d8 68bc e623 043d 2733 adbd
00000260: 24ef 9cbd 0e56 80bd 248b 4e3d 6bb6 0a3d
00000270: cc9b 7c3c 42f7 123d a8e4 22bd 7907 a63d
00000280: c47d 0abd 978c f0bc f6f2 7e3d f254 69bc
00000290: 267d ad3d 23af 443d 7c6d 813d 8ea1 85bd
000002a0: a1dc 4ebd a4d6 993d e543 84bc f57d d03b
000002b0: beb8 5abc 3e04 e3bb 3909 9dbd dd36 2b3d
000002c0: db7f 55bd e934 b8bc 6d84 9fbc 0bc3 a9bd
000002d0: ee19 6f3c 66b2 5fbd 7c4c 2bbd 70a8 9abd
000002e0: e5d2 acbd f4ad 09ba 8cef b1bd ef65 91bd
000002f0: 1ef8 4abd a929 a4bd 98a0 89bd ade7 293d
00000300: 885b 35bc 3185 81bc 0f67 dc3c 374a 523c
00000310: 2a5b 16bd b729 133d aa50 1cba 6176 00bd
00000320: 865b 37bc 62d3 d7bc a91b 8dbd f2d5 b2bc
00000330: d955 8abd 30a3 89bd a456 3fbd fa35 81bd
00000340: 7dcb a0bd a5cd ac3d c052 233d ab9c 963d
00000350: eb95 543c 1e3b 413d bff1 813d 65dc 97bd
00000360: 60e1 1cbd ee64 b33c ef93 6fbd 0eae a6bd
00000370: 88d5 893c 9bc1 aabb 6bb2 68bd d284 94bd
00000380: f038 3abd baa4 8f3d a1fb e73c 172f 4c3c
00000390: 6566 bc3a a5d3 45bb b15c 93bc 29f6 8bbd
000003a0: e3c9 95bd 9837 a7bd f434 66bd 675a ae3d
000003b0: 546d 97bd 7dec a8bd 53fc 35bc 0d1c 9d3d
000003c0: 3a3e 42bd c756 13bd 56dd 783d f89f e83c
000003d0: 7222 143d 8643 74bd ecf8 d33c abff 53bd
000003e0: e203 49bd a45d fb3c 644c 8c3d 8c0a f9bc
000003f0: 2ccd 333c d987 3dbd 157c 70bd ad4e 12bc
-0.052412238 0.008800582 -0.021201897 -0.054943115 -0.029673846 0.010042573 0.013677574 -0.07081493
0.07703782 0.0026264614 0.029105516 0.00404696 0.008299223 -0.041919798 0.006376767 -0.050584134
0.011786503 0.045388233 0.05249758 0.021141963 0.008145028 -0.038621735 -0.07767185 -0.038866673
0.035109743 0.0003934986 0.02076932 -0.08097582 -0.064087085 -0.01258062 0.014427021 0.059321765
-0.010045064 0.083994225 -0.071287625 -0.08499488 -0.06982702 0.010551939 0.042066455 0.008410374
-0.010780115 0.08897983 0.0005779608 0.010868679 -0.055643313 -0.05882924 -0.068127535 0.020750698
-0.0019296806 0.050085943 -0.031799648 -0.07163727 0.04960813 0.059143994 -0.0324959 -0.08516791
-0.073195405 0.0017879338 0.026468124 0.07685056 0.069203615 0.05914435 0.009629673 0.047333565
-0.088512376 -0.08522469 0.083171934 0.05672318 -0.048466563 0.022901373 0.019028893 -0.032456554
-0.057034083 0.007979901 -0.015504302 0.061425384 -0.032773633 -7.6477125e-05 -0.035903543 0.03765175
0.08172033 -0.03504561 -0.031127019 0.060991727 0.07222505 -0.059034493 0.072015785 0.044519182
-0.025821924 -0.07650293 0.012486248 -0.027544495 -0.081674606 0.04667242 -0.059886813 -0.0025662384
-0.02698605 0.022306612 0.031216715 0.005708017 -0.0724959 0.05412004 0.04152744 0.06362368
0.0630688 -0.018393226 -0.033248704 -0.058753222 -0.057218693 0.039925866 -0.04922155 0.037988514
-0.0748081 -0.0072663478 0.045362983 -0.038252797 -0.0009408136 0.043030664 0.03590877 -0.05403316
-0.027690021 0.07967217 -0.0511531 -0.015783172 0.029785594 0.033794045 0.005228837 0.035850864
-0.053583298 0.051530205 0.025670651 0.037254058 -0.052897193 -0.0013034382 0.06821762 0.010750655
0.032011293 0.041579887 -0.064947695 0.02270957 -0.055354454 -0.079201385 -0.051696982 -0.032071445
0.00074651703 0.03449894 0.012343488 0.07865742 0.023947857 -0.014211657 0.032260798 -0.08457022
-0.076628 -0.06266414 0.050425664 0.033865374 0.015418004 0.035880335 -0.039768845 0.08106894
-0.033811346 -0.029363913 0.062243424 -0.014241444 0.08471136 0.048018586 0.063197106 -0.06524955
-0.050503377 0.075116426 -0.016145656 0.0063626715 -0.01334971 -0.006927996 -0.07667775 0.04180037
-0.052123886 -0.022486167 -0.019472325 -0.082891546 0.014593584 -0.054613493 -0.041820988 -0.07551658
-0.084386624 -0.0005252056 -0.08688268 -0.070995204 -0.04955303 -0.080157585 -0.06720084 0.04148071
-0.011069186 -0.01581058 0.02690461 0.012835077 -0.036708035 0.035928454 -0.00059629476 -0.031362895
-0.0111912545 -0.026345912 -0.068900414 -0.021830533 -0.067546554 -0.06720579 -0.046713486 -0.06309123
-0.07851312 0.08437661 0.03987384 0.07354101 0.012975196 0.04717552 0.063449375 -0.07415084
-0.03830087 0.021898713 -0.05849069 -0.08138667 0.016825452 -0.005211068 -0.056810778 -0.07251896
-0.045464456 0.07013841 0.028318228 0.012462399 0.0014373778 -0.0030185964 -0.017988535 -0.06834061
-0.073138975 -0.081649005 -0.056202844 0.08513337 -0.073938996 -0.082482316 -0.011107522 0.07671366
-0.047422625 -0.03597143 0.060757957 0.028396592 0.036165662 -0.059634708 0.025875531 -0.051757496
-0.04907597 0.0306843 0.06850508 -0.030400537 0.01097421 -0.046272133 -0.058712084 -0.008929891

actor.6.bias f4 [12]
00000000: 378a 9e3d 6672 033d ee35 f13c 480c c43c
00000010: 235a 04bd a6d5 9d3d badf 823d de32 88bc
00000020: dfca ad3d 0436 893b dbb8 8cbd 8535 ba3c
0.07741206 0.03209152 0.029444661 0.023931637 -0.032312524 0.07706766 0.06390329 -0.016625818
0.0848596 0.0041873474 -0.06871196 0.022730598
