logs/rsl_rl/unitree_go2_flat/2024-07-09_18-28-52/exported/policy.onnx (onnx, 165141 bytes, 8 tensors)

actor.0.weight f4 [128, 49]
0	0xbdf76bc6	-0.12081103
1	0xbd8b417d	-0.067996
2	0x3c435b37	0.011923603
3	0x3e8e10a4	0.2774707
4	0x3e845c8b	0.25851855
5	0x3d0655d2	0.03279669
6	0x3d8f2c0e	0.06990825
7	0xbaf64a4a	-0.001879045
8	0xbe394b28	-0.18095076
9	0xbd196231	-0.03744716
10	0x3e02eed5	0.1278642
11	0xbd9b9aa5	-0.075978555
12	0x3df5aae8	0.119954884
13	0xbdbfc456	-0.0936362
14	0xbed6a498	-0.4192245
15	0x3e8daf08	0.276726
16	0x3d401ed2	0.046904393
17	0xbe801adc	-0.25020492
18	0xbeb3c5df	-0.351119
19	0x3f02ed24	0.511431
20	0x3e5047d5	0.20339902
21	0xbf1b2b1e	-0.60612667
22	0x3eff737f	0.49892804
23	0xbed32527	-0.41239282
24	0xbbdbd498	-0.0067086928
25	0xbd822f19	-0.063566394
26	0x3ddd577e	0.108077034
27	0x3db75d54	0.08953348
28	0x3dd97471	0.106179126
29	0xbcf213b2	-0.029550407
30	0x3a4bbc78	0.00077719195
31	0xbb26c31e	-0.0025445889
32	0xbe0d1a90	-0.13779664
33	0x3d9cfb0e	0.076650724
34	0xbc7ce304	-0.015434984
35	0xbd46df99	-0.048553083
36	0xbd7d64f3	-0.06186385
37	0xbe5aa8e4	-0.21353489
38	0x3d99e1e4	0.07513788
39	0x3e199297	0.14997326
40	0x3ce795da	0.028269697
41	0xbe99a899	-0.30011442
42	0xbe0e4368	-0.13892901
43	0x3e517ac7	0.20456992
44	0xbd95a73a	-0.073072866
45	0xbcbcfbe8	-0.023069337
46	0x3e13c1c6	0.14429387
47	0x3e3003f9	0.17189015
48	0x3d2eafcb	0.042648118
49	0xbd802b6c	-0.06258282
50	0x3d950ae8	0.07277471
51	0x3d2585c7	0.040410783
52	0x3dc98ca6	0.0984128
53	0xbec9e8c3	-0.39435396
54	0x3dc00e71	0.093777545
55	0xbdaa2cfa	-0.0830936
56	0xbd8ac1e0	-0.0677526
57	0xbed37643	-0.41301164
58	0xbe3ba6f6	-0.1832541
59	0xbd6ca54e	-0.057774834
60	0x3d08b8e0	0.033379436
61	0x3d787ace	0.06066399
62	0xbec185ed	-0.3779749
63	0xbec9279a	-0.39288026
64	0x3e6dc2fe	0.23218915
65	0xbf18122a	-0.59402716
66	0x3e0dda65	0.13852842
67	0xbe1b233c	-0.1515016
68	0xbf1965b1	-0.59920794
69	0xbd862f58	-0.06551999
70	0x3f1e3b3b	0.6180913
71	0xbf4f15cc	-0.80892634
72	0x3eefd280	0.46840286
73	0xbe892a14	-0.26789916
74	0xbcd25320	-0.025674403
75	0xbcb7f1a0	-0.022454083
76	0x3cbb81b9	0.022889005
77	0x3ce0a9ea	0.027424771
78	0xbd62280b	-0.05521397
79	0x3bcd0f53	0.0062579303
80	0xbc70e41e	-0.014702825
81	0xbcd1a488	-0.02559115
82	0xbcda848e	-0.026674535
83	0x3c2f49b9	0.010698729
84	0xbc8bb64e	-0.017054703
85	0xbcd14618	-0.025546119
86	0x3d06103a	0.03273032
87	0xbe306270	-0.17225051
88	0xbc5d4008	-0.013504036
89	0xbe7d89db	-0.24759619
90	0x3e32699e	0.17423102
91	0x3e23a992	0.15982655
92	0xbe72b03f	-0.23700045
93	0x3bdf6f4a	0.0068186866
94	0x3e9c914e	0.3057961
95	0xbe2f407f	-0.17114447
96	0xbd934b7f	-0.07192134
97	0x3e9b7a31	0.30366662
98	0x3dc7c44e	0.09754239
99	0xbe4a8620	-0.19777727
100	0xbe1a3539	-0.15059365
101	0x3e36e0ae	0.17859146
102	0x3e23ad67	0.15984116
103	0xbd4e58c1	-0.05037761
104	0x3d1d25dc	0.038366184
105	0x3d9dbd23	0.077020906
106	0xbd3b210e	-0.04568582
107	0xbe2b29a6	-0.16715106
108	0xbdd05603	-0.101726554
109	0x3d1297ae	0.035789184
110	0xbdfdff08	-0.12402159
111	0x3f08ead4	0.5348332
112	0x3f384b53	0.71989936
113	0x3e8122a3	0.25221738
114	0xbf2e484f	-0.68079084
115	0x3f19fd0d	0.6015175
116	0x3e04edbf	0.12981318
117	0xbe575f69	-0.2103249
118	0xbf38245a	-0.7193047
119	0xbeafce8d	-0.34337273
120	0xbe8bff26	-0.273431
121	0xbef96482	-0.48709494
122	0x3e83f0ab	0.25769553
123	0x3a894690	0.00104733
124	0x3e01e6f4	0.12685758
125	0xbd6a892f	-0.057259735
126	0xbdf2814f	-0.1184107
127	0xbb468883	-0.003029377
128	0xbda01acb	-0.0781761
129	0xbc66f798	-0.014097117
130	0x3cc09df3	0.023512816
131	0x3c0990c7	0.008396334
132	0x3bce353e	0.006292968
133	0x3da02936	0.0782036
134	0xbd11e54c	-0.035619065
135	0x3dda75a2	0.10666968
136	0x3ebe1994	0.3712889
137	0x3d1c605d	0.038177837
138	0xbe2b8c56	-0.16752753
139	0x3e0bee19	0.13665046
140	0x3da1587b	0.078782044
141	0xbdbc5731	-0.09196318
142	0x3c18b84b	0.009321283
143	0x3d4069c3	0.046975862
144	0xbdb36949	-0.08760316
145	0xbcd48255	-0.025941053
146	0x3eacede2	0.3377524
147	0x3cbef516	0.023310225
148	0xbe25ce8f	-0.16192077
149	0x3d4af391	0.04954869
150	0x3d20a0f0	0.039215982
151	0x3e099ee7	0.13439523
152	0xbe33348b	-0.17500512
153	0xbcf0fc53	-0.029417193
154	0xbd2bd28e	-0.041948847
155	0xbeb49394	-0.35268843
156	0x3e446f92	0.19183186
157	0xbd05388a	-0.032524623
158	0xbdf9ec63	-0.1220329
159	0x3e0b5b6e	0.13609096
160	0x3f0d99d4	0.5531285
161	0xbf30ac30	-0.6901274
162	0xbe258e45	-0.16167553
163	0x3ea78698	0.32719874
164	0xbf3a79ec	-0.7284229
165	0xbf85582a	-1.041753
166	0x3dfeaecc	0.124356836
167	0xbd978d60	-0.07400012
168	0x3edad916	0.42743748
169	0xbf31bdf9	-0.694305
170	0xbdf2037b	-0.1181707
171	0xbf10ad70	-0.56514645
172	0xbcdec5db	-0.027193954
173	0xbc7e1296	-0.015507361
174	0x3dac2811	0.084060796
175	0x3b993466	0.004675436
176	0x3c916ab0	0.017751068
177	0xbc7468be	-0.014917551
178	0xbc691f5e	-0.01422867
179	0xbc856e32	-0.016287897
180	0x3b084fe7	0.0020799579
181	0x3d9ed463	0.07755353
182	0xbd95b9f2	-0.07310857
183	0xbd8cb514	-0.068704754
184	0x3e4aa385	0.1978894
185	0xbe1ccc33	-0.15312271
186	0xbded331a	-0.115820125
187	0x3de05418	0.109535396
188	0xbe2c4312	-0.1682246
189	0xbe3e5ea1	-0.18590786
190	0xbdb26a66	-0.087117
191	0x3cf8303b	0.030296436
192	0x3e1bc025	0.15210016
193	0xbcf89b4b	-0.030347487
194	0x3c878c6f	0.016546456
195	0xbddbab68	-0.107260525
196	0x3e26cc4e	0.16288874
197	0xbeb6fe5e	-0.35740942
198	0x3cbc8f4a	0.023017544
199	0xbe30827f	-0.1723728
200	0xbd8431b0	-0.0645479
201	0x3c88af5b	0.016685179
202	0xbb7547b8	-0.003742678
203	0xbe0286b3	-0.12746696
204	0xbec7bb51	-0.390101
205	0xbe28333d	-0.16425796
206	0xbdd58de1	-0.10427452
207	0xbdde9ece	-0.10870133
208	0xbe0b8433	-0.13624649
209	0xbe972f5d	-0.29528323
210	0xbf1cb723	-0.61216944
211	0x3e6b0ce3	0.22954135
212	0xbe8b8917	-0.2725303
213	0x3f2ab227	0.6667809
214	0xbef22ec3	-0.473013
215	0xbf9e33c5	-1.2359549
216	0x3e7f92e4	0.24958378
217	0x3df31080	0.118683815
218	0x3e85d752	0.2614084
219	0x3ea7328d	0.32655755
220	0x3ede4bcc	0.43417203
221	0x3b58e9ee	0.0033098417
222	0x3d58c5b9	0.052922938
223	0x3d3a6b06	0.04551222
224	0xbb5b079d	-0.0033421286
225	0x3c83dc44	0.016096242
226	0x3c4c0f94	0.012454886
227	0xbc59283c	-0.0132542215
228	0x3c186cbe	0.00930327
229	0x3ddd0b02	0.10793115
230	0x3e13d05f	0.14434956
231	0xbc2536f8	-0.010083906
232	0x3d132f98	0.03593406
233	0x3da94549	0.08265168
234	0xbdad0e77	-0.084500246
235	0xbd52805c	-0.051391944
236	0xbe4d5818	-0.20053136
237	0x3e3475cf	0.17623065
238	0xbd955680	-0.07291889
239	0xbbd17f42	-0.006393344
240	0x3d97dd0b	0.074152075
241	0x3d8d8e41	0.069118984
242	0xbddb4232	-0.10705985
243	0xbebb476e	-0.36577934
244	0x3d39e717	0.0453864
245	0xbb3edfa2	-0.0029124995
246	0xbd9a08d7	-0.07521217
247	0x3d419a59	0.047266338
248	0x3e69cdc8	0.22832406
249	0xbe887141	-0.26648906
250	0x3e149314	0.14509231
251	0x3e11b47b	0.14229004
252	0x3d9bd3b7	0.07608741
253	0xbe0432f9	-0.1291007
254	0xbdf1cc46	-0.1180654
255	0xbc9f929c	-0.019479088

actor.0.bias f4 [128]
0	0xbdeaf14b	-0.11471804
1	0xbd2a9333	-0.041644286
2	0xbdc27357	-0.094946556
3	0x3e65cb7b	0.22440903
4	0xbe074fc0	-0.13214016
5	0xbdc43313	-0.09580054
6	0xbd530c41	-0.051525358
7	0xbe5ace60	-0.21367788
8	0xbdb8d0e2	-0.09024216
9	0x3c4b19bb	0.012396271
10	0xbdf8ac5b	-0.12142249
11	0xbd2fd8b9	-0.042931292
12	0xbda4ebff	-0.08052825
13	0x3d6269f5	0.05527683
14	0xbdc785db	-0.09742328
15	0xbdb48ec0	-0.0881629
16	0xbe6895fc	-0.22713464
17	0xbde09cb4	-0.10967389
18	0xbdb0526e	-0.08609472
19	0xbdd7b3a0	-0.105323076
20	0x3da52ef6	0.08065598
21	0x3e5d2bb5	0.21598704
22	0xbde52fa1	-0.11190725
23	0x3de6c094	0.112672
24	0x3d183bc2	0.037166364
25	0x3d4dc17a	0.05023334
26	0x3d9ec69e	0.07752727
27	0x3d130b38	0.03589937
28	0xbdcc9423	-0.09989192
29	0xbdce75d7	-0.1008107
30	0xbe409557	-0.18806969
31	0xbe32d19c	-0.17462772
32	0x3c377321	0.011196882
33	0xbdeb6c7d	-0.11495302
34	0xbdbbf1f3	-0.091770075
35	0xbdd249a5	-0.10267953
36	0xbe34fa6f	-0.17673658
37	0xbd9d0eeb	-0.07668861
38	0xbcabf133	-0.020989036
39	0xbd51a14d	-0.05117922
40	0xbd0d06c4	-0.03443028
41	0xbe630063	-0.22168116
42	0xbe3b0806	-0.1826478
43	0xbdc5a733	-0.09651031
44	0xbcb1dfcf	-0.021713166
45	0x3d8bbf19	0.06823558
46	0xbd820050	-0.06347716
47	0x3d678343	0.056521665
48	0xbe2572fa	-0.16157141
49	0xbe2bfdb4	-0.16795999
50	0x3c756925	0.014978682
51	0xbbece47f	-0.0072293873
52	0xbdb9c3ce	-0.0907055
53	0x3cc6009d	0.024170214
54	0xbe2f4c6e	-0.17119
55	0x3dcd9aee	0.10039316
56	0x3dabe984	0.08394149
57	0xbe11c36d	-0.14234705
58	0x3dbd2476	0.0923547
59	0x3d34613b	0.04403804
60	0x3ad078e2	0.0015905167
61	0x3d825aea	0.06364997
62	0x3df7caf1	0.12099255
63	0xbe3545dc	-0.1770243
64	0xbd9bf1c2	-0.07614471
65	0x3e086112	0.1331828
66	0xbd645c58	-0.05575213
67	0x3d4a5044	0.049392954
68	0x3e029f39	0.12756051
69	0x3dea247b	0.11432739
70	0xbc9d35f5	-0.019190768
71	0xbddd9535	-0.108194746
72	0x3c65fe15	0.014037629
73	0x3d9e813a	0.07739492
74	0x3da76026	0.08172636
75	0xbd071442	-0.032978304
76	0xbe90f58b	-0.28312334
77	0x3d18fc26	0.037349842
78	0x3a988b82	0.0011638256
79	0xbdf835fd	-0.121196724
80	0x3d201b39	0.03908846
81	0x3b72aed1	0.0037030468
82	0xbd064d74	-0.03278871
83	0xbce96043	-0.028488284
84	0x3bc40f93	0.005983302
85	0xbd9ab98f	-0.07554924
86	0x3da441e7	0.080203824
87	0x3bfa9d36	0.0076481355
88	0x3d8a3cab	0.06749853
89	0x3df31ad6	0.11870353
90	0xbd44ba04	-0.04802896
91	0xbdac7c0a	-0.08422096
92	0xbd8937e8	-0.067001164
93	0xbd5bebf6	-0.053691827
94	0x3d2ed04d	0.04267912
95	0xbe3531eb	-0.17694823
96	0xbdf4b9a0	-0.11949468
97	0x3c064c92	0.008196967
98	0x3d969202	0.073520675
99	0x3d9e6552	0.07734169
100	0xbdf35b44	-0.11882642
101	0xbe059851	-0.13046385
102	0x3e375dbe	0.17906854
103	0x3d0f95d3	0.035054993
104	0xbd86c27b	-0.06580063
105	0xbdf36065	-0.1188362
106	0xbd9d6d76	-0.07686894
107	0x3e3d0fe6	0.18463096
108	0x3da18710	0.07887089
109	0xbd8e06c1	-0.06934882
110	0x3bf13fa0	0.007362321
111	0xbdeb503e	-0.11489914
112	0xbdc5805a	-0.09643622
113	0x3dbbb1c0	0.091647625
114	0xbabb956f	-0.0014311502
115	0xbd060f55	-0.032729466
116	0x3dd6d1b0	0.104892135
117	0x3d0ce2fc	0.034396157
118	0x3d6e40b2	0.058167167
119	0xbdc9347d	-0.098244645
120	0x3e813201	0.25233462
121	0x3d849e5a	0.06475516
122	0x3d925f2e	0.0714706
123	0x3d47909a	0.048721887
124	0xbc989669	-0.018626409
125	0xbd040d3b	-0.03223918
126	0xbd8bc657	-0.0682494
127	0x3de5b736	0.11216585

actor.2.weight f4 [128, 128]
0	0x3e1419b5	0.14462931
1	0x3e21d5b6	0.1580418
2	0xbdb5a48e	-0.08869277
3	0xbdf1912c	-0.117952675
4	0xbda5eaa8	-0.08101398
5	0x3ca98454	0.020692982
6	0xbac95a13	-0.0015361927
7	0x3d80e3f8	0.062934816
8	0x3d5de413	0.054172587
9	0xbcfb40be	-0.03067052
10	0xbcc03dbe	-0.023466941
11	0xbc8cf3ca	-0.017206091
12	0x3de20868	0.110367596
13	0x3d253dbe	0.040342085
14	0xbd69a8c3	-0.05704571
15	0x3d3ba5e1	0.04581249
16	0xbd812745	-0.06306318
17	0xbc56e606	-0.013116365
18	0x3bbbca65	0.0057309144
19	0x3d0cbe30	0.034361064
20	0xbda9a3db	-0.08283206
21	0xbd8985f6	-0.06715004
22	0xbde25b02	-0.110525146
23	0xbd4caa19	-0.049966905
24	0xbd95ac2a	-0.07308228
25	0xbd9553fc	-0.072914094
26	0xbdb34a5b	-0.087544166
27	0xbb7f129e	-0.0038921009
28	0x3d3e9a38	0.046533793
29	0x3c065e74	0.00820123
30	0x3cb238da	0.021755625
31	0xbdb5bc26	-0.08873777
32	0xbce13372	-0.027490351
33	0xbde88508	-0.11353499
34	0xbd82e33c	-0.06390998
35	0x3d998b0c	0.07497224
36	0x3afd4b6b	0.0019324844
37	0xbd59ab16	-0.053141676
38	0xbcfc270f	-0.030780343
39	0x3d503307	0.050829913
40	0xbd713b82	-0.05889464
41	0xbd6825ef	-0.0566768
42	0x3e142550	0.14467359
43	0xbd4cb14e	-0.04997378
44	0x3c848785	0.016177902
45	0x3acc6d35	0.0015596511
46	0x3d28eee1	0.041243438
47	0xbd328d77	-0.043591943
48	0xbc9c9676	-0.019114714
49	0x3da9ec95	0.082970776
50	0xbd031ec9	-0.03201178
51	0x3d9e0a5a	0.07716818
52	0x3b7a6baf	0.0038211157
53	0x3d681f28	0.056670338
54	0x3d931efd	0.07183645
55	0x3d4ecb80	0.05048704
56	0xbd8bab4f	-0.06819784
57	0x3ac8a6ad	0.0015308462
58	0x3d8e9556	0.06962077
59	0xbd79b7f9	-0.060966466
60	0xbbc0106e	-0.0058613336
61	0x3c24d36a	0.010060171
62	0xbd340e79	-0.043959115
63	0x3dd0392c	0.10167155
64	0x3da198c9	0.078904696
65	0x3cdbb4d1	0.026819618
66	0xbdbf8056	-0.0935065
67	0x3db1001a	0.086425975
68	0xbd87cb88	-0.066306174
69	0xbe042d1f	-0.12907837
70	0x3d3e0030	0.046386898
71	0xbcc91381	-0.024545433
72	0x3e2df63d	0.16988464
73	0x3da6afd6	0.08139007
74	0xbcdc67f8	-0.026905045
75	0xbe24c4fd	-0.1609077
76	0xbb47e8b6	-0.0030503697
77	0xbd5bafb8	-0.053634375
78	0xbdf644ad	-0.120248176
79	0xbd6af14d	-0.05735903
80	0xbaf96abb	-0.0019029
81	0x3e024f38	0.12725532
82	0xbd12ec53	-0.035869908
83	0xbd3b9ca7	-0.045803692
84	0x3c1b78c5	0.009489243
85	0x3d308174	0.043092206
86	0xbd1b9b19	-0.03798971
87	0xbc09fec2	-0.008422555
88	0x3d4001b3	0.04687662
89	0x3df48ae5	0.119405545
90	0x3d69122a	0.05690209
91	0x3dc69edc	0.09698269
92	0x3d52d087	0.0514684
93	0x3dd377e9	0.103256054
94	0xbb771ea8	-0.0037707482
95	0x3ce182c4	0.027528174
96	0x3df18690	0.11793244
97	0xbe0cdfe3	-0.13757281
98	0x3cc40048	0.023925915
99	0xbc9876d1	-0.018611344
100	0x3dc8824c	0.09790477
101	0xbdf8a659	-0.12141103
102	0xbd631a11	-0.05544478
103	0xbe0d60dc	-0.1380648
104	0x3c8b4327	0.016999794
105	0x3cc43f08	0.023955837
106	0xbd98e510	-0.07465565
107	0xbe046a1e	-0.12931105
108	0xbde66f73	-0.11251726
109	0xbe0b501d	-0.1360478
110	0xbd79cce3	-0.06098641
111	0xbdb92d5f	-0.09041857
112	0x3e1b26db	0.15151541
113	0xbd65e32c	-0.05612485
114	0xbe12bfb6	-0.14330944
115	0x3e09ef8f	0.1347029
116	0xbc015323	-0.0078933565
117	0x3d8e9357	0.069616966
118	0x3db54179	0.088503785
119	0xbc933bd7	-0.01797287
120	0xbda67333	-0.08127441
121	0xbe05d7c1	-0.13070585
122	0x39f5f664	0.00046913617
123	0xbd8dd524	-0.06925419
124	0x3d34a6b5	0.044104297
125	0xbc8fedf0	-0.017569512
126	0x3db51c18	0.08843249
127	0xbdc8a077	-0.09796231
128	0x3dac49de	0.084125265
129	0x3da3b15e	0.079928145
130	0x3d1f9e92	0.038969584
131	0xbdd67be3	-0.10472848
132	0x3de827f9	0.11335749
133	0x3d06b1c2	0.032884367
134	0xbd25dd45	-0.040494222
135	0x3db30464	0.08741072
136	0x3b554662	0.0032543172
137	0xbc6f8206	-0.014618402
138	0x3deff7e5	0.11717204
139	0xbda19bb9	-0.0789103
140	0x3b499f8a	0.0030765259
141	0xbb8d1dda	-0.004306537
142	0x3d863c9c	0.06554529
143	0x3de36cb9	0.111047216
144	0xbdcaf6aa	-0.09910329
145	0xb9a0b355	-0.0003065119
146	0xbc1852c8	-0.00929708
147	0x3c887dcd	0.016661549
148	0xbe03fd00	-0.1288948
149	0x3a8370c4	0.0010028114
150	0x3c96463d	0.01834404
151	0xbc98902f	-0.01862344
152	0xbc4ca8fc	-0.012491461
153	0xbdad9853	-0.08476319
154	0xbe08dbd3	-0.13365106
155	0xbd6816af	-0.056662258
156	0xbcec366a	-0.02883454
157	0x3cd17c81	0.025572063
158	0xbd3d4c45	-0.046215314
159	0xbdc0adf9	-0.09408183
160	0x3c0661a9	0.008201995
161	0x3d0bc6d9	0.034125183
162	0x3c718eec	0.014743548
163	0x3d8ebcf1	0.069696315
164	0x3caf604e	0.021408226
165	0xbcaecbe4	-0.021337457
166	0x3d9ce16d	0.07660184
167	0x3d68600f	0.056732234
168	0x3ba01868	0.004885722
169	0x3d45407b	0.048157196
170	0xbc62c102	-0.013839962
171	0xbc8e9c27	-0.017408444
172	0xbcafe092	-0.021469388
173	0x3d928c2a	0.071556404
174	0xbcaa6f48	-0.020805016
175	0xbd1c319f	-0.03813326
176	0xbd83b138	-0.06430286
177	0x3d81ae7d	0.06332109
178	0xbc2956d9	-0.0103356475
179	0x3d938b73	0.07204332
180	0xbe4bb769	-0.19894184
181	0x3d3593b1	0.044330303
182	0x3d2ac3f9	0.0416908
183	0x3c1645e5	0.009171938
184	0xbde5dbae	-0.11223541
185	0x3d6f455b	0.058415752
186	0x3b5fd1e3	0.0034152202
187	0x3d61991e	0.055077665
188	0x3d75680a	0.059913673
189	0x3d3909de	0.045175426
190	0x3e0ca573	0.13734989
191	0x3d46200d	0.04837041
192	0xbca0e341	-0.019639613
193	0x3d24fecd	0.04028206
194	0x3cadcac6	0.021214854
195	0xbda65bad	-0.081229545
196	0xbdc1e621	-0.09467722
197	0x3d08039b	0.033206563
198	0xbdae693e	-0.08516167
199	0xbcc1aa6f	-0.02364084
200	0xbb940616	-0.004517327
201	0x3b628699	0.003456509
202	0xbd2a7516	-0.041615568
203	0x3d1ba52f	0.03799933
204	0x3df2f016	0.11862199
205	0x3d114c55	0.035473187
206	0x3ccd1627	0.025034977
207	0xbd985a03	-0.074390434
208	0x3e1cdb39	0.15318002
209	0x3d264f4b	0.040602963
210	0xbdcf5958	-0.10124463
211	0x3d360bb5	0.04444476
212	0x3cfd8236	0.030945878
213	0x3d1e4ea6	0.038649224
214	0x3bd2269a	0.006413293
215	0xbd3fbbcd	-0.04680996
216	0xbd393d65	-0.045224566
217	0xbd8ec3a9	-0.06970913
218	0xbc6ceb56	-0.014460405
219	0x3d546132	0.051850505
220	0xbcbb6c1a	-0.022878695
221	0xbd229a4a	-0.039697923
222	0xbdf9a091	-0.12188829
223	0x39b7561c	0.00034968636
224	0xbe4774b5	-0.19478114
225	0x3d02f0de	0.03196799
226	0x3cab1811	0.0208855
227	0x3c6888ab	0.01419274
228	0xbdf15c5b	-0.117851935
229	0x3cf374dc	0.029718809
230	0x3d57a85c	0.052650794
231	0xbd3b5363	-0.04573382
232	0x3d64fc6e	0.0559048
233	0x3dae463c	0.0850949
234	0xbd4fcc2e	-0.05073183
235	0x3cbba80f	0.022907285
236	0xbc7e0c3b	-0.015505846
237	0xbe2269ed	-0.1586072
238	0xbd95e35b	-0.07318755
239	0x3d1e6a77	0.03867575
240	0xbca41822	-0.020031039
241	0xbcac8678	-0.021060213
242	0xbd681db1	-0.05666894
243	0x3da199f9	0.07890696
244	0xbdfc1dab	-0.12310346
245	0xbc407372	-0.011746274
246	0xbb63cd4a	-0.0034759813
247	0xbd995062	-0.07486035
248	0xbd584330	-0.05279845
249	0x3d88e8e7	0.066850476
250	0x3cb638b6	0.022243839
251	0x3d91d0a0	0.0711987
252	0xbd859eb4	-0.06524411
253	0xbd7e19f0	-0.062036455
254	0xbdc5e7f6	-0.09663384
255	0x3d04d702	0.03243161

actor.2.bias f4 [128]
0	0xbe0956cb	-0.13412015
1	0xbdc96b09	-0.098348685
2	0xbdfe05c6	-0.12403445
3	0xbddb93d4	-0.10721555
4	0x39aaed6f	0.0003260183
5	0xbd749535	-0.059712607
6	0xbc86de17	-0.016463323
7	0xbdc7aa80	-0.09749317
8	0xbdb0964b	-0.08622416
9	0xbdee1f61	-0.11627079
10	0xbd135cb3	-0.035977077
11	0x3cfc9f74	0.030837752
12	0x3dd44c35	0.10366098
13	0xbd24eda7	-0.040265705
14	0xbd6d8c4c	-0.057995126
15	0xbd968dfc	-0.073513
16	0xbe82e1c2	-0.25562865
17	0xbda145ec	-0.07874665
18	0xbd9fca2e	-0.078022346
19	0xbdb8e3d2	-0.09027828
20	0xbd8cd6c5	-0.068769015
21	0xbce6cfb2	-0.028175209
22	0x3bf17055	0.0073681273
23	0xbdbd81d5	-0.09253279
24	0xbe1d5db2	-0.15367773
25	0xbcb34322	-0.021882597
26	0xbdb3cb9f	-0.08779072
27	0xbca00b1f	-0.019536553
28	0x3caba234	0.020951368
29	0xbd4c85a9	-0.049932156
30	0xbdd7b1a7	-0.10531931
31	0x3ce9e19f	0.028549967
32	0xbcdfe760	-0.027332008
33	0xbd24ac5b	-0.040203433
34	0xbdb03d33	-0.08605423
35	0xbddf5a38	-0.1090588
36	0xbdd498a4	-0.103806764
37	0x3d0751cc	0.033036992
38	0xbd56091e	-0.05225479
39	0xbe2d2fc8	-0.16912758
40	0xbe1f59ee	-0.15561649
41	0xbde91269	-0.113804646
42	0xbcd83818	-0.026393935
43	0xbdcf141c	-0.101112574
44	0xbdceac3d	-0.100914456
45	0x3cd0b050	0.025474697
46	0xbdb2eb21	-0.087362535
47	0xbd3121bb	-0.04324506
48	0xbe212bcc	-0.15739363
49	0xbcff182f	-0.031139461
50	0x3d063f70	0.032775342
51	0xbdd4234b	-0.10358294
52	0xbd98d579	-0.07462592
53	0x3d7b2e98	0.061323732
54	0xbe342f63	-0.17596202
55	0xbddf2c01	-0.10897065
56	0xbe0297c6	-0.1275321
57	0xbd6fbbef	-0.058528837
58	0xbd2c36a0	-0.042044282
59	0xbc7910e5	-0.015201782
60	0xbe26083e	-0.16214082
61	0xbd8a215e	-0.067446455
62	0xbdd18e26	-0.10232191
63	0xbe11b3a8	-0.1422869
64	0x3d844564	0.06458548
65	0xbde19681	-0.110150345
66	0x3d117ba2	0.035518296
67	0xbc1d0388	-0.009583361
68	0xbe168646	-0.14699659
69	0x3d21fd41	0.039548162
70	0xbdea1911	-0.11430562
71	0xbbecaef1	-0.007223003
72	0x3c74c90c	0.014940511
73	0xbcc9e5a3	-0.024645632
74	0xbc53fd22	-0.0129387695
75	0xbd3bd81b	-0.04586039
76	0xbe182d84	-0.14861113
77	0x3d850d4f	0.06496679
78	0xbd2e2f16	-0.042525373
79	0xbdfa2239	-0.12213559
80	0xbd413a63	-0.047174823
81	0xbda25a42	-0.079273716
82	0x3c940cbc	0.018072478
83	0xbe4c3027	-0.19940244
84	0xbd8f38fe	-0.06993292
85	0xbd8a6576	-0.067576334
86	0x3d3992fa	0.045306183
87	0xbd4edd5c	-0.050504074
88	0xbcdbddee	-0.026839223
89	0xbdde32a4	-0.10849503
90	0xbe079f8a	-0.13244453
91	0xbd42865a	-0.04749141
92	0xbdfe0006	-0.12402348
93	0xbdcb2d24	-0.09920719
94	0xbd316c56	-0.043316208
95	0xbd2ab70e	-0.04167848
96	0xbd560e19	-0.05225954
97	0xbd921732	-0.071333304
98	0xbdde1a2d	-0.108448364
99	0xbc9ca80c	-0.0191231
100	0xbd916f48	-0.07101303
101	0xbd9cd6be	-0.07658146
102	0xbc6ba8fe	-0.014383553
103	0xbc0d3e0b	-0.008620749
104	0xbce44041	-0.02786267
105	0xbcfb5d25	-0.030684063
106	0xbd503384	-0.05083038
107	0x3b0e5212	0.0021716398
108	0x3cff0507	0.031130327
109	0xbbcc35b3	-0.0062319874
110	0x3a18b74b	0.00058256526
111	0xbdb5592c	-0.08854899
112	0xbe0ec596	-0.1394256
113	0xbdfafc80	-0.12255192
114	0xbddc9433	-0.10770454
115	0xbe12c524	-0.14333016
116	0xbd69480f	-0.056953486
117	0xbd89736f	-0.0671147
118	0xbdc804ee	-0.09766565
119	0xbcbcf858	-0.023067638
120	0xbcbe9b41	-0.02326739
121	0xbd912a50	-0.070881486
122	0xbe3323b0	-0.17494082
123	0xbcb5a90f	-0.02217534
124	0xbc220ed8	-0.009891234
125	0xbe432b03	-0.19059376
126	0xbcd786ef	-0.026309459
127	0xbdf47483	-0.11936285

actor.4.weight f4 [128, 128]
0	0xbe4254b0	-0.18977618
1	0x3dc23592	0.09482874
2	0xbd93f2a8	-0.072240174
3	0x3c9fd4d3	0.019510662
4	0xbd788458	-0.060673088
5	0x3c8c0425	0.01709182
6	0xbd8458e5	-0.06462268
7	0xbd4456bc	-0.04793428
8	0x3d9829dd	0.0742986
9	0x3d62ea52	0.055399247
10	0xbe12a91f	-0.14322327
11	0x3b9688ca	0.0045939432
12	0xbbfbddd9	-0.0076863584
13	0x3dabe1fc	0.083927125
14	0xbda755bf	-0.08170652
15	0x3d1b5dc0	0.037931204
16	0xbd6258c4	-0.055260435
17	0x3d798f5e	0.06092774
18	0x3d2a36eb	0.04155628
19	0xbdb44aba	-0.088033155
20	0x3c219bd9	0.009863817
21	0x3dc8d805	0.098068275
22	0xbc113081	-0.008861662
23	0x3d0b029d	0.03393804
24	0x3d25924d	0.040422726
25	0xbdcce9b8	-0.10005516
26	0x3c47206f	0.012153729
27	0xbc0af528	-0.008481301
28	0x3cb717ed	0.022350276
29	0xbd48aa30	-0.04899043
30	0x3d7e2296	0.062044702
31	0xbc2ddb63	-0.010611388
32	0xbbe82acd	-0.0070851804
33	0x3c489414	0.012242336
34	0xbd199440	-0.037494898
35	0xbdc3886b	-0.09547504
36	0xbd89b65e	-0.06724237
37	0x3d979e51	0.07403243
38	0xbcf6ea36	-0.030140977
39	0x3d47defa	0.04879663
40	0x3d3a7703	0.045523655
41	0xbd9917a1	-0.0747521
42	0x3d57bf12	0.052672453
43	0x3becd550	0.0072275773
44	0x3cc0a1fa	0.023514736
45	0xbbf86709	-0.007580642
46	0xbcfff6f1	-0.03124568
47	0xbd7c457c	-0.061589703
48	0x3d26f515	0.040761072
49	0x3cba9f24	0.022780962
50	0xbda5daff	-0.08098411
51	0xbd363f03	-0.044493686
52	0xbbdeb4da	-0.0067964615
53	0x3c3aade8	0.011394002
54	0xbda5e368	-0.08100015
55	0xbdcdd204	-0.10049823
56	0x3dca2d4f	0.09871923
57	0xbcdf057a	-0.027224291
58	0x3c981b61	0.018567743
59	0xbc6c5632	-0.014424847
60	0xbd399531	-0.045308296
61	0xbd88f1dd	-0.06686757
62	0xbd4160d3	-0.04721148
63	0x3cc1cb67	0.02365656
64	0xbd07f7d8	-0.033195347
65	0xbe105c9f	-0.14097832
66	0xbdd38f88	-0.10330111
67	0x3d446669	0.04794923
68	0xbc373edc	-0.01118442
69	0x3c9c11e4	0.0190515
70	0x3e01c80c	0.12673968
71	0x3b4cb91a	0.0031238259
72	0xbd9e43e0	-0.0772779
73	0xbc78c4ff	-0.015183686
74	0xbba31195	-0.004976461
75	0xbd835e43	-0.06414463
76	0xbd06bacd	-0.03289299
77	0x3c062a15	0.008188744
78	0x3dd53305	0.10410122
79	0x3d7cc324	0.061709538
80	0xbd3d17a7	-0.046165135
81	0x3c96ab13	0.018392121
82	0x3d009028	0.031387478
83	0x3d88479c	0.066542834
84	0x3ceb8059	0.028747724
85	0x3daf114f	0.08548223
86	0xbd0a9129	-0.03382984
87	0xbc85394b	-0.016262671
88	0x3beb5343	0.0071815564
89	0x3d2808f3	0.04102416
90	0xbdb5f8c0	-0.08885336
91	0xbdd6356a	-0.10459407
92	0x3d6f1797	0.058372106
93	0xb9f9d434	-0.00047651085
94	0xbd2b30b7	-0.041794505
95	0x3abc048e	0.0014344619
96	0xbbba2244	-0.0056803543
97	0xbd25ff9d	-0.040526975
98	0x3c87048a	0.016481657
99	0xbdad0c91	-0.084496625
100	0xbca85629	-0.020548897
101	0xbd8173f1	-0.06320942
102	0xbd777df1	-0.06042284
103	0x3d048271	0.03235096
104	0x3d4950d5	0.049149353
105	0xbdb7a2e1	-0.089666136
106	0xbb7f67b1	-0.0038971717
107	0xbd91cf96	-0.07119672
108	0x3d24b2a9	0.040209446
109	0xbd80468c	-0.06263456
110	0x3ca1a159	0.019730257
111	0xbb94e357	-0.0045437026
112	0x3d848e33	0.06472435
113	0xbd103ff1	-0.03521723
114	0x3cdbd1cb	0.026833436
115	0x3c323bb5	0.010878493
116	0x3cbe42fe	0.023225304
117	0xbcdf7b5a	-0.027280498
118	0x3bd287b3	0.006424868
119	0xbd3981c0	-0.045289755
120	0x3d8c0440	0.06836748
121	0x3de0673b	0.1095719
122	0x3c12fbc6	0.00897116
123	0x3d51c1da	0.051210262
124	0x3d69af27	0.057051804
125	0x3be05819	0.0068464396
126	0x3d14d08d	0.036331702
127	0xbe092d83	-0.13396268
128	0x3c070c46	0.008242672
129	0x3d81862f	0.063244216
130	0xbddb732b	-0.10715326
131	0x3e108064	0.14111477
132	0xbd7e95fb	-0.06215475
133	0x3c1945da	0.009355033
134	0xbd5fc7b1	-0.0546338
135	0xbc455497	-0.012044094
136	0x3c9e1343	0.019296294
137	0xbd316cf3	-0.043316793
138	0xbcbeafca	-0.023277182
139	0x3d3ed11c	0.04658614
140	0xbd73ab5b	-0.05948959
141	0x3c600d70	0.013675079
142	0xbdffac55	-0.124840416
143	0xbd440135	-0.047852714
144	0xbc2e03fe	-0.010621069
145	0xbd1c8e18	-0.03822145
146	0xbd051a52	-0.032495804
147	0xbcb20b69	-0.021733956
148	0xbda87aed	-0.08226571
149	0x3d16b1b8	0.03679058
150	0x3d19d3db	0.037555557
151	0xbdfbb9f5	-0.12291328
152	0xbe1c30c9	-0.15252985
153	0x3db54e60	0.088528395
154	0xbcaca89e	-0.021076497
155	0x3ac03b63	0.0014666136
156	0xbd7b5cdf	-0.061367866
157	0xbdb95080	-0.09048557
158	0x3dbf669d	0.09345744
159	0xbd6e5e4a	-0.05819539
160	0x3d978ab1	0.073995
161	0xbd1cea3b	-0.038309317
162	0xbe376981	-0.1791134
163	0x3dcce88d	0.10005293
164	0xbd256fcb	-0.040389817
165	0xbd00fed8	-0.031493038
166	0xbc22a178	-0.009926192
167	0x3daae648	0.08344704
168	0x3d7970c8	0.060898572
169	0xbdb19bba	-0.086722806
170	0x3d98b8c6	0.07457118
171	0x3d599392	0.05311925
172	0xbd8554b0	-0.065102935
173	0x3d5724a6	0.052525185
174	0xbb9a7cd5	-0.004714588
175	0x3cbd450e	0.023104217
176	0x3d742a36	0.059610568
177	0x3d6ac758	0.057319015
178	0x3d2431a3	0.0400864
179	0xbd90df6a	-0.07073863
180	0xbcb30b76	-0.021856051
181	0xbd62292e	-0.055215053
182	0x3bb24371	0.0054401685
183	0xbc59b0eb	-0.013286809
184	0xbc98f36a	-0.018670756
185	0xbd0a0c42	-0.033703096
186	0x3da49bf5	0.08037559
187	0x3d043523	0.032277238
188	0xbd631d09	-0.055447612
189	0xbd6caee1	-0.057783965
190	0x3d74a205	0.059724826
191	0xbdb6598d	-0.08903799
192	0xbd99bdd1	-0.07506908
193	0xbdeaafd5	-0.114593185
194	0xbdc036cd	-0.093854524
195	0x3d84b1b6	0.06479208
196	0x3c7bfc3c	0.015379962
197	0xbd295622	-0.04134191
198	0xbd6c44af	-0.05768269
199	0x3d9171ad	0.0710176
200	0xbd5429c4	-0.051797643
201	0xbd46ec5b	-0.04856525
202	0x3d1209cd	0.035653878
203	0xbbe913b3	-0.007112944
204	0xbdd0f038	-0.10202068
205	0xbd4d3410	-0.05009848
206	0x3c40ea44	0.011774603
207	0x3dbd88a1	0.092545755
208	0x3c90ac5f	0.017660318
209	0xbdaf42b8	-0.085576475
210	0x3bcb014e	0.006195224
211	0xbd86a31a	-0.06574078
212	0x3d012594	0.031529978
213	0x3c9cb02d	0.019126976
214	0x3db64608	0.08900076
215	0x3d3077b1	0.043082897
216	0xbd72a118	-0.059235662
217	0xbdc062f9	-0.093938775
218	0xbd01a265	-0.031649012
219	0xbdc4eeb8	-0.096158445
220	0xbd1cbb43	-0.038264524
221	0xbd8b0295	-0.06787602
222	0xbdf79836	-0.12089579
223	0xbda4f0ef	-0.08053767
224	0x3da06a58	0.078327835
225	0x3cee405f	0.029083429
226	0xbdb4c8f5	-0.08827392
227	0x3c3c0014	0.011474628
228	0x3d0a31cf	0.033738907
229	0xbdb462ca	-0.08807905
230	0x3b5fb1d9	0.0034133105
231	0xbd3b8f4c	-0.045790955
232	0xbdc4044f	-0.09571134
233	0x3dc39d06	0.09551434
234	0xbd4e073f	-0.05029988
235	0xbd954202	-0.072879806
236	0xbdf1350d	-0.11777697
237	0x3cf72b8c	0.030172132
238	0xbd9be632	-0.07612266
239	0x3d1d9804	0.03847505
240	0x3d50ea0c	0.051004454
241	0xbd9fbb2f	-0.07799374
242	0xbc99366f	-0.018702714
243	0xbd9e124a	-0.07718332
244	0xbd4fd829	-0.050743256
245	0xbd1e37c1	-0.03862739
246	0xbda1727c	-0.07883164
247	0xbc982bfb	-0.018575659
248	0xbd566531	-0.052342597
249	0xbd16f761	-0.036857013
250	0x3c625145	0.0138133215
251	0x3df5bbfa	0.11998744
252	0x3dec00cc	0.115235895
253	0x3c99fafa	0.018796433
254	0xbd8d962b	-0.06913408
255	0x3cbd0a18	0.023076102

actor.4.bias f4 [128]
0	0xbd0e6a2e	-0.03476923
1	0xbd8be2c5	-0.06830362
2	0x3d9a2500	0.075265884
3	0x3d8bc8dc	0.0682542
4	0xbc857ba4	-0.016294308
5	0xbe288463	-0.16456752
6	0x3d0bfa6f	0.03417438
7	0xbb711c2c	-0.0036790473
8	0xbe62e5f4	-0.22158033
9	0x3d8df8d2	0.06932224
10	0xbd2fc8dd	-0.042916168
11	0xbe89f71e	-0.26946348
12	0x3ae209af	0.0017245318
13	0x3dcf60c0	0.101258755
14	0xbd6d60fa	-0.057953812
15	0xbe22ccc2	-0.15898421
16	0xbdbbe544	-0.09174588
17	0x3d71e356	0.059054695
18	0xbd2bf8da	-0.04198537
19	0xbdba630d	-0.09100924
20	0x3d56f93c	0.052483782
21	0xbcfad346	-0.030618321
22	0xbe02c45e	-0.1277022
23	0xbe67a351	-0.22620894
24	0xbd38205f	-0.044952746
25	0x3c41d495	0.011830469
26	0x3c1c10e9	0.009525516
27	0x3cd29fd7	0.025710983
28	0xbdeda830	-0.11604345
29	0xbc1449d0	-0.009050801
30	0xbdbf8021	-0.093506105
31	0xbd9a267a	-0.0752687
32	0xbe418cc5	-0.18901356
33	0xbd00b5eb	-0.03142349
34	0x3da6d7e6	0.08146648
35	0x3d6bb1cb	0.057542603
36	0x3c5fc886	0.013658648
37	0x3e0f19bd	0.13974662
38	0xbe156760	-0.14590216
39	0x3d892653	0.06696763
40	0xbdc53928	-0.09630042
41	0xbd710b4f	-0.058848675
42	0x3d3fafe3	0.046798598
43	0xbdb397a1	-0.08769155
44	0x3cae371f	0.021266518
45	0xbe871217	-0.2638099
46	0xbe037d1f	-0.12840699
47	0xbe0ff2d3	-0.14057474
48	0xbe575c5b	-0.21031325
49	0xbd85373f	-0.06504678
50	0xbe21bed3	-0.1579545
51	0xb99e6688	-0.000302125
52	0xbdbe124d	-0.09280834
53	0xbe06b2a1	-0.13154079
54	0xbd976e61	-0.073941
55	0xbde8ef43	-0.113737606
56	0xbc80aaab	-0.01570638
57	0xbd107f10	-0.035277426
58	0x3dda772e	0.10667263
59	0xbd95ea68	-0.073201
60	0x3c99f8e1	0.018795433
61	0xbdbe6516	-0.09296624
62	0xbe6ea7de	-0.23306224
63	0x3e101dee	0.14073917
64	0x3ca62d34	0.020285226
65	0xbd30d751	-0.04317409
66	0x3d11f4f9	0.035634015
67	0x3c5aa8a9	0.013345876
68	0x3d77865f	0.06043088
69	0xbd0ebfbf	-0.034850832
70	0x3cc5e5c1	0.024157407
71	0xbc862ec7	-0.016379727
72	0xbab3cf62	-0.0013718421
73	0x3d69f60f	0.057119425
74	0xbea2975e	-0.3175611
75	0xbe0398d8	-0.12851274
76	0xbd1bf8d4	-0.038079098
77	0xbdf3cca4	-0.119042665
78	0xbe28e9dd	-0.16495462
79	0xbc2f4d2b	-0.010699551
80	0x3bc55982	0.006022633
81	0xbdcbe00c	-0.09954843
82	0x3d766d8e	0.060163073
83	0xbd55c6d9	-0.05219159
84	0xbe259235	-0.16169055
85	0xbda47538	-0.0803017
86	0x3d9de7d0	0.0771023
87	0xbda3cf19	-0.07998485
88	0x3d6c1d32	0.05764503
89	0x3c989832	0.01862726
90	0x3e0efa17	0.13962589
91	0xbd3242ef	-0.043520864
92	0xbdc82653	-0.09772935
93	0xbd8bad18	-0.068201244
94	0xbd33021b	-0.04370318
95	0xbe34899f	-0.17630623
96	0xbe0b8d31	-0.13628079
97	0x3d9d23e7	0.076728635
98	0xbc8c4d43	-0.017126685
99	0xbdd6149c	-0.1045315
100	0xbdabfae9	-0.08397467
101	0xbe43da11	-0.19126154
102	0x3d6e6870	0.058205068
103	0x3d04a923	0.032387864
104	0xbd736e16	-0.059431158
105	0xbdebb43b	-0.115089856
106	0x3d44d75b	0.04805694
107	0x3d6778da	0.056511737
108	0x3d89b24b	0.0672346
109	0xbdd9691a	-0.1061575
110	0xbc09c789	-0.008409389
111	0x3acd1b1b	0.0015648337
112	0x3d914fc5	0.07095293
113	0xbd097af9	-0.03356454
114	0xbe09ada9	-0.13445152
115	0xbe132964	-0.14371258
116	0x3cd0dc2b	0.02549561
117	0x3d46f683	0.048574936
118	0xbdf2e8a5	-0.1186078
119	0x3cc11a3d	0.023572082
120	0xbd4aaaab	-0.049479168
121	0x3c478554	0.012177784
122	0x3d511a85	0.05105068
123	0xbe23f9d8	-0.16013277
124	0x3c05c982	0.008165719
125	0x3d599ccc	0.05312805
126	0xbdee32c1	-0.11630774
127	0xbc5a8865	-0.013338183

actor.6.weight f4 [12, 128]
0	0x3cc6348d	0.02419498
1	0x3c3934fb	0.011304135
2	0xbc061dc9	-0.008185812
3	0xbd23cb47	-0.039988782
4	0xbcb37652	-0.021907005
5	0x3cdc1ad6	0.026868265
6	0x3d14b6ba	0.036307074
7	0x3c82efef	0.01598355
8	0x3d1480c7	0.036255624
9	0x3b6f96f5	0.0036558483
10	0xbc47cdff	-0.012195109
11	0x3d3e44b6	0.046452247
12	0xbca99130	-0.020699114
13	0xbc8d9c46	-0.017286431
14	0x3b8c74cc	0.004286384
15	0xbd5444e7	-0.051823523
16	0xbb9b1abf	-0.004733413
17	0x3d1d816a	0.038453497
18	0xbc4aa822	-0.012369188
19	0xbd26706a	-0.04063455
20	0xbaf1bf5a	-0.0018443868
21	0x3b2adee5	0.0026072797
22	0x3cd3fbac	0.025876842
23	0xbc3163c6	-0.0108270105
24	0xbd91867d	-0.0710573
25	0x3c29405d	0.010330287
26	0xbcdbf371	-0.02684948
27	0xbd7c6a42	-0.061624773
28	0xbcf0954b	-0.029368063
29	0xbd1bfcee	-0.03808301
30	0x3cd7d558	0.026346847
31	0x3d0841df	0.033265945
32	0xbd2f818f	-0.042848166
33	0xbc97768b	-0.018489143
34	0x3ae0af3d	0.0017142069
35	0xbd37f1b3	-0.044908237
36	0x3ca23927	0.019802643
37	0x3c715003	0.014728549
38	0xbbb68a40	-0.00557068
39	0x3d01df1d	0.031706918
40	0x3d037509	0.032094035
41	0xbc1fed1b	-0.00976112
42	0xbd0fbac0	-0.035090208
43	0x3bb5b8ce	0.005545712
44	0x3cfa9e8d	0.030593181
45	0xbcb19794	-0.021678723
46	0xbd09c035	-0.03363057
47	0xbd08ad5e	-0.03336846
48	0xbd172a4e	-0.03690558
49	0xbce96f07	-0.028495325
50	0xbca75cf5	-0.020430068
51	0x3d0ef694	0.034903124
52	0xbb15c305	-0.0022851836
53	0x3ad6cfcf	0.0016388836
54	0x3ca17afa	0.01971196
55	0xbd81b609	-0.063335486
56	0x3b5e4174	0.0033913525
57	0xbcbc26f1	-0.022967787
58	0x3cffca24	0.031224318
59	0x3cfaa915	0.030598203
60	0xbd008a08	-0.031381637
61	0xbbc585e2	-0.006027923
62	0x3cb87c59	0.022520231
63	0xbb3f97b9	-0.002923472
64	0x3b545b49	0.0032403043
65	0x3cafaf15	0.02144579
66	0x3ca1cd22	0.019751135
67	0x3d080d17	0.03321561
68	0xbb9a1f70	-0.0047034547
69	0x3a87cd2b	0.0010360827
70	0xbb5f04f6	-0.0034030057
71	0xbca783e2	-0.020448629
72	0xbc7c84f2	-0.015412556
73	0x3c82b727	0.015956474
74	0xbc81439f	-0.015779315
75	0x3d5ce7b6	0.053931914
76	0xbc616899	-0.013757848
77	0xbaf5797c	-0.0018728222
78	0xbd13cacd	-0.036082078
79	0xbc5b3619	-0.013379597
80	0x3c5735c1	0.0131353745
81	0x3b15feac	0.0022887392
82	0x3d29a379	0.041415665
83	0xbd3bb017	-0.04582223
84	0x3c987f24	0.018615313
85	0xbccd8a9f	-0.025090514
86	0x3c420382	0.011841657
87	0x3cbf3131	0.023338886
88	0x3ccac2fb	0.024751177
89	0x3ccbcc37	0.02487765
90	0x3d29f94c	0.041497514
91	0x3d03454a	0.0320485
92	0x3c3885c5	0.011262362
93	0xbcebdc95	-0.028791705
94	0x3b730f40	0.0037087947
95	0xbcd7dcbe	-0.026350375
96	0xbd5dc9cf	-0.054147538
97	0x3d38b3aa	0.045093216
98	0x3e07fdeb	0.13280456
99	0xbc01a64c	-0.007913183
100	0x3d87333b	0.06601568
101	0xbd46d9ee	-0.048547678
102	0xbcb7f6dd	-0.02245658
103	0x3ca1e8d1	0.019764336
104	0xbcdce533	-0.02696476
105	0xbcde23e3	-0.027116721
106	0x3cf3e5a0	0.02977258
107	0xbd54f9ff	-0.051996227
108	0x3d2c47f6	0.042060815
109	0xbb0d3be4	-0.002155059
110	0xbc5ebb38	-0.013594441
111	0xbc094019	-0.0083770985
112	0x3dec2e9a	0.11532326
113	0xbc70f502	-0.014706852
114	0xbd4d8559	-0.050176
115	0xbc3fcca6	-0.011706507
116	0xbceece1d	-0.029151017
117	0xbbcb2dfe	-0.006200551
118	0x3b9fe34a	0.00487939
119	0xbc989fcb	-0.018630883
120	0x3c687089	0.014186987
121	0x3bd97bd6	0.006637077
122	0xbc0f708e	-0.0087548625
123	0xbd1eb476	-0.03874632
124	0xbd0d4188	-0.034486324
125	0x3c9744a7	0.018465353
126	0xbd839898	-0.06425589
127	0xbb836b58	-0.004010599
128	0x3d5b1bff	0.053493496
129	0x3a8e215c	0.0010843682
130	0x3cbd4bd1	0.023107441
131	0xbd90fc9d	-0.07079432
132	0xbd554981	-0.052072052
133	0x3c781b8a	0.015143285
134	0xbba6b5b5	-0.005087579
135	0xbcd516c6	-0.026011836
136	0xbcd48612	-0.025942836
137	0x3c9fb70c	0.019496463
138	0x3cd0c3af	0.025483934
139	0xb8d19ecd	-9.9954756e-05
140	0xbdaa5357	-0.08316677
141	0xbc9e6f4d	-0.019340182
142	0x3c095b43	0.008383575
143	0x3c8e5271	0.017373296
144	0xbb8e7808	-0.004347805
145	0x3d20c782	0.039252765
146	0xbc766b33	-0.015040207
147	0xbd181bc4	-0.037135854
148	0x3d61f1a8	0.055162102
149	0x3c509424	0.012730632
150	0xbd0c90f8	-0.03431794
151	0x3b9a5221	0.0047094976
152	0x3d8eb33d	0.06967781
153	0x3d255a05	0.040369052
154	0x3b5da8b6	0.0033822483
155	0xbccea085	-0.025223026
156	0xbc743fb3	-0.014907765
157	0x3c8aeff2	0.016960118
158	0xbbf2f9ca	-0.007415031
159	0x3d2aa728	0.04166332
160	0x3ca538ef	0.02016875
161	0xbae33f86	-0.0017337657
162	0xbd41a0af	-0.04727238
163	0x3ae1c897	0.0017225918
164	0x3c5a80e0	0.01333639
165	0x3d335caf	0.04378956
166	0x3d3debb7	0.046367373
167	0x3bdbfce2	0.0067134956
168	0xbbbb77d9	-0.005721074
169	0xbd5973d0	-0.053088963
170	0xbc9f8329	-0.019471722
171	0xbc9c8b28	-0.019109324
172	0x3b7cbba3	0.0038563989
173	0x3bd6f89a	0.0065603973
174	0xbd603591	-0.054738585
175	0xbd09f203	-0.033678066
176	0x3dadd047	0.084869914
177	0x3a60ddcb	0.00085779716
178	0x3d863417	0.06552904
179	0xbb2898e6	-0.00257259
180	0x3d301423	0.042987954
181	0x3d24206b	0.04006998
182	0xbc0b6286	-0.008507377
183	0xbd493c47	-0.04912975
184	0xbd0e5a11	-0.034753863
185	0xbc51ffa1	-0.012817294
186	0xbc6f9dc3	-0.014625016
187	0xbc3b402a	-0.011428872
188	0xbca7e700	-0.020495892
189	0xbd391bc6	-0.045192502
190	0x3d14e11e	0.0363475
191	0xbc3b67b8	-0.011438303
192	0xbc8fcd91	-0.017554076
193	0xbc3145b2	-0.010819839
194	0xbc8efbb0	-0.017453998
195	0x3cfe9e24	0.031081267
196	0xbaec1e3e	-0.0018014384
197	0x3d20836d	0.039187837
198	0x3cb2c78c	0.021823667
199	0xbcb6814c	-0.02227845
200	0x3d023c77	0.031795945
201	0xbc8c15dc	-0.017100267
202	0x3d5f6b34	0.054545596
203	0x3c252ed8	0.010081969
204	0xbda1f7a2	-0.0790856
205	0xbcfe0471	-0.031007977
206	0x3c8ff7bf	0.01757419
207	0xbd454267	-0.04815903
208	0x3c9e8c43	0.019353991
209	0x3a291fdd	0.00064515864
210	0x3d16199a	0.03664551
211	0xbcab3174	-0.020897605
212	0x3d3492b1	0.04408521
213	0xbc436a15	-0.011927147
214	0xbd10b3fd	-0.0353279
215	0x3a9a2236	0.0011759463
216	0x3c85d74a	0.01633801
217	0xbccd45d9	-0.02505772
218	0xbca6bb8f	-0.020353107
219	0xbc04e746	-0.0081117805
220	0xbd93295e	-0.071856245
221	0x3c53aa4b	0.012919019
222	0x39c0199a	0.00036640168
223	0x3a649920	0.0008720327
224	0x3b3ecfb1	0.0029115493
225	0xbcee23e8	-0.029069856
226	0xbd1e9202	-0.038713463
227	0x3a1dd0cb	0.0006020187
228	0x3d15d0d0	0.036576092
229	0xbca2f065	-0.01989002
230	0xbbf81892	-0.0075712884
231	0xbcd6e709	-0.026233213
232	0x3da8ce6c	0.08242497
233	0x3be2556c	0.0069071557
234	0x3db0ef55	0.08639399
235	0x3cc7e9cd	0.024403477
236	0xbac76475	-0.0015212434
237	0xbc92cde4	-0.017920442
238	0x3ca3295f	0.019917188
239	0x3d9805fa	0.07423015
240	0x3bcbccf0	0.006219499
241	0x3c05b961	0.008161874
242	0x3bf5b8cc	0.007498836
243	0x3cba54e3	0.022745555
244	0x3cc6fad3	0.024289524
245	0xbb25f4d4	-0.002532293
246	0x3cb6537d	0.022256607
247	0xbaca81f6	-0.0015450108
248	0xba3c5b49	-0.00071852334
249	0x3a641de7	0.00087019656
250	0xbd1ef933	-0.038811874
251	0x3d3c46ed	0.045966078
252	0xbba6260c	-0.0050704535
253	0x3cb54913	0.022129571
254	0x3c10b0ce	0.008831216
255	0x3b841dbd	0.0040318654

actor.6.bias f4 [12]
0	0x3cd894fe	0.026438233
1	0xbd31abc9	-0.043376718
2	0x3ddb20e3	0.10699632
3	0xbdd5d222	-0.1044047
4	0x3dea3007	0.11434942
5	0x3e046b4b	0.12931554
6	0x3defeaad	0.11714683
7	0x3e0b0d81	0.1357937
8	0xbd87f0c4	-0.06637719
9	0xbe163733	-0.14669494
10	0xbe306ec5	-0.17229755
11	0xbe1692c8	-0.1470443
