logs/rsl_rl/unitree_go2_flat/2024-07-16_17-08-40/exported/policy.onnx (onnx, 163093 bytes, 8 tensors)

actor.0.weight f4 [128, 45]
-0.051900025 0.068453096 -0.78804225 0.6897231 -0.24123007 0.14084917 0.24068074 0.50873625
0.5415696 -0.56705505 -0.29584664 -0.0662476 0.4661186 0.09088692 -0.0039066784 -0.103983566
0.43198135 -0.17920297 -0.07061348 0.4914584 0.13623318 0.052175444 -0.09859256 -0.023770493
0.049918864 -0.08561002 -0.0068418942 0.07614218 -0.04317837 0.04106311 0.038229093 -0.041045927
-0.049251832 -0.19125077 -0.11527345 0.053231347 0.026607053 -0.003060971 0.07336475 0.12743638
-0.09490537 0.035240836 0.028806565 0.018787183 -0.055836245 0.13633639 0.24854709 -0.09046229
-0.71346563 0.11903584 -0.15925953 -0.7007745 -0.1441982 -0.055199742 0.47540963 -0.0998678
-0.6256554 -0.20178112 -0.3670871 0.036296718 0.14551893 0.6299001 0.39585334 0.3564355
0.19730356 0.45116252 -0.012900237 -0.0059111156 -0.003563717 0.12487196 0.13494399 -0.002558596
0.032778207 0.025687337 0.066282734 -0.013421311 -0.071523555 -0.019533217 -0.10733768 -0.27196255
0.003256397 -0.20518276 0.010274147 0.24033587 0.1885198 0.15214764 0.1319174 -0.392928
-0.1486184 0.11845706 -0.056164015 -0.0059232404 -0.21309648 -0.18969811 -0.50762475 -0.040246658
0.12051126 -0.12997939 0.07948275 -0.038594462 -0.53034 -0.10895431 0.19314116 -0.30478588
0.5013863 -0.53421503 -0.26254544 0.48619625 0.7622122 0.71848613 0.37020844 0.03132578
0.027046543 -0.035891026 0.010745942 -0.040505305 0.02656186 0.08577308 0.008006236 -0.028902149
0.080976285 0.15428272 0.021181593 0.17837062 0.025524538 -0.1389031 -0.19322217 -0.21127391
-0.18469654 -0.15791294 0.108140804 -0.2935288 0.1739602 -0.023048416 -0.24969473 0.27267298
-0.30559638 -0.25624737 0.5242498 -0.46292448 0.06525077 -0.21972625 0.41029155 0.49390703
-0.04390161 0.085581996 0.16893287 0.2304649 -0.12709643 -0.013586289 -0.46206686 -0.0127610965
0.42576417 0.06871417 0.25578064 0.54172605 0.03963442 0.010672559 0.017558707 0.07215414
0.033985652 -0.07058549 -0.039805464 -0.0016902401 0.047105614 -0.039005004 -0.08106841 -0.042990975
0.32801595 0.031037146 -0.19040221 0.08559113 -0.105671175 -0.11886934 -0.22536209 -0.14035408
-0.17254895 0.029138288 0.113228776 0.03063642 0.11900677 0.20628485 0.1545862 0.57060444
-0.22804116 0.08933041 -0.06932532 -0.12049859 -0.13611051 0.24133803 -0.61898035 -0.17561604
-0.54902285 0.37314746 -0.068414785 0.19711348 0.40463516 -0.18556392 -0.024666302 0.53622454
0.25000194 0.16933635 -0.038335793 -0.030297723 -0.014005883 0.0318186 -0.006108785 0.021332229
0.036044803 -0.29076985 0.024651965 -0.05091959 0.00047650433 -0.22376497 -0.113950774 0.20718479
-0.1436308 0.16335008 -0.11794182 0.009555988 -0.2933229 0.32329807 -0.03689236 0.16210379
0.13450605 -0.072801106 0.14426994 0.06458081 -0.40010813 0.46136266 -0.024106773 -0.56070346
0.023169504 0.73467886 0.11908933 0.3243122 0.49304688 0.16013564 -0.2822035 0.23929188
0.03541836 0.65648276 0.36595565 0.574289 0.120193735 0.51060164 0.050784327 -0.11540107
-0.13542546 0.019449906 0.030901387 -0.032454852 0.03852033 -0.07183667 -0.030816384 0.018889157
00000000: 1f95 54bd 2331 8c3d 23bd 49bf b191 303f
00000010: 0405 77be c43a 103e 0375 763e 8a3c 023f
00000020: 4ea4 0a3f 852a 11bf 3679 97be d2ac 87bd
00000030: 19a7 ee3e ec22 ba3d 9803 80bb 56f5 d4bd
00000040: a92c dd3e fc80 37be cd9d 90bd 6fa0 fb3e
00000050: b680 0b3e ebb5 553d e5ea c9bd 56ba c2bc
00000060: b977 4c3d 4e54 afbd f831 e0bb 6ef0 9b3d
00000070: cddb 30bd cb31 283d 1c96 1c3d c61f 28bd
00000080: 4abc 49bd 3ed7 43be 7d14 ecbd 1d09 5a3d
00000090: 09f7 d93c 929a 48bb 4240 963d af7e 023e
000000a0: bf5d c2bd b258 103d bffb eb3c 94e7 993c
000000b0: 8cb4 64bd c49b 0b3e 2183 7e3e 4b44 b9bd
000000c0: afa5 36bf 10c9 f33d ee14 23be f565 33bf
000000d0: b1a8 13be 2019 62bd e468 f33e 7d87 ccbd
000000e0: f42a 20bf b69f 4ebe d7f2 bbbe deab 143d
000000f0: ea02 153e 2241 213f 4aad ca3e b77e b63e
00000100: f209 4a3e c6fe e63e 845b 53bc 08b2 c1bb
00000110: 408d 69bb dfbc ff3d c22e 0a3e 1eae 27bb
00000120: 7142 063d 406e d23c 3ebf 873d 0fe5 5bbc
00000130: f17a 92bd 2004 a0bc dcd3 dbbd ad3e 8bbe
00000140: 4769 553b 6e1b 52be e554 283c 9b1a 763e
00000150: 560b 413e 97cc 1b3e 5b15 073e dc2d c9be
00000160: 6c2f 18be 9d99 f23d 3d0c 66bd be17 c2bb
00000170: f735 5abe 3940 42be b2f3 01bf aed9 24bd
00000180: 9cce f63d 5119 05be dac7 a23d 3a15 1ebd
00000190: 5dc4 07bf 7023 dfbd ccc6 453e e50c 9cbe
000001a0: da5a 003f 51c2 08bf 5b6c 86be b7ee f83e
000001b0: 5720 433f b5ee 373f f68b bd3e 764f 003d
000001c0: b690 dd3c 7802 13bd bf0f 303c e4e8 25bd
000001d0: 4298 d93c cca9 af3d 962c 033c 33c4 ecbc
000001e0: e5d6 a53d 4afc 1d3e 0585 ad3c caa6 363e
000001f0: d618 d13c 9d3c 0ebe 08dc 45be 3058 58be
00000200: 1721 3dbe eeb3 21be ed78 dd3d 6849 96be
00000210: 9f22 323e 08d0 bcbc faaf 7fbe cb9b 8b3e
00000220: 2177 9cbe db32 83be 3c35 063f 7004 edbe
00000230: 32a2 853d ebff 60be bc11 d23e 62e1 fc3e
00000240: 2dd2 33bd 9d45 af3d bdfc 2c3e fefe 6b3e
00000250: 9125 02be 0799 5ebc 0794 ecbe eb13 51bc
00000260: c3fd d93e 04ba 8c3d aef5 823e 8fae 0a3f
00000270: b457 223d f5db 2e3c 47d7 8f3c 8dc5 933d
00000280: 8a34 0b3d 208f 90bd 0e0b 23bd 0c8b ddba
00000290: d1f1 403d b6c3 1fbd 3207 a6bd 4e17 30bd
000002a0: b5f1 a73e 9d41 fe3c ccf8 42be 674a af3d
000002b0: 216a d8bd c571 f3bd 52c5 66be fbb8 0fbe
000002c0: acb0 30be 6bb3 ee3c 7de4 e73d 3bf9 fa3c
000002d0: d2b9 f33d 563c 533e d84b 1e3e 2213 123f
000002e0: 9f83 69be ddf2 b63d 6ffa 8dbd f7c7 f6bd
000002f0: 8e60 0bbe 5121 773e 7f75 1ebf b1d4 33be
00000300: c38c 0cbf 2f0d bf3e 0d1d 8cbd 1ed8 493e
00000310: 572c cf3e 7804 3ebe fc10 cabc 0346 093f
00000320: 4100 803e 8266 2d3e fe05 1dbd ee32 f8bc
00000330: ee78 65bc 3854 023d 342c c8bb edc0 ae3c
00000340: b7a3 133d c9df 94be ebf2 c93c 0f91 50bd
00000350: 54d3 f939 a522 65be 065f e9bd 4028 543e
00000360: f413 13be 3e45 273e 7b8b f1bd b890 1c3c
00000370: 6b2e 96be 5387 a53e 711c 17bd 89fe 253e
00000380: f4bb 093e bf18 95bd 80bb 133e f242 843d
00000390: f9da ccbe ba37 ec3e 917b c5bc 438a 0fbf
000003a0: f9cd bd3c ea13 3c3f 1be5 f33d 400c a63e
000003b0: a470 fc3e 99fa 233e fa7c 90be ee08 753e
000003c0: d812 113d 410f 283f 8a5e bb3e 9b04 133f
000003d0: 2228 f63d cab6 023f 3a03 503d 6557 ecbd
000003e0: f9ac 0abe 6955 9f3c e824 fd3c 61ef 04bd
000003f0: 7ec7 1d3d 1b1f 93bd a472 fcbc 6fbd 9a3c

actor.0.bias f4 [128]
0.02441102 -0.019383816 -0.17957544 0.032497987 0.034360517 0.0036350572 0.06968158 0.1441608
-0.23037317 0.06324533 -0.09256156 0.034427 -0.05388893 0.107511915 0.08761107 -0.10997489
-0.043031886 0.04677559 -0.038542226 -0.005315243 0.04392037 0.06707781 0.12003162 0.010795624
-0.23415007 0.01903748 0.033733595 -0.2037516 -0.24314933 -0.038274545 0.029002026 0.12374772
0.1496282 0.026373621 -0.079390466 -0.00235072 -0.17437804 0.048040334 -0.018823737 0.28061843
-0.16062102 -0.20825216 0.14697789 -0.09470861 0.11190361 0.024659086 0.06654453 -0.1717204
0.2059411 0.037040222 -0.0442073 0.23723494 0.06561932 -0.16636363 -0.15686831 0.039166126
0.12191646 -0.08939829 -0.14153588 -0.045376875 0.046102136 0.00043484452 0.14929438 0.0144895455
0.024219222 0.0696149 -0.015187254 -0.035747755 -0.13262859 -0.14395028 -0.12606479 0.19860427
0.09760569 0.015539497 -0.072169915 0.23803452 0.007669016 -0.007904471 0.15576106 -0.14823265
0.041187413 -0.26020518 -0.0021903713 -0.06813708 -0.12662391 -0.10527258 -0.11441858 0.12685797
-0.2033139 -0.22841033 0.16884345 0.01961571 0.1721351 -0.11723243 0.04905363 0.14320621
0.2906977 -0.19880876 0.18604565 0.15769301 0.15516235 0.06536669 0.081964046 -0.12809606
-0.068558596 0.008519942 0.18851684 -0.12601763 -0.20359984 -0.10046306 0.16886768 0.05284073
0.086806014 0.05031051 -0.10893225 -0.077353716 -0.0021415895 0.094432496 0.25457472 -0.042475823
0.009255085 0.0011922951 0.19884695 -0.07776071 0.027973115 0.11291347 -0.04872191 0.15215035
00000000: 9ff9 c73c cfca 9ebc a0e2 37be 9c1c 053d
00000010: 9dbd 0c3d 243a 6e3b 37b5 8e3d e49e 133e
00000020: f2e6 6bbe c486 813d ea90 bdbd 5303 0d3d
00000030: a3ba 5cbd 352f dc3d 6f6d b33d 843a e1bd
00000040: 3442 30bd c397 3f3d 74de 1dbd 7d2b aebb
00000050: d9e5 333d 1760 893d 23d3 f53d 21e0 303c
00000060: 09c5 6fbe 7df4 9b3c 3d2c 0a3d 42a4 50be
00000070: 23fc 78be c5c5 1cbd a895 ed3c 726f fd3d
00000080: 2338 193e 7e0d d83c 7897 a2bd 8a0e 1abb
00000090: 2890 32be f1c5 443d 3d34 9abc 38ad 8f3e
000000a0: d679 24be 0e40 55be 5f81 163e 96f6 c1bd
000000b0: b82d e53d da01 ca3c 8048 883d 79d7 2fbe
000000c0: 39e2 523e 7db7 173d b712 35bd b7ed 723e
000000d0: 6c63 863d 3a5b 2abe 16a2 20be a96c 203d
000000e0: 56af f93d 7316 b7bd c8ee 10be 1add 39bd
000000f0: 98d5 3c3d d8fb e339 a0e0 183e 8f65 6d3c
00000100: 6467 c63c 4292 8e3d f6d3 78bc 3d6c 12bd
00000110: cacf 07be b467 13be 2117 01be eb5e 4b3e
00000120: 7ee5 c73d 6099 7e3c d2cd 93bd 52bf 733e
00000130: 5e4c fb3b c181 01bc d47f 1f3e 4dca 17be
00000140: 22b4 283d 9d39 85be 558c 0fbb 748b 8bbd
00000150: b3a9 01be 2799 d7bd 4a54 eabd 0ee7 013e
00000160: 8531 50be 66e4 69be 4ce5 2c3e 20b1 a03c
00000170: 2f44 303e 8e17 f0bd 76ec 483d a6a4 123e
00000180: 54d6 943e 8694 4bbe c082 3e3e 477a 213e
00000190: e1e2 1e3e f9de 853d c4dc a73d 9d2b 03be
000001a0: 7368 8cbd 3a97 0b3c 8f0a 413e c40a 01be
000001b0: 7a7c 50be 94bf cdbd a6eb 2c3e 856f 583d
000001c0: 5ac7 b13d 6512 4e3d df17 dfbd a06b 9ebd
000001d0: e959 0cbb d365 c13d 9e57 823e 21fb 2dbd
000001e0: a4a2 173c c946 9c3a 899e 4b3e 0241 9fbd
000001f0: e027 e53c 2d3f e73d a090 47bd 4dcd 1b3e

actor.2.weight f4 [128, 128]
-0.16613881 -0.0343108 -0.07537108 -0.1343442 -0.121751115 -0.04083478 -0.09462608 0.13853829
-0.075142555 0.03349304 -0.006699771 -0.04202953 -0.011884039 -0.07501911 0.039768077 0.039192885
0.02671507 -0.1462549 -0.019516101 -0.08825928 -0.14256068 0.034569602 -0.061673176 -0.09751539
-0.023907075 -0.00018208557 0.10748846 -0.054032534 -0.008983295 0.009860969 -0.0710311 -0.00831819
-0.109935775 -0.062391732 -0.024279557 0.0538136 -0.103861034 0.0054822504 -0.076351054 -0.061274644
-0.045348253 0.10427131 0.034890383 -0.07621707 0.084048666 0.091867104 -0.03640093 0.09584738
-0.17629236 -0.045250773 0.017753007 -0.07864595 -0.13317768 -0.02386654 -0.07301369 -0.06032051
-0.1430075 -0.030128406 -0.10820989 -0.096903086 0.031474665 -0.14597228 -0.06862726 0.0009593747
-0.11969391 0.1199913 -0.05029674 -0.1786722 -0.08533695 0.121023096 -0.18138476 -0.19719356
-0.25614613 0.0654243 0.281613 -0.14672999 0.024770852 -0.14422542 -0.08495053 0.07302867
0.02426234 -0.004438898 -0.06962475 0.0007658972 0.03686797 0.014952086 0.163669 -0.009795327
0.07744932 -0.045131214 -0.09403983 0.09263429 -0.108872734 0.0011773465 0.087299235 -0.026693381
0.027318 0.03465832 -0.060665466 -0.0045343162 -0.034739885 -0.124919645 -0.02152298 0.044080652
0.1394872 0.035860654 -0.069053255 -0.04464408 0.15855563 0.038274165 -0.19804162 0.11208517
-0.0436713 -0.015430743 -0.031959385 0.12472829 -0.10569883 0.20042863 -0.054184016 -0.13267232
-0.109669514 -0.029897152 -0.107942976 -0.016452532 -0.07091564 -0.049021695 -0.019124804 -0.12707213
-0.16051249 0.20241821 -0.05203803 -0.07833126 0.014324731 -0.05199662 0.007465313 0.027505444
-0.26136848 -0.090403564 -0.03134176 -0.095328845 -0.05150662 0.06333215 0.0613549 -0.100544125
0.0487041 -0.3435978 -0.010961675 0.17805465 -0.39279208 0.004374226 -0.12601008 -0.17326652
0.042858433 -0.25947654 0.011999668 -0.14029695 0.05394445 0.01855202 0.10749507 -0.14898972
0.009618448 -0.10800806 -0.050090525 0.02156109 -0.006639445 0.00059527386 0.07285449 -0.02955355
-0.1263962 0.011094706 -0.17482984 0.10591236 -0.03387135 -0.1388291 0.1134029 -0.03453602
-0.07676939 -0.027221866 -0.22724476 -0.11027635 -0.16431251 0.026658185 -0.11079285 -0.10194843
0.09803618 -0.14532264 -0.19204056 -0.1830891 0.016500132 -0.13315621 0.044273272 0.012507326
0.0053701866 0.14074716 -0.19164322 -0.16194631 0.10040343 0.18480223 -0.30453536 -0.08147015
-0.24601202 0.12764575 0.09067926 0.014158757 0.005877678 0.024499543 0.013300515 0.109570876
-0.09449661 -0.08066268 0.12735718 0.15994403 -0.28723478 -0.16896334 -0.29821998 -0.12347733
0.10686372 -0.095235646 -0.0319543 -0.07662802 -0.17748599 -0.08412049 -0.0012407175 -0.106000595
0.10969747 -0.111138485 0.051124383 -0.31317058 0.16206934 -0.05628871 -0.009652932 -0.088677905
-0.13615277 -0.0045987004 0.08930378 -0.17962894 0.12363628 0.18526843 -0.14436772 0.1569281
0.12595612 -0.112127945 0.15049796 0.0044195713 -0.19448501 -0.061570965 0.03247708 -0.24050897
-0.13660373 0.26747787 0.1453168 0.07653463 0.083689824 0.015144286 -0.14712398 0.15664388
00000000: 4b20 2abe 7b89 0cbd 275c 9abd 8791 09be
00000010: a658 f9bd 5f42 27bd 51cb c1bd fbdc 0d3e
00000020: 57e4 99bd ff2f 093d c189 dbbb 2827 2cbd
00000030: 46b5 42bc 9fa3 99bd dae3 223d b888 203d
00000040: 90d9 da3c d8c3 15be 3be0 9fbc 48c1 b4bd
00000050: 6dfb 11be db98 0d3d 039d 7cbd 26b6 c7bd
00000060: c5d8 c3bc 39ee 3eb9 e922 dc3d 3851 5dbd
00000070: ac2e 13bc e78f 213c c178 91bd 0549 08bc
00000080: 0226 e1bd 798e 7fbd ece5 c6bc a66b 5c3d
00000090: 18b5 d4bd 73a4 b33b f15d 9cbd 1ffb 7abd
000000a0: 17bf 39bd 328c d53d 38e9 0e3d b217 9cbd
000000b0: b521 ac3d d224 bc3d 2419 15bd a24b c43d
000000c0: fc85 34be e058 39bd c16e 913c 2111 a1bd
000000d0: bb5f 08be c383 c3bc 3488 95bd a412 77bd
000000e0: 8f70 12be d9cf f6bc 269d ddbd 2075 c6bd
000000f0: 94eb 003d c279 15be 738c 8cbd 8c7e 7b3a
00000100: 1522 f5bd 00be f53d f403 4ebd d8f5 36be
00000110: 24c5 aebd f5da f73d edbc 39be 1ced 49be
00000120: 9625 83be 2dfd 853d 942f 903e 6340 16be
00000130: 3eec ca3c d4af 13be 8bfa adbd 0e90 953d
00000140: d1c1 c63c 2d74 91bb 6c97 8ebd 7ec6 483a
00000150: de02 173d 98f9 743c d998 273e 947c 20bc
00000160: c09d 9e3d 82db 38bd f497 c0bd 0cb7 bd3d
00000170: abf8 debd 3151 9a3a f1c9 b23d 14ac dabc
00000180: 00ca df3c e2f5 0d3d 5a7c 78bd 9a94 94bb
00000190: 694b 0ebd dfd5 ffbd f650 b0bc ea8d 343d
000001a0: bcd5 0e3e 9fe2 123d cb6b 8dbd b6dc 36bd
000001b0: 685c 223e 5fc5 1c3d 6ccb 4abe e98c e53d
000001c0: ade0 32bd 3ad1 7cbc d8e7 02bd 8c71 ff3d
000001d0: a178 d8bd 2a3d 4d3e 0ff0 5dbd 41db 07be
000001e0: 699a e0bd dfea f4bc 3511 ddbd 76c7 86bc
000001f0: 383c 91bd f9ca 48bd 9fab 9cbc 321f 02be
00000200: 635d 24be b846 4f3e d425 55bd 246c a0bd
00000210: 47b2 6a3c 68fa 54bd 969f f43b 1953 e13c
00000220: 17d2 85be 8125 b9bd 3860 00bd c53b c3bd
00000230: 9bf8 52bd 49b4 813d 474f 7b3d 14ea cdbd
00000240: f37d 473d 0dec afbe 9998 33bc f553 363e
00000250: 0b1c c9be ab55 8f3b c908 01be c76c 31be
00000260: 538c 2f3d 1cda 84be 419a 443c 01aa 0fbe
00000270: dbf4 5c3d 68fa 973c 6026 dc3d c390 18be
00000280: b296 1d3c 5433 ddbd b92b 4dbd e2a0 b03c
00000290: b48f d9bb 270c 1c3a bc34 953d 491a f2bc
000002a0: 016e 01be 92c6 353c 9806 33be 94e8 d83d
000002b0: afbc 0abd 3729 0ebe c83f e83d a475 0dbd
000002c0: 4539 9dbd 6400 dfbc dab2 68be 91d8 e1bd
000002d0: 8a41 28be 4462 da3c 5de7 e2bd 57ca d0bd
000002e0: 31c7 c83d 75cf 14be 48a6 44be b67b 3bbe
000002f0: 492b 873c 1a5a 08be e457 353d 87eb 4c3c
00000300: 64f8 af3b 0620 103e 1f3e 44be 41d5 25be
00000310: 50a0 cd3d cc3c 3d3e 0fec 9bbe d2d9 a6bd
00000320: 93ea 7bbe 91b5 023e 0cb6 b93d 22fa 673c
00000330: 8999 c03b 44b3 c83c 67ea 593c b266 e03d
00000340: 7087 c1bd 7a32 a5bd ec69 023e 5ec8 233e
00000350: 7010 93be ba04 2dbe 4ab0 98be afe1 fcbd
00000360: 5edb da3d e80a c3bd 83e2 02bd 27ef 9cbd
00000370: e3be 35be 5d47 acbd 929f a2ba d716 d9bd
00000380: 11a9 e03d 939c e3bd cd67 513d e557 a0be
00000390: 81f5 253e fe8e 66bd 5527 1ebc c39c b5bd
000003a0: a26b 0bbe b2b0 96bb e6e4 b63d a6f0 37be
000003b0: 0535 fd3d 02b7 3d3e 22d5 13be c3b1 203e
000003c0: a4fa 003e 56a3 e5bd 231c 1a3e 0dd2 903b
000003d0: 1427 47be d631 7cbd b006 053d fc47 76be
000003e0: d9e1 0bbe dcf2 883e edcd 143e 30be 9c3d
000003f0: 9265 ab3d bd1f 783c aba7 16be 4167 203e

actor.2.bias f4 [128]
-0.107677914 -0.08794459 -0.028482916 -0.14017417 -0.13753611 0.032820366 -0.061625622 -0.13955387
-0.19567056 -0.13928671 -0.004562075 -0.17550907 -0.12400425 -0.05684673 -0.023785645 -0.08081897
-0.12560746 0.030070327 -0.054135215 -0.049149 -0.09882829 -0.06488817 -0.061192665 0.050555963
-0.022195177 -0.01963897 0.08967037 -0.0015185644 -0.14989193 -0.12811007 0.05025173 -0.13801706
-0.0524046 -0.14042573 -0.15639101 -0.003776995 -0.0499214 -0.14769745 -0.104268044 -0.103753716
-0.04621311 -0.023833692 -0.18399046 -0.04365367 -0.0873914 -0.13136746 -0.14008746 -0.0048140003
-0.011484399 -0.08516363 -0.13573888 -0.092218235 0.054783545 0.0004243926 -0.04463056 -0.11526105
-0.037020672 -0.17861731 -0.07484034 -0.029315168 -0.11627703 -0.07742722 -0.0025738806 0.025197003
-0.061985016 -0.116783366 -0.09497765 0.07765191 -0.14613576 -0.14209323 0.06326953 -0.0068464396
-0.061561596 -0.22748795 -0.09970824 -0.09126223 -0.114851534 -0.25984254 -0.10769965 0.016956516
-0.07580681 -0.155012 -8.570722e-06 -0.05475134 -0.07244332 -0.12616833 -0.20661524 -0.03674937
-0.09431654 -0.10148387 -0.1346954 -0.04075854 -0.09433182 -0.096960865 -0.11803168 0.0049840417
-0.1636334 -0.076295614 -0.109111995 -0.2868908 -0.022284525 -0.11456403 -0.06371984 -0.08606367
-0.10308313 -0.046051167 -0.0067824186 -0.008931122 -0.10899675 -0.09096396 -0.1405229 -0.06982388
-0.07499272 0.049538597 -0.0436752 -0.13037513 -0.007422787 -0.17420039 -0.07073639 -0.051351514
0.001551352 -0.02970648 -0.12821382 -0.020549156 -0.13436764 -0.16319294 -0.070198596 -0.04415093
00000000: 3d86 dcbd 4b1c b4bd 0155 e9bc d189 0fbe
00000010: 44d6 0cbe a66e 063d 266b 7cbd 36e7 0ebe
00000020: dd5d 48be 2da1 0ebe 757d 95bb a6b8 33be
00000030: f1f5 fdbd 1ed8 68bd 1dda c2bc 6b84 a5bd
00000040: 3e9f 00be 0c56 f63c e3bc 5dbd 7650 49bd
00000050: 7d66 cabd 17e4 84bd 29a5 7abd c513 4f3d
00000060: a9d2 b5bc e8e1 a0bc 19a5 b73d 910a c7ba
00000070: 457d 19be 492f 03be c2d4 4d3d 5854 0dbe
00000080: 35a6 56bd c3cb 0fbe f724 20be 7687 77bb
00000090: 627a 4cbd 003e 17be 7c8a d5bd d47c d4bd
000000a0: f549 3dbd e03e c3bc ff67 3cbe 31ce 32bd
000000b0: 43fa b2bd 3185 06be 1673 0fbe c3be 9dbb
000000c0: 1029 3cbc 456a aebd 22ff 0abe eadc bcbd
000000d0: b664 603d 0381 de39 89ce 36bd fc0d ecbd
000000e0: fda2 17bd 75e7 36be e445 99bd 5d26 f0bc
000000f0: a722 eebd 2a92 9ebd 8dae 28bb f269 ce3c
00000100: 00e4 7dbd 1e2c efbd a483 c2bd f707 9f3d
00000110: 9da4 15be e380 11be 7593 813d 1958 e0bb
00000120: 0328 7cbd 9af2 68be d533 ccbd b1e7 babd
00000130: 4837 ebbd 150a 85be a291 dcbd 64e8 8a3c
00000140: 9a40 9bbd 77bb 1ebe f8ca 0fb7 f142 60bd
00000150: 2a5d 94bd 4532 01be f292 53be 8286 16bd
00000160: 0829 c1bd c6d6 cfbd 97ed 09be 6df2 26bd
00000170: 0b31 c1bd 6b93 c6bd 98ba f1bd 2c51 a33b
00000180: 848f 27be e040 9cbd 1c76 dfbd 5ae3 92be
00000190: 098e b6bc 8ca0 eabd 8c7f 82bd 2642 b0bd
000001a0: 401d d3bd 26a0 3cbd 0d3f debb d753 12bc
000001b0: b039 dfbd 504b babd 3ce5 0fbe d3ff 8ebd
000001c0: c895 99bd fce8 4a3d c4e4 32bd 0f81 05be
000001d0: da3a f3bb 9661 32be 3ede 90bd f755 52bd
000001e0: bc56 cb3a 015b f3bc 7c4a 03be b456 a8bc
000001f0: ac97 09be 0d1c 27be 48c4 8fbd 9bd7 34bd

actor.4.weight f4 [128, 128]
0.12300812 0.11931008 0.065208875 0.04246912 -0.09456636 0.08939875 0.046660386 0.08428286
0.25301397 0.04804317 0.105854586 -0.0701413 0.031696267 0.11669994 0.04363932 0.011586002
0.1082188 -0.20654328 -0.12539354 0.11886233 -0.122328036 0.11373326 -0.041617684 -0.008693499
-0.011144832 -0.030319784 -0.025422614 -0.15989591 0.08097189 -0.08639676 -0.057151817 0.05723131
-0.012912858 0.005251677 0.057175864 0.07257397 -0.12707521 0.111343145 -0.024038523 0.14201514
0.17235248 -0.054325655 -0.064296946 -0.044732653 -0.0057246946 0.078475796 0.097758345 0.061235394
0.03509524 -0.07179989 0.12288929 0.03601432 0.076072425 -0.01443838 0.121240124 -0.11054295
0.05688887 0.037429333 0.07127889 -0.09634905 0.039868414 0.09283381 0.010159355 -0.074138544
0.0027517583 0.06312828 -0.08395579 -0.0025560444 0.027370097 0.14754833 -0.13612804 0.009432072
0.036428664 0.06911285 0.093668975 -0.03927773 -0.11016875 0.074045636 -0.09266073 -0.11680679
0.01517643 0.09632642 0.01505199 -0.007219287 0.062164567 -0.044928282 -0.08246078 -0.10223574
0.077323884 -0.12330616 0.08679589 0.013599137 0.10181253 -0.100770056 0.028765125 -0.014875596
0.034454323 -0.06623422 0.22287877 0.07516578 0.16589795 -0.003972918 0.102307536 0.15427847
0.1916038 -0.018846663 -0.030676793 0.0060073845 0.010985632 -0.029686911 0.0075783776 0.16301191
0.08369424 0.0011871038 -0.050142746 0.04678422 0.030320112 0.018251408 -0.08962569 0.030863881
-0.05057908 0.056628738 -0.049802635 -0.11276019 -0.060429864 -0.10744648 0.018881468 -0.11672801
-0.1176533 -0.023922082 -0.06256397 -0.08862425 0.06973696 0.0042715752 0.018223142 0.04966773
0.110803425 -0.018469244 0.11371077 -0.09593615 -0.02754815 -0.021630643 -0.012139504 -0.04133708
-0.06589998 -0.11540922 -0.0004746877 0.07026662 -0.057798237 -0.09017334 -0.07853362 -0.014720513
0.059537645 -0.04085167 -0.0770549 -0.07280502 0.10434952 -0.028271655 0.090126805 0.04805024
0.024819922 -0.07303417 -0.060774107 -0.06790066 0.044370763 0.025493164 0.033070803 -0.013938762
0.044382576 -0.08091999 -0.03597179 0.0007989432 0.013873988 0.10030897 0.05918737 -0.1270644
-0.049769428 -0.04295208 -0.00032344117 -0.10216964 -0.059424162 0.00033326095 0.07629192 0.070913725
0.04144402 -0.03659714 -0.042513903 0.016171476 0.05746577 -0.026524859 -0.12405227 -0.044584785
-0.057549212 -0.06744205 0.056771826 0.039682664 -0.008066896 -0.029474081 -0.028620236 -0.12865958
-0.07004476 -0.022600994 0.010056916 0.007378648 0.06409007 0.066125125 -0.01978175 0.00093396334
0.030248478 -0.027586818 -0.04726728 0.116813 0.018882187 0.06840572 0.015236397 0.08397436
-0.044621523 0.05258451 0.054547228 -0.02190407 -0.04244007 0.033539813 0.06969729 -0.0020237432
-0.0026086487 0.024546053 0.029429816 -0.060286373 0.10280289 0.015645996 -0.0016064912 0.04381048
0.056180358 -0.0055003953 0.0012496775 -0.11155761 0.05697677 -0.07059628 0.0368091 -0.058215596
-0.046559136 0.0014997503 0.0180572 0.08316376 0.08714265 -0.017712407 0.03553208 0.0976474
-0.021676293 -0.059212904 -0.10233914 0.039384983 0.05167563 0.014992547 0.06434454 0.0069998247
00000000: aeeb fb3d d858 f43d 3b8c 853d 1af4 2d3d
00000010: 02ac c1bd b116 b73d f61e 3f3d 7e9c ac3d
00000020: 0c8b 813e eac8 443d 4aca d83d 3ea6 8fbd
00000030: f2d3 013d 6100 ef3d 25bf 323d 37d3 3d3c
00000040: d1a1 dd3d 1580 53be 2a67 00be 186e f33d
00000050: 1f87 fabd fcec e83d 4e77 2abd 2d6f 0ebc
00000060: d098 36bc 3261 f8bc 1643 d0bc c1bb 23be
00000070: 97d4 a53d c9f0 b0bd 0618 6abd 616b 6a3d
00000080: 7490 53bc 4216 ac3b 3d31 6a3d a9a1 943d
00000090: 0120 02be e007 e43d 70ec c4bc 6b6c 113e
000000a0: 2b7d 303e 9484 5ebd 1eae 83bd 9639 37bd
000000b0: 3896 bbbb ebb7 a03d 8735 c83d f7d1 7a3d
000000c0: 07c0 0f3d d20b 93bd 61ad fb3d c083 133d
000000d0: dccb 9b3d f48e 6cbc be4c f83d 5864 e2bd
000000e0: 4e04 693d 804f 193d abfa 913d a752 c5bd
000000f0: 104d 233d a71f be3d 6c73 263c f3d5 97bd
00000100: d856 343b 6649 813d 03f1 abbd 4f83 27bb
00000110: 4137 e03c e916 173e 2665 0bbe fa88 1a3c
00000120: 3936 153d 0a8b 8d3d 85d5 bf3d afe1 20bd
00000130: 27a0 e1bd 3da5 973d e9c4 bdbd 6638 efbd
00000140: 90a6 783c c946 c53d 9f9c 763c c58f ecbb
00000150: 46a0 7e3d b806 38bd 33e1 a8bd f960 d1bd
00000160: fc5b 9e3d f187 fcbd 0bc2 b13d eace 5e3c
00000170: 1683 d03d 8860 cebd d7a4 eb3c c6b8 73bc
00000180: fa1f 0d3d cfa5 87bd 553a 643e 84f0 993d
00000190: 27e1 293e 402f 82bb 9d86 d13d 2dfb 1d3e
000001a0: c933 443e 5164 9abc e64d fbbc 98d9 c43b
000001b0: 15fd 333c f731 f3bc 0a54 f83b 98ec 263e
000001c0: e367 ab3d 9898 9b3a 7b62 4dbd cfa0 3f3d
000001d0: e261 f83c fa83 953c ac8d b7bd 40d6 fc3c
000001e0: 022c 4fbd 89f3 673d d9fd 4bbd d1ee e6bd
000001f0: 4e85 77bd e60c dcbd 4fad 9a3c 180f efbd
00000200: 37f4 f0bd 3ef8 c3bc 8a21 80bd a180 b5bd
00000210: 40d2 8e3d 92f8 8b3b b348 953c 6470 4b3d
00000220: e8ec e23d d04c 97bc 31e1 e83d 2c7a c4bd
00000230: a8ac e1bc bf32 b1bc c5e4 46bc 1251 29bd
00000240: 92f6 86bd ab5b ecbd 81df f8b9 f2e7 8f3d
00000250: d8bd 6cbd cdac b8bd 3cd6 a0bd 4e2e 71bc
00000260: bfdd 733d 1554 27bd f6ce 9dbd cc1a 95bd
00000270: 33b5 d53d f599 e7bc 6794 b83d 54d0 443d
00000280: 2653 cb3c f092 95bd 45ee 78bd 800f 8bbd
00000290: 1ebe 353d 0ad7 d03c 4075 073d 685f 64bc
000002a0: 81ca 353d 61b9 a5bd 2857 13bd 2c70 513a
000002b0: b94f 633c ca6e cd3d 756e 723d 2c1d 02be
000002c0: 07db 4bbd 85ee 2fbd 8a93 a9b9 513e d1bd
000002d0: c066 73bd 87b9 ae39 f03e 9c3d 373b 913d
000002e0: 34c1 293d e2e6 15bd 0f23 2ebd 0b7a 843c
000002f0: 3a61 6b3d a94a d9bc 1e0f febd 899e 36bd
00000300: b9b8 6bbd 0f1f 8abd 9389 683d 4a8a 223d
00000310: 042b 04bc a173 f1bc fc74 eabc 56bf 03be
00000320: a173 8fbd b825 b9bc c3c5 243c 96c8 f13b
00000330: a841 833d 9c6c 873d 560d a2bc 38d5 743a
00000340: a8cb f73c c0fd e1bc 569b 41bd a73b ef3d
00000350: d1ae 9a3c 4c18 8c3d 15a2 793c c0fa ab3d
00000360: 0fc5 36bd db62 573d ea6c 5f3d 2a70 b3bc
00000370: a4d5 2dbd 0b61 093d 74bd 8e3d c7a0 04bb
00000380: ddf5 2abb ce14 c93c cc16 f13c d8ee 76bd
00000390: 528a d23d 082c 803c e690 d2ba 9e72 333d
000003a0: 601d 663d a93c b4bb 38cc a33a 5178 e4bd
000003b0: 7960 693d c894 90bd 24c5 163d 7a73 6ebd
000003c0: cbb4 3ebd 4593 c43a b1ec 933c c351 aa3d
000003d0: d877 b23d 9c19 91bc 168a 113d 5cfb c73d
000003e0: 7b92 b1bc 3b89 72bd 2f97 d1bd 2652 213d
000003f0: d3a9 533d 4da3 753c 12c7 833d c95e e53b

actor.4.bias f4 [128]
-0.05189527 0.056863505 -0.03401258 0.11315848 0.16379113 -0.009688399 -0.030425828 -0.04317369
-0.074467674 0.008740023 -0.022865813 -0.058507092 -0.021871861 -0.11464728 -0.03534987 -0.13431425
0.12058975 -0.047370214 -0.1775507 -0.05425624 0.0535857 -0.097377986 -0.15168616 -0.036589663
-0.028226808 -0.1680356 0.009485916 -0.03254329 0.010883589 -0.023368783 -0.10177662 -0.105478585
-0.1344213 -0.049354576 0.15114199 0.03190765 -0.0066089756 -0.10500065 -0.008380138 -0.053544883
-0.093102895 -0.1083496 -0.048863787 -0.10929598 -0.0049292725 -0.037198376 0.07180745 0.041533623
0.04603482 -0.13773535 -0.0427777 -0.09213012 -0.040812828 -0.05212051 -0.07041203 -0.021425523
-0.009846718 -0.06544045 -0.041478384 -0.12324848 -0.040404573 -0.14262724 -0.02587767 -0.07303142
0.016611552 0.020270208 -0.06427848 -0.002837816 0.020560492 -0.10799425 0.003458056 -0.001122044
-0.0050280727 0.06655164 -0.042248234 -0.044750996 0.0072489395 -0.037686203 0.03908025 -0.07913332
-0.14681986 0.023964653 -0.15489627 -0.15278083 -0.1282618 -0.10515408 0.018096441 0.06792038
-0.06706291 0.0040873345 -0.010350214 -0.09211534 0.071954 -0.033182733 -0.118555345 -0.30282772
-0.0014648918 -0.062283456 -0.083779074 -0.04560508 -0.21389888 -0.2134198 -0.20822437 -0.11136812
-0.036030773 0.095576935 -0.08005426 -0.13096853 0.05625839 -0.25494063 -0.018748702 -0.03241509
-0.10135373 -0.023193525 -0.036213774 -0.028930018 0.033981267 -0.073874936 -0.020900639 0.016714651
-0.021479206 -0.019101864 -0.03753819 0.036783922 -0.078556806 -0.011690685 -0.01696118 -0.10917016
00000000: 2290 54bd b5e9 683d c650 0bbd a2bf e73d
00000010: ddb8 273e 17bc 1ebc 963f f9bc e5d6 30bd
00000020: 8282 98bd 5032 0f3c 1651 bbbc 22a5 6fbd
00000030: 9e2c b3bc 31cc eabd 06cb 10bd ad89 09be
00000040: c2f7 f63d 4507 42bd dacf 35be cb3b 5ebd
00000050: ae7c 5b3d 1c6e c7bd 9e53 1bbe 0bdf 15bd
00000060: e83b e7bc 8611 2cbe d16a 1b3c 1d4c 05bd
00000070: 1551 323c e46f bfbc 4370 d0bd 2805 d8bd
00000080: bda5 09be 0628 4abd f7c4 1a3e 99b1 023d
00000090: 1b90 d8bb 950a d7bd d94c 09bc e151 5bbd
000000a0: bbac bebd 65e6 ddbd 6525 48bd 92d6 dfbd
000000b0: bc85 a1bb 535d 18bd c90f 933d 291f 2a3d
000000c0: 028f 3c3d 7f0a 0dbe ab37 2fbd b7ae bcbd
000000d0: 5a2b 27bd 517c 55bd 2f34 90bd 9484 afbc
000000e0: 2154 21bc a505 86bd 3de5 29bd b369 fcbd
000000f0: 447f 25bd e00c 12be 68fd d3bc 7f91 95bd
00000100: f314 883c b50d a63c 70a4 83bd a7fa 39bb
00000110: 7a6e a83c 172c ddbd 8da0 623b 8d11 93ba
00000120: 88c2 a4bb 3a4c 883d 7c0c 2dbd d24c 37bd
00000130: 8388 ed3b d95c 1abd 9d12 203d a610 a2bd
00000140: f257 16be 8551 c43c 219d 1ebe 9472 1cbe
00000150: 1057 03be 065b d7bd fd3e 943c d719 8b3d
00000160: 4758 89bd 0cef 853b f293 29bc f8a6 bcbd
00000170: 9e5c 933d 9eea 07bd 25cd f2bd 3c0c 9bbe
00000180: 9d01 c0ba f01c 7fbd 5d94 abbd 64cc 3abd
00000190: 4f08 5bbe b88a 5abe c538 55be f814 e4bd
000001a0: 0195 13bd d7bd c33d 7df3 a3bd 9d1c 06be
000001b0: 336f 663d 9487 82be e196 99bc afc5 04bd
000001c0: 8b92 cfbd 5900 bebc e554 14bd a5fe ecbc
000001d0: f12f 0b3d be4b 97bd d137 abbc 2aed 883c
000001e0: 29f5 afbc 837b 9cbc a5c1 19bd bdaa 163d
000001f0: 64e2 a0bd 498a 3fbc 2cf2 8abc 9b94 dfbd

actor.6.weight f4 [12, 128]
0.011332471 0.03108183 -0.010744288 0.03793715 -0.017527007 -0.03455466 0.010850751 0.02613197
0.009638602 0.00060157874 0.041149046 0.0016232191 -0.022432946 0.021201571 0.019614313 -0.022684446
-0.073541 0.06293469 0.05588306 0.032374296 0.035098508 -0.012307919 0.055227272 -0.05322949
0.010553414 0.030017585 0.08178211 -0.04955993 0.018587083 0.04392231 -0.0052161035 -0.0059929104
0.05630679 -0.06413985 0.01175927 0.015683996 -0.035515264 -0.026432328 7.551104e-05 0.002151061
-0.014877592 -0.021003958 0.016979264 0.062435072 0.004424085 -0.00958804 -0.017171225 -0.08718692
-0.0070448737 0.03509397 -0.017237337 0.00028313615 0.036797702 -0.020262437 -0.046210784 0.04466571
-0.034159653 0.016424343 0.013675189 0.045309685 0.044905405 0.0373471 -0.014055901 0.018077502
-0.01225328 0.024398178 0.021362633 0.027765227 0.050361644 0.057341527 -0.030520434 0.063844115
-0.06949975 -0.057858117 0.017279977 0.028842673 0.07019136 -0.01521469 -0.10756746 0.047902513
-0.0064611984 0.007957379 -0.0067909593 0.06449916 -0.042115666 0.01581167 0.030099249 -0.009668074
-0.0140986815 -0.008592961 0.022988567 0.016003776 -0.06167145 0.0010346688 -0.016226191 0.08082666
-0.022929225 -0.0062384414 0.03510971 -0.003775662 0.051399656 0.0385346 0.01883064 -0.0025321809
-0.001252117 0.025154663 -0.036556624 -0.0034909807 0.02307869 0.045532387 0.00552592 0.0065230355
-0.10887908 -0.080830835 0.019599516 0.068992965 -0.007089976 0.08369076 -0.06727226 -0.0013831762
0.019223426 -0.0010014396 -0.021344535 -0.07053002 0.029908018 -0.017216375 0.021274602 -0.0069644623
0.05366705 -0.009302459 0.05676017 -0.05243197 -0.03140876 -0.08713155 0.027628196 -0.09433731
-0.009498499 -0.0003631314 6.940366e-05 -0.0025319709 0.0010640022 -0.0052175666 -0.012747888 -0.13198647
0.025049679 0.056624837 -0.018003399 -0.035478096 0.023007086 -0.029922614 -0.026482224 0.015235361
-0.018918576 0.077227786 0.012689304 0.02006994 0.03235297 -0.020473119 -0.015602187 0.026571654
0.040408246 -0.094230846 0.12058995 0.02715658 -0.038378764 0.0110936025 0.03809922 0.039352965
0.05000563 -0.0017790245 -0.015651999 -0.06652205 -0.039760374 -0.018199515 0.008344741 0.03158843
0.024444334 0.0007563671 0.005812597 -0.060494024 -0.022845332 -0.06573105 0.0051655723 0.032890607
-0.019902375 -0.030766526 0.0025841072 -0.052582346 -0.0050017633 -0.15476444 0.013738092 0.0008887808
0.030588057 0.012714722 -0.012319484 0.04808848 0.03507147 0.051389948 -0.01267472 -0.003323896
0.053351533 -0.024258386 -0.050297223 0.0061505926 0.016289018 0.058828432 0.026591087 0.05288076
0.019306779 0.033696577 -0.037695818 0.019062074 -0.020277072 0.0041347872 0.048006844 -0.00044596885
-0.06340805 0.0874299 -0.08701908 -0.022581773 -0.029026957 -0.01722555 0.005644811 -0.087842986
0.009008025 -0.0040333094 -0.06439413 -0.023267938 0.008114319 0.08202525 -0.014962414 -0.0428229
0.048764117 0.057131056 0.011786053 -0.011582386 0.0060157524 -0.07489025 -0.024804996 0.0018693393
0.094252676 0.01675225 0.08408329 0.009578452 0.030857138 -0.020671126 0.01438362 -0.0023370916
0.013538698 0.005087537 0.07492813 0.010206463 -0.010745994 -0.082333416 -0.0088727595 0.036962625
00000000: d4ab 393c 529f fe3c cf08 30bc fc63 1b3d
00000010: cc94 8fbc 3089 0dbd 59c7 313c b712 d63c
00000020: 3aeb 1d3c 44b3 1d3a e78b 283d 32c2 d43a
00000030: 4cc5 b7bc ebae ad3c 32ae a03c bbd4 b9bc
00000040: aa9c 96bd e7e3 803d a3e5 643d e99a 043d
00000050: 74c3 0f3d 27a7 49bc fe35 623d 2a07 5abd
00000060: 3ae8 2c3c 70e7 f53c 617d a73d 5aff 4abd
00000070: f043 983c e1e7 333d d9eb aabb 2d60 c4bb
00000080: f3a1 663d c15b 83bd f4a9 403c b97b 803c
00000090: 7478 11bd 9c88 d8bc ae5b 9e38 d1f8 0c3b
000000a0: 25c1 73bc 7e10 acbc 1918 8b3c ebbb 7f3d
000000b0: eaf7 903b 2817 1dbc abaa 8cbc 0e8f b2bd
000000c0: afd8 e6bb b2be 0f3d 5135 8dbc e471 9439
000000d0: 30b9 163d 69fd a5bc 8547 3dbd 64f3 363d
000000e0: feea 0bbd 588c 863c e60d 603c a696 393d
000000f0: bbee 373d 46f9 183d b94a 66bc 4517 943c
00000100: fbc1 48bc b0de c73c b000 af3c e773 e33c
00000110: 0348 4e3d f3de 6a3d fd05 fabc b4c0 823d
00000120: e355 8ebd a2fc 6cbd bd8e 8d3c 7847 ec3c
00000130: 7dc0 8f3d 0947 79bc 544c dcbd 6d35 443d
00000140: 76b8 d3bb ab5f 023c b286 debb 2318 843d
00000150: 7a81 2cbd 7a87 813c b392 f63c d766 1ebc
00000160: 28fe 66bc 7ec9 0cbc 8552 bc3c 5a1a 833c
00000170: 349b 7cbd b99d 873a caec 84bc 7388 a53d
00000180: 12d6 bbbc d76b ccbb 33cf 0f3d 1971 77bb
00000190: 7288 523d 75d6 1d3d b742 9a3c f2f2 25bb
000001a0: 131e a4ba 2711 ce3c 66bc 15bd f0c8 64bb
000001b0: 850f bd3c 2b80 3a3d c712 b53b 30bf d53b
000001c0: fffb debd a38a a5bd 2a8f a03c 2f4c 8d3d
000001d0: 0853 e8bb 1066 ab3d 0ac6 89bd b14b b5ba
000001e0: 727a 9d3c bd42 83ba bcda aebc 0b72 90bd
000001f0: a901 f53c 5b09 8dbc 1348 ae3c 2536 e4bb
00000200: fbd1 5b3d 5769 18bc 5a7d 683d e8c2 56bd
00000210: 79a6 00bd 0772 b2bd 8754 e23c eb33 c1bd
00000220: 989f 1bbc ac62 beb9 ce8c 9138 6cef 25bb
00000230: fd75 8b3a 1ff8 aabb 85dc 50bc 7627 07be
00000240: fc34 cd3c 72ef 673d dd7b 93bc 7b51 11bd
00000250: 5b79 bc3c 4520 f5bc 40f1 d8bc bc9d 793c
00000260: 21fb 9abc 9a29 9e3d cce6 4f3c b769 a43c
00000270: 8c84 043d 3eb7 a7bc 51a0 7fbc ccac d93c
00000280: 1e83 253d 1afc c0bd ddf7 f63d 7a77 de3c
00000290: 0d33 1dbd f1c1 353c ed0d 1c3d 9330 213d
000002a0: b4d2 4c3d 282e e9ba 9f38 80bc b63c 88bd
000002b0: c6db 22bd 2617 95bc 61b8 083c df62 013d
000002c0: 7c3f c83c f046 463a 9977 be3b 95c8 77bd
000002d0: 2226 bbbc 009e 86bd f643 a93b 4db8 063d
000002e0: 4e0a a3bc 150a fcbc 205a 293b 9660 57bd
000002f0: d5e5 a3bb 927a 1ebe bc15 613c 12fd 683a
00000300: ce93 fa3c 6951 503c a9d7 49bc 6df8 443d
00000310: 1aa7 0f3d 447e 523d a1a9 4fbc b9d5 59bb
00000320: 2387 5a3d 86b9 c6bc 7604 4ebd e98a c93b
00000330: 8c70 853c 15f6 703d 8dd5 d93c 7f99 583d
00000340: 4029 9e3c 6c05 0a3d ee66 1abd 1128 9c3c
00000350: 1a1c a6bc 1c7d 873b d3a2 443d edd0 e9b9
00000360: 14dc 81bd 730e b33d 0f37 b2bd 69fd b8bc
00000370: f1c9 edbc 991c 8dbc 1bf8 b83b 06e7 b3bd
00000380: 6596 133c da29 84bb 12e1 83bd 679c bebc
00000390: ecf1 043c dbfc a73d ea24 75bc 1167 2fbd
000003a0: e2bc 473d 4102 6a3d 4a1a 413c 0cc4 3dbc
000003b0: ca1f c53b 0f60 99bd d933 cbbc 9e04 f53a
000003c0: 8c07 c13d 043c 893c dc33 ac3d f1ee 1c3c
000003d0: 1cc8 fc3c 7e56 a9bc 46a9 6b3c e429 19bb
000003e0: 6ad1 5d3c 5bb5 a63b eb73 993d 0239 273c
000003f0: f70f 30bc 6c9e a8bd 0d5f 11bc 1f66 173d

actor.6.bias f4 [12]
-0.07879513 0.07654893 -0.10279061 0.122553386 -0.12605157 -0.04569726 -0.00014432485 0.025608486
0.21067505 0.06798966 0.123118475 0.12803075
00000000: 575f a1bd afc5 9c3d e283 d2bd 45fd fa3d
00000010: aa13 01be 0d2d 3bbd e855 17b9 e3c8 d13c
00000020: 33bb 573e 2a3e 8b3d 8a25 fc3d 7e1a 033e
