logs/rsl_rl/unitree_go2_flat/2024-07-09_15-44-22/exported/policy.onnx (onnx, 165141 bytes, 8 tensors)

actor.0.weight f4 [128, 49]
000000 af 52 3b 3b ea 8a 47 bd 48 97 f2 3c 51 49 03 bf
       0.0028583219 -0.048716463 0.029613152 -0.51283747
000010 74 f1 84 3d 03 dd 9e 3e be a9 9f 3d f3 58 41 bd
       0.06491366 0.31027994 0.07796048 -0.04720397
000020 a4 5a 29 bd 7d d5 28 bc 63 a7 0c 3e ad 77 01 be
       -0.041346207 -0.010304806 0.13735728 -0.12643309
000030 4c 67 aa 3d 0a ea 53 be f2 75 88 bc 90 41 40 be
       0.083204836 -0.20694748 -0.016657803 -0.1877501
000040 fa fc e3 3e 8c e7 9c be f6 6f 67 be 53 57 b4 bd
       0.44528943 -0.30645406 -0.22601303 -0.08805718
000050 74 ae 2a 3f c1 ed 3c 3f 07 da a2 3e 56 6b 01 bf
       0.66672444 0.73800284 0.31806967 -0.50554407
000060 6a f9 3b 3d d6 20 34 bd b7 cf 5a bd fd 04 14 3d
       0.045892157 -0.043976627 -0.05342075 0.03613757
000070 82 b2 86 3d ed a3 cb bc 03 37 6e 3d 8f 6a 94 bd
       0.065770164 -0.02485844 0.058157932 -0.07246887
000080 21 94 c3 bb b3 0e 95 bd dd 81 9f 3d 73 c4 a8 3d
       -0.005968586 -0.07278194 0.07788441 0.08240595
000090 a0 68 1b bd 7e 8e fc 3d ed fc 32 be 5e 3a 59 3c
       -0.037941575 0.12331866 -0.17479296 0.013258545
0000a0 02 1a 59 3e 6c 6d ae 3d 53 bc 6e be 8d b7 b6 3c
       0.21201327 0.08516964 -0.23314027 0.02230432
0000b0 a6 00 96 3e 7b e5 8f 3d 54 90 a4 be 33 dd a3 be
       0.2929737 0.07026192 -0.32141364 -0.320047
0000c0 95 50 b8 bd 18 8a 85 bd de 7d 50 bb 0b 17 27 3e
       -0.08999745 -0.0652048 -0.0031813304 0.16317384
0000d0 5c 6d 07 3f 72 c6 58 3f 15 e1 37 bd 28 6d 11 3e
       0.52901244 0.84677804 -0.04489239 0.14201796
0000e0 05 3c 1f bd e0 eb f9 bd 15 66 14 3e 65 d7 1f 3d
       -0.0388756 -0.12203193 0.14492066 0.039023776
0000f0 6e 6f a9 3d 65 a6 0e 3e aa 99 a5 3c 17 30 22 bf
       0.08273207 0.13930662 0.020214874 -0.6335463
000100 bb cf 8f 3e a0 14 67 3e e6 9d 8d be f5 c8 70 be
       0.28088173 0.22566462 -0.2765953 -0.23514159
000110 9d fb f7 bd 8b bd 7d 3e 94 f4 01 bf 32 59 09 3d
       -0.12108538 0.24779336 -0.5076382 0.03353233
000120 cb 2a d4 bd df 60 f6 3d 0f 01 51 3d 24 2e 9d 3d
       -0.103597246 0.120301954 0.0510264 0.07674816
000130 f3 75 a0 bd 27 48 b5 bd 98 22 09 3d 6d 5a 3c 3e
       -0.07834997 -0.088516526 0.033480257 0.1839387
000140 c6 c4 33 3b 5a a1 d4 3d b8 00 35 3e 6f 46 cc 3d
       0.0027430519 0.10382338 0.17676055 0.09974372
000150 79 2a 25 3e ab 06 39 3d 45 84 b2 bd 64 4d c5 bd
       0.16129483 0.045172375 -0.08716635 -0.09633902
000160 71 da 4c 3e b9 c0 91 3e 4b d5 c2 3d c0 96 51 be
       0.20005204 0.28467348 0.09513339 -0.20467663
000170 1a 1f 74 3d 2c 94 0c bd 84 83 88 be 4a 1d a6 3d
       0.059599973 -0.034320995 -0.26662838 0.08111055
000180 86 bb 4c bd f0 dc 3c 3e bc 1f 2f bd b4 ac b4 bb
       -0.049983524 0.18443656 -0.042754874 -0.005513752
000190 4b 5c 0e bd 96 fc 8f be 04 4a da bd a2 9d ce 3d
       -0.034755986 -0.28122395 -0.106586486 0.1008866
0001a0 5a 5c ab bd da b1 a8 3d 55 71 f0 bc 59 96 e9 bd
       -0.08367224 0.082370475 -0.029350916 -0.1140563
0001b0 4a 73 75 bc 4e 3e 3e 3d 2a b1 8c 3d 82 46 ae 3e
       -0.0149811 0.046446137 0.06869729 0.34038168
0001c0 c1 03 d8 bd 0f 30 de bd 80 db 27 3e 47 ff 12 3e
       -0.10547591 -0.1084901 0.16392326 0.14355193
0001d0 8c 6e 20 bf 00 de 2f be 23 60 fd bd 99 fc ef 3d
       -0.6266868 -0.1717453 -0.12371852 0.11718101
0001e0 4e e3 55 3d f6 20 e4 3d 46 d5 dd bc 3b a8 2f 3d
       0.052218728 0.11139099 -0.027079236 0.042885046
0001f0 99 2d c6 3c 07 ab 44 bd 49 af ee bb 26 56 98 bb
       0.024191665 -0.048014667 -0.007284079 -0.0046489416
000200 d6 c9 f2 bd 97 68 8b bc 3f 06 68 39 27 e0 a6 bd
       -0.118549034 -0.017017646 0.00022127571 -0.081482224
000210 e1 5b 84 3d 2c 27 0c 3d 34 ac 41 bd 51 fb a9 3e
       0.06462837 0.034217045 -0.047283366 0.33199552
000220 8e 6d e7 bc 64 6d 69 bb dd a7 b8 bc bb 48 e8 3c
       -0.028250482 -0.003561818 -0.022540981 0.028354993
000230 96 a9 9b be ef ea 83 bd d9 c0 46 3e 7d 8d 05 be
       -0.3040282 -0.064412944 0.19409503 -0.13042255
000240 b2 3a 94 bd d2 92 d9 bd 21 65 a6 be c0 da 15 3e
       -0.07237758 -0.10623707 -0.3249903 0.14634228
000250 e7 ee 2f 3d d4 73 01 3e 9b 14 90 3e 3e 46 2d 3e
       0.042952444 0.12641841 0.2814072 0.16921327
000260 b2 08 20 3d 73 c7 9e 3d 65 8c 88 3d 9d 8d b1 3d
       0.039070792 0.07752886 0.06667403 0.08669589
000270 c2 c5 31 3d 67 60 9f 3d 35 12 f7 bd b7 9e ac 3d
       0.043401487 0.07782059 -0.120640196 0.0842871
000280 93 0c e1 3e f9 0d 78 be be bf 3b 3c 75 b1 19 3e
       0.43954906 -0.2422408 0.011459289 0.150091
000290 6d c4 88 3c c1 66 0e bf 28 cf 54 be c9 d0 0b be
       0.016695226 -0.5562554 -0.20782149 -0.13653864
0002a0 1c 8a d3 3e f0 f9 94 be e8 8b 9b 3e a2 05 51 be
       0.41316307 -0.29096937 0.30380177 -0.20412305
0002b0 79 e2 fd 3c e8 5e 11 be c7 b9 59 3d c4 ce 1a 3e
       0.03099178 -0.1419636 0.053155687 0.15117937
0002c0 f7 43 62 3d 2a 86 41 3d db 3d bd 3d 93 ac d2 bc
       0.055240598 0.04724709 0.092403136 -0.025717055
0002d0 1d fe 6f bc 58 dc 6c 3c 2b c0 56 ba 94 20 8a 3d
       -0.014647988 0.014456831 -0.00081920874 0.06744495
0002e0 f0 c3 92 3d c6 5f 47 3e c0 cb d3 3d 18 f6 71 3d
       0.07166278 0.19470128 0.103415966 0.059072584
0002f0 95 ea 34 be 56 69 3b be d4 f6 4e bd 51 d6 9a 3c
       -0.17667611 -0.18301901 -0.050528362 0.018901022
000300 29 44 94 3d 76 9b 8a be f4 25 b0 3d 65 f8 c5 bd
       0.07239563 -0.27071732 0.08600989 -0.09666518
000310 bc 13 22 3d 97 a0 1d 3e d3 da 44 bd 29 b1 00 bf
       0.0395696 0.15393291 -0.04806025 -0.50270325
000320 b5 cb 2a 3e 41 9a 63 3e 3e eb f8 bd aa d5 12 bd
       0.1667927 0.22226812 -0.12154244 -0.035848297
000330 f9 e7 84 be bd c0 5c be 6c 8f a5 bd a2 3e 09 3e
       -0.2595823 -0.21557899 -0.08083996 0.13402799
000340 5a ed b1 bd 99 f0 22 bf 02 88 7f 3e 85 c3 d1 3d
       -0.08687849 -0.6364837 0.24954227 0.102423705
000350 8e fa 36 3e d9 8d d1 3c 9b 49 f1 be 76 c8 8a 3b
       0.17869017 0.025580334 -0.4712647 0.0042353226
000360 5d 6c fd 3d a1 46 dc 3e be 30 ff 3e 91 bc 6b be
       0.12374184 0.43022636 0.49841875 -0.23021151
000370 31 09 b7 bd 0b 9e db bc b2 39 e7 bd 53 63 e8 3d
       -0.089373 -0.02680876 -0.112903014 0.113470696
000380 ed a5 ab bd e4 81 d5 bd 22 4d 04 be 19 ae 2c 3c
       -0.08381257 -0.10425165 -0.12920049 0.010539555
000390 e3 28 6e 3c ae cf e7 3b 7b 04 41 bd 1a 31 e0 bd
       0.014536115 0.007074318 -0.047123414 -0.109468654
0003a0 0f bf ac 3c 37 08 22 bd 54 9b d9 ba 19 75 ce bd
       0.021087198 -0.039558616 -0.0016602078 -0.10080928
0003b0 08 4a 7a 3e 0e 09 0f 3c 27 b9 86 bd b0 2d d7 3d
       0.24442303 0.008730186 -0.06578284 0.10506761
0003c0 eb fc de bd 6c f4 3b bd 49 9a ee 3b ea 18 5c be
       -0.10888084 -0.045887396 0.007281576 -0.21493879
0003d0 16 fa 17 3b 1b eb 0b 3d 39 41 29 bd 4e a0 a9 bd
       0.0023189834 0.03415976 -0.041321967 -0.08282529
0003e0 df 2f 09 bf d1 d2 34 3e 39 40 69 3e 4a 1b f3 bb
       -0.5358867 0.17658545 0.22778405 -0.0074190246
0003f0 a8 7a 07 3e 2f 35 b1 3d 7a 46 97 bd 65 f9 ad bd
       0.13230383 0.08652722 -0.07386489 -0.08494834

actor.0.bias f4 [128]
000000 5b 6d e4 bd b1 dc 2c bd 5a c5 57 bd 3c b6 f0 3d
       -0.111536704 -0.042202655 -0.052678443 0.117535084
000010 8d d0 6c bd d8 2f e2 bd d6 ad 24 be 02 e6 04 be
       -0.057816077 -0.11044282 -0.16081938 -0.12978366
000020 88 49 38 be 73 35 e9 bd 44 97 1a be 95 20 26 3d
       -0.179968 -0.11387148 -0.15096766 0.040558416
000030 1d 65 f4 bd af 71 32 3e 29 58 5d 3d c9 a9 c2 3c
       -0.11933348 0.1742618 0.054039154 0.0237626
000040 f0 8b 47 bd 5c 93 e2 bc e9 9e 3d be 7f b9 11 be
       -0.04871744 -0.027658157 -0.1851765 -0.14230917
000050 c8 27 70 bc 30 1f b0 bd df 31 95 bd 3e c9 1f bd
       -0.014657922 -0.085996985 -0.07284903 -0.03901028
000060 c6 ea 62 be d7 f2 88 3d 0e a2 92 3d 66 88 1b be
       -0.22159871 0.06686943 0.07159816 -0.1518875
000070 f9 16 21 bd 24 2d a8 bd f2 f0 9a bd 28 7c 84 3d
       -0.03932855 -0.08211735 -0.07565488 0.064689934
000080 24 68 36 be 0e ac cc bd cb d1 a7 bd f3 c0 1d 3d
       -0.17813164 -0.09993754 -0.08194312 0.03851409
000090 e3 61 db 3d ad ed f0 bd 59 f8 84 bd 81 1d bb 3c
       0.1071203 -0.11764083 -0.06492681 0.022841217
0000a0 86 19 88 3d 39 95 e9 bd 97 7e 52 3d 7a 75 f3 3c
       0.06645493 -0.11405415 0.051390257 0.029719103
0000b0 c0 3a 40 3d a6 66 ab bd a0 9d 30 3d 42 5a 85 bd
       0.04693103 -0.08369188 0.043119073 -0.06511356
0000c0 14 e1 d3 bd cc 27 e7 3c 0a c4 ae 3c 21 7d 8c 3c
       -0.103456646 0.028217219 0.021333713 0.01714951
0000d0 46 d7 80 bd d2 56 39 3d 2d ae 37 be a7 b4 79 bc
       -0.0629106 0.045248814 -0.17937537 -0.015240825
0000e0 1b 29 fb 3d d9 c8 06 be 29 37 c1 bc 8f c3 2a be
       0.122636996 -0.13162555 -0.023585873 -0.16676162
0000f0 87 e2 52 3e 44 21 9a 3c 0a 2b b1 3d bb aa 06 be
       0.20594226 0.01881469 0.08650787 -0.13151066
000100 5c 6b f1 bd 75 fe f5 3b c6 b8 25 bd 62 ed 02 be
       -0.11788055 0.0075071403 -0.040459417 -0.12785867
000110 e2 0a 49 bd 67 41 19 be 79 f5 df bd f6 ff 5b 3d
       -0.049082644 -0.14966355 -0.10935492 0.0537109
000120 bb 02 61 bc 18 a9 91 bb 40 ca 18 be 31 52 c2 bd
       -0.013733561 -0.0044452064 -0.14920902 -0.09488333
000130 42 44 de bd 2a f7 17 be c4 71 05 bb 3e ee 2f be
       -0.10852863 -0.1484038 -0.0020362 -0.17180726
000140 37 42 9c 3c 14 63 a2 bd 87 c9 f1 bc 73 a7 04 be
       0.019074542 -0.07929054 -0.029515041 -0.12954502
000150 df 6b 34 be 8b 30 9c bd 22 af bd bc e6 88 28 be
       -0.17619275 -0.07626446 -0.023154799 -0.16458473
000160 15 a4 78 be 06 d4 6c bd c5 9c a8 bd 6c e0 45 bd
       -0.24281342 -0.05781939 -0.082330264 -0.04830973
000170 18 e4 3e 3d 9b f4 97 bd ec 92 9c bc da 53 d2 bd
       0.046604246 -0.07419702 -0.019113027 -0.102699
000180 25 a0 b6 bd 5e eb 44 be 59 14 45 be 07 6c 5b bd
       -0.08917264 -0.1923041 -0.19246043 -0.05356982
000190 68 b5 dc 3d 5a 61 18 bd 2a 97 9b 3c 9d b4 39 3d
       0.10776788 -0.037202217 0.01899298 0.045338262
0001a0 a5 51 83 bc b9 95 cc 3d 52 f8 33 3d 4d e6 b4 bd
       -0.016030142 0.09989495 0.04393799 -0.08832989
0001b0 37 f2 99 3c 6c 93 9d bd a1 c2 2c 3d 6d 40 e4 bd
       0.018792255 -0.07694134 0.0421778 -0.11145101
0001c0 47 91 cf 3d b2 c4 ec 39 59 12 38 be e4 4b 11 3b
       0.10135131 0.00045159977 -0.17975749 0.0022170478
0001d0 3f a3 16 3a 83 3e 35 be 84 99 bf bd 4e 7c 82 bc
       0.00057463715 -0.17699628 -0.09355453 -0.015928414
0001e0 a4 a0 11 bd 07 5f fb 3d 12 5a dd 3d 28 f5 94 be
       -0.03555359 0.122739844 0.10808195 -0.2909329
0001f0 cb 31 1f be 20 d6 7e bd 46 10 ee bd 1d 56 ce bd
       -0.15546338 -0.062215924 -0.11624198 -0.100750186

actor.2.weight f4 [128, 128]
000000 0f 34 11 be 89 a7 8a 3d ba dd 2f be e0 d1 da bd
       -0.14180015 0.06770236 -0.17174426 -0.10684562
000010 a3 bd 3b bd d1 0f a9 bd e1 ba 45 bc 54 cb 27 be
       -0.04583515 -0.0825497 -0.012068481 -0.16386157
000020 a1 37 e3 3d 02 1b 84 3d f1 d5 8f bd bd b4 6c bd
       0.11094595 0.06450464 -0.07023228 -0.057789553
000030 45 81 9f 3d 9f 80 1b be 06 06 bf bd 0c c8 d7 bd
       0.07788328 -0.15185784 -0.09327321 -0.10536203
000040 38 a0 c5 bc 60 69 c6 bd cd c2 18 bd 87 c6 27 3c
       -0.02412425 -0.096880674 -0.03729515 0.010240204
000050 b5 e9 33 bd 5c e1 59 3d 32 db 67 3d 09 c5 15 be
       -0.043924052 0.053193435 0.056605525 -0.14625944
000060 69 10 95 bd b3 82 66 bd 08 e6 05 be cb 16 7b bc
       -0.072785206 -0.05627699 -0.13076031 -0.0153252585
000070 d4 1e 19 bd 01 82 cc bd 8c d3 b6 3d dc 54 b7 bd
       -0.037382916 -0.09985734 0.08927068 -0.089517325
000080 89 03 08 3c 27 86 4f 3c 17 87 06 3d ee da e7 3b
       0.008301624 0.012666262 0.032843675 0.007075659
000090 20 f4 c7 bd 13 14 8c bc 2c f5 92 bd 55 61 f0 3d
       -0.0976336 -0.017099416 -0.07175669 0.117373146
0000a0 85 59 4e bd 52 67 e7 bd aa 5c 51 3d 68 67 b6 bd
       -0.05037834 -0.11299004 0.051113762 -0.08906442
0000b0 e9 aa 09 be eb b6 3d bd 8f 6a 34 3d 15 fe 5b bd
       -0.13444103 -0.046317022 0.044046935 -0.05370911
0000c0 3b 7b bb 3d d4 86 4f 3c 53 7d 8c bc 3e 6b 98 bd
       0.09154364 0.012666423 -0.017149603 -0.0744233
0000d0 e7 8b a4 bc 8e 4c 68 3c e4 42 13 3e b2 3f d7 3d
       -0.020086242 0.014178408 0.14380985 0.10510196
0000e0 60 29 d6 bd b6 75 4b 3e 92 53 8f bd ed 9f af bc
       -0.104571104 0.19869122 -0.06998362 -0.021438563
0000f0 c0 c0 85 3d 9d 2a 08 3b e5 ba 2c be 54 00 38 be
       0.06530905 0.0020777353 -0.1686817 -0.17968875
000100 f0 0d c4 bd 1c 5d 12 bd 7a 43 19 3e 72 35 f4 3c
       -0.09572971 -0.035733327 0.14967147 0.029810641
000110 3e 0a de bd 4d 7b 93 bc 84 68 83 bd f4 09 38 bd
       -0.10841797 -0.01800313 -0.06416419 -0.044931367
000120 a2 4c b3 bd 0e f9 9c 3d 0d 70 7f 3d 5e af 14 be
       -0.08754851 0.07664691 0.06236272 -0.14520022
000130 84 da c8 bd ce 56 06 bd b5 43 6e 3c d2 74 7a bd
       -0.098073035 -0.032797627 0.01454251 -0.061146565
000140 67 1d 9b bd 0c 39 77 3c 19 d7 ff bc 77 32 02 3e
       -0.075739674 0.015089285 -0.031230496 0.12714563
000150 39 27 b0 3c 49 eb 1b 3d 98 b7 0f 3e 8c 64 f7 bc
       0.021503078 0.038066182 0.14034879 -0.030199312
000160 73 19 f8 3c 7c 3d ad 3d 19 46 84 bd 21 52 98 bd
       0.030285573 0.08458993 -0.064586826 -0.0743754
000170 55 21 0c 3d 0f 6a b9 bd f0 36 cb bc 0e b7 9f 3d
       0.034211475 -0.09053432 -0.02480647 0.07798587
000180 6b 5e f0 3d a6 de 82 bd 45 0b 3a 3c 8c 13 00 bd
       0.11736759 -0.06390123 0.011355226 -0.03126864
000190 29 6e 91 bc 47 06 3d bd aa cf 1f bd 24 88 f5 bc
       -0.017752724 -0.046148565 -0.039016403 -0.029972143
0001a0 34 d1 84 3c 17 8c 80 bd 4b c1 3e be 29 d8 3c 3d
       0.016213037 -0.0627672 -0.18628423 0.046104584
0001b0 df 76 b3 bd 9f 60 0e 3e df a2 70 bd 71 95 9a bd
       -0.08762907 0.13904046 -0.058749076 -0.07548035
0001c0 a3 41 3a bd 12 7c b7 3c 04 80 1d 3e 5e 90 69 3d
       -0.045472752 0.022398029 0.15380865 0.057022445
0001d0 46 92 48 3d 3b 88 d6 3c 15 03 48 3b f5 d9 95 3c
       0.048967622 0.026188007 0.0030519415 0.018292407
0001e0 db 43 a5 bc a1 4c 2d 3d 79 ae af 3d bd 31 0d 3c
       -0.020173958 0.042309407 0.085782 0.008617816
0001f0 aa 01 3b 3d fe 50 1c 3d 4a ad 4b bd 83 35 80 bd
       0.045655884 0.038163178 -0.04972581 -0.062602066
000200 a2 90 18 bc c2 d9 5c bd 5a 7b bd 3c d5 bb 6e 3d
       -0.009311827 -0.053918608 0.023130108 0.0582846
000210 92 c2 9c 3d 9a c2 9f 3d 43 0d 6d 3d 68 17 c2 bc
       0.07654299 0.07800789 0.057873975 -0.023692802
000220 52 39 2f bd 80 99 0b 3c be 95 b2 bd 69 62 23 bc
       -0.042779274 0.008520484 -0.08719967 -0.009972193
000230 48 14 dd 3c 22 0f 88 bd e4 8d b2 bd 53 ea 33 be
       0.02698721 -0.06643511 -0.0871847 -0.17569856
000240 83 c6 d9 3d e4 8c e8 3d 20 3d 85 bc a2 07 fa bc
       0.10633566 0.11354998 -0.016264498 -0.030521218
000250 87 de cb bb e2 44 43 3d 6e 64 4c bc fb 8a 66 bd
       -0.0062215957 0.047673114 -0.012475116 -0.056284886
000260 56 79 79 bd 5d d3 65 3d c0 82 1e bd 1f 04 a6 3d
       -0.06090673 0.056109775 -0.03869891 0.08106255
000270 4e 0b 65 bc 94 d6 cd 3d ef 80 38 be f9 da c6 3c
       -0.013979746 0.10050693 -0.18017934 0.024274336
000280 f7 e3 9e bd 90 f8 ac bd 05 05 e5 3c 06 25 85 bd
       -0.077583246 -0.08445847 0.027956495 -0.06501202
000290 cd 99 b8 3d 4d c7 75 3d ac 4d 3d 3d fe b8 9e 3c
       0.0901371 0.06000452 0.04621665 0.01937532
0002a0 c9 76 36 3d 19 58 b4 bd 39 e3 80 3d 28 31 77 3c
       0.044546876 -0.08805866 0.06293339 0.015087403
0002b0 d7 7f 30 3d ee ab dd bd 80 fb 5e bd 69 75 d6 3d
       0.043090668 -0.108238086 -0.054439068 0.10471613
0002c0 7c bf 1a bc 4a be a1 3d 6c 5d b0 3d 1b ed ac 3c
       -0.0094450675 0.07897623 0.08611569 0.021109154
0002d0 04 12 85 bd f1 2b 3d 3d 61 7a de 3b 31 f1 1c bd
       -0.06497577 0.046184484 0.006789491 -0.038315956
0002e0 26 f9 eb bd 51 34 04 3d 7b 7b 7b 3d 21 84 87 3c
       -0.11522131 0.032276455 0.061397057 0.016542496
0002f0 39 35 0e be 06 af 8e 3c e8 09 a7 bd f3 61 7a bc
       -0.1388749 0.017417442 -0.08156186 -0.015282142
000300 27 b4 8f bd d5 6f 80 3d d7 bb d8 bd ec e3 c0 3c
       -0.07016783 0.0627133 -0.105827026 0.023546182
000310 5c 5a d5 bc 83 bf 8c bd 23 3f b3 3d c9 ae e8 3d
       -0.026044063 -0.068724655 0.08752277 0.113614626
000320 11 68 1d be d6 b5 4f bd a7 63 1c bd ad e4 82 bd
       -0.1537173 -0.05071052 -0.038180973 -0.06391273
000330 f0 f2 5c be cc 2c 6b 3c ce a8 2f bd 35 23 0a be
       -0.21577048 0.014353942 -0.042885594 -0.13489993
000340 fe 5e 13 be 0f 3e 02 bd 5e 95 1a bd 8f eb a2 bc
       -0.14391705 -0.031797465 -0.037740104 -0.019887714
000350 82 98 3c bd 2d 78 0d be 28 d7 e8 3d 85 be 5e bc
       -0.04604388 -0.13815375 0.11369163 -0.013595228
000360 b9 18 a8 3d 1f c2 fc 3d f2 f1 e6 bd 79 e4 ed 3d
       0.082078405 0.12341713 -0.11276616 0.11615843
000370 51 f3 16 be 82 0b 20 bc 4b 1e dc bc e2 f2 5e 3d
       -0.14741255 -0.009768369 -0.026869914 0.05443085
000380 ef a0 9b 3d b1 90 3e bd 1a e0 2c bd fb 4b 66 bd
       0.07599055 -0.046524707 -0.042205907 -0.056224804
000390 b8 1b 20 3d 5e 77 fc bd 9a 53 81 bd 49 93 dd 3a
       0.039088935 -0.12327455 -0.06314774 0.0016904856
0003a0 01 7c aa bc f4 1a db bb 1a 0a 1a be ad 89 14 bc
       -0.020811083 -0.0066865627 -0.15042916 -0.009066028
0003b0 fa 32 02 bd 18 19 5a 3d 9c dd f7 bc d3 e6 2b 3e
       -0.031786896 0.053246588 -0.030257039 0.16787271
0003c0 c3 fc 5d 3d d0 45 97 3c ba 28 03 3d 19 bd a3 3d
       0.05419613 0.018465906 0.03202126 0.07995052
0003d0 df e1 60 bd 0b 82 e5 3d 4f a4 1e bd ef 14 25 3d
       -0.054902907 0.11206444 -0.038730916 0.040303167
0003e0 09 bc 97 bc ad db d0 bb 2b 71 0b 3d 6c ef ea 3c
       -0.01852228 -0.0063738436 0.034043472 0.028678618
0003f0 ba 1c c2 ba 66 fc ea 3c a4 ba 35 bd 0c 25 b9 3c
       -0.0014809587 0.028684806 -0.044367447 0.022600673

actor.2.bias f4 [128]
000000 26 84 30 bd 11 5b e7 bd 9e 6a d8 bc 73 47 11 be
       -0.043094777 -0.112966664 -0.026418027 -0.14187412
000010 d6 f0 fe 3c 8b da 22 bd 0b 6b 1d 3c 01 5d 94 3d
       0.031120699 -0.0397592 0.009608041 0.072443016
000020 d1 a2 bf bd 5e c1 a8 bd 4a 54 8b bc ec 32 76 bd
       -0.09357227 -0.08240007 -0.017007966 -0.060107157
000030 ae 9b b6 bc 36 91 43 bd 4c 6e 80 bc cd a4 cc bc
       -0.02229103 -0.047745906 -0.015677594 -0.024980927
000040 63 87 1f 3c 2d 0e 89 3d e8 03 d1 bd c9 ee 0e 3c
       0.009736869 0.06692157 -0.10205823 0.008723923
000050 0e 50 03 bd b0 49 4e bd 9d c4 67 bc 11 c0 a0 3b
       -0.032058768 -0.050363243 -0.014145997 0.0049057086
000060 52 9a d7 bd 35 cb 26 bb 3d 4f 7b bd 7a 6c a4 bd
       -0.10527481 -0.002545071 -0.061354864 -0.08028503
000070 d7 03 15 3d 07 6b 27 3d 80 23 81 bd 4e d3 0f be
       0.036380615 0.040873554 -0.06305599 -0.1404545
000080 ec d3 a4 bd ac ea 89 bd ee c1 1b 3d 60 3e 10 be
       -0.080482334 -0.06734213 0.038026743 -0.14086294
000090 bc 36 cb 3c f8 8b 05 be d5 13 34 be 40 1f bf 3a
       0.024806373 -0.13041675 -0.1758569 0.0014581457
0000a0 c3 4b aa bd e6 d6 b6 bc ab df 4a 3d f8 55 a9 bc
       -0.08315232 -0.022319268 0.049529713 -0.020670876
0000b0 21 b1 40 bd 63 41 c4 bd d0 12 cf bd 16 23 a8 bd
       -0.047043923 -0.09582784 -0.1011101 -0.08209817
0000c0 a5 40 bf bb 86 92 07 bd c7 e7 fe bd 99 19 9f bd
       -0.0058365637 -0.03309872 -0.12446552 -0.07768554
0000d0 15 59 b2 bd 1e ce d9 bc 4b d2 ba bd 2d 99 fa bd
       -0.08708397 -0.026587542 -0.091221415 -0.12236247
0000e0 c5 e3 73 3c a7 93 fd bb 90 02 bd bd d3 a4 62 bd
       0.014885847 -0.007738549 -0.092290044 -0.05533297
0000f0 10 5c e5 bd 27 4e 35 3d c4 50 44 3d 76 8e ba b9
       -0.111992 0.044263985 0.047928587 -0.00035582826
000100 16 10 3d 3c 00 ab f1 bc b9 aa dd bd 4f f4 c8 3b
       0.01153948 -0.029500484 -0.108235784 0.0061326395
000110 9c 30 ed bc 03 5f 96 bd c6 c0 01 be b3 d9 9b bd
       -0.028953843 -0.07342341 -0.12671193 -0.07609882
000120 b2 5c ca bd 5f 9a 72 bd e7 8c a1 bd 6e fb c6 bb
       -0.098809615 -0.05922925 -0.07888203 -0.006072453
000130 39 42 e3 bd f2 45 d2 bc fa 17 9c bd d7 40 df bd
       -0.11096615 -0.025668118 -0.07621761 -0.10901039
000140 b1 ac 7c 3c b2 c3 60 bd 91 c6 fa 3c 4b 4a 99 bd
       0.015422032 -0.05487413 0.030612262 -0.074848734
000150 0f 16 e3 3c 7d a5 dd bd 27 fd c4 bd 9c dc 3e 3c
       0.02772048 -0.1082258 -0.096185975 0.011649277
000160 ff b4 e1 bc 38 a9 c6 bd d4 60 dc bd b7 bd d1 bc
       -0.027552126 -0.09700245 -0.10760656 -0.025603158
000170 0b 26 ca ba 34 e3 35 be 0b 3f 1f be b0 42 89 bd
       -0.0015422715 -0.17762452 -0.15551393 -0.06702173
000180 7b ff 8f bd 5c 2a bd bd cd f1 1f be 97 7b 59 bd
       -0.07031151 -0.09236595 -0.15619583 -0.05309638
000190 55 33 3d bd 7d 5d 26 3d 4b d6 ba bd 85 54 f1 bc
       -0.046191532 0.0406165 -0.091229044 -0.029459247
0001a0 a0 13 f2 3b 1c 68 92 bc 09 7a a4 bc e3 a7 32 be
       0.0073875934 -0.017871909 -0.020077722 -0.17446856
0001b0 fe 0b 0e bd 28 9f 8c bd ae e8 89 bd 5b 2d 3f be
       -0.034679405 -0.06866294 -0.06733833 -0.18669645
0001c0 7c 54 cd bc 7b d8 77 bd 58 c0 32 bc 7a 1c 7b bd
       -0.0250647 -0.060509186 -0.010910116 -0.061306454
0001d0 1c b2 b4 bd 1a 88 82 3d f1 4d d0 3c ab 9b dc bd
       -0.08823034 0.063736156 0.02542779 -0.10771879
0001e0 ca 15 89 bd 63 93 15 bd 25 47 c6 bd 4a fe 03 bd
       -0.06693609 -0.036517512 -0.096815385 -0.03222493
0001f0 ec a8 59 bd 13 cc 19 bd b6 85 bb bd 6b 6c d7 bd
       -0.053139612 -0.037548136 -0.09156363 -0.10518726

actor.4.weight f4 [128, 128]
000000 02 1c a1 3c 80 03 b7 bd 36 53 ef 3c 5c 6f da bc
       0.019666675 -0.089362144 0.029214483 -0.026664428
000010 b4 16 b0 3a ed 86 96 bd 6e 68 71 bb f5 a3 2c bd
       0.00134345 -0.07349954 -0.0036835927 -0.04214855
000020 b0 d6 51 bc 21 47 18 bb ee 15 ae 3c 68 3a e1 3c
       -0.012807533 -0.0023235756 0.021250691 0.02749367
000030 ae d2 04 3d 03 a8 22 3c b3 ff 75 bd 17 3a 03 3d
       0.032427482 0.009927752 -0.060058307 0.03203782
000040 2c 0d 25 bc cc 37 96 bd d6 02 c6 bc e8 c7 2e 3c
       -0.010073941 -0.07334861 -0.024171274 0.010667779
000050 eb 18 63 3a 3b 6e a8 3d 51 96 58 3d 44 64 02 bd
       0.0008663076 0.0822415 0.052877728 -0.031833902
000060 01 1f ef 3b eb 85 d5 bc f8 c9 e0 3c 89 ea 61 3d
       0.007297397 -0.026064834 0.027440056 0.05515531
000070 a4 4f 23 3d 37 39 ca 3c 99 d9 f1 3b 2c ce 09 3c
       0.039870873 0.024685485 0.007380676 0.008410972
000080 ae 12 ef bc 90 1c c3 3d 87 6b 4c 3b 6a 25 de bc
       -0.029183712 0.09526932 0.003119202 -0.02711745
000090 e4 35 06 bd 19 00 ba 3d d1 ce 8a 3d ce a3 6d bd
       -0.032766238 0.0908205 0.06777728 -0.058017544
0000a0 f2 e1 bd bb 95 da 16 3c d0 c6 92 3d ef ff ce 3c
       -0.005794757 0.009207387 0.07166827 0.025268523
0000b0 5d bd be 3c c0 47 8c bd 68 c6 70 3b a3 a4 a5 bc
       0.023283655 -0.06849623 0.0036739353 -0.020220106
0000c0 15 7d b8 3c 7a 82 37 3d 46 cb 54 bd 58 67 af bd
       0.022520581 0.044802167 -0.05195167 -0.08564633
0000d0 1e f7 04 3e 7c 36 49 bd f4 c1 43 3c da c5 a1 3d
       0.12984893 -0.049124226 0.0119480975 0.07899065
0000e0 1b 51 b0 ba 5f 05 98 bd 42 ae d8 3c ec 8b 36 bd
       -0.0013451906 -0.074228995 0.02645028 -0.044567034
0000f0 27 60 f2 3d ab 74 a7 bd 22 7a b9 3d 41 21 6d 3d
       0.11834746 -0.081765495 0.09056498 0.05789304
000100 8d 16 fc 3c 1c 3f 08 bc fe 2d 88 bc 63 cc df bd
       0.030772472 -0.008315828 -0.016623493 -0.109276555
000110 f5 af ba 3d 65 ef a7 3c 56 d4 1b 3d b0 6a 4f bd
       0.091155924 0.020499894 0.038044296 -0.050638855
000120 91 d3 1e 3d b8 64 80 bc d3 d5 8c bd 56 ad 0f bd
       0.038775984 -0.015673026 -0.06876721 -0.035077415
000130 a9 a3 7f bd 26 b5 74 bd 9b 76 88 3d ee 58 a0 3a
       -0.062411938 -0.05974307 0.06663247 0.0012233534
000140 78 10 17 bd 34 bd 1f bd 34 29 09 bb 1f c7 93 3c
       -0.03688094 -0.038998798 -0.00209291 0.018039284
000150 56 a5 9e 3b a6 56 30 b9 5c 83 b9 bd c8 d5 70 bd
       0.004841487 -0.00016816947 -0.09058258 -0.058797628
000160 01 d7 5a 3d 2f de 3d 3c f7 be 97 3d 30 bd ed bd
       0.0534277 0.011588617 0.074094705 -0.1160835
000170 09 46 57 3b 03 a2 87 3c fb 8e 7f 3d 52 dc 84 bd
       0.003284814 0.016556745 0.062392216 -0.06487335
000180 31 42 a0 3d 9b 70 85 3d f9 7e b3 3d 8a c0 61 3d
       0.07825125 0.065156184 0.087644525 0.05511526
000190 0c 15 d2 bd dc dc b9 3d 12 68 a8 bc 3d 3a 20 3d
       -0.102579206 0.09075329 -0.020557437 0.03911804
0001a0 99 06 2d 3c 2c 21 36 bc 67 70 e2 bc fd 0e 32 bd
       0.010560655 -0.011116307 -0.027641488 -0.043471325
0001b0 f9 3b 21 3d 47 62 8d bc eb 17 bc bd b2 40 c3 3d
       0.039363835 -0.017258776 -0.091842495 0.09533824
0001c0 74 71 df 3c 9c fb 8d bd 3e ff f0 bd 2b e5 94 bc
       0.027275778 -0.06932756 -0.117674336 -0.018175682
0001d0 65 f1 96 3c 92 b6 a3 bc 6c bd fd bc f0 17 77 bd
       0.018425653 -0.019984517 -0.030974112 -0.060325563
0001e0 a0 89 c3 3d 23 76 31 3c 6f 15 a0 bc 70 60 9f 3d
       0.09547734 0.010831389 -0.01954147 0.07782066
0001f0 a4 ef 7e bc d9 c7 4e bd 5c 25 1f bd 97 1d 3a 3d
       -0.015560064 -0.05048356 -0.038853988 0.045438375
000200 c9 1a eb bc f5 92 92 3d 09 27 bc 3d aa bf 50 3c
       -0.028699296 0.07156936 0.09187133 0.012741009
000210 34 de 60 3d cc 75 8b bc 3a 24 91 bd 8c 97 a2 bb
       0.05489941 -0.017023943 -0.07086988 -0.0049619135
000220 31 22 5a 3d d8 b4 b5 bb ef 3f 56 bd 7f 06 c0 bc
       0.053255264 -0.00554524 -0.052307066 -0.023440598
000230 2a fe 93 3d 11 da 15 3d 67 cc 55 bc 7f 5d f2 bc
       0.07226212 0.036584917 -0.013049222 -0.029585598
000240 e5 34 54 3d f4 4d b1 3c f4 43 01 3b f5 f2 89 3d
       0.051808257 0.021643616 0.001972434 0.067357935
000250 39 cd 8d 3d a4 60 79 bd 5e 25 94 bd 02 1c 75 3c
       0.06923909 -0.06088318 -0.0723369 0.014960291
000260 eb f3 87 3d c5 61 a3 3d 2b 52 1b 3d d7 80 42 3c
       0.066383205 0.079776324 0.03792016 0.011871538
000270 af 8f aa 3d 10 80 2e 3c 20 54 c3 bd 41 6b 53 3d
       0.08328187 0.01065065 -0.0953753 0.051615957
000280 54 36 07 3e 4b 31 d4 3d 2f 04 5d 3d 02 bf e3 3d
       0.13204318 0.103609644 0.053959068 0.11120416
000290 93 c9 a4 3d ce ae d9 3d ff 4b 00 3e a6 0e 9d bd
       0.0804626 0.106290445 0.1252899 -0.076688096
0002a0 c1 66 52 3d 04 81 ad bd ab 05 3e bd 6c 93 ab 3d
       0.051367525 -0.084718734 -0.046392124 0.08377728
0002b0 b5 a5 9a bd 0b f9 61 3d d0 79 eb bc 95 5e 4c 3d
       -0.07551137 0.055169147 -0.028744608 0.049894888
0002c0 29 d1 88 3d 5a ca 04 3d 0d 46 20 3d 80 b1 fc 3d
       0.06680519 0.03241954 0.039129306 0.12338543
0002d0 7f 09 47 3d 9c 5a 20 bd a1 d2 1b bb e6 8d 1a 3d
       0.04859304 -0.03914891 -0.0023776668 0.03773298
0002e0 be 6a 86 bd a1 67 c5 bd 8f b4 83 bd f7 4f 8f 3d
       -0.06563328 -0.09638906 -0.06430923 0.06997674
0002f0 97 9c b4 3d c1 2a b2 bd 74 52 9b 3c 38 ed 68 3d
       0.0881893 -0.08699561 0.018960215 0.056866854
000300 b1 ba 1d 3d aa fc b4 3d 5a 02 82 3d 65 62 83 3d
       0.03850812 0.08837254 0.06348105 0.06415252
000310 84 f1 20 3c ec dc 82 bc 06 ce 75 bd 3d 89 9a 3d
       0.009823207 -0.015974484 -0.060010932 0.075457074
000320 82 92 80 bd a8 75 df bc 8a 4c b7 3d 6c 25 8e bd
       -0.06277944 -0.027277783 0.089501455 -0.069407314
000330 46 81 f6 bc bc b3 ac 3c 83 cd c0 3d 44 2f a3 bc
       -0.03009094 0.021081798 0.09414198 -0.019919999
000340 11 13 ac bd e1 b2 ab 3d a1 a6 94 bd 28 2d 9c bd
       -0.08402074 0.08383728 -0.072583444 -0.076258
000350 a1 91 ec bc ee bd 17 bd fe b3 11 3d 40 ec 57 bd
       -0.028878035 -0.037046365 0.035572045 -0.05271554
000360 ce 60 10 3e 4d 29 5a bd e4 ff c4 bd 75 18 f5 bc
       0.14099428 -0.053262044 -0.0961912 -0.029918889
000370 93 35 50 bc 3b 37 e9 3d 48 b8 52 bc 7a 3a f5 3c
       -0.012708086 0.113874875 -0.012861319 0.02993511
000380 dc 8a 51 bd 29 e6 88 3c fa 4c 78 3d 1b 02 e1 3c
       -0.051157817 0.016711311 0.060620286 0.027466824
000390 0b 69 45 bb b3 4c 88 bd cb f7 0d 3d 55 d6 73 bd
       -0.0030122425 -0.06655254 0.034660142 -0.059530575
0003a0 41 0e 19 3b 10 72 9f 3c 9c 89 a5 bd 82 d1 03 3c
       0.0023354443 0.019463569 -0.080828875 0.008045556
0003b0 c8 2c 96 bd be 35 81 bd aa 81 88 3d 68 da 08 3c
       -0.0733276 -0.06309079 0.066653565 0.008352853
0003c0 10 2d f3 3c 93 89 9e 3b 64 79 43 bd 10 5d 95 3c
       0.029684573 0.0048381775 -0.04772319 0.018232852
0003d0 2c 0f 88 3d 0f 16 38 3c ba a0 85 3b 62 27 3a bd
       0.06643519 0.011235728 0.004077998 -0.045447715
0003e0 5b 8b 43 bd d4 c9 3c 3b 2b 6f 3c 3d 1d 91 fb 3c
       -0.04774032 0.0028806822 0.046004456 0.030708844
0003f0 0e 2b 12 bd ea 85 20 bd 36 91 dd bd 8f f1 9f 3c
       -0.03568559 -0.03919021 -0.108187124 0.019524364

actor.4.bias f4 [128]
000000 2b 5a 1e 3d 24 44 43 bd d1 27 77 bd 8f af ad bd
       0.03866021 -0.047672406 -0.060340706 -0.08480751
000010 44 24 a4 3d 15 1b 21 be 9c d3 0b 3c 86 27 74 bc
       0.080147296 -0.15732987 0.008534338 -0.014902001
000020 b7 bc 95 bd 24 0f 07 bd 78 a8 8b bd 5b 81 b8 3c
       -0.07311385 -0.032973424 -0.06819242 0.022522619
000030 62 52 f4 bd 8e f5 e3 bb 23 13 24 bd a2 48 0a be
       -0.11929776 -0.0069567626 -0.040057313 -0.1350427
000040 ec c9 5e bd a4 2a 18 be 35 82 25 bc ba 10 6a bd
       -0.054391786 -0.14860016 -0.010101845 -0.057144858
000050 70 5e f7 bc ce 0a 49 3d 1d 34 c5 bc 20 1b 25 3d
       -0.030196398 0.04908257 -0.024072701 0.04030907
000060 7a 8c c4 3d 43 a7 e0 bd da 91 0b 3c 66 62 dc bd
       0.09597106 -0.10969403 0.00851866 -0.107609555
000070 12 55 8b 3d 8a 2c 48 bc 2c fd d4 bd f8 30 2e be
       0.06803335 -0.01221765 -0.10399851 -0.17010868
000080 90 1c 12 be 51 8b ca bd e7 e3 4d 3c 9e 94 2f bd
       -0.14268708 -0.09889854 0.012566543 -0.04286634
000090 36 2f f9 bd 43 df 76 3d a5 83 3e bc b9 e4 02 3d
       -0.12167208 0.060271513 -0.011628066 0.03195641
0000a0 81 e0 16 3d c8 56 72 3c 91 99 0c bd 23 56 bd bd
       0.036835197 0.014791198 -0.03432614 -0.09244945
0000b0 8f ce de bd a8 80 88 bd e5 2a 95 3d 0a a2 01 be
       -0.10879242 -0.06665164 0.07283572 -0.12659469
0000c0 cd 9a 51 3c a1 f4 0b be d0 49 8e 3c 62 03 7e 3d
       0.012793255 -0.13667537 0.01736918 0.062014945
0000d0 83 06 d2 bc 44 80 35 bb 95 f5 24 bd a8 05 94 3d
       -0.02563787 -0.002769486 -0.040273268 0.07227641
0000e0 70 45 93 bd 44 bd be bd 4e 73 a3 bd c3 83 8d 3c
       -0.071909785 -0.09313443 -0.07980977 0.017274743
0000f0 94 9c 99 bd d9 c6 97 3d 17 cd bb bc 76 b4 ac bd
       -0.07500568 0.07410974 -0.022924943 -0.08432858
000100 17 86 f7 bc b5 88 ab 3b 22 e1 84 bd 84 d7 5c bc
       -0.030215306 0.0052348026 -0.06488253 -0.013479117
000110 a3 f7 fd 3c ad ae 64 39 2f 42 d9 3c a9 d6 38 bd
       0.031001871 0.00021808846 0.026520817 -0.04512659
000120 60 f7 75 3d 00 4b 07 be 41 98 a2 3c 81 7b 70 3d
       0.06005037 -0.13212204 0.019847991 0.058711533
000130 b5 42 00 bd 65 62 49 bd 3c d9 80 3d a6 a8 ca 3c
       -0.031313617 -0.049166102 0.06291434 0.024738621
000140 ba 17 a3 bd 72 95 2f bd d3 f3 2b bd 91 5d 02 be
       -0.0796351 -0.04286713 -0.041980576 -0.12731005
000150 10 53 99 3d 33 40 af 3b 14 a0 b4 3d 28 8f 43 bc
       0.07486546 0.0053482293 0.08819595 -0.011935987
000160 69 43 36 be 17 23 18 be 60 e7 af 3c e2 fb fa bd
       -0.17799152 -0.14857136 0.021472633 -0.12255074
000170 ad 08 ed 3c b5 db 16 bd 37 db 33 bd 24 68 be bd
       0.028934801 -0.036830623 -0.04391023 -0.09297207
000180 8f 71 0c be b4 51 c2 bd d4 dd 2a bd 41 12 1f bd
       -0.13715194 -0.0948824 -0.041715458 -0.038835768
000190 c8 bc 82 bc 8a 5c 95 bd f7 e9 9d 3c 09 9e 44 bd
       -0.015959159 -0.07293041 0.019276602 -0.048002277
0001a0 51 e0 b5 bd b4 56 98 3c ca f1 03 be c9 cc cd bd
       -0.088806756 0.01859603 -0.12885204 -0.10048825
0001b0 68 12 66 3d e0 b4 03 be 7f a3 88 3d 7e 09 86 bd
       0.056169897 -0.12861967 0.066718094 -0.06544779
0001c0 a9 9b 92 bd 09 f8 82 3c fc 9a 2c bd 7b 36 48 bd
       -0.07158596 0.015987413 -0.042139992 -0.04888008
0001d0 af a6 d9 3b e9 3c 2f be 94 ad 15 3d c2 97 38 bc
       0.0066421847 -0.17113079 0.03654249 -0.011266651
0001e0 19 bf 4e bd 51 6f 1f 3d a3 99 fa bb aa ca b2 bc
       -0.050475214 0.03892452 -0.0076477095 -0.021825153
0001f0 19 6f 27 be bd c6 03 be c7 5d 7c bd a0 6f 0c 3c
       -0.16350974 -0.12868781 -0.06161287 0.008571535

actor.6.weight f4 [12, 128]
000000 0e a7 a6 3c 97 df 9d bc e3 ac fe bc 87 92 03 bd
       0.02034333 -0.019271655 -0.031088298 -0.03212216
000010 65 e5 f0 bc bf af 89 3c bf d5 df bc 04 20 02 bc
       -0.029406259 0.016807435 -0.027323602 -0.007942203
000020 84 d0 a9 bb 1d e5 04 3c e3 bf 34 3c 6a f7 d3 bd
       -0.0051823277 0.0081112655 0.0110320775 -0.10349925
000030 a0 40 89 3a bd f2 cd 3a 41 ee c9 3b f3 6e f7 bb
       0.001047153 0.00157126 0.0061624353 -0.007551068
000040 62 e2 ec bc f5 29 d5 3c e1 a2 dd bc a8 fb ae bb
       -0.028916541 0.026020983 -0.027055206 -0.0053400584
000050 77 61 8d bc 6e 44 07 bc 48 38 b7 3c 26 67 17 3b
       -0.017258389 -0.008256061 0.022365704 0.0023102253
000060 71 fc 02 bd 4d 5b ec 3c 12 97 05 bd 3d 81 cb 3b
       -0.031979028 0.02885213 -0.032614775 0.0062104748
000070 6a 23 5b 3c 13 ea 48 bc 65 37 f5 bb 5d 35 8f 3c
       0.013375143 -0.012262839 -0.00748341 0.0174815
000080 27 36 f4 bc 33 5c 81 bd d1 24 12 3c 17 15 ce bc
       -0.029810978 -0.06316414 0.0089199105 -0.02515654
000090 b0 95 07 3b 0b f2 52 3c 8a 31 13 3c 8c f3 29 3a
       0.0020688586 0.01287509 0.008983979 0.00064831297
0000a0 a5 b2 cb 3c 3e aa 97 3c 28 19 91 bd 8f f8 f7 3c
       0.024865458 0.018513795 -0.07084876 0.03026989
0000b0 18 93 97 bc ab a7 2a 3b 12 01 22 bc 0c 2a 04 bc
       -0.018502757 0.002603988 -0.0098879505 -0.008066665
0000c0 15 e0 89 bc 12 1e 17 3d 4b b6 c6 bc 40 e6 e8 bb
       -0.016830483 0.03689391 -0.024256846 -0.007107526
0000d0 d3 97 5f 3d 2e 8c a6 3d 71 50 05 bb 64 a3 39 3d
       0.05458815 0.08132206 -0.0020342136 0.045321837
0000e0 93 32 94 bc 22 88 24 bc 33 e7 73 bc 6d d9 91 bc
       -0.018090522 -0.010042222 -0.014886665 -0.017803872
0000f0 31 2a 2c bd a7 da 8d 3c b2 6a 9e bc 0b 34 2f bd
       -0.042032424 0.017316176 -0.019337986 -0.04277424
000100 a6 b8 af 3b 97 c7 a4 3c 44 3b e6 b9 34 a9 a2 bc
       0.005362588 0.020114703 -0.00043913175 -0.019856073
000110 6d 6f a5 bc 56 a4 d1 bc 59 52 1d bb b9 1a 78 bb
       -0.020194734 -0.025591057 -0.0024005382 -0.0037857725
000120 16 b6 a7 bd 6f 50 18 bc 0c a3 b2 bd 49 cb af 3b
       -0.08189027 -0.009296521 -0.08722505 0.0053648097
000130 93 21 9c 3a 70 4c 9e 3c 62 5d b7 3b a1 58 b5 3b
       0.0011911861 0.019323558 0.005595849 0.005534247
000140 77 a7 49 3d dd 5a 6e bd ef 65 25 bd 8e 25 61 bd
       0.049231973 -0.058192123 -0.040380415 -0.054967456
000150 03 20 9a 3c e9 22 bc 3b 6f 3a 0b bc 08 a9 48 3c
       0.018814093 0.0057414663 -0.008497818 0.012247331
000160 d6 c0 00 bd ec 6f 9d 3d bb d7 ef bc 86 2a 55 3b
       -0.031433903 0.07687363 -0.029277673 0.0032526567
000170 7c 5a 08 3c 2d 69 1f bd 5c 21 45 3b c7 34 39 bd
       0.008322354 -0.038918663 0.0030079698 -0.045216348
000180 fd ad 5c 3d fe 01 81 3d 76 d0 95 3b aa 02 1c 3d
       0.053876866 0.06299208 0.0045719696 0.03808848
000190 0e ee f4 bc 07 0d da 3c 43 4b 4a bc 3b 4f c6 ba
       -0.02989867 0.02661754 -0.012347045 -0.0015129814
0001a0 d2 6f 47 3d 7c 63 0b 3d 30 00 5e 3d 0b 52 36 3c
       0.048690625 0.034030423 0.054199398 0.011127959
0001b0 fb 2d 44 3c aa de 47 bb 6b 1b 01 bd 18 f8 ac bc
       0.011973853 -0.0030497708 -0.03152029 -0.021114394
0001c0 25 84 16 bd 74 aa 57 bc 47 47 98 bc 33 5f 2f 3d
       -0.036747117 -0.013163198 -0.018588675 0.0428154
0001d0 63 b2 e4 3c 69 d1 f9 3a 1a 55 4a bc 4c c0 94 3c
       0.027917093 0.0019059601 -0.012349391 0.0181581
0001e0 42 64 1b 3d f4 62 0b bd 9b 7f d4 b9 5a cf eb bb
       0.03793741 -0.034029916 -0.00040530864 -0.007196349
0001f0 f7 48 ee bb b2 57 10 3b 52 7b 34 3d 4f b7 03 3d
       -0.0072718817 0.0022024927 0.04406292 0.03215724
000200 ef 82 98 bb c4 e6 bb 3d eb c6 59 3d b9 1f e4 3c
       -0.0046542804 0.091748744 0.05316822 0.027847158
000210 02 c0 70 3c db 52 5e bd ac 74 ee 3c a0 78 1f bc
       0.014694216 -0.054278236 0.029108368 -0.009733349
000220 b8 ef 3a 3d b2 26 b4 bb 09 cf 66 3c 45 22 89 3d
       0.04563877 -0.005497777 0.014087447 0.066959895
000230 39 a1 2e 3d 1a 28 bb 3c ff 3e 26 bd 1e 55 d8 bc
       0.042634223 0.02284627 -0.04058742 -0.026407775
000240 7e ee b3 3c 77 92 1e 3c 83 5f 06 bd da 98 5a 3c
       0.021964308 0.009678475 -0.03280593 0.013342107
000250 d1 71 38 3b d1 ad c3 bc 58 75 25 bd b0 27 97 bc
       0.0028144012 -0.023886593 -0.04039511 -0.018451542
000260 17 a2 a1 3d fc b8 76 bc 5f a2 5a bc ed 24 a8 bc
       0.07892244 -0.015058752 -0.013344376 -0.02052542
000270 8b 5b 43 3d 01 2b 54 bd c2 41 47 3d 5a e8 b7 bc
       0.047694724 -0.051798824 0.048646696 -0.022449661
000280 f1 09 8b bc b1 5c e7 3c 32 09 3c bd bd 05 36 3d
       -0.016972514 0.02824244 -0.045907207 0.044439066
000290 c5 20 0d 3c 2b 78 13 3d 00 fd 81 3c 69 7f d1 bb
       0.00861377 0.036003273 0.01586771 -0.0063933623
0002a0 f8 6f 7d bc 0c 2a cd 3c 62 4c 57 3d 60 ad 10 3d
       -0.01546859 0.025044464 0.05256308 0.035321593
0002b0 2b 3b 54 bd d6 fc bc 3c 16 11 d5 bb b4 18 4f 3c
       -0.05181424 0.02306978 -0.006502281 0.012640167
0002c0 e5 cf b9 3b 5b 77 ef 3c 0b 4c 3d 3c 82 f8 25 bd
       0.005670535 0.029231718 0.011553775 -0.0405202
0002d0 af 16 55 bb 73 f7 ee bc 3f 3a 67 bd 03 d0 d5 3a
       -0.0032514741 -0.029170727 -0.056452032 0.0016312603
0002e0 ac 40 82 3d 9b 15 17 bd 1e fa 61 bd f2 c4 ee bb
       0.063599914 -0.03688584 -0.05517017 -0.0072866613
0002f0 58 6f 54 3d 1c 52 02 3a 16 a6 23 bd dd a4 92 bd
       0.051864 0.00049713417 -0.039953314 -0.071603514
000300 59 07 85 bd 83 b3 2c bd f2 9c c4 bc f3 34 41 3c
       -0.06495542 -0.042163383 -0.024000619 0.011792409
000310 a2 36 c1 3c 8b 3e 01 bd 47 72 39 bc 73 0c d8 bc
       0.023585621 -0.031553786 -0.01131875 -0.026373124
000320 3a 05 9d bc 81 ef f5 bc 6d 24 eb 3c 0b bf da bc
       -0.019167531 -0.03002143 0.028703893 -0.026702425
000330 66 18 06 bb 15 ca 5f 3d a4 9f 22 3b ec 62 8f bc
       -0.002046132 0.05463608 0.0024814392 -0.017503224
000340 56 0b 42 3d da 88 4a bc 6a 89 a1 3b 36 ca ab 3b
       0.047374092 -0.0123617295 0.004929711 0.0052426113
000350 4a da d8 bc 64 68 98 bb 56 eb 79 bb d1 41 3e bc
       -0.026471276 -0.004651116 -0.0038134656 -0.011612372
000360 e6 fd 52 bb 18 3a 37 bb a6 55 3c 3b 28 ac 5d bd
       -0.0032194792 -0.002795821 0.0028737574 -0.05411926
000370 d4 52 90 bc 2e de 64 bc d2 ca 9e bc ee ac 1a bd
       -0.01761762 -0.013968987 -0.019383822 -0.037762575
000380 8f fa 83 bc 32 f2 96 3b 22 35 ec bc ce d5 14 3b
       -0.016110687 0.0046065086 -0.02883393 0.0022710445
000390 01 27 a7 bc b4 68 82 bd 2e 46 5a 3c 29 82 e1 bb
       -0.02040434 -0.06367627 0.013322396 -0.0068819714
0003a0 d0 d8 b5 3c e6 fc 17 bd 3e 97 c1 38 f5 e5 e2 bc
       0.02219811 -0.037106417 9.231128e-05 -0.027697543
0003b0 c7 b3 b0 39 89 ee ab 3c 2b f3 39 3c f8 2f fe 3c
       0.0003370328 0.020987766 0.01134948 0.031028733
0003c0 99 7d f3 bb cf 33 49 bd ca 4a a5 3c 33 d5 d5 3c
       -0.007430744 -0.049121674 0.020177264 0.026102638
0003d0 0a 2a 05 bd 2f eb 84 bc 97 8a 26 bb 83 2d 48 bc
       -0.032510795 -0.016225426 -0.0025412196 -0.012217882
0003e0 6f a5 36 3d 3a f6 08 3d 03 c6 c9 bc fc a8 cb 3c
       0.044591364 0.033437945 -0.024630552 0.024860851
0003f0 ae d0 20 3d c5 6d d2 3d de 99 6e bc 9c b2 65 bd
       0.039261512 0.10274843 -0.014563052 -0.05607854

actor.6.bias f4 [12]
000000 87 f7 21 be 86 7f c0 3c 82 25 6a 3d d8 49 45 bd
       -0.1581708 0.023498308 0.057164676 -0.048166126
000010 5b a5 a8 3b e3 8c 9a bd e4 e9 30 bd ce c2 6e 3d
       0.005146665 -0.07546403 -0.043191805 0.05829125
000020 be 34 9a 3d 1e d4 26 bd be 3e b0 bd c3 76 56 bd
       0.07529591 -0.040729634 -0.08605717 -0.052359354
