logs/rsl_rl/unitree_go2_flat/2024-07-16_10-40-43/exported/policy.onnx (onnx, 163093 bytes, 8 tensors)

actor.0.weight f4 [128, 45]
0	0xbd1c6b96	-0.03818854
1	0xbe49a6f3	-0.19692592
2	0xbdc6958f	-0.09696495
3	0xbea09852	-0.3136621
4	0x3f8acb66	1.0843322
5	0x3e95bd44	0.2924596
6	0xbe3ea89e	-0.1861901
7	0xbf14e122	-0.58156025
8	0xbf182b75	-0.5944131
9	0xbf179b4b	-0.59221333
10	0x3e5d8288	0.21631825
11	0xbf86caa3	-1.053059
12	0x3ef6720a	0.4813388
13	0xbe7d4e9c	-0.24737018
14	0xbe289356	-0.16462454
15	0x3cef15df	0.029185234
16	0x3f800da3	1.0004162
17	0xbd6eafa9	-0.05827299
18	0x3e7e8490	0.24855256
19	0x3d393574	0.045216992
20	0x3e2e9bb3	0.17051582
21	0x3d17dafc	0.037074074
22	0xbccd2ce1	-0.025045814
23	0xbc4c184a	-0.012456963
24	0x3bc40da3	0.005983071
25	0xbc08a1dd	-0.008339372
26	0x3d13821b	0.03601275
27	0xbe472f01	-0.19451524
28	0x3d8f4179	0.0699491
29	0xbd6477c9	-0.0557783
30	0xbd4a15be	-0.04933714
31	0x3ca30455	0.019899527
32	0x3d613537	0.05498239
33	0xbcecbe19	-0.02889924
34	0xbe834923	-0.25641736
35	0xbe2419b4	-0.1602543
36	0xbd7cfb3e	-0.06176304
37	0xbe5a6719	-0.21328391
38	0xbc56a7bc	-0.013101514
39	0x3d1b7d69	0.037961397
40	0x3e28b9ca	0.16477123
41	0x3e4009c0	0.1875372
42	0x3dc31d2c	0.095270485
43	0xbe218639	-0.15773858
44	0x3b631c31	0.0034654255
45	0xbe3fe020	-0.1873784
46	0xbee7db46	-0.4528448
47	0xbe85121c	-0.2599038
48	0xbf22eaa8	-0.6363931
49	0xbd12330c	-0.035693213
50	0x3e248828	0.16067564
51	0xbd2e992e	-0.042626552
52	0x3ee3af31	0.44469598
53	0xbd0a7f40	-0.03381276
54	0xbf2eb0ea	-0.682387
55	0xbf3c6587	-0.7359242
56	0xbec1358d	-0.37736169
57	0xbf176f01	-0.59153754
58	0xbee6502d	-0.44983044
59	0xbeeb01d4	-0.45899832
60	0xbe350997	-0.1767944
61	0x3cd90d7a	0.026495684
62	0x3d4e6d55	0.050397236
63	0x3d8be343	0.06830456
64	0xbe1985bf	-0.14992426
65	0xbde92c1f	-0.113853686
66	0xbd2f54c3	-0.042805444
67	0xbc9e7e45	-0.01934732
68	0xbcdaad2f	-0.026693908
69	0x391c22f9	0.00014890348
70	0xbd27fe49	-0.04101399
71	0x3bf643bc	0.007515399
72	0xbd81d169	-0.0633877
73	0xbd8907c7	-0.066909365
74	0x3cb511e8	0.022103265
75	0x39a9b60a	0.00032369822
76	0x3daef799	0.08543319
77	0xbac76e5c	-0.0015215385
78	0x3d3a7ba1	0.045528058
79	0x3d578404	0.052616134
80	0xbd542722	-0.051795132
81	0xbe97cb33	-0.29647216
82	0xbe26df3e	-0.16296098
83	0xbd02f60e	-0.031972937
84	0x3d24bd83	0.040219795
85	0x3e40f29f	0.18842553
86	0xbdcd12a6	-0.100133225
87	0x3dba0d90	0.09084618
88	0xbe022d1e	-0.12712523
89	0x3d1e4197	0.03863677
90	0x3de6184b	0.11235102
91	0xbe5bfdb3	-0.21483497
92	0x3ee8fad3	0.45503864
93	0xbf5a1f3b	-0.85203904
94	0xbf924229	-1.142644
95	0x3dc6123e	0.09671448
96	0xbea27c08	-0.31735253
97	0xbf199e24	-0.6000693
98	0xbf0dab04	-0.55339074
99	0x3cf003e4	0.02929873
100	0x3f9cd03f	1.2251052
101	0x3ec49032	0.38391262
102	0xbe7d9a2d	-0.24765845
103	0xbe6f7fa1	-0.2338853
104	0xbfa6a66a	-1.3019536
105	0xbc619b53	-0.013769942
106	0xbf8113b3	-1.0084137
107	0x3e69d129	0.22833695
108	0xbec9760c	-0.39347875
109	0xbdf27882	-0.11839391
110	0xbecde4de	-0.40213674
111	0x3d88c4e0	0.06678176
112	0x3d7a1b3a	0.06106112
113	0x3d0ef207	0.034898784
114	0x3cb54cf8	0.022131428
115	0xbc1dc8f9	-0.009630435
116	0xbd534e5a	-0.051588394
117	0xbd67955a	-0.056538917
118	0xbc99eaae	-0.018788662
119	0x3bffe0f4	0.007808799
120	0xbd792618	-0.060827345
121	0xbc158ba4	-0.009127531
122	0xbb94f71a	-0.0045460584
123	0x3df60c11	0.1201402
124	0x3cc2b17f	0.023766277
125	0xbe84b520	-0.25919437
126	0xbde4c05e	-0.11169504
127	0x3de23cc7	0.110467486
128	0x3dd81650	0.10551131
129	0x3d023fb5	0.031799037
130	0x3d42e6a9	0.047583256
131	0xbe261fb8	-0.16223037
132	0xbd3718a2	-0.044701226
133	0x3e82d192	0.25550514
134	0xbd9b3798	-0.07578963
135	0xbd0ac665	-0.03388061
136	0xbe94f735	-0.29094854
137	0x3e0b6d82	0.13615993
138	0xbf6ce0f1	-0.92530733
139	0x3d5115db	0.051046234
140	0x3e4b2aa9	0.19840492
141	0x3f085073	0.53247756
142	0xbf2198f3	-0.63124007
143	0x3e8e42d0	0.2778535
144	0xbe9a5744	-0.30144703
145	0xbe0af959	-0.13571681
146	0x3e1d1906	0.15341577
147	0xbf6b240a	-0.91851866
148	0xbf52c3ff	-0.82330316
149	0x3f15fd79	0.58589894
150	0x3cd5f898	0.026119515
151	0x3efb1576	0.4903981
152	0xbf32d9c7	-0.6986355
153	0x3c0f47eb	0.008745174
154	0x3e373667	0.17891847
155	0x3ea93782	0.33050162
156	0x3e0c67d8	0.13711488
157	0x3dd72ef5	0.10507003
158	0xbdc953e3	-0.09830453
159	0xbcec1129	-0.028816776
160	0x3d41a69c	0.04727803
161	0xbe10c8f8	-0.14139163
162	0xbc955efd	-0.01823377
163	0x3c950b5a	0.01819389
164	0x3db3a48a	0.08771618
165	0x3c0399cf	0.008032276
166	0x3d18323c	0.037157282
167	0x3dca5125	0.09878758
168	0xbdf8f2cc	-0.12155685
169	0x3e0560d5	0.1302522
170	0xbc7f8106	-0.015594726
171	0xbeb7b7a0	-0.35882282
172	0xbd2dd88e	-0.04244285
173	0xbe257310	-0.16157174
174	0xbe670c30	-0.22563243
175	0x3e0f0983	0.13968472
176	0x3e8000e8	0.2500069
177	0x3e8d4d71	0.27598146
178	0x3dd6b7ad	0.10484252
179	0xbe856d7f	-0.260601
180	0xbe0f2ff9	-0.13983144
181	0xbd0c9bcc	-0.034328267
182	0xbe07d40c	-0.13264483
183	0xbf2c7b59	-0.67375714
184	0xbdf533c6	-0.119727656
185	0x3e249db7	0.16075788
186	0x3d008c72	0.03138394
187	0xbf12909e	-0.5725192
188	0xbe38e1d0	-0.1805489
189	0x3ec8a85e	0.39190954
190	0xbf1667ce	-0.58752143
191	0xbe826bd2	-0.25472885
192	0x3eb79cda	0.35861856
193	0xbf83d2cd	-1.0298706
194	0x3e862e7f	0.2620735
195	0xbeb77a70	-0.358356
196	0xbf783792	-0.96959794
197	0x3f152cfb	0.5827176
198	0xbec33ed3	-0.3813387
199	0x3e7a87bf	0.24465846
200	0xbdad82a0	-0.0847218
201	0x3b7f5f05	0.0038966548
202	0xbd94be2e	-0.072628364
203	0x3e19e5a5	0.15029009
204	0xbcb3e6dc	-0.021960668
205	0xbb08bda9	-0.0020865
206	0xbdb37a29	-0.087635346
207	0xbbcec561	-0.0063101505
208	0x3d63d8f7	0.055626836
209	0x3cf64c16	0.030065577
210	0xbd50c047	-0.05096462
211	0x3c4c6586	0.012475377
212	0xbda2ab8c	-0.07942876
213	0xbe0f0aa9	-0.1396891
214	0xbdf5e022	-0.120056406
215	0xbd9dc72b	-0.07704004
216	0x3ded1c1d	0.11577628
217	0xbe098a1d	-0.13431592
218	0x3ddcb109	0.10775954
219	0xbdada715	-0.08479134
220	0x3cec689e	0.02885848
221	0xbcd02663	-0.02540893
222	0x3d334ef8	0.043776482
223	0xbdf00548	-0.11719757
224	0xbdd62ecb	-0.10458144
225	0x3e73f58f	0.23824142
226	0xbe625258	-0.22101724
227	0x3eb1c014	0.34716856
228	0xbeca14a8	-0.39468884
229	0xc0121624	-2.2826014
230	0xbcecc463	-0.028902238
231	0x3e053e7e	0.1301212
232	0xbdb01c82	-0.085991874
233	0xbded846c	-0.11597523
234	0x3cfaeebd	0.030631417
235	0xbdbdb02d	-0.092621185
236	0x3e0e032b	0.13868396
237	0x3daec392	0.08533396
238	0xbe3eb9d3	-0.18625574
239	0xbdc41855	-0.095749535
240	0xbe5c2621	-0.2149892
241	0xbf4c094b	-0.7970168
242	0x3f3d6676	0.7398447
243	0x3f01762b	0.50570935
244	0x3f2710af	0.6525983
245	0xbd987ddf	-0.07445883
246	0x3e0ca899	0.1373619
247	0xbb5bab5c	-0.0033518886
248	0xbd2ba143	-0.041901838
249	0x3de198ad	0.11015449
250	0xbce849c4	-0.028355487
251	0x3c960fa1	0.018318
252	0x3bc9cad2	0.0061582113
253	0xbdb6d53a	-0.089273885
254	0x3b1da0d2	0.0024052155
255	0x3d129034	0.035782054

actor.0.bias f4 [128]
0	0xbd8e6671	-0.06953133
1	0xbea257b2	-0.3170753
2	0xbd9298ff	-0.07158088
3	0x3c9022ca	0.017594714
4	0xbdacc9fc	-0.08436963
5	0x3ca9f855	0.020748297
6	0x3dc52778	0.09626669
7	0xbe9045e1	-0.28178313
8	0xbeb38b54	-0.35067236
9	0xbe14a0bc	-0.1451444
10	0xbd1a40d5	-0.037659485
11	0xbda5bf67	-0.08093148
12	0x3e40b675	0.18819602
13	0xbe00da28	-0.1258322
14	0x3e563416	0.20918307
15	0xbd915fad	-0.07098327
16	0xbe4906d6	-0.19631514
17	0xbe3cae6e	-0.18425915
18	0x3d913905	0.07090954
19	0xbc971908	-0.018444553
20	0xbe76535d	-0.24055238
21	0xbe5ca275	-0.21546347
22	0xbe6044ae	-0.21901199
23	0xbb04c596	-0.0020259372
24	0xbe093936	-0.1340073
25	0x3cb6a684	0.022296198
26	0xbe135df6	-0.14391312
27	0xbea56440	-0.32303047
28	0x3e2529f7	0.1612929
29	0xbd389c1b	-0.04507075
30	0xbe447b8f	-0.19187759
31	0xbdf96277	-0.12176984
32	0xbc139017	-0.009006522
33	0x3e0b1052	0.13580444
34	0xbe58dd0c	-0.21178073
35	0xbb520754	-0.0032047825
36	0x3e02449c	0.12721485
37	0xbdbc50e9	-0.0919512
38	0xbe8d2555	-0.27567545
39	0x3e91174d	0.2833809
40	0x3e725494	0.23665076
41	0x3db764ef	0.089547984
42	0xbd8d489b	-0.06898614
43	0x3eb987cc	0.36236417
44	0x3d0dda2b	0.03463189
45	0xbc902596	-0.017596047
46	0x3e0a114d	0.13483162
47	0xbe51b711	-0.2047999
48	0xbe91c6a5	-0.28471866
49	0xbe2ec0fb	-0.17065804
50	0xbe1cbe5a	-0.15306988
51	0x3d594cd2	0.053051777
52	0x3dc2bfc7	0.09509235
53	0x3d55dbdd	0.05221163
54	0x3e506522	0.20351079
55	0xbe5c5906	-0.21518335
56	0x3b905f58	0.004405897
57	0x3e23f96f	0.1601312
58	0xbeb8822c	-0.36036813
59	0xbda6d9fc	-0.08147046
60	0xbe1f6a7a	-0.15567961
61	0x3e47de9b	0.19518511
62	0xbe9e758e	-0.30949062
63	0xbcfd40f5	-0.030914763
64	0x3c8abe9c	0.016936593
65	0xbe111de0	-0.14171553
66	0x3df5b09e	0.11996578
67	0xbde72f4c	-0.11288318
68	0xbd79d101	-0.060990337
69	0xbed60c1a	-0.41806108
70	0xbdc5d027	-0.096588425
71	0xbb43510f	-0.0029802953
72	0x3dba663c	0.09101531
73	0xbe214a16	-0.15750918
74	0x3d51ce78	0.051222295
75	0x3ec10351	0.37697843
76	0x3d7a18ec	0.061058924
77	0xbd347b6b	-0.044063013
78	0xbe446e5c	-0.19182724
79	0x3e37ce36	0.17949757
80	0xbd4ed049	-0.050491605
81	0xbda3a31e	-0.079900965
82	0x3d1162eb	0.035494726
83	0x3c28a642	0.010293545
84	0xbea6f556	-0.3260905
85	0xbdb43ac9	-0.08800275
86	0xbe243438	-0.16035545
87	0x3d2616a4	0.040548936
88	0xbd0218c8	-0.031761914
89	0xbe30da48	-0.17270768
90	0xbc7969af	-0.015222951
91	0xbeab1fd8	-0.33422732
92	0x3e59a928	0.21255934
93	0x3d1e0e35	0.038587768
94	0xbe4dbc4e	-0.20091364
95	0xbdabf0fe	-0.08395575
96	0xbe940b9b	-0.28915104
97	0x3e28c0ee	0.16479847
98	0x3e1e9a91	0.1548865
99	0x3e8d3a0c	0.2758335
100	0x3e863e06	0.26219195
101	0x3e3cedda	0.18450108
102	0xbe870d9b	-0.26377568
103	0xbe4aa655	-0.19790013
104	0xbe1aecd5	-0.15129407
105	0xbdf7909c	-0.12088129
106	0xbe8d44fc	-0.27591693
107	0xbe8475ad	-0.2587103
108	0xbd50bd1e	-0.050961606
109	0xbe92cd2b	-0.28672156
110	0x3bd08fe4	0.0063648093
111	0xbda49c1e	-0.080375895
112	0x3c9f28d7	0.019428654
113	0xbe1ea003	-0.15490727
114	0x3bcf7e7d	0.0063322173
115	0x3e191f48	0.14953339
116	0xbe623fc4	-0.22094637
117	0xbdc73c65	-0.09728316
118	0xbd8e39f6	-0.06944649
119	0x3e09412d	0.13403769
120	0xbdf27f60	-0.11840701
121	0xbe789400	-0.24275208
122	0x3e3d3f25	0.18481119
123	0xbed15279	-0.40883234
124	0xbec6e6c4	-0.38847935
125	0xbe947438	-0.28994918
126	0x3dc4390d	0.09581194
127	0x3de82593	0.11335292

actor.2.weight f4 [128, 128]
0	0x3d2f8abf	0.042856928
1	0xbe00b621	-0.12569477
2	0x3d6b9701	0.057517055
3	0x3ceec2c7	0.029145611
4	0xbd1abf2f	-0.037779983
5	0x3a259e6a	0.0006317856
6	0xbd30b7f0	-0.043144166
7	0x3d89368a	0.066998556
8	0xbcbd4aad	-0.023106897
9	0xbd7faf96	-0.06242331
10	0xbe03b205	-0.12860878
11	0x3d1678b7	0.036736216
12	0xbd6b0e1e	-0.05738651
13	0x3daea614	0.08527771
14	0x3c82b04f	0.015953211
15	0x3df04498	0.11731833
16	0xbd2a7d85	-0.04162361
17	0x3e2956b4	0.16536981
18	0xbe46bccb	-0.19407956
19	0xbc9fab1c	-0.019490771
20	0xbdbd1ac8	-0.09233624
21	0x3d2564dd	0.040379394
22	0x3bec7604	0.007216217
23	0x3de9b0bb	0.11410662
24	0x3c0f2176	0.008736005
25	0xbd95aa4d	-0.07307873
26	0xbdd26dc2	-0.10274841
27	0x3e2ddadf	0.16978024
28	0xbd7b443e	-0.061344378
29	0xbe065fa9	-0.13122429
30	0xbdcd7912	-0.10032858
31	0xbdf8daac	-0.12151083
32	0x3e16c497	0.1472343
33	0x3dc149c9	0.094379015
34	0xbe36792e	-0.17819664
35	0xbca693de	-0.02033418
36	0x3d289955	0.041161854
37	0x3c32986c	0.010900598
38	0xbc2bf861	-0.01049623
39	0x3e3bc386	0.18336305
40	0xbde40fe8	-0.111358464
41	0x3cabc6c3	0.0209688
42	0x3da48a4a	0.08034189
43	0x3d5d55a4	0.05403675
44	0xbdbe1d90	-0.09282982
45	0xbc219ff1	-0.009864793
46	0x3d0c732f	0.034289535
47	0x3e1e48cb	0.15457456
48	0xbd559e7f	-0.052153107
49	0xbb9fdc1f	-0.0048785354
50	0x3da09650	0.0784117
51	0xbe20e522	-0.15712407
52	0xbe64a49e	-0.22328421
53	0xbdcbfc8d	-0.099602796
54	0x3d76c924	0.060250416
55	0x3d21a74b	0.039466184
56	0x3cef89ec	0.029240571
57	0x3c7d10c5	0.015445893
58	0x3d32575f	0.043540355
59	0x3e2eb2ce	0.17060396
60	0xbdc21a4d	-0.09477673
61	0xbd58988e	-0.052879862
62	0x3dd9ec98	0.1064083
63	0x3d98fadc	0.07469723
64	0x3dbfc48c	0.0936366
65	0x3e0e3d6e	0.13890621
66	0xbd23ba8d	-0.03997283
67	0xbdcf23be	-0.10114239
68	0x3c988b3a	0.018621076
69	0x3d29ddac	0.04147117
70	0x3e83aad5	0.25716272
71	0x3caadb0b	0.020856401
72	0x3d707f50	0.058715165
73	0x3e210d4d	0.1572773
74	0x3e2dfadf	0.16990231
75	0xbd8d14a3	-0.06888702
76	0x3d071ee5	0.032988448
77	0x3e07e6cf	0.1327164
78	0xbd2b4fe3	-0.041824233
79	0x3dda95d2	0.10673107
80	0x3df9d172	0.12198152
81	0x3ddd2485	0.10797981
82	0x3dfd0191	0.123538144
83	0x3d60289e	0.054726236
84	0xbcd7d5c9	-0.026347058
85	0xbde0ea7e	-0.10982226
86	0x3deb2c47	0.114830546
87	0x3c22afd4	0.009929616
88	0xbd93ee67	-0.07223206
89	0xbddfce17	-0.109279804
90	0x3e54d293	0.20783453
91	0xbd2be6de	-0.04196822
92	0xbd0ce479	-0.034397576
93	0x3e2b0fdf	0.16705273
94	0x3e1d6917	0.1537212
95	0x3d06cd93	0.032910895
96	0x3d962d21	0.073328264
97	0xbe01a523	-0.12660651
98	0x3d4163dc	0.047214374
99	0x3b653056	0.0034971437
100	0x3c8b95a2	0.017039124
101	0xbbe28330	-0.0069126114
102	0xbe0f4b45	-0.13993557
103	0x3d0d8467	0.034550097
104	0xbe08295a	-0.13297024
105	0xbdca8558	-0.098887146
106	0xbd512052	-0.051056214
107	0x3d9dcd2e	0.077051505
108	0xbe3628d9	-0.1778902
109	0x3de2a842	0.11067249
110	0xbbeaf80d	-0.0071706832
111	0xbdf03f82	-0.11730863
112	0x3cf4c2fa	0.029878128
113	0xbe07a5fb	-0.1324691
114	0xbc73e29e	-0.014885573
115	0x3c0b1552	0.00848897
116	0x3c11642e	0.008873982
117	0xbc72f88a	-0.014829764
118	0x3e599fa8	0.2125231
119	0xbda70245	-0.0815473
120	0x3bb23ac5	0.005439135
121	0xbe35d4d4	-0.17756969
122	0xbcb63708	-0.022243038
123	0xbcdb8ea6	-0.026801419
124	0x3d4b73eb	0.049671095
125	0xbc01e447	-0.007927961
126	0xbc89f3b2	-0.016839836
127	0x3c9a76d9	0.0188555
128	0xbe17773c	-0.14791578
129	0xbdb1604d	-0.08660946
130	0x3cd93e5a	0.02651899
131	0x3d4a09e7	0.04932585
132	0xbe6be2ee	-0.23035786
133	0x3d805d15	0.06267754
134	0x3c88005f	0.01660174
135	0x3d6629a0	0.05619204
136	0xbe1ed457	-0.15510689
137	0x3de11647	0.10990577
138	0xbdbd0bee	-0.09230791
139	0xbdb4a1d0	-0.08819926
140	0xbe0b200f	-0.13586448
141	0x3e46a68c	0.1939947
142	0x3e390983	0.18070035
143	0x3dbf6fa9	0.09347469
144	0xbddeba08	-0.108753264
145	0xbbce3e89	-0.006294076
146	0xbdf8ace0	-0.12142348
147	0xbdbb6583	-0.09150221
148	0xbd92c5d0	-0.07166636
149	0xbd995563	-0.07486989
150	0x3dab9018	0.08377093
151	0x3c059611	0.008153454
152	0x3db741d1	0.089481
153	0x3dbaca8d	0.09120665
154	0xbe965408	-0.29360986
155	0x3d2a3a05	0.041559238
156	0xbc504295	-0.012711187
157	0xbe539ce1	-0.20665313
158	0xbcc17d20	-0.023619235
159	0xbe727eb3	-0.23681144
160	0x3d044312	0.032290526
161	0x3bf3ad36	0.00743642
162	0xbd8ec0f4	-0.06970397
163	0xbd2c027d	-0.04199456
164	0x3ea2da0d	0.31806985
165	0x3dfbfdf4	0.12304297
166	0xbdaad14b	-0.08340701
167	0xbda7095d	-0.08156083
168	0x3d926d13	0.071497105
169	0xbcc9be6e	-0.024626937
170	0x3e1d3f0e	0.15356085
171	0xbdeba813	-0.11506667
172	0xbdd5e484	-0.104439765
173	0xbe4d3263	-0.20038752
174	0xbde6a48d	-0.11261854
175	0x3e2450a7	0.16046391
176	0xbbb44a23	-0.005502002
177	0x3db3a26e	0.087712154
178	0x3d69c4db	0.0570725
179	0xbd016c5d	-0.031597484
180	0x3c838bb6	0.01605783
181	0xbd9b0b45	-0.07570509
182	0xbd8ee153	-0.06976571
183	0x3c9fe339	0.019517528
184	0xbdb69eb1	-0.08916987
185	0xbc4f1765	-0.012639855
186	0xbe80ace0	-0.25131893
187	0x3e43f027	0.1913458
188	0x3e0f3d59	0.13988246
189	0x3c49a52f	0.012307449
190	0x3dc0dbc1	0.09416915
191	0xbdd40d7e	-0.10354136
192	0xbc3cdb18	-0.011526845
193	0xbdc7bd03	-0.09752848
194	0x3ddab942	0.106798664
195	0x3c7e6695	0.015527387
196	0x3ddc9921	0.107713945
197	0xbba25d35	-0.004954959
198	0xbd88ea4e	-0.06685315
199	0x3c478431	0.012177513
200	0x3d86e811	0.06587232
201	0xbc64558f	-0.013936414
202	0xbe066b50	-0.13126874
203	0xbe88047f	-0.2656593
204	0xbdcf949e	-0.10135768
205	0x3e8fbf4e	0.2807564
206	0xbddb954c	-0.107218355
207	0xbdf47ab2	-0.11937465
208	0x3e50fe32	0.20409468
209	0xbcbc5da6	-0.022993874
210	0x3dfd483b	0.123672925
211	0xbe229c1c	-0.15879864
212	0xbe90c911	-0.28278401
213	0xbb32b24b	-0.0027266915
214	0xbcfda159	-0.030960726
215	0x3d80c21b	0.06287023
216	0x3de46ae4	0.111532
217	0x3d6852c5	0.05671956
218	0x3d905357	0.07047146
219	0xbc6d5d75	-0.014487614
220	0xbe08c4f4	-0.13356382
221	0xbd759ea8	-0.05996576
222	0xbe4269a8	-0.18985617
223	0x3de356a9	0.111005135
224	0x3dfe1e88	0.12408167
225	0xbdd3269f	-0.10310101
226	0xbda118a6	-0.078660294
227	0x3e1be927	0.1522566
228	0x3cd6cd78	0.026221022
229	0xbe23cd85	-0.15996368
230	0x3db88f17	0.09011667
231	0xbd11f3ce	-0.0356329
232	0xbdad5fce	-0.08465539
233	0xbe415fde	-0.18884227
234	0x3d88ec45	0.0668569
235	0x3d00aad8	0.03141293
236	0x3d79afd9	0.060958717
237	0xbe4a3b56	-0.19749197
238	0x3c0ceab6	0.008600881
239	0xbd2ec328	-0.042666584
240	0x3d9c7cf5	0.07641021
241	0x3e89896b	0.26862654
242	0xbd1fea50	-0.039041817
243	0x3b685142	0.0035448824
244	0x3c5596f4	0.013036478
245	0x3d856a06	0.06514363
246	0x3ec872ed	0.3915018
247	0xbd8f77f4	-0.07005301
248	0xbe48e751	-0.1961949
249	0x3ca97788	0.02068688
250	0x3e154547	0.14577208
251	0x3d96a0e7	0.073549084
252	0xbd54c471	-0.051945154
253	0x3d386718	0.045020193
254	0x3ec7455b	0.38920102
255	0xbdd515ac	-0.10404524

actor.2.bias f4 [128]
0	0xbcf491a4	-0.029854603
1	0xbd9a19cb	-0.07524451
2	0xbe398de5	-0.18120535
3	0xbe3de4b6	-0.18544278
4	0xbe192f26	-0.14959392
5	0xbe9478f2	-0.28998524
6	0xbcc6f410	-0.0242863
7	0x3e458b42	0.19291404
8	0xbbcdf9da	-0.006285888
9	0xbd9036c6	-0.07041697
10	0xbde95cca	-0.11394651
11	0xbe8a6f74	-0.27038157
12	0xbe9c368c	-0.30510366
13	0xbe618948	-0.22025025
14	0xbd7d0e96	-0.06178149
15	0xbdd4db37	-0.103933744
16	0xbeb2bf2b	-0.34911475
17	0x3e2da571	0.16957642
18	0xbe55ca74	-0.20878011
19	0xbddb1a29	-0.10698349
20	0xbdd1afc7	-0.10238605
21	0x3d19e332	0.037570186
22	0x3bf59f6e	0.007495812
23	0xbd97bf69	-0.074095555
24	0xbd655233	-0.055986594
25	0xbe807d06	-0.25095385
26	0xbdec6f0b	-0.11544617
27	0x383090bb	4.209646e-05
28	0xbe20d45d	-0.1570601
29	0xbbdca207	-0.0067331824
30	0xbe99288e	-0.29913753
31	0xbe035471	-0.1282518
32	0xbd7042bb	-0.05865739
33	0xbe831f96	-0.25610036
34	0xbd877cba	-0.066155866
35	0xbe52c6d2	-0.20583656
36	0xbe2e1df3	-0.17003612
37	0x3de79f25	0.11309651
38	0x3dee37e5	0.11631755
39	0xbe4632f8	-0.1935538
40	0x3d0adcdc	0.033902034
41	0xbe0ee68a	-0.13955131
42	0xbe078aa6	-0.13236484
43	0xbe31dfbb	-0.17370503
44	0x3db5b1dc	0.088718146
45	0xbe0d25db	-0.13783972
46	0xbe8424d2	-0.25809342
47	0xbe8d501b	-0.27600178
48	0xbe1539a5	-0.14572771
49	0xbe50e02f	-0.20398019
50	0xbd6b468b	-0.057440322
51	0xbe177972	-0.14792421
52	0xbe13ce73	-0.14434223
53	0xbdca5eb2	-0.09881343
54	0xbdc9494a	-0.09828432
55	0xbeaf4af1	-0.34236863
56	0xbd826794	-0.06367412
57	0xbe80432e	-0.25051254
58	0xbe28f69d	-0.16500326
59	0xbe2f179b	-0.17098849
60	0xbe18d353	-0.14924364
61	0x3d3bf96f	0.045892175
62	0x3cb661f5	0.022263506
63	0xbdf92b33	-0.12166443
64	0xbd999190	-0.07498467
65	0xbdeb2e9d	-0.114835
66	0xbe485a57	-0.19565712
67	0xbea190ba	-0.3155573
68	0xbe4cd788	-0.20004094
69	0xbe99a44a	-0.30008155
70	0xbe66389f	-0.22482537
71	0x3c7018fa	0.014654392
72	0xbd67d47b	-0.05659912
73	0xbeb7772e	-0.35833114
74	0xbe18747b	-0.14888184
75	0xbd15d9d2	-0.036584683
76	0xbe63e9fb	-0.22257225
77	0xbe6608eb	-0.2246434
78	0xbceb855e	-0.028750118
79	0xbca64904	-0.020298488
80	0x3d08435a	0.033267356
81	0xbe168a86	-0.1470128
82	0x39288b3c	0.00016073597
83	0xbcc2188a	-0.023693342
84	0xbe88aafc	-0.2669295
85	0xbdf81610	-0.12113583
86	0xbe5a2e1d	-0.21306653
87	0xbe4eda03	-0.20200352
88	0xbe8c60b8	-0.2741754
89	0xbea87d3d	-0.3290805
90	0xbde3aa1b	-0.111164294
91	0xbe149b4c	-0.14512366
92	0xbe51a9c2	-0.20474914
93	0xbe0f8a10	-0.1401751
94	0xbe55d7f3	-0.2088316
95	0xbe4a8544	-0.197774
96	0xbe20bd96	-0.15697321
97	0xbe72ef1c	-0.23724025
98	0xbe03be65	-0.12865598
99	0xba316c56	-0.00067681575
100	0xbda62c5b	-0.08113929
101	0x3cc2305a	0.023704696
102	0xbdb460fc	-0.08807561
103	0xbda052da	-0.07828303
104	0xbdd14fe1	-0.10220314
105	0xbe244d7f	-0.16045187
106	0xbe853d95	-0.26023546
107	0xbe7799e8	-0.24179804
108	0xbeb3e2fb	-0.3513411
109	0xbe3502bf	-0.17676829
110	0xbd936609	-0.07197196
111	0xbde75b0e	-0.11296664
112	0xbd670643	-0.056402456
113	0xbe1ed71e	-0.15511748
114	0x3db865df	0.09003805
115	0x3d824bbd	0.06362102
116	0xbe5d00dc	-0.21582359
117	0xbe313c8e	-0.17308256
118	0xbc5bae60	-0.013408273
119	0xbe5dceb3	-0.2166088
120	0xbde8fa74	-0.11375895
121	0xbe87ca83	-0.26521692
122	0xbe7c9b54	-0.24668628
123	0xbde2b170	-0.11069
124	0xbe8c9d6c	-0.27463853
125	0xbd724e39	-0.05915663
126	0xbe492570	-0.19643188
127	0xbdfaf9ed	-0.12254701

actor.4.weight f4 [128, 128]
0	0x3c582d03	0.013194325
1	0x3d6080c9	0.05481032
2	0x3d02cf34	0.031935886
3	0xbd69e0b0	-0.057099044
4	0x3d095dd3	0.033536743
5	0xbdd8ca44	-0.10585454
6	0xbdfd7616	-0.12376039
7	0xbd39ef8d	-0.04539447
8	0xbe4f88a4	-0.20266968
9	0x3d124dd8	0.03571877
10	0x3dab27e1	0.08357216
11	0x3d6d7d68	0.057980925
12	0x3cceb96b	0.025234899
13	0xbdf38208	-0.11890036
14	0xbe0f35fa	-0.13985434
15	0xbccb7fea	-0.024841268
16	0x3c962a23	0.01833064
17	0xbe21acdf	-0.15788601
18	0x3e59b831	0.2126167
19	0x3e0e31bb	0.13886158
20	0xbd471651	-0.048605267
21	0xbcc160ab	-0.023605665
22	0xbe5ec4ee	-0.2175481
23	0x3cfc4a2d	0.030797089
24	0x3cf83895	0.030300418
25	0xbe4dd12c	-0.20099324
26	0x3c2a05b6	0.010377338
27	0xbdce9a78	-0.10088056
28	0x3d0c4fd1	0.034255806
29	0x3d2d5517	0.042317476
30	0xbe2ff280	-0.1718235
31	0xbdb7a1b2	-0.08966388
32	0x3ad06861	0.0015900248
33	0xbca06a40	-0.019581914
34	0xbe2f5114	-0.17120773
35	0x3e368da8	0.17827475
36	0xbd4dc786	-0.05023911
37	0x3d9c89ee	0.076434955
38	0x3da4bd59	0.08043928
39	0xbcd84ce4	-0.026403852
40	0xbd497bdb	-0.049190383
41	0xbd7aacac	-0.06119983
42	0x3d1adae2	0.0378064
43	0x3d871946	0.065966174
44	0xbe840525	-0.25785175
45	0xbd0d8144	-0.034547105
46	0x3c8ad2b0	0.016946167
47	0x3d842dbd	0.064540364
48	0xbe6a926a	-0.22907415
49	0x3deeb977	0.11656468
50	0xbd234cca	-0.039868154
51	0xbe29b200	-0.16571808
52	0xbd603a02	-0.05474282
53	0x3d0e661d	0.03476535
54	0xbb9b0e10	-0.004731901
55	0x3dd03f67	0.10168343
56	0x3e0816a2	0.13289884
57	0x3da04266	0.078251645
58	0x3db3c623	0.08778026
59	0x3dea415d	0.11438248
60	0x3b63ef86	0.0034780218
61	0x3d2e2ffa	0.042526223
62	0x3de3d2ec	0.111242145
63	0xbc4741a1	-0.012161643
64	0x3dc28e84	0.09499839
65	0x3c9a2a36	0.018818956
66	0x3d9890cb	0.07449492
67	0xbcd93808	-0.026515976
68	0xbe6fc72d	-0.23415823
69	0xbdd83c06	-0.105583236
70	0x3d704d9e	0.05866777
71	0x3e087ab9	0.13328065
72	0x3d8db504	0.069192916
73	0x3d91cdc0	0.07119322
74	0x3d5da900	0.05411625
75	0xbbce4e1f	-0.006295934
76	0x3d32c50f	0.04364496
77	0xbba20b04	-0.004945161
78	0x3cfb84c5	0.030702958
79	0xbd4c2cf7	-0.04984757
80	0xbc5f11f8	-0.013615124
81	0xbe20a562	-0.15688089
82	0xbdaafd9f	-0.08349156
83	0x3dc64268	0.09680635
84	0xbcfd3137	-0.030907257
85	0x3cd728dc	0.0262646
86	0x3d9ca9b1	0.076495536
87	0xbd3c7340	-0.04600835
88	0x3e19a3e1	0.15003921
89	0x3cea8763	0.02862901
90	0xbd70d30f	-0.05879503
91	0x3db93df2	0.09045018
92	0x3e28dec9	0.16491236
93	0xbe2c5265	-0.16828306
94	0xbdae46da	-0.085096076
95	0xbe159d4e	-0.14610788
96	0xbc24b1c9	-0.010052153
97	0xbd299eb7	-0.041411128
98	0xbcb1c93f	-0.021702407
99	0xbcbc30e0	-0.022972524
100	0x3e1e8ab2	0.15482596
101	0x3d51f5ca	0.051259793
102	0x3dc0e4bd	0.09418628
103	0xbdd8ea20	-0.10591531
104	0xbbf96fe7	-0.0076122168
105	0x3d17e58c	0.037084147
106	0xbdc76b25	-0.09737233
107	0xbd0f97fa	-0.035057046
108	0x3d6f54c4	0.05843045
109	0xbd2ceaaf	-0.042216
110	0xbdf08d2b	-0.11745676
111	0x3d8b911a	0.06814785
112	0xbd0a020d	-0.033693362
113	0xbcc454a7	-0.023966147
114	0x3e6ca2a7	0.23108922
115	0xbd41995f	-0.047265407
116	0x3c9b2b92	0.018941674
117	0x3d135cfd	0.035977352
118	0x3d3f2ebc	0.04667543
119	0xbb836a7e	-0.0040104976
120	0xbda78e7c	-0.081814736
121	0x3dcead8f	0.100916974
122	0x3d1f574c	0.038901612
123	0x3daed32c	0.085363716
124	0x3c920dd3	0.017828858
125	0x3d97c84c	0.074112505
126	0x3c32e82f	0.010919615
127	0xbe0254b5	-0.12727626
128	0x3bd5ba2c	0.0065224376
129	0xbc9ddc9c	-0.019270234
130	0xbe1bef53	-0.15228014
131	0x3dc11bb8	0.09429115
132	0xbdc4431d	-0.09583113
133	0xbd38f84b	-0.045158666
134	0x3e01d33d	0.12678237
135	0x3c06c383	0.008225325
136	0x3d75af04	0.05998136
137	0x3d6e6ddb	0.058210235
138	0xbcae7a5d	-0.021298582
139	0x3cfac958	0.030613586
140	0x3d6dfbc8	0.058101445
141	0xbd40bb28	-0.047053486
142	0x3c640469	0.013917067
143	0x3dd9c572	0.10633363
144	0x3cef494d	0.029209757
145	0xbcc3b882	-0.023891691
146	0x3debd1c9	0.11514623
147	0x3d4cf8ce	0.050041966
148	0xbd0e73f9	-0.03477857
149	0x3dd20b30	0.1025604
150	0x3d3357bf	0.043784853
151	0xbc649020	-0.013950378
152	0x3c59bd11	0.013289706
153	0x3d06cb7d	0.032908905
154	0x3ca9c591	0.02072409
155	0xbd9e50a1	-0.077302225
156	0xbd9762cc	-0.07391891
157	0xbda76699	-0.08173866
158	0x3ab7c6a9	0.0014020997
159	0x3bf9b659	0.0076206145
160	0x3db802f8	0.08984941
161	0xbe60cd6d	-0.21953364
162	0xbb528b75	-0.003212658
163	0x3d999f27	0.07501059
164	0xbe14e3da	-0.14540043
165	0xbd8be2ac	-0.068303436
166	0xbc8c2fe0	-0.017112672
167	0x3d8d5013	0.069000386
168	0x3d39ca6a	0.045359053
169	0xbd867a6d	-0.065663196
170	0x3d907bbc	0.070548505
171	0x3d9d998f	0.076953046
172	0x3dc5a64b	0.096508585
173	0xbce00431	-0.027345749
174	0x3ba972d1	0.005171158
175	0x3c16ec51	0.009211616
176	0xbdc13d0c	-0.09435472
177	0xbd835768	-0.06413156
178	0x3d60c29e	0.0548731
179	0xbe256e3b	-0.16155331
180	0x3d1b828c	0.037966296
181	0xbdcb3069	-0.09921343
182	0xbde561d1	-0.112002976
183	0x3da84061	0.08215404
184	0xbd6767ea	-0.056495585
185	0x3ddb38b9	0.10704178
186	0x3cdad24f	0.026711611
187	0x3d7fe62b	0.062475365
188	0x3cd39b39	0.025830852
189	0x3d8735b0	0.06602037
190	0x3d37864d	0.044805814
191	0xbd8fac66	-0.07015304
192	0x3ccde93a	0.025135625
193	0x3d24b722	0.04021371
194	0x3dd06c07	0.101768546
195	0x3b8dc5d0	0.0043265596
196	0xbd66f890	-0.05638939
197	0x3e13acf4	0.14421445
198	0x3ca0b442	0.019617204
199	0x3d2449c5	0.040109415
200	0xbe146b97	-0.14494167
201	0x3e097924	0.13425118
202	0x3b3c4951	0.0028730223
203	0xbcc872b5	-0.02446876
204	0xbcddc08b	-0.02706935
205	0x3ccf17ae	0.025279846
206	0x3d93fc72	0.072258845
207	0x3d107934	0.03527184
208	0xbccd58d1	-0.025066765
209	0xbd3bd943	-0.045861494
210	0x3b94cee0	0.004541263
211	0x3df66d2e	0.12032543
212	0xbc9d0ed5	-0.019172112
213	0xbc8b52fb	-0.017007342
214	0x3cd2a08b	0.025711318
215	0x3c92fc84	0.017942674
216	0x3e2ab631	0.16671063
217	0x3dbbe759	0.091749854
218	0xbd022a64	-0.031778708
219	0xbe14789f	-0.14499138
220	0x3db16aaf	0.086629264
221	0xbdbb17ce	-0.091354
222	0x3debb1fa	0.11508556
223	0xbc71cdc2	-0.014758529
224	0x3d90092c	0.070329994
225	0x3d6b4fd1	0.057449166
226	0xbc303b58	-0.010756336
227	0xbc4e1cde	-0.012580125
228	0x3d3af673	0.04564519
229	0xbc688874	-0.014192689
230	0xbd80d7d5	-0.06291167
231	0xbe338aba	-0.17533389
232	0xbc591658	-0.013249956
233	0x3d9159eb	0.070972286
234	0x3da8baaa	0.08238728
235	0x3df68ed0	0.12038958
236	0xbc9cc9c9	-0.019139187
237	0xbd41ed27	-0.047345307
238	0x3d72cabe	0.05927538
239	0x3dc9ace4	0.098474294
240	0x3d5b9c67	0.053615954
241	0x3da1f84f	0.07908689
242	0xbe261d4e	-0.16222116
243	0xbde32a30	-0.11092031
244	0x3dfdbeaa	0.12389882
245	0x3db386e0	0.0876596
246	0x3c43db5d	0.011954156
247	0x3c7e6f2f	0.015529438
248	0xbce997d3	-0.028514778
249	0xbdf99455	-0.12186495
250	0x3c88f180	0.016716719
251	0xbdbc3024	-0.091888696
252	0x3d5891e0	0.052873492
253	0xbc89c85f	-0.016819177
254	0x3e3444a4	0.1760431
255	0xbd0d0752	-0.03443081

actor.4.bias f4 [128]
0	0xbd605a6f	-0.054773744
1	0xbe0f0d2a	-0.13969865
2	0xbd0cba8d	-0.034357596
3	0xbe01f12b	-0.12689655
4	0xbd8b5e8d	-0.068051435
5	0x3c83231e	0.016007956
6	0xbe1281ac	-0.14307278
7	0xbd8f2abc	-0.06990573
8	0xbd1debbe	-0.0385549
9	0xbe1fdf0b	-0.15612428
10	0xbddd83dd	-0.108161665
11	0xbe2453fa	-0.1604766
12	0xbe1b6ab7	-0.15177427
13	0xbda0f25a	-0.07858725
14	0xbdf894ca	-0.12137754
15	0xbdabe374	-0.083929926
16	0x3b5a58bc	0.003331705
17	0xbd43e34a	-0.04782418
18	0x3d42585e	0.047447555
19	0xbdb34bff	-0.087547295
20	0x3d5913de	0.052997462
21	0xbd53792b	-0.051629227
22	0xbe8a03e9	-0.26956108
23	0xbcf90742	-0.030398969
24	0xbd73266c	-0.059362814
25	0xbd177a49	-0.036981855
26	0xbe355d16	-0.1771129
27	0xbe080e50	-0.1328671
28	0xbe3fd6cd	-0.18734284
29	0xbdceeee2	-0.10104157
30	0xbe04ad7b	-0.12956803
31	0xbe42b9c0	-0.1901617
32	0xbde7ac32	-0.113121405
33	0xbe033bf5	-0.1281584
34	0xbe2f8878	-0.17141902
35	0xbd5195ad	-0.051168133
36	0xbd5dddff	-0.05416679
37	0xbdf65e9f	-0.12029766
38	0xbe293bfe	-0.16526791
39	0xbe2bacb9	-0.16765107
40	0xbd17a647	-0.03702381
41	0x3b15f6cc	0.0022882698
42	0xbda2f62a	-0.07957108
43	0xbe15783d	-0.14596649
44	0xbe7dc462	-0.24781945
45	0xbe3a2dcd	-0.18181534
46	0xbe1aca3a	-0.15116206
47	0xbe1d2365	-0.15345533
48	0xbd8ef534	-0.069803625
49	0xbe0dd3b6	-0.13850293
50	0xbd75a641	-0.059973005
51	0xbddda2de	-0.1082208
52	0xbdce848b	-0.10083874
53	0xbe1c5958	-0.15268457
54	0xbe1902bd	-0.14942451
55	0x3cfceb5c	0.030873947
56	0xbdd5af8e	-0.10433875
57	0xbe9259f1	-0.28584245
58	0xbe5b7c40	-0.21434116
59	0xbc793f6b	-0.015212874
60	0xbe4124fe	-0.18861768
61	0xbcb93438	-0.022607908
62	0xbe61a7ce	-0.22036669
63	0xbe096ffa	-0.13421622
64	0xbc7354c7	-0.014851755
65	0xbd710eaa	-0.058851875
66	0xbd6fe62e	-0.058569126
67	0x3c1887f7	0.00930976
68	0xbd50b084	-0.05094959
69	0xbe05a631	-0.13051678
70	0xbc2d7486	-0.010586863
71	0xbe0fe57a	-0.14052382
72	0xbe251bca	-0.16123882
73	0xbd51cfcd	-0.051223565
74	0xbe68a558	-0.22719324
75	0xbe44604f	-0.19177364
76	0xbe5be412	-0.2147372
77	0xbdcb2fbf	-0.09921216
78	0xbddc9b1c	-0.10771772
79	0xbe813d19	-0.25241926
80	0xbdb91def	-0.090389125
81	0xbcb365d0	-0.021899134
82	0xbd1a8457	-0.037723865
83	0xbe3c872f	-0.18410943
84	0xbe46a165	-0.19397505
85	0xbdf1bc96	-0.11803548
86	0xbe3faf5c	-0.18719238
87	0xbd7cc75c	-0.06171356
88	0xbe4ad89a	-0.1980919
89	0xbdccafbe	-0.09994458
90	0xbe187837	-0.14889608
91	0xbe1aeb9d	-0.15128942
92	0xbdf2794a	-0.1183954
93	0xbe39bc9a	-0.18138352
94	0xbe4aab0e	-0.19791815
95	0xbdb4b714	-0.08823982
96	0xbd471842	-0.04860712
97	0xbe4c2c1a	-0.19938698
98	0xbdc0f4b3	-0.09421673
99	0xbd1a9299	-0.037737463
100	0xbe31788d	-0.17331143
101	0xbcd542ab	-0.026032766
102	0xbd782fd1	-0.060592476
103	0xbe5a553b	-0.21321575
104	0xbd98aeb3	-0.07455196
105	0xbdf544be	-0.11976002
106	0xbbf7fd4c	-0.007568037
107	0xbe35f289	-0.17768301
108	0xbdf2c3c7	-0.11853748
109	0xbe227866	-0.15866241
110	0xbdf9a511	-0.12189687
111	0xbd0d4dbf	-0.034497973
112	0xbce6c127	-0.028168274
113	0xbdf05efc	-0.11736867
114	0xbdc9c8fe	-0.09852789
115	0xbe84f5f9	-0.25968912
116	0xbd73e9aa	-0.05954901
117	0xbdd700be	-0.104981884
118	0xbc047aa2	-0.008085879
119	0xbe5a8b4a	-0.21342197
120	0xbdecdc80	-0.115654945
121	0xbe382058	-0.17981088
122	0xbe477cdf	-0.19481228
123	0xbd8a65a6	-0.06757669
124	0xbd885a23	-0.06657817
125	0xbe1ac6b0	-0.15114856
126	0xbe19c1c5	-0.15015323
127	0xbcbcd252	-0.023049507

actor.6.weight f4 [12, 128]
0	0x3b8c91ae	0.0042898273
1	0xbc1f2518	-0.009713434
2	0x3d63af6a	0.05558721
3	0xbbfed309	-0.007776622
4	0xbca30dce	-0.019904044
5	0x3c6f92ec	0.014622431
6	0x3c55c75b	0.013048018
7	0x3c87a7c2	0.016559485
8	0xba9c9a60	-0.0011947863
9	0xbc15efb7	-0.009151391
10	0xbbc680a1	-0.006057814
11	0x3baa897a	0.0052043768
12	0xbd117627	-0.03551307
13	0x3bddc845	0.0067682588
14	0xbcb337f5	-0.021877268
15	0xbd07a167	-0.03311291
16	0xbd6d0b4e	-0.05787211
17	0xbc32ef07	-0.010921246
18	0xbd0a2490	-0.033726275
19	0xbd1d2360	-0.038363814
20	0x3cac926d	0.021065915
21	0x3d2ecf7e	0.04267835
22	0x3d5f1bfb	0.054470044
23	0x3ac5506e	0.0015053877
24	0x3de4a836	0.11164896
25	0x3d00ac3e	0.031414263
26	0xbe05d0fd	-0.13068004
27	0xbc4239db	-0.011854614
28	0x3ca19763	0.019725507
29	0x3c33ae91	0.010966913
30	0x3cad8388	0.021180883
31	0xbd32fc08	-0.043697387
32	0x3db27d58	0.08715314
33	0xbd489638	-0.048971385
34	0xbc447bbe	-0.011992393
35	0x3d12d512	0.03584773
36	0xbc1a4e61	-0.009418101
37	0x3cc03a0a	0.023465175
38	0xbccf4107	-0.025299562
39	0x3d2fa2af	0.042879757
40	0x3b626eb7	0.0034550854
41	0xbc79da64	-0.015249822
42	0x3b0d88cb	0.0021596428
43	0xbd578a43	-0.05262209
44	0x3bb8dabe	0.0056413105
45	0x3c53edc1	0.012935103
46	0x3d5cd500	0.05391407
47	0x3cc3a3ae	0.02388176
48	0x3d36b004	0.044601455
49	0x3b0ca9ad	0.002146344
50	0x3bba489f	0.0056849266
51	0x3c4f5ac6	0.012655919
52	0x3c7834ec	0.015149336
53	0xb9dfbae9	-0.00042673133
54	0xbc572ff2	-0.01313399
55	0xbcd0a64e	-0.025469925
56	0xbb33fad8	-0.0027462747
57	0x3c1011cc	0.008793306
58	0x3b574f11	0.0032853524
59	0xbd9e3e23	-0.077266954
60	0x3b93e420	0.0045132786
61	0xbcd158ca	-0.025555033
62	0x3d74f852	0.05980713
63	0xbcb4097e	-0.021977182
64	0x3bd37f65	0.0064543956
65	0xbb7283ba	-0.0037004785
66	0x3d946104	0.07245067
67	0xbd2bdce2	-0.041958697
68	0x3b8b7409	0.004255776
69	0xbca0b4e6	-0.01961751
70	0x3b932532	0.004490518
71	0x3d289d96	0.04116591
72	0xbceb8f15	-0.02875475
73	0xbd063918	-0.032769293
74	0x3cb4552a	0.022013266
75	0x3da7714e	0.08175908
76	0x3c1a0626	0.00940088
77	0x3cf5b7f3	0.02999494
78	0xbcac144a	-0.021005768
79	0x3d678a6e	0.0565285
80	0xbd148e4a	-0.03626851
81	0xbcbee702	-0.023303512
82	0x3c1b067d	0.009461996
83	0x3c28d943	0.0103057055
84	0xbd3365ee	-0.04379838
85	0xbb15b1b2	-0.002284151
86	0x3c122dff	0.008922099
87	0xbd3d9460	-0.04628408
88	0xbe346179	-0.17615308
89	0xbd24978e	-0.040183596
90	0x3bd2ad7f	0.0064293738
91	0xbc0c759b	-0.008572961
92	0xbbc2154f	-0.0059229503
93	0xbc265770	-0.010152683
94	0xbcd27625	-0.025691101
95	0x3d4bb753	0.04973538
96	0xbca376a7	-0.019954039
97	0xbd002267	-0.03128281
98	0x3ad7440d	0.0016423479
99	0x3d0bcb33	0.034129333
100	0x3cd02fc2	0.025413398
101	0xbc6be9d5	-0.014399012
102	0x3d698223	0.057008874
103	0xbbfc5659	-0.007700723
104	0xbdc0f186	-0.09421067
105	0xbc7f025b	-0.015564526
106	0xbd53ed48	-0.05173996
107	0xbd4292c8	-0.047503263
108	0x3e072f47	0.13201629
109	0x3cd76dcd	0.026297474
110	0x3c26b406	0.010174757
111	0xbd003d7f	-0.031308647
112	0xbce33b19	-0.02773814
113	0xbb939c41	-0.004504711
114	0xbbc1b8ea	-0.005911936
115	0x3d37c410	0.044864714
116	0x3d166bde	0.036723964
117	0x3d72698b	0.059182685
118	0x3d8dcc7e	0.069237694
119	0xbd01b486	-0.0316663
120	0x3d557491	0.05211312
121	0xbd0f186a	-0.034935392
122	0x3d4c06a7	0.04981103
123	0x3b963b3e	0.004584699
124	0x3d94ef9e	0.07272266
125	0xbccbe1dc	-0.024887972
126	0xbc8e2614	-0.017352141
127	0xbb96b700	-0.004599452
128	0xbd35df88	-0.04440263
129	0xbc61510b	-0.013752232
130	0xbcc2f01b	-0.023796132
131	0x3d27c190	0.04095608
132	0x3d7ea199	0.06216583
133	0x3c692543	0.014230075
134	0xbd180c3f	-0.037121054
135	0xbcadc695	-0.021212855
136	0x3cefad4e	0.029257443
137	0xbd729110	-0.059220374
138	0xbc02c705	-0.00798202
139	0xbdaacf0d	-0.08340273
140	0x3cf901d6	0.030396383
141	0xbcfc66c7	-0.030810727
142	0x3d18c890	0.037300646
143	0x3d97973f	0.07401895
144	0x3da2e5e2	0.07954003
145	0x3beca7c3	0.007222147
146	0x3dad1088	0.08450419
147	0x3d2a40b9	0.04156563
148	0xba9950a3	-0.0011697005
149	0xbcdd1407	-0.026987089
150	0xbd26e849	-0.04074887
151	0xbd0e51cd	-0.03474598
152	0xbd006b33	-0.031352233
153	0x3dc7695e	0.09736894
154	0x3d31cfe9	0.04341117
155	0xbd339bb8	-0.043849677
156	0xbbaac2c6	-0.005211207
157	0x3cf716bf	0.030162213
158	0x3d7b44b9	0.061344836
159	0xbc0d1633	-0.00861125
160	0xbca78e21	-0.020453515
161	0xbc8c13a2	-0.017099205
162	0xbcd1ebcb	-0.02562513
163	0xbd01a753	-0.031653713
164	0x3d22b664	0.039724723
165	0x3c1fd013	0.009754199
166	0x3cb3f01c	0.021965079
167	0x3d7adb30	0.06124419
168	0x3c97af89	0.018516319
169	0xbc1fcef8	-0.009753935
170	0x3bdc7d37	0.006728794
171	0x3d8db7ce	0.069198236
172	0x3cbc6398	0.022996709
173	0x3d3c3c84	0.04595615
174	0xbd99e63d	-0.075146176
175	0x3d1732c9	0.036913667
176	0x3c919a40	0.017773747
177	0x3cace073	0.02110312
178	0x3bd47977	0.0064842063
179	0x3d2463b2	0.04013414
180	0x3d06d4d3	0.03291781
181	0x3d33fee5	0.04394426
182	0xbd068030	-0.032837093
183	0x3d21473d	0.03937458
184	0xbd5ef7e2	-0.05443562
185	0xbcf20643	-0.029544001
186	0xbbfc6ee1	-0.0077036475
187	0x3d55ef5f	0.052230235
188	0x3d40dce8	0.047085673
189	0xbc9fab54	-0.019490875
190	0xbcfb5d85	-0.030684242
191	0xbd13b1c6	-0.03605821
192	0xbcce9bf5	-0.02522085
193	0x3c81989f	0.015819846
194	0xbcfe8b6b	-0.031072339
195	0x3bc9d716	0.0061596734
196	0x3cf49c72	0.029859755
197	0xbdacb004	-0.0843201
198	0x3d4eb2a9	0.050463352
199	0x3c47631f	0.012169628
200	0x3aab6660	0.0013076775
201	0x3d42110b	0.047379535
202	0xbd22be3f	-0.039732214
203	0x3d422334	0.047396854
204	0xbd348b9c	-0.044078454
205	0x3d29d3b3	0.041461658
206	0x3c638b67	0.013888217
207	0xbadc70d2	-0.0016818291
208	0x3df7db5c	0.12102386
209	0x3c61ab6e	0.013773782
210	0xbacca8a1	-0.001561422
211	0xbc806712	-0.015674148
212	0xbbb5a97f	-0.005543887
213	0xbd6c1161	-0.05763376
214	0xba5ad108	-0.0008347188
215	0x3c9c3534	0.019068338
216	0xbd3ed5fc	-0.04659079
217	0x3c575363	0.01314244
218	0xbd3eef6f	-0.04661506
219	0xbd1b1cc1	-0.03786922
220	0x3d3f319e	0.046678178
221	0x3c45a2df	0.012062757
222	0x3cfdd01c	0.030983023
223	0xbcc9f1cd	-0.024651432
224	0x3d8369b5	0.064166464
225	0x3caad113	0.020851647
226	0xbdb5b7f2	-0.088729754
227	0xbb1adebb	-0.0023631293
228	0xbd2d8a9a	-0.04236851
229	0x3c8cfaa2	0.017209355
230	0xbdd0681d	-0.10176108
231	0xbcce3b49	-0.025174754
232	0xbd9b176b	-0.07572826
233	0x3d09c8a1	0.0336386
234	0x3c85c5d4	0.016329683
235	0xbbca6979	-0.006177124
236	0x3c48850b	0.012238751
237	0xbd9abc20	-0.07555413
238	0xbcd75029	-0.02628334
239	0x3c784902	0.015154125
240	0x3d084338	0.03326723
241	0xbd55a0fc	-0.05215548
242	0x3b6bedb9	0.0035999848
243	0xbd735e25	-0.059415955
244	0x3c8f8525	0.017519543
245	0x3cc0adcb	0.023520371
246	0x3d1e93bd	0.038715113
247	0x3c286b21	0.010279448
248	0xbcc1e65f	-0.02366942
249	0xbd2cadc5	-0.042157907
250	0x3e20f9c9	0.15720285
251	0x3c196f0a	0.009364853
252	0x3d33a136	0.043854915
253	0x3b9ed550	0.004847206
254	0x3c0bf10d	0.008541358
255	0xbbc5e4ec	-0.0060392525

actor.6.bias f4 [12]
0	0xbd05dbc3	-0.032680284
1	0xbd00f04f	-0.031479176
2	0xbd461918	-0.048363775
3	0x3ddb454b	0.10706576
4	0x3d927e3d	0.07152984
5	0x3d8b5832	0.06803931
6	0xbb9795a0	-0.004625991
7	0xbccd2aef	-0.025044886
8	0x3de9cab4	0.11415616
9	0xbddbef91	-0.10739053
10	0xbca6c1ff	-0.020356176
11	0x3d58682e	0.05283373
