logs/rsl_rl/unitree_go2_flat/2024-07-16_15-42-08/exported/policy.onnx (onnx, 163093 bytes, 8 tensors)

actor.0.weight f4 [128, 45]
000000 9d 00 17 be a3 b0 da 3e 15 39 d5 be 31 bc a3 3e
       -0.14746328 0.42712888 -0.41645113 0.31979516
000010 0e 30 6c 3f d6 2f 67 3e b1 91 b9 3e 08 72 90 3d
       0.92260826 0.22576842 0.36243966 0.07053
000020 39 f9 90 3e 9c 2e 99 be be 92 5e 3e 48 9e 37 be
       0.28315142 -0.29918373 0.21735665 -0.17931473
000030 15 13 3f 3e 64 f5 57 bf b4 37 aa be 65 80 a2 3e
       0.18659623 -0.8435881 -0.33245623 0.31738582
000040 87 8f ef be a3 90 07 bf c5 7e 17 3f ee 11 8a ba
       -0.4678919 -0.52955073 0.5917781 -0.0010533908
000050 f7 65 95 3e 4d fb 8e bd 68 f7 6c 3b a9 50 17 be
       0.29179356 -0.069815256 0.0036158208 -0.14776863
000060 26 21 74 3d c1 e4 3e bd 5a 73 ba bd 39 21 12 be
       0.059601925 -0.046604875 -0.09104033 -0.14270486
000070 bf f7 8b 3d 7f de ff bc b6 68 db 3d ee 9d 35 bd
       0.06834363 -0.031234024 0.107133314 -0.044340067
000080 1d b3 6f bc c7 94 b3 bd 5f 20 af 3d bc e3 4b 3c
       -0.014630106 -0.087686114 0.08551096 0.012444433
000090 cc 10 29 be 7f 02 8a 3e 05 54 01 bc e5 cf c6 3d
       -0.16510314 0.2695503 -0.007893567 0.097076215
0000a0 eb 75 13 be 56 a3 90 3d e2 c3 67 3d f3 8f ca 3b
       -0.14400451 0.07062404 0.056583293 0.006181711
0000b0 8e 72 e9 be 05 b1 e1 3d d6 03 9f 3e 9e 0b 61 b9
       -0.4559521 0.11020092 0.31057614 -0.00021462
0000c0 a1 c0 33 bf 2b 79 f1 be 1e e5 85 bc f1 54 ea 3d
       -0.70215803 -0.47162756 -0.016344603 0.114419825
0000d0 e6 02 e3 3e a7 59 96 bd d2 7f 06 3e 8e d7 10 bf
       0.4433815 -0.073413186 0.13134697 -0.5657891
0000e0 47 b5 b2 3d 8f a7 ab 3d b1 65 30 3e 61 8b 70 3e
       0.08725982 0.08381569 0.17226292 0.23490669
0000f0 3f 09 2b 3f db b7 7c 3e 8d c1 1a 3d 28 17 89 be
       0.66810983 0.2467951 0.03778224 -0.2677548
000100 ca 25 3f bf 2d 2a 20 bf 43 3c 7d 3d bc f4 41 3d
       -0.74667037 -0.62564355 0.06182505 0.047352538
000110 0c 2f cc 3b 3b 31 ec bd 2b cc 67 3d 17 f2 a9 bd
       0.0062311944 -0.115328275 0.056591194 -0.08298128
000120 6b 59 ba bd 12 c8 01 3e 9c 41 df bc 3b d6 b8 3d
       -0.090990864 0.12673977 -0.027252965 0.09025236
000130 f4 34 97 3c 9e 98 9f 3c c3 95 10 3d eb f2 4e 3e
       0.018457867 0.019481953 0.035299074 0.20209853
000140 4d 4f 1c 3a 45 99 04 3e ca ef a9 bd 31 6a 00 3d
       0.00059627445 0.12949093 -0.08297689 0.031351272
000150 a3 8e 28 3e 8e ea 7a 3d bd 01 7d bd 72 93 4f 3e
       0.16460662 0.061258845 -0.061769236 0.2027109
000160 b2 89 83 bd 5d f0 8e bc 80 02 80 3e 5b 68 2f be
       -0.06422748 -0.017448599 0.25001907 -0.17129652
000170 07 da e7 3d a6 3f 59 3f 7d b3 81 be 44 26 14 3d
       0.11320882 0.84862745 -0.2533225 0.036169305
000180 9f ac fa 3c 23 03 6b bd 45 a9 33 bf 04 24 8a bc
       0.03059989 -0.05737604 -0.7018016 -0.016862877
000190 41 b3 26 3f 00 ab d3 3e 44 bc e6 bd bd d9 11 be
       0.6511727 0.413414 -0.112663776 -0.14243217
0001a0 78 9d 04 be f8 d8 c5 3c 2a d1 37 3e c7 6e 00 3f
       -0.12950695 0.02415131 0.17950884 0.5016903
0001b0 b0 ed 1c be 90 30 d9 3e 7c d5 26 3f 59 1c 91 bd
       -0.15325046 0.42419863 0.651695 -0.07085485
0001c0 35 ba 07 3e 41 54 2e 3d 3a 55 59 3d b3 92 a0 bd
       0.13254626 0.04256082 0.053059794 -0.07840481
0001d0 0b 66 b3 bc c9 d6 85 bc 37 60 e9 3c 6c 65 bb 3d
       -0.021899244 -0.01633777 0.028488262 0.09150204
0001e0 07 a7 f1 3d 07 d4 b9 3d f7 15 b7 bc bc de 69 3e
       0.11799436 0.09073644 -0.02234934 0.22838873
0001f0 7b ca 13 bd fa 2d 04 3f d6 a9 03 3e 41 b9 24 be
       -0.036081772 0.51632655 0.12857756 -0.16086294
000200 b4 23 ec bd 22 94 dd 3d a1 dc 49 be f8 0c 09 3e
       -0.11530247 0.1081927 -0.1971307 0.13383853
000210 a8 72 73 be 23 23 38 be 4c 9e 96 3e c1 18 00 be
       -0.23774207 -0.17982154 0.29417646 -0.12509443
000220 b1 3e 8a bd e2 dd e0 bc 67 d3 8a bf ad 72 61 3f
       -0.06750239 -0.027449552 -1.0845765 0.88065606
000230 c9 26 c0 3d ef d7 00 be 04 1c f2 3e ff e4 e5 3e
       0.09382398 -0.12582372 0.47287 0.44901273
000240 a3 f6 27 bf 25 f3 f5 be 39 8e 11 bf 24 26 17 bf
       -0.6561071 -0.48037067 -0.5685764 -0.5904257
000250 c9 a7 1c bf c9 11 c0 be fe f7 b1 bf d3 cb 1a bc
       -0.6119352 -0.3751357 -1.3903806 -0.00944801
000260 e9 fa 3f 3e 2c 00 1f 3f c4 fb 77 bf dc 2d 33 be
       0.18748058 0.6210964 -0.9686854 -0.17497963
000270 cc 10 eb 3c a2 bf d3 3c 85 16 1a 3d a8 93 a6 bd
       0.028694533 0.025848214 0.037619133 -0.08133632
000280 25 05 c9 3c 93 68 6f bd 32 b0 b3 bd 69 82 0a 3c
       0.024538586 -0.05844934 -0.08773841 0.008453944
000290 fe ef 57 bd 50 b0 1e ba 72 a3 c4 3c d4 39 28 bc
       -0.05271911 -0.0006053494 0.024003718 -0.010267694
0002a0 cf 91 9e bd f5 a9 08 be f5 9f 87 bc 97 6b 89 bd
       -0.077426545 -0.13346083 -0.016555766 -0.06709974
0002b0 1f 43 3e bd 2e 26 a8 3d 57 e8 cf bd b6 6b 8a 3d
       -0.04645073 0.08210407 -0.10151737 0.067588255
0002c0 16 dd 2d 3e c2 a7 93 3d 83 a5 e0 bd 1e d8 32 3e
       0.16978869 0.07209732 -0.10969069 0.17465255
0002d0 33 07 54 bd 5c 09 e1 3d 03 90 34 3f fa e0 60 be
       -0.05176468 0.10988113 0.70532244 -0.21960822
0002e0 e5 34 b5 be 89 5b 05 be 8f 71 1a be 07 b3 c2 bd
       -0.35391918 -0.13023199 -0.15082382 -0.09506803
0002f0 9e 7d c1 be e8 4d 8a 3e 59 d2 84 3f 9e 67 12 be
       -0.3779115 0.27012563 1.0376693 -0.1429734
000300 34 63 13 3f ff 8c af bf 9f 7c 8a be cc 22 94 3d
       0.57573247 -1.3714904 -0.27048203 0.072331995
000310 e7 5c d7 3e f5 9c a8 3d 86 58 dc 3e bd 70 ad 3e
       0.42063066 0.08233062 0.43036288 0.33875075
000320 c9 fd 25 be 4f 1a a6 3d 7c 8e 77 bc 82 ce 84 bd
       -0.16210093 0.08110487 -0.0151096545 -0.06484701
000330 8a e1 04 3d 2e 67 b5 3c 78 b7 c5 bd 14 7a 8c bc
       0.032441653 0.022143926 -0.096541345 -0.017148055
000340 cf 55 2f 3d ec d0 99 bd 38 65 8d bc 69 bc 18 3b
       0.042806443 -0.07510552 -0.017260179 0.002330566
000350 c5 54 4e 3c 60 fe 81 3c dc 14 36 be 56 c6 01 3d
       0.012593453 0.015868366 -0.17781395 0.03168329
000360 ac 23 0b 3e d9 9b 6b bd 5c ac f5 3d 2f ce 9f 3e
       0.13587826 -0.057521675 0.119957656 0.31211993
000370 77 bc 7a 3d 90 5f 36 be 14 9e 43 3d e9 8e 19 be
       0.06121489 -0.17809892 0.047758177 -0.14995922
000380 ea 05 4b be 1a a8 2d bd b3 00 fd 3e f9 bf ee 3e
       -0.19826475 -0.042396642 0.49414596 0.4663084
000390 da be c8 3e 7b db ba 3d ae df e0 3d f2 65 fa be
       0.39208108 0.09123894 0.109801635 -0.48905903
0003a0 d7 4a 68 be d4 24 9a be b1 60 0c 3e 7a 30 15 3f
       -0.22684799 -0.30106223 0.1370876 0.58277094
0003b0 88 f8 c9 bd 1b 62 c1 bd 6e 6f 8f 3e fe 74 fb 3e
       -0.09861857 -0.0944254 0.28014702 0.49112695
0003c0 5d f8 84 3e b5 30 68 be c4 69 ac 3d 04 a7 be 3e
       0.25970736 -0.2267483 0.08418611 0.37236798
0003d0 d4 b4 7f bd 60 62 45 3f 34 91 a7 3c 7b 0e d2 bb
       -0.06242831 0.77103233 0.02045498 -0.0064104176
0003e0 93 c8 80 3d 2c 91 a8 bd c5 c0 69 3d 61 b6 21 3d
       0.062882565 -0.08230814 0.057068605 0.03948057
0003f0 f6 f1 c3 3d 7a b7 b1 3c ba 9d 3a bb e5 4d 41 bd
       0.09567635 0.021693934 -0.002847536 -0.047193427

actor.0.bias f4 [128]
000000 64 89 32 3d 64 8e 62 be 91 e7 6c be 93 5f cd bc
       0.043588057 -0.2212463 -0.2313521 -0.025069987
000010 13 c7 91 3e b6 a5 0f bc 3d f8 09 be c3 86 14 bd
       0.28472194 -0.008767536 -0.13473602 -0.03626133
000020 17 65 00 be 90 b0 d1 bd 84 8d bb bd a8 c3 3d 3e
       -0.12538563 -0.10238755 -0.09157851 0.18531668
000030 e2 ce 62 bc ec 75 9d 3d 2e 8c 3c bc 83 13 74 3e
       -0.01384327 0.076885074 -0.011508031 0.23835568
000040 2e de 96 3d 55 05 bc 3e 8e f3 8e 3e bf 07 ae bd
       0.07366596 0.36722818 0.27920192 -0.08497571
000050 0c f1 fa bd 16 2f bc 3d 1c 58 24 be 64 20 92 3d
       -0.12253007 0.091886684 -0.16049236 0.07135084
000060 ae 35 19 3d dc 69 c1 be ed ee 68 3c a7 39 89 bd
       0.03740471 -0.37776077 0.014217121 -0.067004494
000070 83 f1 15 be 4b 18 81 be 91 e5 ad 3d 2c 71 bb 3d
       -0.1464291 -0.25213847 0.08491052 0.09152445
000080 c0 91 98 3d d3 3d 6a 3e c6 d0 66 be db 99 74 be
       0.074496746 0.22875147 -0.22540578 -0.23886816
000090 84 f9 3a be c1 c2 37 bd b4 b1 19 3e c3 01 81 be
       -0.18259245 -0.044863466 0.15009195 -0.25196657
0000a0 a0 f4 c9 3d 62 29 6c 3e 79 e4 a6 3d ca 3a c6 bd
       0.09861112 0.23062661 0.081490465 -0.09679182
0000b0 23 f7 e3 bd df 1e 2d 3e df a4 13 3e c4 17 95 bb
       -0.11131122 0.16906308 0.14418362 -0.004549952
0000c0 9d 14 79 bd 09 a1 5d be 23 5a b6 bd c7 7f c2 bc
       -0.060810674 -0.21643461 -0.08903911 -0.02374257
0000d0 1c 5e 0f bd 33 df ad bd bc 60 36 be 22 9e 2b bd
       -0.03500186 -0.084898375 -0.17810339 -0.041898854
0000e0 0a 2c a6 3d 66 bb fc 3d 9c 13 c3 bd b5 68 f4 3d
       0.081138685 0.12340431 -0.095252246 0.11934034
0000f0 c1 16 cb bd b3 02 9b 3b 00 ca 52 be f3 ef 3f 3e
       -0.09916449 0.0047305464 -0.2058487 0.18743877
000100 ff c8 f4 bd 36 9b af bd d4 56 22 3e ba b0 66 bd
       -0.119523995 -0.08574526 0.15853435 -0.056320883
000110 5d d9 48 be 28 16 2e 3d 3a a9 74 be c8 03 86 be
       -0.19614168 0.0425016 -0.2389268 -0.2617476
000120 c9 17 ae 3d a7 cc c6 bd a5 54 db bc e3 f2 f4 bc
       0.085006304 -0.09707003 -0.02677376 -0.029900974
000130 cc 5d 1e be 1c 79 93 3e 3c 06 99 3b b1 79 1f be
       -0.15465468 0.28803337 0.0046699326 -0.15573765
000140 e1 86 0a be 9b a3 c4 3c ac b5 71 3e 40 9f 8d 3e
       -0.13528015 0.024003794 0.23604459 0.2766056
000150 7c cc 48 be 15 45 52 3e 65 5c 8d 3e 85 d0 4a 3d
       -0.19609255 0.20534165 0.27609554 0.049515266
000160 f4 d7 3d be cc ea d5 3d de 9d 61 bd 2b f2 ff 3a
       -0.18539411 0.104451746 -0.055082195 0.0019527128
000170 e8 8b a0 3d 9d fd fd bd 3a 43 f6 3d 5f 6f 2a be
       0.07839185 -0.124018885 0.12024541 -0.16644047
000180 68 21 a6 3c 64 3b 1e be 57 ea b8 bd bf 1e 72 be
       0.020279601 -0.15452343 -0.09029072 -0.23644541
000190 ba ab 31 be 3a e8 8d bd ca 75 0d bd 35 fe 91 bc
       -0.17350665 -0.06929059 -0.03453616 -0.01782141
0001a0 7a 17 97 bd 3a 35 8e 3d 84 e1 83 3e 20 bc 22 3d
       -0.07377525 0.06943746 0.25757992 0.03973019
0001b0 a3 28 92 bc 9c 06 82 bd c5 40 62 be f9 c4 2f be
       -0.017841643 -0.06348917 -0.2209502 -0.17164983
0001c0 af 0f b1 3c 71 b0 00 3e d6 98 96 be ee 5d 58 be
       0.021613924 0.12567307 -0.2941348 -0.21129581
0001d0 1b 8c 67 3e e8 a6 6d 3d 74 4d 06 be 71 e0 b0 bd
       0.2261204 0.058020502 -0.13115484 -0.08636559
0001e0 ae 9f 17 bd 73 dc 09 be 7f 0f 77 3c 8f 32 41 3d
       -0.037017517 -0.13463001 0.015079378 0.047167357
0001f0 b5 71 e5 bd 51 3a 39 be 52 36 b4 3e 24 80 ba be
       -0.112033285 -0.18088652 0.35197693 -0.3642589

actor.2.weight f4 [128, 128]
000000 ea 4f 4b be 2c e0 6b bb 17 90 1d bd f7 96 d9 bd
       -0.19854704 -0.003599177 -0.038467493 -0.106244974
000010 69 32 09 bc 8e 51 a2 bb 51 ef a6 bd 3b 52 95 bd
       -0.008373835 -0.0049535697 -0.08151115 -0.07291075
000020 b5 94 b4 bd 88 b9 a4 be 8c 5b 71 3e f9 4b 37 be
       -0.08817426 -0.321728 0.23570079 -0.17900075
000030 82 6e 38 3b 86 d1 9e bd 36 08 bb 3d 8c 44 d6 bd
       0.002814204 -0.07754807 0.091324255 -0.10462293
000040 73 bf 77 3d bb bf b1 3d d0 be c4 3d 9d 5b d8 bd
       0.060485315 0.08679148 0.09606707 -0.10564349
000050 87 9e 6c bd f5 cf d1 bd 5c 4d c2 3c 1e a8 41 bd
       -0.05776837 -0.10244743 0.023718528 -0.04727947
000060 c0 e6 04 be 83 9f b0 be 8b 05 78 bd cf ae 73 3d
       -0.12978649 -0.34496698 -0.06055216 0.059492882
000070 01 fc ed 3d c3 f3 80 3c b1 9a 18 be 7a df 7c 3d
       0.116203316 0.015741235 -0.1490276 0.06173656
000080 29 c9 69 be e8 2e 00 3e b4 98 88 bd c6 c5 ba 3c
       -0.22830643 0.12517893 -0.06669751 0.022799384
000090 05 42 43 be 83 6a b5 3c 13 ce 1c be 35 53 15 be
       -0.19068153 0.022145515 -0.15312986 -0.14582522
0000a0 6b 53 81 be e4 0a 39 3c 1d 8f 45 bd 1c c9 74 be
       -0.25258955 0.0112941 -0.048232187 -0.23904842
0000b0 8c 72 81 3e 57 56 c4 3d 21 28 35 be 11 1a 03 3d
       0.25282705 0.095867805 -0.17691089 0.03200728
0000c0 83 6e b7 3c cd ec 2b 3d 33 58 e5 3d 3c c5 21 3d
       0.022391563 0.041973878 0.11198463 0.039494738
0000d0 2c d0 99 ba 9e 7b 95 bd 25 2d 76 bd 80 d2 2d 3d
       -0.0011735014 -0.07298969 -0.060101647 0.042437077
0000e0 41 2e c0 bd 86 7d 08 be c7 5f 02 bd a6 63 81 bd
       -0.09383822 -0.13329133 -0.03182962 -0.063178346
0000f0 cc 59 26 3d ad 78 58 bc fa 3e c5 bd 63 61 9a bd
       0.04061298 -0.013212365 -0.096311525 -0.07538106
000100 67 0f 15 3e 35 70 be be 91 31 f0 3c 08 cd f5 bd
       0.14556657 -0.37194982 0.02932051 -0.12001997
000110 d6 88 44 be d9 05 98 bb cc 1f 9a bd 95 c4 00 be
       -0.19192824 -0.004639369 -0.07525596 -0.1257499
000120 de 14 47 be 15 65 ee bd 9c 0c 36 bd 00 05 36 bd
       -0.19441554 -0.116403736 -0.04444562 -0.044438362
000130 a9 45 e8 3d 94 ba 06 be d8 6f 02 3e 5a 37 78 bc
       0.113414116 -0.13157111 0.12737978 -0.015149916
000140 85 ad f7 bd e9 ab 72 bd 7b d7 2a 3d e3 79 8a 3b
       -0.12093643 -0.059245978 0.041709404 0.004225956
000150 91 ea 82 bd ef 93 29 3d 43 ae 40 3d b6 b7 cd bd
       -0.06392396 0.041400846 0.04704119 -0.10044806
000160 48 90 43 be 1d 25 42 be 60 7a 96 bd d4 06 11 bd
       -0.19098008 -0.1895947 -0.0734756 -0.035406902
000170 8c cd 08 3d b3 1d 15 bd 7d 59 ec bd ca 7d 19 be
       0.03339915 -0.036405277 -0.11540506 -0.14989391
000180 0c aa 79 bd 82 0f 26 3e c4 15 db 3d 47 ae be bc
       -0.060953185 0.16216853 0.10697511 -0.023276461
000190 82 16 d6 3d 3d 57 c4 3d e9 f5 9a bd 58 be d6 3d
       0.10453512 0.09586952 -0.07566435 0.10485524
0001a0 a4 da e5 bd 35 69 f3 3d c0 29 f8 bd ff f3 0e 3c
       -0.11223343 0.11885301 -0.12117338 0.008725165
0001b0 3e a5 e3 3d e8 80 1d be f4 8d a0 bd d8 2a 2e be
       0.11115502 -0.15381205 -0.078395754 -0.17008531
0001c0 41 36 27 3d 5f 00 6a 3d de 17 e6 bd f8 fa b1 bd
       0.040823225 0.05712926 -0.11235021 -0.086904466
0001d0 97 4a 9f bc d6 4b 26 bd 7c e6 e7 3d 1a f9 b8 bd
       -0.019444747 -0.040599667 0.11323258 -0.09031887
0001e0 3f b8 96 bc b5 cd 36 3e a7 ec ff 3d 52 05 0a 3d
       -0.018398402 0.17851909 0.1249631 0.03369648
0001f0 fa 5a 82 bd df 73 45 be 3b f7 dc bd ad 1e 90 3e
       -0.06365009 -0.19282483 -0.10789343 0.28148404
000200 07 be c4 3b 2c 4c af 3c ef f6 93 3c 99 2f 21 bd
       0.0060040983 0.021398626 0.018062083 -0.039352033
000210 77 5e 1e 3e a5 c6 02 3c 50 81 4b 3c e6 32 4f 3d
       0.15465723 0.007981931 0.012420967 0.05058565
000220 c3 eb f0 bd 33 f8 82 be 51 93 62 3e 8e 31 41 bd
       -0.11763718 -0.25579986 0.22126509 -0.0471664
000230 ff f5 b9 3d bf b9 00 be 3c e3 a7 bd bb 11 f9 bd
       0.09080123 -0.12570857 -0.081976384 -0.12161585
000240 8c ec 07 ba e4 24 95 be 59 3e 2a bd 85 0a cd 3c
       -0.00051850895 -0.29129708 -0.041563366 0.02502943
000250 a4 57 a9 3e 9b cc 99 bb 5b 49 99 bd 35 39 09 3e
       0.33074677 -0.0046935803 -0.074846946 0.13400729
000260 d1 88 8f bc 4a 8b 91 3e 1a a4 94 bd dd ca ef bd
       -0.017521294 0.28426582 -0.072578624 -0.11708615
000270 37 71 5e 3e ab d8 11 bc 5a a8 93 bd 24 5c 80 be
       0.21722876 -0.008901755 -0.07209845 -0.25070298
000280 4b d1 1a be 50 f8 00 be a3 87 b3 3e e5 87 99 3a
       -0.15118901 -0.12594724 0.3506442 0.0011713473
000290 e8 23 16 3e 87 ab 60 3d ad e3 c7 3c b3 00 d2 3d
       0.14662135 0.05485108 0.024400556 0.102540396
0002a0 e9 70 a3 bc 1d ff 15 be 96 03 70 be b7 2c 66 be
       -0.0199513 -0.14648099 -0.23438868 -0.22477995
0002b0 6e 07 23 3d 81 1c f4 bc 61 47 20 3d 14 26 f6 bd
       0.039802007 -0.029798748 0.039130572 -0.120189816
0002c0 f5 94 a0 3c 08 10 8f bd a8 c6 05 3c 8e 81 bf 3c
       0.019602278 -0.069854796 0.008165039 0.023377206
0002d0 56 8f 08 3d e3 49 b2 3c dd d4 e4 bd 6d 70 71 3d
       0.03333982 0.021763748 -0.11173413 0.05894511
0002e0 c2 bb 26 be 82 c7 f3 bd 51 35 1e be 69 e4 37 bb
       -0.16282561 -0.119032875 -0.15450026 -0.0028059727
0002f0 e3 44 6d be 1f e0 b9 3d 2b 6f 0f bd 11 44 3e bd
       -0.2317081 0.09075951 -0.035018127 -0.046451632
000300 08 79 24 3e 08 64 cd bc 3a cf 58 bd 53 10 60 3b
       0.16061795 -0.025072113 -0.052932 0.0034189417
000310 b8 5f 74 3a 6b 41 4f 3e 41 05 54 bd b5 c6 74 3e
       0.00093221245 0.20239799 -0.051762823 0.23903926
000320 47 15 ae 3d 1d 7e 0e 3e 58 fc b5 bd 60 4f 0e 3d
       0.08500152 0.13915296 -0.088860214 0.034743667
000330 f9 f7 bf 3c 66 ee 39 3d dc cb 91 3d bd b2 8d 39
       0.023433672 0.04539337 0.07118961 0.00027026786
000340 a4 15 df bd ff 74 cf 3d c1 fe 13 be 33 2d 02 be
       -0.108927995 0.10129737 -0.1445265 -0.12712555
000350 8e 82 4c 3e c1 08 3a 3c f5 50 86 bc 49 d1 ff bc
       0.19971678 0.011354626 -0.016396025 -0.031227725
000360 7c 5f 37 3d da 22 1e be 25 09 ce 3d 57 db d2 3b
       0.044768795 -0.15442982 0.10060338 0.0064348388
000370 d8 e2 32 bd 8a f7 b3 bd c8 a5 87 bd 58 13 3c bd
       -0.043673366 -0.08787449 -0.06623417 -0.045916885
000380 3f 0e 43 bd c6 38 4f be 58 50 0b bc d9 23 5f 3e
       -0.047621008 -0.20236501 -0.008503042 0.21791019
000390 3b 31 d0 3c 4d c3 3d 3c 05 d6 ea ba bd bb 15 be
       0.0254141 0.011582208 -0.0017916566 -0.14622398
0003a0 04 fc 6d 3d 03 b7 27 be 45 b0 7e be 3a 25 d9 bc
       0.05810167 -0.16378407 -0.24871929 -0.026507009
0003b0 0c b1 85 bd dd 7b 2f be 4a bd a6 3d d4 66 d8 3d
       -0.0652791 -0.17137094 0.08141573 0.10566488
0003c0 67 f2 41 be 7f 78 cf be c3 97 31 bc 85 ac 82 3d
       -0.18940125 -0.4052162 -0.0108394055 0.06380562
0003d0 a3 5f b4 3d ca a6 b5 bd c2 34 90 3b 72 55 f3 3c
       0.08807304 -0.08869703 0.0044008205 0.02970383
0003e0 f4 03 92 bd c9 2f a6 3d 13 6e d9 3d fc 11 2c 3e
       -0.0712966 0.08114583 0.10616698 0.16803735
0003f0 25 f4 ea bc e3 d3 74 bd df 3f 9f 3d 1a 83 6f 3e
       -0.02868087 -0.059772383 0.07775854 0.23389855

actor.2.bias f4 [128]
000000 19 59 25 bd 76 32 b2 be cb c8 45 3b c6 e2 10 be
       -0.040368173 -0.34804124 0.0030179496 -0.14149007
000010 20 b9 28 be 2d 5d bb bc a9 5f 54 be 30 64 b3 bd
       -0.1647687 -0.022871578 -0.20739616 -0.087593436
000020 0e 9a 92 be f0 9d 59 be f4 e4 db bd ec 4f 41 bd
       -0.2863316 -0.21251655 -0.10737029 -0.04719536
000030 09 a0 04 be b0 e3 e6 bd 29 64 d3 bd 8d b3 51 be
       -0.12951674 -0.11273897 -0.103218384 -0.2047865
000040 c6 c9 5b bd 15 04 24 be 44 56 e7 3d e1 5c 1d be
       -0.053659223 -0.16017182 0.11295751 -0.15367462
000050 b2 c3 57 be 37 4d e4 bd 05 39 a2 be ce 20 7d bd
       -0.21070746 -0.1114754 -0.31684127 -0.061798863
000060 17 7f f9 bd 31 f9 5a bd 70 e3 1d 3e 45 13 53 be
       -0.121824436 -0.053460304 0.15418792 -0.2061282
000070 c7 5d 1d be d8 11 bc bb d3 41 cf bd 7a ce 28 be
       -0.15367804 -0.005739432 -0.10119977 -0.16485015
000080 60 de 28 3d f0 a0 e9 bd 43 92 05 bc 6e c0 32 3d
       0.0412277 -0.114076495 -0.008152547 0.043640547
000090 a8 c4 8c bc 9a ea cb bd d7 2a 8d bd 9d 8d e6 bc
       -0.017183617 -0.09956856 -0.06892937 -0.028143698
0000a0 58 c5 63 be 92 ad 3b be c7 af 2c be 0c 9e 12 3d
       -0.2224325 -0.1832793 -0.16863929 0.035795256
0000b0 d1 4b f9 3b 39 cb f2 bd 72 75 37 bd 35 66 16 be
       0.007607915 -0.11855168 -0.04478974 -0.14687426
0000c0 d5 b9 2e be 0a b0 86 bc be 72 8a bd 54 86 61 3b
       -0.17063077 -0.016441364 -0.067601666 0.0034412341
0000d0 1a bf f5 39 56 a6 d2 bd 43 15 db bd a4 13 17 3d
       0.00046872423 -0.10285632 -0.10697415 0.036883965
0000e0 16 8c 58 be 7e c2 00 be 68 0b a3 bd 35 9e 30 be
       -0.21147189 -0.12574193 -0.0796116 -0.17247851
0000f0 47 3c e0 bb ff 9e 51 bd c7 6e 37 3d d1 b8 22 bd
       -0.006843123 -0.05117702 0.04478338 -0.039727036
000100 6b 03 68 bd 2c 74 bd bd 4b 8a 65 be bf 1d d2 bd
       -0.056643885 -0.09250674 -0.22416036 -0.1025958
000110 df 94 5e bd f4 b4 8f 3c d1 ed 29 be ca 0e 0f be
       -0.054341193 0.01754234 -0.16594626 -0.13970485
000120 f1 f5 82 bd 4c 16 33 be e0 48 5d bd 71 1d b3 3c
       -0.06394566 -0.17488974 -0.054024577 0.021864625
000130 45 a5 b5 bd e5 e7 0b be 96 fc 4e be 46 ac 06 be
       -0.08869413 -0.1366268 -0.20213541 -0.13151655
000140 a9 ff 28 be 8b b9 83 be 0a 9b cf bd d5 0d 36 be
       -0.16503777 -0.25727496 -0.10136993 -0.17778714
000150 2a 76 a8 bd cb 18 09 bd 4d 3e 52 3d 4e a6 67 bd
       -0.08225663 -0.03347091 0.051328946 -0.056555085
000160 11 e7 ed 3c d3 8d 02 be c5 9f 2a bb c6 73 f9 bd
       0.029040845 -0.12749414 -0.0026035171 -0.12180285
000170 fe 99 d4 bb 57 ef 28 bd fd 3d 76 be f7 db 01 be
       -0.006488084 -0.041243877 -0.24047084 -0.12681566
000180 27 e0 f9 bd 13 8c d3 bd fc b8 e8 bc 00 f5 12 be
       -0.12200957 -0.103294514 -0.02840852 -0.14351273
000190 3c 40 46 be 9e e4 6a be d4 43 dc bd 69 50 0d 3d
       -0.19360441 -0.22938773 -0.10755125 0.034500513
0001a0 95 d8 f4 bd 49 5d 83 bd 72 30 14 be f3 d0 6e be
       -0.11955372 -0.06414277 -0.14471605 -0.23321895
0001b0 2b 42 6a bd 30 95 66 3d 9e 82 08 be b5 71 28 be
       -0.05719201 0.05629462 -0.13331077 -0.16449626
0001c0 74 dc ff bd ae f7 6f be 2d 68 26 be 7f 99 88 bd
       -0.1249322 -0.23434326 -0.16250677 -0.06669902
0001d0 56 32 8d bd 50 68 bc bc 39 d6 d4 bc 9a f7 a3 bd
       -0.068943664 -0.022998959 -0.025981056 -0.080062106
0001e0 13 1d 9b 3d a7 c6 40 bd 65 9a 1d be 43 3d 5a bd
       0.07573905 -0.04706445 -0.15390928 -0.05328108
0001f0 2f c8 10 be 90 1e 31 be 08 45 92 3c 86 db a5 bd
       -0.14138864 -0.17296815 0.017855182 -0.080985114

actor.4.weight f4 [128, 128]
000000 6a 45 bb 3d 31 97 87 3d 62 db 25 bc e9 c3 ee 3c
       0.09144099 0.06620634 -0.010123106 0.029146152
000010 f0 61 4f bd 3b 33 7e bd d4 52 df bd 5b 0b e9 3c
       -0.05063051 -0.062060576 -0.1090447 0.028447798
000020 47 be 1f be c0 8f 50 bc 1b 2b 0f 3e 5a f7 30 bd
       -0.15599929 -0.012729585 0.13981287 -0.043204643
000030 ec eb ab bd 9d d1 10 be 3b 95 06 be 91 4a 72 3b
       -0.08394608 -0.14142461 -0.13142864 0.0036970715
000040 0d cf aa bd d6 4f 33 bc c6 1d d8 3b 09 0e b3 3c
       -0.08340273 -0.010944327 0.006595346 0.021857278
000050 40 06 a5 3d 52 ea d9 bc fa 23 50 3d b9 23 42 bd
       0.08057833 -0.02660099 0.05081556 -0.04739735
000060 7d 49 20 3d 24 79 11 bc eb a1 a8 3d 56 c0 b2 bc
       0.039132584 -0.00887898 0.082340084 -0.021820229
000070 36 49 92 bd c4 46 6a be 54 ff 9a bc 92 da d1 3d
       -0.0714287 -0.22878557 -0.018920578 0.10246767
000080 0b 0d 17 bd a9 66 ca bc 3f a7 67 3c 99 47 eb 3b
       -0.036877673 -0.024707155 0.014138996 0.007180166
000090 73 68 ab bc eb 4d 24 bd be 0c 87 bd 5c ad 03 bd
       -0.020923829 -0.04011337 -0.06594227 -0.03214775
0000a0 dc 1d 17 3d 68 81 9b bd d3 fd 92 bd 87 0b 60 3c
       0.03689371 -0.07593042 -0.071773194 0.013674623
0000b0 b1 44 20 bd 3c 22 d0 3d 66 0d d5 bd a6 f8 da 3b
       -0.03912801 0.1016278 -0.10402946 0.0066824732
0000c0 dc 46 0f bd c0 c3 8e bc dd c2 a2 bc 78 fd 07 be
       -0.034979686 -0.017427325 -0.019868309 -0.13280284
0000d0 e1 83 5e bc 80 4b cc 3d 11 29 94 3d d2 3b d8 bd
       -0.013581247 0.09975338 0.07234395 -0.10558285
0000e0 96 af 0e be 08 fb 0d 3e c7 ad 20 3d 24 02 8f 3c
       -0.13934168 0.13865292 0.039228227 0.017457075
0000f0 62 75 8a bc ef 31 9a bd aa 15 2d 3d 81 9c c1 bc
       -0.016901676 -0.07529055 0.04225699 -0.023634197
000100 83 39 d9 3d 3a 5b 72 bc 8d d6 1c 3d 56 16 39 3d
       0.106066726 -0.014792258 0.03829055 0.045187317
000110 b4 27 68 bd e6 58 b2 bd b4 b0 ab 3d ff ff 48 bd
       -0.05667849 -0.08708362 0.08383313 -0.049072262
000120 ce a4 fd 3a 39 5e 56 3d 83 77 c4 3d 74 3d 90 3d
       0.0019351484 0.05233595 0.095931076 0.07042971
000130 f2 9d 34 bd f0 c9 4d bd f4 14 32 3d f4 9b 0d bc
       -0.04409594 -0.05024141 0.043477014 -0.008643139
000140 a8 a2 21 bc b2 00 e7 3c 37 3e 05 be a2 36 89 bd
       -0.00986544 0.028198574 -0.13012014 -0.066998735
000150 df 01 3c 3d 41 f9 fc bd 86 b3 fa bd 94 09 aa bd
       0.045900222 -0.12352229 -0.12241273 -0.08302608
000160 eb 58 3e 3e ac 51 c6 3d 1e 1e 85 3d 58 8f 98 bd
       0.18588607 0.096835464 0.06499885 -0.07449216
000170 39 ba a4 3d 3d 11 8e bd 08 19 13 3d 20 76 23 bd
       0.08043332 -0.06936882 0.035912544 -0.039907575
000180 01 12 dc bd c0 7b aa 3b 5f 39 7a bd f7 c2 99 bd
       -0.107456215 0.0052027404 -0.06108987 -0.0750789
000190 4b f5 1b be 13 3b 16 be 3e af b7 3c dd 48 c4 3d
       -0.1523029 -0.14670973 0.02242243 0.0958421
0001a0 5b 66 b7 bd 65 63 d4 3c da 8b d5 bd 9b 49 25 3d
       -0.0895507 0.025926301 -0.10427065 0.0403534
0001b0 89 5f ac 3d c8 2e 6a 3d 82 02 08 bc ce 85 95 bd
       0.084166594 0.05717352 -0.008301379 -0.07300912
0001c0 a1 91 9c 3d fe 9c b3 bc 2e 28 83 3c b4 11 a7 39
       0.07644964 -0.021925446 0.01601037 0.00031865912
0001d0 a3 13 3a 3c 49 b6 7a 3b 2c d1 a9 bd e0 10 d9 3d
       0.011357221 0.0038255623 -0.082918495 0.10598922
0001e0 cb 11 12 bc 1f 63 1a 3c 55 84 5b bc 92 58 b4 bc
       -0.008915375 0.009423046 -0.01339825 -0.02201489
0001f0 03 5d 03 bd 8d 66 88 3d 22 9f 45 bd 5b 8a 7a bc
       -0.032071125 0.06660185 -0.048247464 -0.015291776
000200 a7 12 4f 3d fd 4b 86 3d 22 d5 0e be 82 9f 79 be
       0.050554898 0.06557462 -0.13948491 -0.24377254
000210 45 46 40 bc b8 cc 00 3e 34 02 3f be 6b 89 f3 3c
       -0.011735504 0.12578094 -0.18653184 0.029728612
000220 ce 1a 80 3d bd 17 52 3d 09 e8 f5 bd db a3 0e 3d
       0.062551126 0.05129217 -0.12007148 0.034824234
000230 ba c2 a8 3d de 22 df bc 66 d9 ec bd 6f 7c c0 3d
       0.08240266 -0.027238306 -0.11564903 0.09398734
000240 b7 97 cc 3c 65 79 fe bc 4b 8b e8 bd ff 24 28 bc
       0.024974687 -0.031063745 -0.11354693 -0.010262727
000250 f7 7a 8b 3d de 1f 0a bd 52 3b e4 bc e6 29 03 3e
       0.06810563 -0.033721797 -0.027860317 0.12808952
000260 15 70 a1 3d d3 6d ef 3d 60 13 84 bd de ef 09 bd
       0.07882706 0.11690869 -0.06449008 -0.03367602
000270 93 1a b5 3d 44 16 26 bd cd 8c 05 3d 8b 6f a3 bc
       0.08842959 -0.040548578 0.03260498 -0.019950649
000280 72 49 4a bc 6b f1 e8 3c 3b 98 9e 3c 67 84 a6 bd
       -0.012346612 0.02843543 0.019359699 -0.081307225
000290 1b db d3 3d a6 87 5b bd d6 83 71 3e 7f 06 b2 bc
       0.103445254 -0.05359616 0.23585448 -0.021731613
0002a0 fb 21 74 3d d4 b1 8e bd 08 90 f0 bd a4 36 4e 3d
       0.05960272 -0.06967512 -0.11746222 0.050345078
0002b0 9b b2 5d 3c 3d 54 8e bd 9f a9 4d 3c 8b 21 58 3d
       0.013531352 -0.06949661 0.012552648 0.052766364
0002c0 51 2d 20 3e 38 b0 4b 3d d5 55 ac 3c 11 91 d9 bd
       0.15642287 0.049728602 0.021037022 -0.10623372
0002d0 9f 0e 0f bc f7 c2 4c 3d 31 ad 80 3d 1b 09 52 b9
       -0.008731513 0.04999062 0.06283034 -0.00020030553
0002e0 e3 85 87 bd c8 96 2a be 1b 7a 26 3c d4 63 f6 bc
       -0.06617334 -0.16659081 0.010160948 -0.030076899
0002f0 a6 ae a8 bc b8 d4 e5 bc 6b 87 cd 3c c9 15 22 3d
       -0.020591091 -0.028055534 0.025088986 0.039571557
000300 f5 ee 9d bc c1 d3 20 3d 24 b3 db bb ce 19 f6 bd
       -0.019278983 0.039264444 -0.006704705 -0.120166406
000310 47 ab 0b be 88 08 8f bd 72 4c 0c 3d b3 b3 03 3e
       -0.13639556 -0.06984049 0.03425259 0.12861519
000320 a1 88 eb 3c 07 b1 6a bd fb ce 8b bd 74 bb ed 3d
       0.028751673 -0.057297733 -0.06826588 0.116080195
000330 d6 cc 0e be d6 6c eb 3d bb e2 12 bc 1d 84 94 3d
       -0.13945326 0.11495368 -0.00896519 0.07251761
000340 c7 52 22 bd 98 6a c3 bd 51 65 bb 3d 50 08 a5 3c
       -0.039629724 -0.095418155 0.09150184 0.020145565
000350 bd 88 8d bb b7 8e 03 bd dc 06 ae 3d 0b 65 c2 3d
       -0.004319279 -0.032118525 0.08497402 0.09491929
000360 32 24 33 3c 35 50 ae 3c 40 96 c9 3c d8 fe 68 bb
       0.010933923 0.02127848 0.024607778 -0.003555229
000370 54 7a 89 3c 2b d9 d4 3d 2b a5 a2 bc 02 b8 45 bc
       0.016781963 0.10392984 -0.019854149 -0.012067797
000380 e4 02 f0 3d 5e 7e 7a bd e9 2c 09 3e 89 15 01 3c
       0.11719301 -0.06115567 0.13396038 0.00787867
000390 50 47 fc bc 0f 92 14 3d cb 5f 2c bd 38 71 82 3c
       -0.030795723 0.036272105 -0.042083543 0.015923128
0003a0 01 7a 3c bc db 6e b1 3c 75 06 2b 3e 0a b2 d1 bd
       -0.011503697 0.021659305 0.16701682 -0.102390364
0003b0 dc 61 37 be b5 fa 87 bd 06 8c b7 bd b3 8d 3f 3d
       -0.17908424 -0.066396154 -0.08962254 0.046765994
0003c0 5b a2 91 bc ab f0 f8 3c 82 b4 e1 bc 53 8c 4e bc
       -0.017777612 0.030388197 -0.027551893 -0.012606698
0003d0 3f 09 43 3d 4e 02 1d bd 5d 00 7b ba dc 31 9c 3c
       0.04761624 -0.038332276 -0.0009574944 0.019066744
0003e0 09 d5 95 bd 72 53 b5 bd 23 ad 98 bd 1f 0d 27 bc
       -0.07316024 -0.088538066 -0.07454898 -0.010195999
0003f0 7d cd b2 bd 5b 93 81 3d a8 89 07 bc 76 05 6e 3d
       -0.087306 0.06326934 -0.008272566 0.058110677

actor.4.bias f4 [128]
000000 23 b9 3c bd 92 55 37 bd f7 c1 75 bd c2 eb 17 be
       -0.046074998 -0.04475934 -0.059999432 -0.14836028
000010 56 8b bc bd f4 a0 cf 3a 00 85 db bd 75 c2 04 bd
       -0.09206264 0.0015840814 -0.10718727 -0.03241201
000020 07 85 bb bd 00 aa b3 bc ec fa 48 be e9 b4 c1 bd
       -0.09156232 -0.021931648 -0.19626969 -0.09458334
000030 e4 a5 80 bd 97 e6 94 be c4 14 23 bd ae 75 78 be
       -0.06281641 -0.29082176 -0.039814726 -0.24263641
000040 8a df 19 be b5 ab 98 bd e8 dd 57 3c 88 31 2f be
       -0.1502668 -0.074546255 0.013175465 -0.17108738
000050 b9 aa 7f bd 00 1c 01 be 5e bb 52 be 21 3b 71 bd
       -0.062418673 -0.12608337 -0.20579287 -0.05889428
000060 15 88 36 bd 23 f2 71 bd db 97 b0 bd 4c 65 8a 3c
       -0.04456337 -0.05906881 -0.08622714 0.016894005
000070 70 be 3b be 75 ae 46 36 83 a6 99 be 68 f3 b1 bd
       -0.18334365 2.9605847e-06 -0.3000985 -0.08689004
000080 74 e4 52 bd 2c 52 24 bd 61 b8 52 bd 21 9e 3d be
       -0.0514874 -0.040117428 -0.05144537 -0.18517353
000090 7f dd aa bd 43 4d af bd 11 83 02 be 55 e3 ee bd
       -0.08343028 -0.085596584 -0.1274531 -0.11664454
0000a0 b7 ab 59 bd a1 11 14 be b6 41 a9 bc 55 be 16 be
       -0.053142276 -0.1445985 -0.020661216 -0.14721043
0000b0 68 85 c3 bd 82 07 38 be 2e de ae bd e6 58 ab 3c
       -0.095469296 -0.17971614 -0.08538471 0.020916414
0000c0 9b ec fb bd db 4b eb bd 4c c9 97 3c c6 1c 6a bc
       -0.12300988 -0.11489078 0.018528603 -0.014289087
0000d0 27 8e f9 bd 84 22 7f 3c 5f 0a 4c be 8d 1a 93 3c
       -0.121853165 0.015572194 -0.19925831 0.017956996
0000e0 db a8 bc bd 94 ec 0d bd da ac 6d be e2 fa 71 bd
       -0.09211894 -0.034649447 -0.23210469 -0.05907715
0000f0 7f f7 18 bd 06 92 3f be f6 70 50 bd 10 f7 c8 bd
       -0.037345406 -0.18708047 -0.050888978 -0.098127484
000100 11 c3 68 be 2e c0 b0 3d 52 fc f3 bd 23 fc ed bd
       -0.22730662 0.08630405 -0.11913361 -0.11620357
000110 fc 02 71 bc 78 a3 d2 bb fa 4e b7 bb 57 83 b8 bd
       -0.014710184 -0.0064281784 -0.0055941315 -0.09009426
000120 f7 bb 2b be 8d 2a be bd 6c 30 a2 bd 86 e9 b7 bd
       -0.16770922 -0.0928546 -0.07919392 -0.08980088
000130 b6 2f c3 3c fb 30 f7 bc 15 6a c2 bd 66 5f 8c bd
       0.023826461 -0.030174723 -0.0949289 -0.06854133
000140 86 94 a7 bd f8 c2 e3 3b 6c 1e 63 bd f8 ec 03 3e
       -0.081826255 0.0069507323 -0.055448934 0.12883365
000150 9d 32 dd bd 8a 6c 27 bd 49 f4 03 be 55 0b d1 bd
       -0.10800669 -0.040874995 -0.12886156 -0.102072395
000160 1c 0e 52 bd e7 ba 87 bd a8 46 cb bd 84 35 c8 bd
       -0.051282987 -0.06627446 -0.09925586 -0.09775832
000170 c2 e2 2e bd dc a2 c1 bd 47 b8 18 be eb 7c 94 3c
       -0.04269672 -0.09454891 -0.14914046 0.018125972
000180 6d 63 0c bd a3 d0 9a 3c d9 68 6e 3d cb 26 f9 bd
       -0.034274507 0.018898314 0.05820546 -0.12165602
000190 49 a9 b9 bd a1 87 1e bd 44 9a 89 3b 42 8b 44 bd
       -0.09065492 -0.038703565 0.004199298 -0.04798437
0001a0 19 91 21 be 37 8b 91 bd 05 f8 70 bd 97 21 65 be
       -0.15778007 -0.07106631 -0.05883028 -0.22376095
0001b0 b1 93 94 be 12 54 cb bd 56 43 2b be 3e 64 8d 3c
       -0.2901893 -0.099281445 -0.16724905 0.017259713
0001c0 4e e9 a2 be 23 c0 87 bd 4c e3 22 3d 95 16 56 3d
       -0.31818622 -0.06628444 0.03976755 0.05226763
0001d0 8c fc 66 be b3 c9 9b bd b6 fe 77 bd fe da 8e bd
       -0.22557276 -0.076068304 -0.060545646 -0.06975363
0001e0 ca f5 67 bd ce 85 1e be c4 e0 4e be b0 aa 24 bb
       -0.056630887 -0.1548073 -0.20202929 -0.0025126152
0001f0 04 47 09 be dc 48 c6 bd 2d 24 23 be 3d 0b 1f bd
       -0.13405997 -0.096818656 -0.15931769 -0.038829077

actor.6.weight f4 [12, 128]
000000 4e 9e bf 3c f7 34 d7 3c ca 98 11 3d da fa 11 bd
       0.023390915 0.026270373 0.0355461 -0.03563962
000010 0f 5b 8f 3d 42 22 bc bc 3c 5b 7e 3d 93 34 29 3c
       0.0699979 -0.022965554 0.062098727 0.010327476
000020 d9 d8 f9 bc 70 f8 de bc e7 7a 42 bd 9c 53 8c bd
       -0.030498909 -0.027218074 -0.04748049 -0.06851885
000030 8d d7 71 3d c5 7c a8 3d c9 fe bf 3c 92 89 8b 3c
       0.059043456 0.08226923 0.02343692 0.017033372
000040 08 fa 3c bd 39 21 00 be d0 16 f3 ba 06 ca 49 3d
       -0.046136886 -0.12512673 -0.0018546227 0.04926493
000050 fb 2f 18 3d e7 de 31 3d 33 12 8b 3c dc 72 9b bd
       0.037155133 0.043425467 0.016976452 -0.07590267
000060 e8 88 d9 bd 2b 2b 99 3c c7 2f 90 bd 05 9b 11 bd
       -0.10621816 0.018697342 -0.07040363 -0.03554823
000070 28 09 ad bc e0 e0 f0 3c 26 54 a3 bd 42 b5 4c bd
       -0.02112253 0.029404104 -0.079750344 -0.04997755
000080 a1 1a a1 3d 6c df 9a 3c 16 f7 93 3d 62 3e 58 bd
       0.07866407 0.018905364 0.07224862 -0.052793868
000090 7e 66 9b 3d 59 b1 3b bd bd e4 1b bc 09 8f 0b 3d
       0.07587908 -0.04582343 -0.009514985 0.034071956
0000a0 ac fc a0 bd 37 a5 50 bc 8d 1f ab 3d af 6c 3e bd
       -0.07860693 -0.012734703 0.08355627 -0.046490368
0000b0 d5 84 78 bc b2 81 a0 bd 2c 62 67 bd 3f 53 ff 3c
       -0.015168388 -0.078372374 -0.05649011 0.031167625
0000c0 91 a2 82 3c 86 69 54 3c 79 55 5e bc 02 51 3a bd
       0.015946658 0.012964612 -0.013570183 -0.04548741
0000d0 f1 26 3f bc ba 67 3f 3d c2 8a ee 3c 25 1f 3d bc
       -0.011666999 0.04672978 0.0291189 -0.01154307
0000e0 07 e1 a1 3d 8d 1c 89 bc 53 74 d1 3d 52 03 01 3d
       0.07904249 -0.016737247 0.10227265 0.031497307
0000f0 f5 2e 30 bd 16 f1 c9 3c 70 0b b4 bc cc c1 14 3d
       -0.04301353 0.024651092 -0.02197811 0.03631763
000100 3a b5 19 3d 7e 32 74 bd d1 a7 63 bd 7d 13 16 3d
       0.037526347 -0.059618466 -0.055579964 0.03663968
000110 a3 11 42 3c 5c 14 73 3b dd 88 14 bc 50 76 40 3c
       0.011845025 0.0037090993 -0.009065834 0.011746958
000120 aa 1f 59 3d ca 63 50 3c b7 04 50 bc e6 f2 75 3d
       0.053008713 0.012719104 -0.012696437 0.0600461
000130 ce fd 81 bd d7 a8 b0 3d c7 93 01 bc 07 c4 c1 3c
       -0.063472375 0.08625954 -0.007908768 0.023653043
000140 2a 39 b9 3c b4 2f ab 3d c4 51 e7 bc ff cf b6 3b
       0.022610266 0.08358708 -0.028237231 0.0055789943
000150 b2 67 dc 3c 70 32 c2 bc ac ff c5 3d dd ed 5b bc
       0.026904915 -0.023705691 0.09667906 -0.01342341
000160 44 61 4f bd 88 6b 8c 3b 00 dd c2 bc 8f df 38 3d
       -0.05062987 0.0042852797 -0.023787022 0.045135077
000170 61 cd 0e bc 26 2c 0f bd 3d 31 13 bc 60 34 00 3d
       -0.008715958 -0.034954213 -0.008983907 0.03129995
000180 29 ee c3 bc d3 9e e4 3d 70 40 ff bb 53 84 9b 3d
       -0.023917275 0.11163106 -0.007789664 0.07593598
000190 a9 d2 b2 bc 2c a3 d5 bc c1 df 9c 3c cc 55 05 bd
       -0.021828966 -0.026078783 0.019149663 -0.032552525
0001a0 ad 94 16 bc 28 60 5c 3d e7 3b 27 3a 0d fb 4b bd
       -0.0091907205 0.05380264 0.00063794706 -0.049799968
0001b0 c7 9e 8c 3d c6 61 24 bc 94 b3 32 3d da be 16 bd
       0.06866222 -0.010033077 0.04362829 -0.036803104
0001c0 38 1b 07 3e 97 0d 77 bb 57 7c 0e bc 71 db 97 3c
       0.13193977 -0.003769731 -0.008696637 0.018537255
0001d0 cc a8 b3 3d a7 3f 3a bd be 9d bb bc 28 8b 94 bc
       0.0877243 -0.04547086 -0.022902366 -0.018132761
0001e0 40 a3 4c bc 8d 37 2c bd 51 a6 ba 3c 78 a9 ef bb
       -0.012490094 -0.042045165 0.022784384 -0.0073139034
0001f0 b8 0b de bd d5 64 26 3d 43 18 a0 bc d3 9f 0d bc
       -0.10842079 0.040623505 -0.019542819 -0.008644062
000200 82 4e b8 3c c6 8e 11 bd ec 97 5b 3c 85 68 80 bd
       0.022498373 -0.03553655 0.01340292 -0.062699355
000210 d1 35 48 bd 80 6c 55 3d 1a cc 90 bd db 9a e3 bc
       -0.04887945 0.052105427 -0.07070179 -0.027783802
000220 f2 98 60 bd d4 bb 9c bc 89 13 44 bd ca 69 12 3d
       -0.05483336 -0.019132532 -0.047870193 0.03574542
000230 30 d9 e9 3c ca a1 88 bc 08 c0 e3 bb 40 86 a3 bd
       0.028545946 -0.01667871 -0.006950382 -0.079845905
000240 38 c4 6d bd 2e 0d 87 3d 0a f7 d4 3d 30 13 a9 bc
       -0.058048457 0.06594311 0.103986815 -0.020639032
000250 fc 90 51 bd bc f1 e6 bc ac c0 af bd c7 22 82 bc
       -0.05116366 -0.02819144 -0.08581671 -0.015885724
000260 dc 6f 45 bd a0 dd a3 bc 68 c1 55 bc d7 b0 fd 3c
       -0.04820238 -0.02000314 -0.0130466 0.030968113
000270 30 35 3e 3d 0b fc 51 bb 8a 02 0f bc b9 65 26 3b
       0.046437442 -0.0032041098 -0.008728633 0.0025390221
000280 c3 5e 9a bd 01 d0 59 3c c4 f2 3f 3d a7 99 a6 bd
       -0.075376056 0.013294221 0.04686238 -0.081347756
000290 43 54 3b 3d 59 53 c2 3b 9a 05 66 bd 6b 07 a1 3d
       0.045734655 0.005930346 -0.056157686 0.07862743
0002a0 79 5d cb 3c bd 57 69 3b 27 28 41 3d 99 9e 80 3d
       0.024824845 0.0035605275 0.047157433 0.0628025
0002b0 66 ac 1c 3d 8e df 80 bd 18 8c 0f bd cb 16 81 3c
       0.03825035 -0.0629264 -0.035045713 0.015757939
0002c0 ef aa 06 3d e1 f9 f8 bc 9e d3 0b bd ed cb e4 3d
       0.03287786 -0.030392589 -0.03413736 0.11171708
0002d0 60 a8 5d 3b a1 df 13 3c d9 e5 58 3a cb 30 57 bd
       0.0033822283 0.009025485 0.0008273996 -0.052536767
0002e0 bb 16 4a bd 6e ed 7a 3c 9e 0f 9e bc 53 d4 b3 bc
       -0.049338084 0.015315397 -0.019294556 -0.02195183
0002f0 0c 07 9e 3d e8 61 11 bd e5 76 94 bb 75 41 29 3d
       0.07716188 -0.03549376 -0.004530775 0.04132219
000300 41 76 1c bd 31 64 55 bd fb 81 c5 3c 36 ef 57 3b
       -0.038198713 -0.052097503 0.024109831 0.0032948977
000310 a0 32 74 3b 7a d7 eb bc 43 8c bb bd 58 77 13 bd
       0.003726162 -0.02878927 -0.09157612 -0.036002487
000320 9e 73 23 bd 16 37 e6 3c 03 22 f6 bc f1 f6 a2 3d
       -0.039905183 0.028102439 -0.030045515 0.079572566
000330 7e cf 4e 3d 9f d3 14 bd 87 be 9e 3d 07 5d 2c bc
       0.05049085 -0.03633463 0.07751184 -0.010520226
000340 35 d9 be 3b 47 e2 92 bd c7 f2 3d bc e8 46 86 3d
       0.005824233 -0.07172065 -0.011593527 0.06556493
000350 96 c3 ca 3c 82 a0 4d 3d 07 12 b6 bc 9c 0e 15 3d
       0.024751466 0.0502019 -0.022225393 0.036390886
000360 74 ca 47 bc 65 37 74 3c c2 2a 73 bc f4 7a 12 3d
       -0.012194265 0.014905785 -0.014841737 0.03576179
000370 c3 3c 2c 3d 11 ac 66 bd de 94 ae bd f7 71 ba bb
       0.042050134 -0.05631644 -0.08524488 -0.005689855
000380 cd a7 75 3c 90 7f 7e 3c 59 06 3f bd 59 3e 82 bd
       0.01499362 0.015533343 -0.046636913 -0.06359548
000390 11 25 1a 3c c0 90 d8 bc c0 a0 99 bd f3 59 45 3a
       0.009408251 -0.02643621 -0.07501364 0.0007528357
0003a0 ce 90 18 3c 05 29 9e 3b 1e 92 cf 3c 90 2d 2d bd
       0.009311868 0.0048266673 0.025338229 -0.04227978
0003b0 2f 8c f4 bd f2 39 71 3d 7f 26 44 bc 7a 67 e1 bc
       -0.119408004 0.05889315 -0.011972069 -0.027515162
0003c0 3f 0d ae bd df e3 7f 3c 8c 50 5c bd 75 62 0b bc
       -0.0849862 0.015618294 -0.053787753 -0.008507361
0003d0 1b e9 e0 bb 5d 0e 04 3c 62 5f a2 bc 91 5a 83 3c
       -0.006863726 0.008060065 -0.019820873 0.016034396
0003e0 f0 21 02 3c 4b 39 4b bc 19 01 92 3b ea e3 ee bc
       0.007942662 -0.012403796 0.0044556973 -0.029161412
0003f0 58 6d 16 3d 61 9e f1 39 50 aa 8c bd 92 27 bc bc
       0.036725372 0.00046085104 -0.06868422 -0.022968087

actor.6.bias f4 [12]
000000 e0 30 29 be 13 a6 c8 3d 0c bc b8 bd 6f bd 19 3d
       -0.1652255 0.09797301 -0.09020242 0.037534174
000010 b6 dd 82 bc e0 0f c5 bd fc 0b 29 bd 5f e1 25 3c
       -0.01597486 -0.096221685 -0.041271195 0.010124533
000020 ba 61 7b 3e d3 ff 0f 3e 47 b2 80 3e 75 4d 4f 3e
       0.24548998 0.14062433 0.25136015 0.20244391
