logs/rl_games/quadcopter_direct/2024-07-11_12-19-11/nn/last_quadcopter_direct_ep_975_rew_127.778984.pth (torch, 79358 bytes, 30 tensors)

value_mean_std.running_mean f8 [1]
000000 3f a9 0c 82 ed 00 cf 3f
       0.24221581316062132

value_mean_std.running_var f8 [1]
000000 31 86 f4 09 d0 2e 73 3f
       0.004683315898803595

value_mean_std.count f8 []
000000 00 00 00 02 00 da a6 41
       191692801.0

running_mean_std.running_mean f8 [12]
000000 f1 7e 4b 3a f2 6b 82 3f 88 57 a7 2c ac 69 b6 3f
       0.008994953540820446 0.08754993524720878
000010 b8 aa 81 c4 a8 2b b0 3f 5a 9f ff 76 3d 3e c1 bf
       0.06316618726274725 -0.13471191702341906
000020 71 53 70 ef 50 03 b8 3f 5f 43 bc fb a1 5f d4 3f
       0.09380060048745321 0.318336959681849
000030 be 2d 05 b4 c6 05 7d 3f bd 07 8b 56 43 ea 88 3f
       0.007085586723700242 0.012165571287713445
000040 ca 53 30 fc 68 e8 ee bf 1f 8f 2b 7c 86 83 8c bf
       -0.9658703733026581 -0.013922739662525494
000050 fc 28 a8 22 8a d9 a7 3f df 9f 3a 8b 3a 85 91 3f
       0.04658157036836205 0.017109789607871902

running_mean_std.running_var f8 [12]
000000 b0 4d 5e e0 08 8c c7 3f e5 fd 77 2e 2a ce ca 3f
       0.18396101909148177 0.20941664952259412
000010 cd 1c c3 63 4a d5 c1 3f e3 f8 e1 1d 5a 1b 21 40
       0.13932161208342678 8.55342191108179
000020 6a f1 dc 17 fc a0 24 40 68 1e f8 d9 54 b3 1e 40
       10.314423318596443 7.675128370064705
000030 f5 06 84 b8 fa 8a 96 3f 00 bf c6 55 02 1e 94 3f
       0.022014539253183824 0.019645725713131945
000040 6c 70 fa 35 ee d7 99 3f 96 0e 0b cb 23 5b bc 3f
       0.02523777203042281 0.11076568324193156
000050 8f 23 5e 7b dd 68 bc 3f 37 46 87 c9 c7 3f b9 3f
       0.11097511541278336 0.09862946195723842

running_mean_std.count f8 []
000000 00 00 00 04 00 da 96 41
       95846401.0

a2c_network.sigma f4 [4]
000000 40 cf 11 c0 cf c9 84 c0 f1 3b 80 c0 ab 69 4d c0
       -2.2782745 -4.149635 -4.007317 -3.2095745

a2c_network.actor_mlp.0.weight f4 [64, 12]
000000 00 d2 20 bd 21 02 b9 bc 8e c6 a7 bc 33 da 15 3d
       -0.03926277 -0.022584023 -0.02048042 0.036585044
000010 80 7e e7 bd f7 20 b1 3c e7 49 38 ba 0d 97 54 bd
       -0.11303425 0.021622164 -0.0007030055 -0.051901866
000020 ec e3 ab bd 6e 93 d9 3c f7 c7 0d 3d 36 f1 2b 3d
       -0.08393082 0.026559558 0.03461453 0.041978084
000030 56 58 ee 3d 73 75 8e 3e 8d b5 01 bf c1 6b 77 bd
       0.116379425 0.27823982 -0.5066765 -0.060405497
000040 33 da 75 be 2a 19 9e be 67 de 22 3e 0c d6 e1 bd
       -0.24009018 -0.30878574 0.15905152 -0.11027154
000050 38 44 00 bd 39 70 34 be 63 28 90 bd 80 ff 06 3f
       -0.03131506 -0.17620935 -0.07038953 0.5273361
000060 61 31 b3 bb b9 f4 f1 ba 43 cc 23 bc c1 9a 34 3d
       -0.005468533 -0.0018459774 -0.00999743 0.044092897
000070 22 dd 1d bd 45 89 6e bb 59 7b a7 bb 26 46 9f 3b
       -0.038540967 -0.0036397737 -0.0051111397 0.0048606573
000080 e3 8d d2 bb 28 68 4b bb 12 c9 27 bc 7a 2e 33 3b
       -0.0064256056 -0.0031037424 -0.01024081 0.0027340935
000090 7b 5e df bc 14 5d 1a be 58 a9 77 3e 56 62 9f bc
       -0.027266731 -0.15074569 0.24185693 -0.01945607
0000a0 da 9e 1d be 6e 44 76 3e d8 70 d7 3c 7f d5 56 bd
       -0.15392628 0.24049541 0.026298925 -0.0524497
0000b0 1b 3d 0b 3d c9 e0 7e 3d 53 ba 47 3e 10 a4 ca be
       0.03399382 0.06222609 0.19504671 -0.39578295
0000c0 c5 a8 90 3d aa fb b4 be a9 8f 23 3e e2 f3 2e 3e
       0.0706344 -0.35348254 0.15972771 0.17085221
0000d0 b1 af 16 3f 08 ff 06 be 64 fc 9f 3e ac 6f 98 3e
       0.58861834 -0.13183224 0.31247246 0.297727
0000e0 fe 16 18 bd 62 c2 f9 3e 7f db 92 3e ab bd c3 be
       -0.037131302 0.48781115 0.28683087 -0.38230643
0000f0 77 4f 55 3d e6 53 fe b9 91 30 6f 3d ab bb f1 3b
       0.052077737 -0.00048509164 0.058395926 0.007377108
000100 65 fa 13 3e 6b fb 81 bd b2 36 6f 3d a7 34 b8 3d
       0.14450987 -0.06346782 0.05840177 0.08994418
000110 e8 ee dc bb 95 58 a8 bd 2f 18 ad bd 08 22 e1 bd
       -0.006742347 -0.08220021 -0.08451878 -0.10992819
000120 3c a0 a2 be 7d 94 ec 3e 9c 48 8d be 80 14 d3 be
       -0.31762874 0.46207038 -0.2759446 -0.41226578
000130 85 17 1e bf 32 e0 69 3e 39 ba a7 be c3 62 e6 3d
       -0.6175464 0.2283943 -0.32759264 0.11249306
000140 02 35 82 3b 27 3c cf 3e 94 9f dc be e2 09 f5 3e
       0.003973604 0.4047558 -0.43090498 0.47859102
000150 c4 fb 93 bb 1e c2 41 bc a7 8a ff bb 7c de 4b 3c
       -0.004516097 -0.011826066 -0.007798511 0.012443181
000160 d6 b8 d9 bc b1 bc c8 bc 69 0e ae 3b 91 8b 52 3c
       -0.026577394 -0.024504038 0.0053117764 0.012850658
000170 6b da cb ba dc dd c1 3a ac a7 b5 bb 9d f9 86 3b
       -0.0015552765 0.0014790851 -0.0055436697 0.0041191117
000180 29 fc 89 be cb 7a fb be 6a ca 1c 3f 1e 9f 83 3e
       -0.26950195 -0.4911712 0.6124636 0.25707334
000190 59 a0 b5 3e ff fd c3 be 09 c4 8f 3d 4c 10 94 be
       0.35473898 -0.3827972 0.070198126 -0.28918684
0001a0 48 63 00 3d 6f 1b a9 be 7a d7 b2 3e a2 45 4a bf
       0.031344682 -0.33028743 0.3493002 -0.790125
0001b0 cd f4 20 3c 43 de 91 bc 02 50 1a 3c 8d 7d 51 3b
       0.00982399 -0.017806178 0.009418489 0.0031965703
0001c0 6d e3 93 bb db ef 03 3c 47 d7 02 3b 42 2e dc bb
       -0.0045131953 0.0080527915 0.001996474 -0.0067193815
0001d0 45 22 8f 3c a3 29 57 bc 81 2a 9c 3c 24 e9 a6 bb
       0.017472396 -0.013132486 0.019063236 -0.0050937105
0001e0 3a e7 18 3d 5b 99 90 bb bc f4 3f 3d 07 20 00 3c
       0.03732989 -0.0044128126 0.046864256 0.007820136
0001f0 1b a4 0a 3e bb 0e 51 bd 84 06 16 3d bc 5c 57 3d
       0.13539164 -0.05103944 0.036627308 0.052578673
000200 1e ea 28 bc de 87 80 bd be 1c 3b bd 10 1d 96 bd
       -0.010309724 -0.062759146 -0.045681708 -0.07329762
000210 c3 a0 94 3d 6a 20 01 bd be 69 a7 3d c2 67 b3 3d
       0.07257225 -0.031525053 0.081744656 0.087600246
000220 8a 84 22 3e eb 41 dc bd da fb a8 3d f9 fa e4 3c
       0.15870872 -0.1075476 0.08251162 0.027951704
000230 b5 9b 4c bd 35 a0 00 be 89 a2 0e 3c 1f 6e f7 bd
       -0.04995318 -0.12561114 0.008705744 -0.12081551
000240 19 80 61 be dc c2 68 3c 60 cf 73 be 2e dc 8c 3e
       -0.22021522 0.014206614 -0.23809576 0.27511734
000250 fb 30 7c be c7 3c 68 bd 85 65 55 be 0b 7f 6e be
       -0.2462806 -0.056698587 -0.20839508 -0.2329065
000260 96 8b 86 be d6 1a 5d 3e 59 1f 38 3e 7e 77 cf 3e
       -0.2627837 0.21592268 0.17980708 0.40520853
000270 ad 16 34 3d 5f f6 c5 bc 61 34 3a 3d 26 83 8a 3c
       0.043966938 -0.02416533 0.04546011 0.01690824
000280 b3 71 13 3e 51 7a 53 bd c1 89 0f 3d 30 71 a4 3d
       0.14398842 -0.051630322 0.03504348 0.08029401
000290 ae cf bd 3c 12 92 0b bd 94 81 06 bd d5 fe ad bd
       0.023170318 -0.03407485 -0.03283842 -0.08495871
0002a0 25 2e a9 bd f1 36 a5 ba 4b 21 1a 3e 99 b5 da bc
       -0.082607545 -0.0012604875 0.15051763 -0.02669792
0002b0 8e d0 81 bc 08 3f 3a 3d 22 af 3a bc 8c ab ff bc
       -0.015846517 0.045470268 -0.011394294 -0.03120973
0002c0 7b 59 90 be be 4f 00 3d bb aa 53 3d 76 03 62 be
       -0.28193268 0.031326048 0.051676493 -0.22071633
0002d0 a3 b4 f7 bd ed 70 ac 3c 50 e8 36 be 92 74 91 3e
       -0.120950006 0.021049941 -0.17862058 0.2840925
0002e0 06 36 f7 3d aa 39 0d be c6 9f 52 be 0e ba b8 be
       0.12070851 -0.13791528 -0.20568761 -0.36079448
0002f0 39 80 90 bf 36 d5 db 3e ed 43 1f 3d db a7 ea bd
       -1.128913 0.42936105 0.03888314 -0.11457797
000300 0e 34 43 3d 90 a3 9e 3d a8 b8 d8 3c ae 22 bc bd
       0.047657065 0.07746041 0.026455238 -0.09186302
000310 2f 70 2c 3d c0 3e 7b be 1b bb 04 3d 47 c4 1b 3d
       0.042099174 -0.24535656 0.032405 0.03802898
000320 b9 70 d9 be b1 76 9f bd 93 73 eb bc 4b 78 86 bc
       -0.42468813 -0.077863105 -0.028741634 -0.016414782
000330 03 e5 01 bf 01 ee 94 3d 83 af 7b be b8 5f 0a 3e
       -0.5074007 0.07271958 -0.24578671 0.13513076
000340 cc 46 6a bf 1c bb d1 3d c2 3d 1f bf 23 d2 83 be
       -0.9151428 0.102407664 -0.6220361 -0.2574626
000350 ab 12 58 be 2f 60 53 3f fa 14 69 3d 54 30 c6 3e
       -0.21100871 0.8256864 0.05690477 0.38708746
000360 30 89 fa bd a0 f6 e3 bc 2c b6 a5 3e e4 28 63 3e
       -0.12233198 -0.02782756 0.3236555 0.22183567
000370 af 6a 44 be 30 aa ca 3e 4b 68 03 3c 59 49 9a bd
       -0.19181322 0.39582968 0.008020471 -0.07533521
000380 66 3c 59 be c6 a2 2f 3e 1e 7b a3 3d b9 65 8f bf
       -0.21214446 0.17151937 0.07982467 -1.1202918
000390 b1 c3 2e 3e 86 79 50 3d 6f 85 72 3d 3b 47 7f bf
       0.17066838 0.050897144 0.059209283 -0.99718064
0003a0 78 de 29 3e 62 e3 f2 3c 9e ed 24 3e ca c7 af 3e
       0.16588771 0.02964944 0.16106269 0.34332114
0003b0 d5 55 0a 3d a6 5d c4 39 6e 5b d3 be 47 36 bf bd
       0.033773262 0.00037453807 -0.41280693 -0.093365245
0003c0 8c 4a 14 3e 81 5d f4 bd 71 c8 6f be 61 b5 93 bd
       0.14481562 -0.11931897 -0.23416306 -0.0721233
0003d0 03 9d d5 bc 24 d5 ac be 3f 54 2e 3d a4 71 1f 3d
       -0.026075846 -0.33756363 0.042560812 0.038926736
0003e0 28 28 b8 be b4 3f 9c be d9 fe 26 3e 0b e6 7d bb
       -0.35968137 -0.30517352 0.16308154 -0.0038741853
0003f0 f4 72 b0 3d 62 97 ea 3d c1 ad 58 3e fa 9f 23 3f
       0.086156756 0.11454655 0.21160032 0.6391598

a2c_network.actor_mlp.0.bias f4 [64]
000000 23 fc 0d bd 35 ef 18 be b7 1d 2a bc 37 c9 19 3d
       -0.034664284 -0.14935 -0.010383061 0.03754541
000010 2e 92 89 be 45 2f d0 3a 56 5d 40 3d cf 37 52 bc
       -0.2686934 0.0015883228 0.046964012 -0.012830689
000020 53 a9 c7 bb 21 a4 02 bb e9 a9 07 3b 50 84 51 bb
       -0.006093183 -0.0019934254 0.002070064 -0.0031969734
000030 4b ae 7b be 53 a2 59 3c 5d 22 bc bd 37 57 b5 be
       -0.24578206 0.01328333 -0.09186242 -0.35418102
000040 f0 e0 bb bd 3a f3 5c be 23 57 c8 3b d2 12 0e 3d
       -0.09173763 -0.21577159 0.006113903 0.034685917
000050 c6 28 3b be 1b 40 41 3c fc f5 5d be fa 8f 80 bc
       -0.18277273 0.011795069 -0.21675867 -0.015693653
000060 36 b7 39 3a d8 de e0 3c c7 10 11 be be bf 5c be
       0.00070844905 0.02745001 -0.14166556 -0.21557519
000070 9b b6 58 bd 7c 8a a3 bd 5c 70 8f bd 3e d0 5f 3d
       -0.05290852 -0.07985398 -0.07003853 0.054641955
000080 d8 18 f4 bc 71 ff 68 be 90 4f 3a bc 0a 0c 9a 3b
       -0.029797003 -0.22753693 -0.011371508 0.004701142
000090 56 52 05 be d2 5a 59 bc 62 9d 20 bd 51 ca 5f bd
       -0.1301969 -0.013266282 -0.039212592 -0.054636303
0000a0 f0 04 98 bd 63 92 89 3d 8c 69 1c 3c b6 e4 ca bd
       -0.07422817 0.06717374 0.009546649 -0.099069044
0000b0 28 47 9a 3b 5a 00 50 be ba f0 14 be 62 5f 35 bd
       0.0047081895 -0.20312634 -0.14544955 -0.044280417
0000c0 35 0e c7 3a 85 5f 24 be a6 b7 db 3c 97 04 2a bd
       0.0015186729 -0.16052063 0.026820969 -0.041508283
0000d0 a6 33 13 bd 41 19 24 be 8e 12 8a bd ad d2 7b bd
       -0.035937928 -0.16025259 -0.0674182 -0.061480213
0000e0 72 cc 74 3d 61 22 07 be eb ef c5 bc 1c be 35 be
       0.059765287 -0.13196708 -0.024162253 -0.17748302
0000f0 9e 11 26 be f8 be 37 bc 69 d5 ad bd 99 06 9b bc
       -0.16217658 -0.011214964 -0.084879704 -0.018924044

a2c_network.actor_mlp.2.weight f4 [64, 64]
000000 c8 13 74 bd 1b 54 d0 bb 20 15 68 bc 4d 19 81 bc
       -0.059589177 -0.0063576824 -0.014165193 -0.015759135
000010 0c 21 71 3c 1f c0 02 3c 7f 9b 28 bd 38 f5 70 bc
       0.014717352 0.007980376 -0.041163918 -0.014706902
000020 37 53 39 3c c2 64 20 bc 79 15 20 bd f2 51 f3 39
       0.011311344 -0.009789648 -0.039082978 0.00046409626
000030 19 37 76 bc 82 42 12 bc 39 93 33 bb c7 b3 91 3b
       -0.015027785 -0.0089269895 -0.0027400984 0.00444648
000040 4b 54 d7 3c 7b 7b f9 3c 83 92 04 3d 04 b8 f4 bc
       0.026285311 0.030454388 0.032366287 -0.029872902
000050 37 f6 78 bd 73 6e e3 bc 7a 3e 9d 3d 37 7d ca 3c
       -0.060781684 -0.027762627 0.07677932 0.02471791
000060 83 1e be bc 2f 03 79 bd dd 03 84 bd f1 97 2e bc
       -0.023207908 -0.06079405 -0.06446049 -0.010656343
000070 27 d9 b3 3c 97 5d a3 3c 09 86 c9 bc 5f ba 53 bb
       0.021954132 0.019942088 -0.024600046 -0.003230713
000080 b6 40 39 3d 67 d1 bb bc ba 08 b2 3c bf 7b 95 bc
       0.04522773 -0.022927 0.021732677 -0.018247483
000090 69 29 b9 bc 9a 3a 25 3d c5 a3 13 3c 9e 55 c1 3b
       -0.022602754 0.04033909 0.009011214 0.005900099
0000a0 0f e7 b6 bc 2c 03 a6 3c 1d 0a 01 bd 22 f1 3f bd
       -0.022326974 0.020265184 -0.031503785 -0.04686082
0000b0 77 60 ff 3b bb 91 1f 3c 3f a7 1c bb 45 e9 fb bb
       0.007793482 0.009739335 -0.0023903397 -0.00768772
0000c0 d5 4d 60 3c 53 4e cc 3c 6f 52 55 bb bb 0e 58 3d
       0.013690432 0.024939692 -0.0032550355 0.052748423
0000d0 f5 03 0e ba ef cb 63 bd 0b 8f 11 39 71 e7 aa 3b
       -0.000541746 -0.055614408 0.00013881565 0.0052155782
0000e0 10 fc 08 bc 0f 4a 09 3d c0 a9 cd 3c 81 aa f4 bb
       -0.008360878 0.033517893 0.025105357 -0.0074666147
0000f0 f4 16 2e 3c 38 f3 cb 3c 23 d9 06 bd ef 77 50 bd
       0.01062559 0.02489625 -0.03292192 -0.050895628
000100 d4 e4 6b 3c b6 1c b6 3b 4e da 5f 3b a6 3e 83 bc
       0.014397819 0.005557622 0.003415722 -0.016021084
000110 f3 a3 6a 3c a7 6b 9e bc cb 94 d8 3d 5e db 3a bc
       0.014321315 -0.019338442 0.10575255 -0.01140484
000120 9f 1a 50 ba 7b c2 08 bb dd 2f cf 3c 86 d3 9a 3d
       -0.0007938537 -0.0020867873 0.025291378 0.07559876
000130 ea 65 84 bb 21 3b 18 3c 99 1f a3 bc 00 1b 03 bc
       -0.0040404694 0.009291441 -0.019912528 -0.008002043
000140 da fd c3 3d b5 39 a6 bc 49 0e 61 bd b5 eb e0 bc
       0.09569903 -0.020291189 -0.054945264 -0.027456144
000150 5b 54 8e 3d 50 bd 20 3d 2c 7c 28 bd e2 24 1f bb
       0.06949683 0.039243042 -0.041134045 -0.0024283458
000160 38 b0 53 bc 26 d6 4b bd fd 38 63 3c 76 52 3d bd
       -0.012920432 -0.049764775 0.0138685675 -0.04622122
000170 4e 70 2b bd 97 d7 02 3d 11 26 d3 3c cb 31 3d 3d
       -0.04185515 0.031943884 0.025774987 0.046190064
000180 bf c0 10 bd 89 36 dc bc d2 77 f3 bb 88 6f d9 3c
       -0.035340067 -0.026881473 -0.007430055 0.02654244
000190 03 38 03 bb 55 9b 6f bd e3 40 98 bc f5 b7 a1 bc
       -0.00200224 -0.058497746 -0.018585628 -0.019741038
0001a0 ca 0a fc bc 25 9e 91 bd c2 86 95 3d 38 e5 85 bd
       -0.030766863 -0.07110242 0.07301094 -0.06537861
0001b0 97 c4 46 3c 12 bd c4 3c 36 b8 09 bc 0e f0 44 bc
       0.012131832 0.024015937 -0.008405736 -0.012020124
0001c0 ff 33 4d ba 13 c7 98 bc 33 cc 50 3d 88 5b 04 3d
       -0.00078278774 -0.018649613 0.05097599 0.032313854
0001d0 0c 55 f3 bd ef 8f e6 3d f3 b0 89 bc 60 ba 9e bd
       -0.11881456 0.11257922 -0.016808009 -0.07750392
0001e0 ad c7 ce bc be 09 4c 3c c4 03 c2 bb ed 3f a4 bc
       -0.025241697 0.012453495 -0.005920859 -0.020050013
0001f0 49 3b 12 bd 4c 27 7f bd ce 85 b1 3b 97 a2 b5 bc
       -0.03570107 -0.062293336 0.005417562 -0.022172255
000200 5d 05 75 3c 42 18 79 bd 7c cb a0 bc b5 fe 88 3d
       0.014954892 -0.06081415 -0.019628279 0.066892065
000210 0b 86 2d be c3 3b a4 3d a2 33 25 bf 47 ff 02 bd
       -0.16945665 0.08019211 -0.6453191 -0.031981733
000220 af 98 3f 3e 06 e0 84 b8 da 74 72 3d ee 76 a8 3d
       0.18710588 -6.335978e-05 0.05919347 0.08225809
000230 ee 5b 85 3e 14 d9 cf 3c b2 34 dc 3d e1 52 a5 3e
       0.260467 0.025372066 0.10752238 0.32289794
000240 3a a4 b8 3d c2 83 a1 be bc 89 a0 bc ef 6e 55 be
       0.09015699 -0.31545836 -0.019596927 -0.20843099
000250 7e 2d 60 3d 53 b4 03 be 08 9b aa 3e 17 66 90 3c
       0.054730885 -0.12861757 0.33321404 0.017626805
000260 f2 70 c5 bb 11 1c 45 3d 15 f3 85 3e 26 0f 44 3e
       -0.006025427 0.04812247 0.2616202 0.19146404
000270 d3 f0 a3 3d e4 ee 01 3d be c7 d9 bd 59 29 b5 bd
       0.08004918 0.031721964 -0.10633801 -0.08845777
000280 e5 a9 01 bc a6 75 0f bf c8 7e 3c be 2f 8c 56 3d
       -0.007914041 -0.5603889 -0.18407738 0.052379783
000290 0b 01 dc bc cf 57 af bc 57 77 d2 3d 83 79 c6 bd
       -0.026855966 -0.021404175 0.102766685 -0.09691145
0002a0 9e 17 73 3d c3 80 a5 bd 39 f8 9c bd bb a1 a0 be
       0.059348695 -0.080812 -0.07664532 -0.3137339
0002b0 73 98 af bd 13 ea df bd d4 23 51 3d 75 11 ce bd
       -0.08573999 -0.10933318 0.05105956 -0.100619234
0002c0 7e 9a 44 bd 37 b8 cb be f3 aa ce be 02 45 91 3c
       -0.047998898 -0.39788982 -0.403648 0.0177331
0002d0 f9 a0 a6 bc c1 41 33 3e 6a 02 bf 3c b5 b8 2e bc
       -0.02034043 0.17505552 0.02331658 -0.010664155
0002e0 18 10 1a bf af 80 99 3d 55 5f 12 bd 73 35 2d 3e
       -0.6018081 0.074952476 -0.035735447 0.1691492
0002f0 df 7b 6e be d9 37 36 be c5 a2 d7 3c 65 39 1c bd
       -0.2328944 -0.17794742 0.026322732 -0.038140673
000300 2a 09 f6 bb 0b f0 15 3d 24 c5 62 3b 07 ca 8e 3c
       -0.0075084167 0.036605876 0.0034602368 0.017430319
000310 65 f4 d1 3d a9 26 65 3c c6 9d 12 3e 9b db 43 3d
       0.10251693 0.013986268 0.14317998 0.047816854
000320 3f 82 e5 bd 99 69 8e 3c 94 74 20 bd f7 f6 b0 3b
       -0.11206483 0.017384337 -0.039173678 0.0054005343
000330 f3 70 e0 bd 81 84 9f 3c 14 7c 82 3d 32 47 08 bd
       -0.10959043 0.019472362 0.06371322 -0.033271022
000340 ee b8 9c 3d 5c ac 6c bd 05 9c 3a bd ad 8c d2 ba
       0.0765246 -0.057781562 -0.045558948 -0.0016063653
000350 ac dc 5e bd 56 66 d9 bc 03 e5 26 3a 51 a4 a0 bd
       -0.054409668 -0.026538055 0.0006366523 -0.07843841
000360 58 67 4f bc 86 14 3f 3d a1 78 7f bc 33 22 c0 3d
       -0.012658916 0.046650432 -0.015592725 0.09381523
000370 82 49 a1 bd 78 96 a9 3d 85 a1 b6 bd 2e 97 b9 bc
       -0.07875349 0.08280653 -0.08917526 -0.022655096
000380 34 59 eb bd a9 f4 33 3d 2c 20 9a 3d 90 cf db 3c
       -0.114916235 0.043934498 0.075256675 0.026832372
000390 d7 20 02 3c 80 81 0d 3c 6e 39 85 3c 2a a0 9b 3e
       0.0079424 0.008636832 0.016262736 0.30395633
0003a0 d4 02 0d be 97 64 c7 3d a3 5a fc bd 42 f4 fa bc
       -0.1377061 0.09735983 -0.12321975 -0.03063405
0003b0 0a cf 18 be 81 38 d8 bd 07 04 31 3d d1 c8 88 be
       -0.14922729 -0.10557652 0.04321673 -0.2671571
0003c0 af 29 f1 bc f8 54 57 3d d8 79 bd 3c 8c b1 15 bc
       -0.029438822 0.052571267 0.023129389 -0.009136569
0003d0 a5 25 d9 bd ec df 52 3d f2 ff d2 3c 68 81 ac 3c
       -0.10602883 0.05148308 0.02575681 0.0210578
0003e0 99 fa 55 bd e5 b7 1c be 5e f9 91 3d 2c 62 90 bd
       -0.05224094 -0.15304525 0.07127641 -0.07049975
0003f0 45 5a 92 be 66 57 00 3e 54 dc e7 3d f9 e9 c7 3c
       -0.28584495 0.1253334 0.11321321 0.024403559

a2c_network.actor_mlp.2.bias f4 [64]
000000 91 f7 93 3b 24 31 22 bd 06 24 de bd a8 67 42 bd
       0.004515596 -0.039597645 -0.10846715 -0.047462136
000010 79 10 0f be 36 d0 c2 bc 9b 44 3c bc ad ad c9 3b
       -0.13971128 -0.023780923 -0.011490966 0.006154737
000020 ae d3 f7 ba b1 9a 6b 3c 89 0c 57 bc eb 13 67 3c
       -0.001890769 0.014380143 -0.013125547 0.01410387
000030 3e d0 27 bd c8 61 5b bc e4 fa fc 3c 57 6c 11 bd
       -0.04097008 -0.013390012 0.030881353 -0.03550371
000040 26 4c 6c bd db 76 d2 3c a4 e7 f5 3b 44 a5 66 3a
       -0.05768981 0.02569144 0.0075044204 0.000879843
000050 ca 70 9a 3b 65 8f 02 be 9c e8 18 3b 37 fb 16 3b
       0.0047131525 -0.12750013 0.0023332005 0.002303792
000060 df 2f 13 bc ec 38 2c be 6b e7 4c bb 11 05 ff bc
       -0.008983581 -0.16818589 -0.0031265866 -0.031130346
000070 a3 5f 04 bc fd 3d 22 bc 8b ce cd bc 70 c6 2f be
       -0.008079442 -0.0099024745 -0.025122901 -0.17165542
000080 dc 5c c7 3b 88 d3 f7 bc 6b c8 cc bb 61 fd 14 bb
       0.0060840677 -0.030252233 -0.0062494776 -0.0022734033
000090 59 73 83 bb ee 71 4c be a6 a3 ef 3b 96 3e 5d bc
       -0.0040115532 -0.19965336 0.0073132096 -0.013503691
0000a0 7a 2e 5e b9 b7 98 22 be df 09 4c be 8e 0d 5e bd
       -0.00021188884 -0.15878569 -0.1992564 -0.054212146
0000b0 fa 61 41 be e9 d1 9d 39 c7 69 08 be 1a 01 1e bc
       -0.18885031 0.0003010177 -0.13321601 -0.009643817
0000c0 b1 28 9b bc ac e2 9a 3a da 75 7f be d6 87 a9 bb
       -0.018940302 0.0011816821 -0.249473 -0.0051736636
0000d0 33 9b 65 bc 4c cf d8 bc 45 96 8d bc 6f 07 23 3c
       -0.014014053 -0.026466034 -0.017283568 0.009950503
0000e0 4e f8 8e bb ea 31 a6 bb 04 b3 00 be e3 5a 51 3c
       -0.0043630963 -0.005071868 -0.12568289 0.012778017
0000f0 12 27 06 be 24 a8 62 bc d1 5b 66 3b 97 c5 bc 3a
       -0.13100842 -0.013834033 0.0035149942 0.0014402148

a2c_network.value.weight f4 [1, 64]
000000 bb bc 29 3c 64 07 c1 bd 70 86 cb 3c 3f 12 82 be
       0.010359938 -0.09425238 0.024844378 -0.25404546
000010 4d a5 84 bd 3a 83 46 be 5f 3b ba bc e7 0a 95 3d
       -0.06476841 -0.19385996 -0.022733388 0.0727747
000020 f0 17 5b 3a 3b 03 c1 3d 6d fb 40 3d 33 91 68 3d
       0.0008357754 0.09424444 0.04711478 0.056779098
000030 9b 46 fd 3e 90 7f d2 bd 3c 21 cf ba 42 c1 12 3e
       0.4946793 -0.10278237 -0.0015802751 0.14331535
000040 05 26 c2 3c d8 1b 8c bd 4f 8d 55 bd 89 3e 3b 3d
       0.02369977 -0.06841248 -0.052136716 0.045713935
000050 68 86 de 3c 1b af 9e bd ff fd d4 bd c0 4c 4a 3c
       0.0271637 -0.077482425 -0.104000084 0.0123474
000060 c2 48 e3 3d 7b 93 ee 3b 8a 67 12 bd ce 5d 04 be
       0.11097862 0.0072807646 -0.035743274 -0.12926409
000070 4f 91 96 3c 73 4c 85 3b 85 83 f0 bd bf 6f 9b 3d
       0.018379835 0.0040679513 -0.11743835 0.07589673
000080 f5 59 ce bd 8b ad 55 bc 82 6f 0f bd b9 cf c4 3c
       -0.10075752 -0.013041864 -0.03501845 0.024024831
000090 95 99 2e 3c 60 43 91 3c 9b ba 4c 3d c8 e6 12 3d
       0.010656734 0.017732322 0.04998265 0.03586462
0000a0 e6 6f ba bd 7a c6 a4 bd 22 ba ff bc 00 59 91 3d
       -0.09103374 -0.08045669 -0.031216685 0.070970535
0000b0 3c 6e ad 3f f6 b2 34 bd ff 8b 8d 3d 5f 18 7f 3d
       1.3549266 -0.044115983 0.06911468 0.0622791
0000c0 60 51 1f 3b 72 49 f5 3d 96 a2 e3 3b 93 a0 ec 3c
       0.0024309978 0.11976899 0.006946872 0.028885162
0000d0 a2 2b 1a be 16 a1 0d 3d dd 79 5c 3d 16 4f 58 3c
       -0.15055707 0.03457745 0.053827155 0.013202449
0000e0 dd 5d e3 3c d4 56 b2 3b 60 63 bf bd e2 9f 6e 3d
       0.027754718 0.0054424796 -0.09345126 0.058257945
0000f0 07 69 9b bd b1 43 1d 3d c3 d5 a8 bd 2e d8 37 3d
       -0.07588392 0.038394634 -0.08243897 0.0448839

a2c_network.mu.weight f4 [4, 64]
000000 1c a5 85 bc 48 dd da bb d2 8b 06 3d 0a be 8a 3c
       -0.016314082 -0.006679211 0.032848187 0.01693632
000010 3c 67 fe 3d ef eb d9 3c 00 2e 93 bb 2a 26 d0 39
       0.12422034 0.02660176 -0.0044915676 0.00039701286
000020 30 f7 0a 3c b0 9f 79 bb cf dd 77 bc f9 84 80 bc
       0.008481786 -0.0038089566 -0.015128567 -0.015688406
000030 6a e8 9c ba b9 1a 1f 3b c6 62 60 3c 96 19 8c bc
       -0.001197112 0.0024277403 0.013695424 -0.017102044
000040 fd 79 57 be b3 7c 11 3a 86 6b 2e 3c 0c e9 39 bb
       -0.21042629 0.00055498927 0.010645753 -0.0028367667
000050 f3 26 52 ba b2 c7 3f 3d dd ab d1 bb e5 42 d4 3b
       -0.0008016668 0.046821304 -0.0063986615 0.006477701
000060 1e b0 9c 3a 32 8f 72 3d c0 73 23 bc a1 90 b0 3b
       0.0011954342 0.059218593 -0.009976327 0.005388335
000070 32 d7 79 bc e4 a5 9d bb 45 06 3a bd bb 35 b2 be
       -0.0152490605 -0.0048110355 -0.045416135 -0.34806618
000080 34 f0 43 3c 06 64 bd bb 27 42 87 bb ce 27 94 3c
       0.011959124 -0.005779746 -0.004127759 0.018085387
000090 2f a2 65 bb 86 5e a1 3d 3d 16 6a bb de d5 ba 39
       -0.0035039296 0.07879357 -0.0035718821 0.00035636028
0000a0 77 5d e0 3b fa 13 5d 3d 4b 44 bf bd d4 3e 2d bc
       0.0068470794 0.05397413 -0.09339198 -0.010574061
0000b0 ea 2d 0d be ca 79 29 3c 71 69 2f be 24 92 aa bc
       -0.13787046 0.010343978 -0.17130066 -0.020821638
0000c0 14 08 6b bb df d4 f7 b9 13 7a 78 3e dc 6f 30 bb
       -0.003586297 -0.00047270113 0.24265318 -0.0026922142
0000d0 39 3f 21 3c a4 6f 32 3c c5 a4 03 3c 92 1c 24 bb
       0.009841734 0.010890875 0.00803489 -0.0025041443
0000e0 2b 1f 77 3a eb 41 01 bc ef c1 c9 bc f2 eb 37 bc
       0.00094269466 -0.007889251 -0.024628608 -0.011225687
0000f0 68 3c 05 be c1 1a dd bb 10 8c 99 3c 73 57 94 3b
       -0.13011324 -0.006747574 0.018743545 0.0045270263
000100 fe 4e 73 39 7c 3e 98 3b e9 2f 47 bc 4c ce e4 3b
       0.00023203713 0.0046461206 -0.012157419 0.0069826003
000110 13 66 c2 3c 5a 4b ed bb bb 66 96 3b cb 60 1a b9
       0.023730313 -0.0072416486 0.004589883 -0.00014722643
000120 46 05 b9 3b ea df dc bb bd 2e 63 3b 90 a1 b4 3b
       0.0056463806 -0.00674056 0.003466531 0.005512424
000130 b0 db 8d 39 8b 95 e5 3a 0b 33 55 3a 5a 32 1e 3b
       0.00027057296 0.0017515881 0.0008132911 0.0024138899
000140 6a 04 5d 3b c7 9f 25 bb a0 30 23 3a 3e e7 2c bb
       0.0033724555 -0.0025272237 0.0006225202 -0.0026382948
000150 d7 d9 9e 3b a4 59 df 3b ea b7 de b9 c1 91 26 3b
       0.004847746 0.006816106 -0.00042480166 0.0025416466
000160 42 56 41 bb 46 ee 55 3d 39 46 2d 3b aa cf ab bb
       -0.0029500877 0.05222919 0.002643956 -0.0052432613
000170 10 31 89 3a 30 72 31 ba f6 54 60 ba f0 db 7c 3c
       0.0010466892 -0.00067690294 -0.0008557582 0.015433297
000180 d9 39 a6 3b 51 dd 3f bb 51 cd ba 3b 59 04 66 bb
       0.005072814 -0.0029276202 0.005700745 -0.0035097806
000190 cf c0 d7 39 c0 e7 45 bc 7d 9b a0 39 11 df fb 3b
       0.0004115165 -0.012079179 0.00030633426 0.0076865037
0001a0 59 c4 c7 bb c8 70 04 3b 01 67 12 3d 92 76 7d 3b
       -0.0060964045 0.0020208824 0.035742763 0.003867541
0001b0 1e 5f 1f bd ce e1 96 ba 4f 55 08 3c ae eb 7d 3b
       -0.03890907 -0.0011511387 0.00832112 0.0038745212
0001c0 e6 94 25 bb eb 2d d1 3b 6e 30 b3 bc 3b 44 95 bb
       -0.0025265752 0.0063836477 -0.021873679 -0.004555253
0001d0 e5 be e8 bb ba 91 23 bc 1b 87 d0 bb f3 aa 8d 3b
       -0.0071028345 -0.009983474 -0.006363762 0.0043233573
0001e0 bf 29 81 3b 11 c0 f3 3b 2d 9f 9c bb 30 44 7d 3b
       0.003941744 0.0074386676 -0.0047797174 0.003864538
0001f0 12 7a c4 3b c3 f4 1c b8 39 1e 9a bb 44 aa f7 3b
       0.005995997 -3.742125e-05 -0.00470331 0.007558139
000200 a0 da 44 3b ca cd 7b 3b 4f 16 1d bc ff ba eb bb
       0.0030037537 0.003842222 -0.009587838 -0.0071939225
000210 33 54 ad 3c b3 18 89 bb e8 51 58 b7 10 59 c0 bb
       0.021158313 -0.0041838526 -1.2893674e-05 -0.005869992
000220 b7 ed 0e 3a b4 b8 98 bb 29 83 24 3b a8 29 cd bb
       0.00054522924 -0.00466069 0.0025102592 -0.0062610693
000230 c1 d1 92 bb b2 29 77 bb cc 2d 4f bb 5f 29 c8 3b
       -0.004480571 -0.0037714061 -0.003161299 0.0061084474
000240 8d 5f 73 3c 56 ad b3 3a 15 ac 84 3a 61 c3 0a 3b
       0.014854324 0.0013708274 0.0010122085 0.0021173584
000250 e4 d0 07 bb 57 55 30 bd 5a 09 05 3b 45 f5 85 3c
       -0.0020723874 -0.043050136 0.0020299763 0.016352305
000260 dc a3 28 ba c9 ed 1b bc de e5 86 3b ae 9c d9 3a
       -0.00064331084 -0.009517142 0.004116758 0.001660248
000270 ae 4c 0f 3c 41 0f d5 b8 af d7 cc 3b 1d 7e 9b 3c
       0.008746309 -0.00010159473 0.0062512974 0.018981034
000280 bb cc bd 39 e5 dd 0a 3c b2 f5 f5 bb 47 9b 4a bb
       0.00036201425 0.008475755 -0.007506096 -0.0030915306
000290 a8 6c 39 bb 25 8c 27 bd af ac 02 3b 18 4d 0b bb
       -0.0028293524 -0.040905137 0.0019939353 -0.0021255668
0002a0 fa 79 f6 bb a4 fa 93 3c 0a be b0 bc a6 40 12 3a
       -0.007521865 0.01806385 -0.021574993 0.00055790914
0002b0 1c 88 32 3c 83 de e7 39 0a 9f 80 bc 75 5f 13 3b
       0.010896709 0.00044225538 -0.015700836 0.0022487317
0002c0 28 f6 e3 ba 0f 92 64 bc 93 20 38 3d 6e 91 8b 3b
       -0.0017392086 -0.013950839 0.04495294 0.00425928
0002d0 4e 14 98 3b 75 de 24 ba dd dd b2 3b 06 71 9c bb
       0.0046410924 -0.0006289252 0.005458577 -0.0047742156
0002e0 62 d2 c1 ba 47 ce f9 ba ab e3 da 3a 10 76 a4 b9
       -0.001478743 -0.0019058668 0.001669993 -0.0003136848
0002f0 86 fb 07 3d f6 b4 17 3c 3e 03 af bb 48 05 01 bb
       0.033198856 0.009259453 -0.0053409627 -0.0019686986
000300 fe 26 58 3c 5b 99 39 3b 02 c1 8d 3d c4 69 8d bc
       0.01319289 0.0028320167 0.06921579 -0.017262347
000310 9b 7f 1c 3d d8 a7 9c bb 35 51 15 3b a1 d4 ab bb
       0.03820763 -0.0047807507 0.0022784 -0.005243853
000320 6c 48 5c bb ff 70 85 bb 01 73 f4 3b d5 28 57 bb
       -0.0033612503 -0.004072308 0.0074599986 -0.0032830734
000330 2c 2e 95 3a 40 de fe bb 33 b0 54 bc c7 c8 92 3a
       0.0011381558 -0.007777959 -0.012981462 0.0011198752
000340 be 79 7e 3b 7d f5 32 3c b6 7e c0 3b 36 3b 70 3b
       0.0038829888 0.010922787 0.00587448 0.0036656386
000350 24 93 f8 3a ce 8e a3 3d 73 5d ae 3b ee 90 75 3c
       0.001896475 0.07986222 0.0053211986 0.014988167
000360 55 53 a8 3a 8d 22 16 3d f2 e6 ec 3b e0 1a 69 3c
       0.0012842218 0.036654044 0.0072296793 0.014227599
000370 9b f6 02 3b 67 68 03 bb 89 bd b2 bc fd 2c 5e bd
       0.0019983414 -0.0020051242 -0.021818893 -0.054242123
000380 56 44 f9 3c 78 21 73 3c dc 86 32 bc 15 7e 7e bc
       0.030428093 0.014839523 -0.010896411 -0.01553299
000390 91 3d 82 3b 3e 1c 90 bd 90 21 36 bc 01 91 38 bc
       0.0039746244 -0.07036637 -0.0111164 -0.01126504
0003a0 ff 68 f9 ba 16 a4 5c 3c 00 91 aa bd 93 30 37 bc
       -0.0019028484 0.0134668555 -0.08328438 -0.011181015
0003b0 ea 53 00 bd e1 61 bb bb e4 33 a0 3d 08 89 27 3c
       -0.031330027 -0.005718455 0.07822397 0.010225542
0003c0 06 63 32 bc 3d 03 b9 bb 2e be c5 bd 38 e9 83 bb
       -0.010887867 -0.005646138 -0.096554145 -0.0040256046
0003d0 77 86 9b bb 68 c8 cb bb 07 30 4d bc e1 6b 67 bc
       -0.004746254 -0.0062189586 -0.012523658 -0.014124841
0003e0 ea c7 83 bc 44 46 17 b8 39 08 89 bc 4c dd d9 bb
       -0.016086537 -3.6066645e-05 -0.016727554 -0.006648695
0003f0 bc 61 b4 bb 78 9d 67 3c 16 53 5a bc 82 a8 92 bb
       -0.005504815 0.014136665 -0.013325473 -0.004475654

a2c_network.mu.bias f4 [4]
000000 f9 bb e0 3d b5 70 1d 3c 01 4a 68 3b b6 4e 89 bc
       0.10973353 0.009609391 0.00354445 -0.016761165

exp_avg f4 [4]
000000 17 34 22 ba e9 23 02 bb e0 c0 c4 ba b3 03 44 bb
       -0.00061875716 -0.001985783 -0.0015011095 -0.0029909431

exp_avg_sq f4 [4]
000000 d0 3a 5a 37 41 d3 7b 37 5e e4 89 37 5c f7 61 37
       1.3007506e-05 1.5009952e-05 1.6438014e-05 1.3468638e-05

exp_avg f4 [64, 12]
000000 db a1 38 39 63 3c 8d b9 35 1c 7d 39 53 86 62 b8
       0.00017607903 -0.00026938607 0.00024138468 -5.4007698e-05
000010 da 87 80 b7 e0 dd a9 b6 39 76 54 39 bc 33 e2 37
       -1.532205e-05 -5.062422e-06 0.00020261937 2.696539e-05
000020 e2 a3 b6 b8 92 fa 97 39 e1 c8 47 36 2d 58 f1 39
       -8.708962e-05 0.00028987654 2.9770238e-06 0.00046032798
000030 6a 46 da 39 f6 ef e8 39 56 4e a9 b9 ca 79 7c ba
       0.00041632663 0.00044429273 -0.00032292557 -0.0009631185
000040 06 d7 93 3a 64 a3 22 3a 34 35 1d bb af 2f 70 b9
       0.0011279292 0.00062041567 -0.002398801 -0.00022905947
000050 cb 32 ef b9 c2 71 9c ba 91 b1 2a 39 f9 3d 0d 3b
       -0.00045623476 -0.0011935758 0.00016278612 0.002155183
000060 45 5a 4e b9 d6 ab 20 b9 c0 27 dd b9 94 70 2f b8
       -0.00019679319 -0.00015322803 -0.0004218202 -4.1828098e-05
000070 9c d1 b0 38 a8 ee b0 b7 f3 f2 f2 38 cc 58 8d b9
       8.431377e-05 -2.1091968e-05 0.00011584712 -0.00026959775
000080 72 d6 06 39 ea 9d a4 b8 f8 cb 80 b7 ed 9f d8 b9
       0.00012859123 -7.849543e-05 -1.535377e-05 -0.00041317884
000090 97 95 a9 ba a8 6d e1 ba af 28 b7 38 f4 78 a5 b9
       -0.0012938258 -0.0017198818 8.733698e-05 -0.0003156137
0000a0 c1 01 ea b8 b4 d0 2d 3a 39 82 8b 3a d4 d5 1a ba
       -0.00011158316 0.00066305255 0.0010643668 -0.00059064967
0000b0 87 4f 87 39 77 40 8d ba f9 4f d7 ba c3 e5 19 36
       0.0002580846 -0.0010776658 -0.0016427032 2.2932516e-06
0000c0 fe 05 89 3a ec 0d 9f 3b 6a ee 22 3b 17 b2 65 3a
       0.0010454056 0.0048539545 0.0024861344 0.0008762194
0000d0 28 79 82 3a fd 61 b4 b9 fb 52 ff ba e1 a8 47 3b
       0.000995432 -0.00034405282 -0.0019479686 0.003046565
0000e0 d5 0c eb ba c1 9c d5 3a bd 5e 08 3b b2 3e 69 3b
       -0.0017932901 0.0016297327 0.0020808422 0.0035590348
0000f0 a1 0d 85 b9 53 bd 0d b7 fe 97 98 b9 dc db 24 39
       -0.0002537789 -8.448335e-06 -0.00029104942 0.00015722163
000100 a6 bb 80 37 04 98 3e b9 55 a7 1b b9 bb 95 a2 b9
       1.534617e-05 -0.00018176442 -0.00014844288 -0.00031010606
000110 89 89 be 39 29 35 c0 b9 70 83 28 b9 f1 a3 c2 b8
       0.00036342096 -0.000366607 -0.00016070693 -9.281177e-05
000120 0c 81 9b bb 25 09 f0 ba 20 fd f6 bb 1b 04 9b ba
       -0.004745608 -0.0018313272 -0.007537499 -0.0011826785
000130 14 74 60 3b 98 41 f2 3a 20 fe 26 3a 43 7b 57 bb
       0.0034248875 0.0018482683 0.0006370265 -0.0032879866
000140 9e be ae b9 5f 3e b3 b9 94 2c a8 3a a4 a9 04 bc
       -0.00033329887 -0.0003418801 0.0012830668 -0.008097086
000150 e5 65 9b 39 39 3a 38 39 b4 2c bc 39 4f 3f 39 b8
       0.0002963982 0.00017569297 0.0003589146 -4.4166398e-05
000160 14 3c 03 b9 ed 50 16 36 dc 8f 1a 39 54 64 43 39
       -0.00012515514 2.2398847e-06 0.00014740176 0.00018634024
000170 ad 2d 20 b9 4a a0 9e 39 59 62 d3 38 81 00 75 39
       -0.00015275805 0.00030255533 0.00010079583 0.00023365208
000180 a1 80 fd ba ef 39 14 3b 10 11 bd 3b 45 c5 cf 3a
       -0.0019340703 0.002261754 0.0057698563 0.0015851638
000190 16 42 1a bb 35 09 2a bb b9 27 37 bb f8 bd 35 3b
       -0.0023537925 -0.002594543 -0.002794726 0.0027731638
0001a0 18 44 36 3a 40 e5 91 bb 40 50 be 3a e4 d0 f5 3b
       0.0006952896 -0.0044523776 0.0014519766 0.0075017083
0001b0 fd 04 84 39 92 3e cc 38 59 19 4a 39 03 bf f8 37
       0.00025180719 9.739133e-05 0.00019273664 2.965285e-05
0001c0 dc 9d 71 b9 93 25 2d b9 6c aa eb 38 14 d6 58 39
       -0.00023042358 -0.00016512563 0.00011237417 0.00020679116
0001d0 d2 85 0f 39 ab 3d 52 38 ec e6 fb 38 c7 d7 8f 39
       0.00013687395 5.0125334e-05 0.00012011625 0.00027435852
0001e0 59 ee 74 b8 f1 df 24 b8 b6 0f 80 b9 04 9c 05 39
       -5.8396112e-05 -3.930921e-05 -0.00024425768 0.00012741989
0001f0 ea 3a 01 38 ea b2 27 b9 7d 6b 90 b9 89 17 56 b9
       3.0810865e-05 -0.00015993012 -0.00027545905 -0.00020417398
000200 eb b6 98 39 5f cb b7 b9 11 98 3e b9 f3 1a 0c b9
       0.00029127984 -0.00035056003 -0.00018176461 -0.0001336148
000210 89 dd 1a 39 2c 9d 1a 3a 48 9f 20 3a bd cb 42 39
       0.00014769113 0.0005898054 0.00061272504 0.0001857718
000220 11 61 1e b9 59 df 02 ba 09 e5 c7 38 5c f7 07 39
       -0.00015104214 -0.0004992388 9.5317206e-05 0.00012966752
000230 dd b4 6a 38 d6 b3 24 39 7f 7b 84 39 06 c6 68 3a
       5.595839e-05 0.00015707253 0.00025269014 0.00088796054
000240 30 19 b1 38 49 a1 0d ba 9f 23 40 bb d0 71 79 b9
       8.444709e-05 -0.00054027565 -0.0029318107 -0.00023788889
000250 56 10 11 3a fd ae fd 39 43 2d ec 3a 7f 95 9b ba
       0.0005533745 0.00048386297 0.001801886 -0.0011870115
000260 81 46 2a ba 0c df c2 3a ce cc 54 3a 28 a6 3a bb
       -0.0006495491 0.0014867499 0.00081176765 -0.0028480384
000270 47 6e 6b b8 54 96 5c 39 83 c9 5f b9 94 85 d0 38
       -5.613107e-05 0.00021036837 -0.00021342006 9.943094e-05
000280 ff 88 65 38 cb 69 90 b7 6f b0 74 b9 bd 4f e2 b8
       5.4725442e-05 -1.7215401e-05 -0.0002333538 -0.00010791372
000290 1b c6 90 38 97 a1 3a b9 09 bb 90 b8 d0 d8 4b b9
       6.903355e-05 -0.00017798539 -6.901293e-05 -0.00019440358
0002a0 95 95 60 39 9e c8 fe b9 1d 48 a6 b9 d4 ca 0d b9
       0.00021418028 -0.00048596127 -0.00031715716 -0.00013522367
0002b0 88 3a 34 38 af 33 45 3a 2c 5c 89 39 db 7e e3 39
       4.2969856e-05 0.0007522655 0.0002619935 0.0004339133
0002c0 01 74 ec b9 02 88 a0 39 31 26 09 b9 fc a3 35 b9
       -0.00045099857 0.00030618912 -0.00013079566 -0.00017322594
0002d0 2e 35 ad ba b9 c3 86 b8 7f ce 09 bb 14 3a 48 39
       -0.0013214701 -6.426074e-05 -0.0021027622 0.00019095122
0002e0 d2 8a 32 b9 16 c4 84 ba ae c1 dc 39 4b d7 94 ba
       -0.00017027117 -0.0010129239 0.00042105973 -0.0011355666
0002f0 2f c2 9d 39 bf 9f 0c ba 06 58 e7 39 96 cf f8 ba
       0.00030090052 -0.000536438 0.00044125336 -0.0018982764
000300 e5 30 6d ba 9b 9f 3e b9 9f 1d 54 ba df c5 c5 38
       -0.00090481184 -0.0001817927 -0.0008091572 9.4305484e-05
000310 09 17 d3 39 a9 ed 36 3a ca a1 d8 b7 cb 65 77 b8
       0.0004026222 0.0006978163 -2.5824545e-05 -5.898419e-05
000320 c6 70 1d ba 53 2e f2 b8 f3 b1 4e b9 34 b7 ed b9
       -0.0006005879 -0.00011548088 -0.00019711982 -0.0004534066
000330 35 c7 26 3a 74 68 9c bb c9 3a 70 bb 7e c4 02 bb
       0.00063620816 -0.004773194 -0.0036656132 -0.0019953544
000340 69 c0 c6 3a 8f 98 46 3b 6c 5b 03 3a 08 d3 6b bb
       0.0015163544 0.0030303334 0.00050108763 -0.0035983939
000350 54 f6 dd ba 1f 26 86 3a 69 35 04 bb 77 08 00 bc
       -0.0016934373 0.001023475 -0.0020173436 -0.007814518
000360 ae 0f 4a bb a0 60 16 bb 90 8b 13 bb fb b9 1e 38
       -0.00308321 -0.0022945777 -0.0022513606 3.7843343e-05
000370 ca 72 f8 b9 00 8c bf 39 f8 0a 3d 3b 17 81 8a ba
       -0.0004738777 0.00036534667 0.002884565 -0.0010567036
000380 cf 0e 76 3a af 6b ec ba 4c cb c5 ba 74 51 83 ba
       0.0009386362 -0.0018037463 -0.0015090494 -0.0010018782
000390 35 28 8c 39 2f bd d4 3a 9f fd bd ba 03 b0 27 39
       0.00026732837 0.0016230698 -0.0014495141 0.0001599193
0003a0 7e 00 19 3a 7b 46 67 ba 68 74 a7 b9 68 86 a1 3a
       0.000583656 -0.0008822453 -0.00031939452 0.0012323381
0003b0 4a 60 06 3a b4 49 a9 3a 67 70 06 3b 22 a6 b7 39
       0.00051260425 0.0012915642 0.0020513774 0.0003502826
0003c0 62 27 50 3a 00 9d 1c 3b c3 7b f5 3a ba 1f ca 39
       0.0007940439 0.002389729 0.00187289 0.0003855208
0003d0 e8 50 ef b9 43 85 a4 b9 ee 64 40 39 15 58 62 39
       -0.00045645912 -0.00031379805 0.00018348146 0.00021585853
0003e0 be b5 ce b9 7d 32 58 3a ad 11 fd 39 1d 41 cb 3a
       -0.0003942679 0.00082472694 0.0004826909 0.0015507076
0003f0 a4 7c bb 39 63 a2 02 3b 83 da b9 3a ff 7a 06 3a
       0.00035760284 0.0019933216 0.0014179501 0.0005130022

exp_avg_sq f4 [64, 12]
000000 be 7e 61 36 63 08 cb 35 fe 89 2f 36 27 f4 27 34
       3.3601386e-06 1.512712e-06 2.6157354e-06 1.5641909e-07
000010 b8 eb 89 34 ca 14 d9 35 de c9 ee 35 a6 d2 bb 35
       2.5689747e-07 1.617381e-06 1.7791133e-06 1.3993892e-06
000020 f8 09 8d 34 d3 e6 bc 35 f1 bd a7 35 69 ec 02 36
       2.627055e-07 1.407427e-06 1.249775e-06 1.9509118e-06
000030 df 64 d6 38 55 5e 80 38 17 e9 96 38 25 28 a5 36
       0.00010223104 6.121086e-05 7.195974e-05 4.9220566e-06
000040 08 44 bf 36 c4 27 00 38 cb 7d 8d 38 87 fa 54 38
       5.7001635e-06 3.0554613e-05 6.746835e-05 5.077806e-05
000050 9e f1 61 37 58 e7 30 38 06 02 14 38 db 68 2a 38
       1.3467301e-05 4.2177126e-05 3.5287834e-05 4.0628813e-05
000060 e7 fe 2a 36 ee a4 78 35 5b f3 cf 35 78 10 bc 33
       2.5480347e-06 9.2627204e-07 1.5493528e-06 8.757428e-08
000070 e0 0d 05 34 4a d4 2b 35 24 f4 aa 35 e9 9b 88 35
       1.2391638e-07 6.4011385e-07 1.2737041e-06 1.0178165e-06
000080 7a cf 53 34 3b 7d 59 35 b3 50 2c 35 f0 c5 88 35
       1.9726386e-07 8.1021034e-07 6.4192426e-07 1.0190397e-06
000090 0b b2 14 38 67 7e 8c 37 22 08 80 37 f3 dc 67 35
       3.5451765e-05 1.6748161e-05 1.5262576e-05 8.637573e-07
0000a0 db e6 c5 35 65 b1 96 36 58 e2 8b 37 29 51 23 37
       1.4744832e-06 4.491e-06 1.667549e-05 9.734454e-06
0000b0 c6 25 26 36 30 fe 2b 37 57 9c f1 36 a0 49 a0 36
       2.4757915e-06 1.0251577e-05 7.20056e-06 4.7769427e-06
0000c0 45 1d 8c 39 cb a0 00 39 bd 3e 23 39 74 9a d7 36
       0.00026724688 0.00012266931 0.00015568263 6.42548e-06
0000d0 1c 82 3d 37 10 ce 5f 38 09 f7 12 39 4f 2e ac 38
       1.1295571e-05 5.3359254e-05 0.00014015673 8.210225e-05
0000e0 35 d4 9e 37 2d 61 cc 38 ee de 3c 38 06 89 78 38
       1.8933884e-05 9.7455784e-05 4.5030312e-05 5.925542e-05
0000f0 2c 9a 9b 36 ee e4 27 36 48 e7 50 36 33 15 4d 34
       4.637308e-06 2.5018194e-06 3.1129039e-06 1.9099825e-07
000100 1c bb aa 34 a0 e1 0c 36 9b f1 46 36 23 fd 0d 36
       3.1801108e-07 2.0992957e-06 2.9644932e-06 2.1157982e-06
000110 de 74 0a 35 ac 19 f0 35 40 5f b7 35 0a cc 1b 36
       5.157907e-07 1.7888865e-06 1.3662284e-06 2.3215566e-06
000120 25 84 2b 3a 47 d3 5b 39 2c 82 cc 39 8e 57 b1 37
       0.00065428234 0.00020964174 0.00039006898 2.1140815e-05
000130 b0 52 fe 37 ef 82 59 39 85 49 ab 39 5f 45 74 39
       3.0317664e-05 0.00020743509 0.00032670438 0.00023295496
000140 37 76 57 38 6a 1b 67 39 51 f7 09 39 10 e0 93 39
       5.137009e-05 0.00022040089 0.0001315747 0.00028204964
000150 92 3e 18 36 98 d1 a5 35 3d e5 da 35 1c 81 d9 33
       2.2686186e-06 1.2354458e-06 1.6308983e-06 1.0128335e-07
000160 19 99 13 34 29 53 84 35 ce 83 c2 35 08 8e 81 35
       1.3746138e-07 9.858969e-07 1.4492487e-06 9.652586e-07
000170 d1 4e 91 34 f9 33 69 35 bf 0f 3c 35 7e 35 a5 35
       2.70657e-07 8.6874894e-07 7.005837e-07 1.2309026e-06
000180 34 bb 13 3a bb 60 4f 39 27 fa a9 39 89 21 64 37
       0.00056355004 0.00019777093 0.0003242057 1.3597667e-05
000190 f9 17 d5 37 88 78 2d 39 8f 2f 81 39 37 06 3f 39
       2.5402742e-05 0.00016543467 0.0002464023 0.00018217495
0001a0 19 e0 20 38 53 f1 1f 39 6b 9d 01 39 74 61 5a 39
       3.835568e-05 0.00015253322 0.00012361041 0.00020826404
0001b0 79 28 17 36 89 d5 7e 35 a9 0f d4 35 d2 1a b5 33
       2.2524312e-06 9.493311e-07 1.5799789e-06 8.433348e-08
0001c0 3b f9 1f 34 cc f2 36 35 a6 e6 aa 35 c9 b6 6f 35
       1.4898698e-07 6.81536e-07 1.2733115e-06 8.9300426e-07
0001d0 e1 8b 81 34 08 4f 54 35 d6 97 0f 35 69 3e 97 35
       2.4129898e-07 7.909116e-07 5.34926e-07 1.126854e-06
0001e0 ce 9a 40 36 de 60 ea 35 48 8e 1b 36 0c 32 1c 34
       2.8700338e-06 1.7462551e-06 2.3179618e-06 1.4546839e-07
0001f0 44 2c 6b 34 22 59 d3 35 3c 2f 09 36 41 d2 c8 35
       2.1902184e-07 1.5746666e-06 2.0442085e-06 1.4962353e-06
000200 a2 80 ce 34 30 aa a8 35 0a ce 8e 35 c1 aa ea 35
       3.8464083e-07 1.2566506e-06 1.063979e-06 1.7484055e-06
000210 38 b6 2e 37 e4 01 ab 36 92 1c e2 36 60 e3 a8 34
       1.0413634e-05 5.096417e-06 6.738651e-06 3.1457876e-07
000220 b5 39 2b 35 71 b9 79 36 c9 75 c4 36 75 3c 72 36
       6.378644e-07 3.7211832e-06 5.854967e-06 3.6096e-06
000230 56 78 61 35 00 3a 5f 36 b1 54 2e 36 46 ff 7c 36
       8.3994144e-07 3.326335e-06 2.5977317e-06 3.7699515e-06
000240 f6 ad 7f 38 b6 bd fe 37 68 64 50 38 44 26 3b 36
       6.095875e-05 3.03675e-05 4.9684575e-05 2.7887445e-06
000250 bc e1 83 36 8b e1 f5 37 c3 c4 18 38 cd d3 cd 37
       3.930383e-06 2.9311303e-05 3.6422873e-05 2.4536532e-05
000260 40 b6 c3 36 bd da dc 37 05 95 bb 37 e9 1e 29 38
       5.8326696e-06 2.6327902e-05 2.236153e-05 4.0321527e-05
000270 55 60 82 36 ca 1f 07 36 76 83 43 36 52 6b 17 34
       3.8855164e-06 2.0135071e-06 2.9133785e-06 1.4102014e-07
000280 75 55 89 34 ba d1 c4 35 3e df 1b 36 0c fa da 35
       2.5580417e-07 1.4664176e-06 2.3226744e-06 1.6315039e-06
000290 6b 74 ca 34 bb f6 d4 35 3e 25 8f 35 e4 a3 f2 35
       3.7710137e-07 1.5867039e-06 1.0665169e-06 1.8078103e-06
0002a0 02 3a 7f 37 b6 a4 d9 36 e5 71 ff 36 52 b6 b0 34
       1.521269e-05 6.486279e-06 7.6128513e-06 3.291521e-07
0002b0 ea e9 41 35 03 df 1f 36 de 3a bc 36 39 f7 8a 36
       7.223849e-07 2.3822656e-06 5.6096897e-06 4.141501e-06
0002c0 06 f9 4f 35 6d ae 98 36 bb 1d 4f 36 d8 60 4d 36
       7.7475886e-07 4.550259e-06 3.086271e-06 3.060375e-06
0002d0 d6 86 ec 37 ea d1 9b 37 dc a9 95 37 ac 04 ce 35
       2.819618e-05 1.8575189e-05 1.7841281e-05 1.5349556e-06
0002e0 3c d1 28 36 49 26 0b 37 c5 18 3e 37 1e d3 58 37
       2.5155741e-06 8.29396e-06 1.133065e-05 1.2923758e-05
0002f0 e0 57 d0 35 48 7c 88 37 bc 75 61 37 99 c6 07 37
       1.5522783e-06 1.6270336e-05 1.3438457e-05 8.092867e-06
000300 8a c7 52 37 86 36 c5 36 ca 7b 26 37 15 f2 e7 34
       1.2563434e-05 5.877405e-06 9.923193e-06 4.320324e-07
000310 d3 41 7f 35 65 a3 a6 36 1d e9 bb 36 ba f7 99 36
       9.509069e-07 4.966207e-06 5.6001722e-06 4.5885945e-06
000320 8e 3b 59 35 e6 12 bd 36 44 30 83 36 a3 64 b9 36
       8.0925463e-07 5.634839e-06 3.909723e-06 5.5251453e-06
000330 14 50 85 3a f3 b6 f7 39 c2 6f 8b 3a df 57 31 38
       0.001017096 0.0004724782 0.0010638165 4.2281925e-05
000340 75 1d 78 38 14 7c 02 3a b7 3f 19 3a 91 81 01 3a
       5.915524e-05 0.00049775955 0.0005845981 0.00049402664
000350 c6 2a f0 38 98 0b e8 39 13 f0 b6 39 f9 b8 68 3a
       0.00011452059 0.00044259126 0.00034892614 0.0008877661
000360 88 b9 f4 38 87 64 aa 38 8a 79 69 38 b5 0b a2 36
       0.000116693845 8.1249564e-05 5.566472e-05 4.829339e-06
000370 b7 15 d6 36 14 f8 60 37 43 96 8d 38 02 b4 46 38
       6.380225e-06 1.3409201e-05 6.751392e-05 4.7374524e-05
000380 2b 47 20 37 48 83 47 38 aa fa c4 37 3d d4 34 37
       9.553313e-06 4.7567562e-05 2.3481745e-05 1.0778252e-05
000390 f0 72 b9 39 c0 e1 08 39 ce 93 84 39 4c 3b 40 37
       0.00035371585 0.00013054069 0.00025287125 1.1457898e-05
0003a0 93 dc 85 37 c3 87 e1 38 ad f5 3f 39 56 a8 16 39
       1.5957548e-05 0.00010754124 0.00018306701 0.00014367825
0003b0 2e 37 12 38 50 12 f5 38 6a af ab 38 1d 2e 4d 39
       3.4860503e-05 0.00011685921 8.186589e-05 0.00019567502
0003c0 d3 32 56 38 6d 33 7c 37 92 39 a0 37 5d 83 ae 35
       5.106891e-05 1.5032344e-05 1.9100295e-05 1.3002242e-06
0003d0 03 b4 25 36 ad 4f 0d 37 70 e9 9b 37 f8 fc 69 37
       2.4691697e-06 8.422806e-06 1.8586143e-05 1.3946781e-05
0003e0 19 4c 4d 36 cd ba 6d 37 14 d6 1a 37 93 8e 65 37
       3.0591675e-06 1.4169794e-05 9.228959e-06 1.3682659e-05
0003f0 4a c7 1e 38 ee b0 e7 37 7d df 62 38 30 8b 3f 36
       3.7855738e-05 2.7619735e-05 5.409074e-05 2.8542236e-06

exp_avg f4 [64]
000000 22 3c dd 38 86 e9 4a ba 2a fc fe 38 77 cc 89 3a
       0.00010549302 -0.0007740486 0.00012158633 0.0010513206
000010 e1 05 c8 ba 8c 71 6d 39 7e 80 89 bb 0f 48 81 39
       -0.0015260541 0.00022644381 -0.0041962257 0.00024658485
000020 d7 c7 24 3b a2 cd ea 38 35 d5 9a 38 c2 61 03 b8
       0.0025143528 0.000111962916 7.383005e-05 -3.1323878e-05
000030 78 92 7e ba 47 9b ad 38 94 d9 1a ba b4 5d 8d b9
       -0.00097111566 8.2782055e-05 -0.00059070555 -0.0002696343
000040 eb b4 3f ba b2 7f 52 bb 0c 0a 9f 3a 57 a2 28 bb
       -0.00073130307 -0.003211957 0.0012133732 -0.0025731528
000050 bf fb 91 ba 92 88 2a 3b 56 a7 24 39 f5 7e 8e 3a
       -0.0011137648 0.0026021344 0.00015702596 0.0010871576
000060 8f 83 1d b9 9c 17 0c b9 0e fb cb 39 ee 07 45 ba
       -0.00015021696 -0.00013360236 0.00038906228 -0.0007516135
000070 6a 5f 2b b8 ae db 9b b8 ad 56 11 3a 8c 11 79 ba
       -4.085844e-05 -7.4318945e-05 0.0005544227 -0.0009501211
000080 a1 77 8d ba de 59 58 ba ed de a7 39 39 50 11 b9
       -0.0010793098 -0.00082531373 0.00032018815 -0.00013858163
000090 d8 13 91 b9 3b 7c dc 39 25 a2 4a 39 79 ef 2d 3a
       -0.0002767134 0.0004205423 0.00019324625 0.00066351105
0000a0 27 17 b4 b9 c5 f9 f4 b9 3a 11 3a 39 e1 49 15 bb
       -0.00034349525 -0.000467254 0.0001774476 -0.002277963
0000b0 1e e3 83 b9 da e3 54 3a 3c 9b 8e 37 6d a0 b7 39
       -0.00025155483 0.0008121111 1.7000006e-05 0.00035024007
0000c0 73 ec 36 b9 a7 b5 8a 3a 47 dd aa 3a 8d 35 87 3a
       -0.00017444957 0.0010582701 0.0013035916 0.0010315642
0000d0 f8 3d dd 39 51 16 96 39 4f 69 57 bb d4 9a 9d 3a
       0.00042198575 0.00028626857 -0.0032869165 0.0012024292
0000e0 69 bd 89 ba d7 c3 77 ba b9 86 6b 38 3e 6a b8 3a
       -0.0010508719 -0.00094514847 5.6153836e-05 0.0014069749
0000f0 11 2f a0 39 9d 6c f7 3a d0 5b 21 3a a7 eb 0a 39
       0.00030552645 0.0018876974 0.0006155344 0.00013248493

exp_avg_sq f4 [64]
000000 fa e7 c1 35 ae 2e 16 39 37 9a 9a 35 ab ef 0e 38
       1.4447135e-06 0.00014322504 1.1518777e-06 3.4078646e-05
000010 07 d1 6d 39 a9 62 39 36 a9 e3 07 3a ce ad c8 35
       0.0002267995 2.7624576e-06 0.00051837653 1.4951745e-06
000020 54 09 c9 39 02 ba 8e 35 25 c3 e0 35 e2 bc e9 36
       0.00038344658 1.063396e-06 1.6746095e-06 6.96593e-06
000030 72 9a 26 38 49 a0 11 36 b6 e5 22 37 bc e1 f8 37
       3.9721323e-05 2.1699982e-06 9.709436e-06 2.966902e-05
000040 eb f6 09 37 73 1e 82 3a 9f 70 16 39 bf 75 9a 39
       8.223326e-06 0.0009927287 0.0001434707 0.00029460897
000050 94 82 16 38 dc af b3 38 ca 84 fa 37 11 c3 18 37
       3.5884397e-05 8.5681415e-05 2.9864157e-05 9.105323e-06
000060 a2 ef 85 35 54 9a 7d 36 77 ea d9 38 c0 02 85 37
       9.979015e-07 3.7789769e-06 0.00010391039 1.5856116e-05
000070 6d 1f ee 37 95 cd b5 36 bb a3 c9 39 cd 4d 89 38
       2.8386445e-05 5.4181533e-06 0.00038459696 6.5471606e-05
000080 d6 cd d2 38 6f 20 91 38 2d dd 71 37 7d 25 8d 35
       0.0001005192 6.92018e-05 1.4416216e-05 1.0516229e-06
000090 30 d3 30 39 29 78 91 35 95 5d ab 37 42 8e 2b 3a
       0.00016863341 1.0838313e-06 2.0428366e-05 0.00065443304
0000a0 04 b6 86 36 24 38 7e 37 6c 71 42 38 97 2f f5 38
       4.0147006e-06 1.5152651e-05 4.6358837e-05 0.00011691375
0000b0 46 db 85 36 0d 3a 01 39 46 0a de 38 27 d4 34 37
       3.9892357e-06 0.00012324024 0.000105876985 1.0778232e-05
0000c0 06 fd 6f 35 f3 38 97 39 7e 66 99 38 b9 8d 5d 38
       8.9402636e-07 0.00028843395 7.314699e-05 5.2822495e-05
0000d0 c0 26 c2 37 7b 8b 7a 37 aa 37 04 3a d6 81 27 38
       2.3144647e-05 1.49336365e-05 0.0005043695 3.9936822e-05
0000e0 72 a9 66 39 ce fc a5 38 d6 0a 44 36 d4 b6 cd 38
       0.00021997633 7.914902e-05 2.9212583e-06 9.809216e-05
0000f0 26 74 78 39 72 38 7c 39 ba 96 ad 37 25 5b 7a 35
       0.00023694392 0.0002405362 2.0693395e-05 9.326489e-07
