logs/rl_games/quadcopter_direct/2024-07-11_12-19-11/nn/last_quadcopter_direct_ep_1300_rew_90.8057.pth (torch, 79266 bytes, 30 tensors)

value_mean_std.running_mean f8 [1]
00000000: 5480 b069 b47e cf3f
0.24605422173135827

value_mean_std.running_var f8 [1]
00000000: fe3e 2180 3434 723f
0.004444317894083614

value_mean_std.count f8 []
00000000: 0000 0002 0078 ae41
255590401.0

running_mean_std.running_mean f8 [12]
00000000: a830 d928 d64d 883f 70d3 d95c 5fb9 a93f
00000010: 3739 ec00 2695 b23f 72bd f6a2 15e0 cbbf
00000020: e0d5 c702 a868 84bf 5300 3e37 96e5 e43f
00000030: 6889 2f78 2c7a 8a3f 2267 4146 5154 933f
00000040: 3cdd 7cc8 62eb eebf e3fe 1b14 70ca 88bf
00000050: 7f3f e08e 7c4d a43f d558 b8de 9d22 a23f
0.011867211457819174 0.05024240501817345 0.07258832476165798 -0.2177760167810266 -0.009965241036279104 0.6530257300328323 0.012928340356613346 0.018876333153776355
-0.9662336269165404 -0.012104869474114327 0.03965367549983422 0.035420354306710124

running_mean_std.running_var f8 [12]
00000000: 4f30 dff7 18a8 cd3f 7002 c47f 782c d03f
00000010: ddf4 d2f4 79dd c93f a479 2163 b6a4 1e40
00000020: c1a6 957c a0ec 2040 b33f 0fe6 0203 2840
00000030: 475e 81a5 9691 963f 817b cf4f 8b1f 953f
00000040: 9ac8 a25d 8cc2 973f 7f32 6072 87c3 ba3f
00000050: bd71 1111 4f94 ba3f bc59 3800 e18d b73f
0.23169242957226507 0.25271427609553765 0.20207142309474238 7.660852002065813 8.46216191603469 12.005881490098409 0.022039750911373692 0.020628144022221576
0.02320308038242356 0.10454603712441644 0.10382551352217369 0.09200865035413747

running_mean_std.count f8 []
00000000: 0000 0004 0078 9e41
127795201.0

a2c_network.sigma f4 [4]
00000000: 2faf 04c0 acba 72c0 1746 81c0 cd62 43c0
-2.0731924 -3.7926435 -4.039806 -3.0529053

a2c_network.actor_mlp.0.weight f4 [64, 12]
00000000: c3e8 243c 4648 1f3d e8b4 1cbd 4f4b 1dbc
00000010: 51b1 94bd 2dc7 ee3a 1016 cdbc a107 f13b
00000020: 98c5 dabc 656e ab3b 12d2 bbbb 724d d13c
00000030: eac3 5b3e c260 653e ffaa d4be 263e bcbe
00000040: 59b3 a6be 7e2c 69be 1114 843d 035b c9bd
00000050: 3b89 d2bd 9514 96be 1805 8abe 2fa3 133f
00000060: 91a7 453d 45f8 d63b c5f0 2bbc 6b17 d0bd
00000070: b463 fcbb a3d0 38bc 629f 9f3c 4baf 70bc
00000080: 12cb 1b3c 0d4e 42bd 632f c2bc ddd9 413d
00000090: 0d4a 25bd 5410 bdbd ed25 323e 63e1 593e
000000a0: c7d3 69bb 0767 6e3e d95c 533b f11c 98bd
000000b0: da79 8bbc 533d 1b3d a617 123d 2e88 c9be
000000c0: 8b94 5c3d fcf4 69be 2b2a 2c3e da9d c63d
000000d0: 825f 383f c1b7 29be f3af 813e 5069 013e
000000e0: 9f54 ee3d 33cc ef3e 2c60 683d 97f0 cfbe
000000f0: 2f58 f93b 3eef b53c 1db7 f3bb 31b8 abbd
00000100: ecc4 9a3d 76a3 683d 9436 2e3a 8381 0cbd
00000110: 2376 85bc e763 efbb 7ba5 a53c 4845 e9ba
00000120: b00c 82be b872 e83e 7cf9 64be 0f7d 08bf
00000130: 5d1c 50bf 5610 7c3e 22b7 bbbe 9e76 9e3d
00000140: a33e 813c 3b0d ae3e 5c31 cfbe 21cf f33e
00000150: 95c4 a23c 58d9 243d b687 5ebd 81a4 cabd
00000160: 5cf5 af3d 4d93 4d3d 91cb 3c3c cade 0fbd
00000170: e9a4 833a 4e86 d0bc f8d5 a43c f395 a23c
00000180: 59ae 2ebe 7c31 08bf 7c22 163f a783 d73e
00000190: 0c01 c83e 06b6 afbe 25ce ae3d d9fb 8fbe
000001a0: f43e 0c3e 1962 d8bd 7d64 b73e a250 73bf
000001b0: 22dc 843b c904 bfbc 6a8e 85bc a58d 60bb
000001c0: 0623 aabb ece4 b2bc b6d6 423b bd46 d6bc
000001d0: 92c2 07bd 11a4 f53b 9b65 b1bb ef71 80ba
000001e0: eb96 6f3d 83b0 b5bc 2d53 d1bb 31e0 05bd
000001f0: 4cdf 0c3c f00a e3bc e535 b23c bfcf 5e3b
00000200: 62b3 073c 72bc 81bd ed84 cabc c607 5e3d
00000210: 5911 5e3d 4b17 6dbd 3a7e 8d3d 4253 923d
00000220: d669 3c3b 0c9a a1bd e1ef 963c acd1 8c3d
00000230: 4f1a dbbd 1200 7ebd ffba a3bd 2051 143c
00000240: b9fa 83be eae6 00bc 924c 71be 1a64 b13e
00000250: e102 99be 9b67 4a3e 89b1 acbd 71b3 eebd
00000260: 9cf5 99be 4670 703e 5c25 283e 537f 9f3e
00000270: badd 8639 15dd e43b 2a6c 23bc 73f0 1dbd
00000280: ec28 ae3e 310b a53c 0e05 98bc d70e 993d
00000290: 1ebf f43c f7c8 af3c b61a 35bc e248 43bc
000002a0: 430e a83b c153 82bd 5cff 5c3d 4757 153e
000002b0: 841c c7bc eb49 80bd e9e5 dcbc d179 393d
000002c0: 6b79 ffbd f5c2 babc 0c24 81bc 865b eb3b
000002d0: 0595 edbe 7de2 073c 9a3c 8bbd 09cb 6b3e
000002e0: c1ec d0bd a993 9e3e 7af1 92be 78f4 d4bb
000002f0: 80e4 b5bf 4be7 143e 04bb c23c 77f0 20be
00000300: 4f58 053d ca0a 663b a5ca 45bc 4a37 063d
00000310: c7a8 81bd c74a 4abd be32 2c3d 6801 8a3c
00000320: 38bc 82bc 4da9 14bd c536 5cbc 898f 023d
00000330: 400d f9be 9dcb 823c ec42 8ebe 465a 923e
00000340: 5463 8ebf e76e 343e 674b 3abf 4bf3 8abe
00000350: c4ed 96be e6af 2c3f c9b5 053e 225f dd3e
00000360: c4fa 86bc 8416 acbd 95d7 f93e 717c 433e
00000370: 34e4 43be dbd2 da3e b74c 7abb f27b 85bd
00000380: 6b90 7cbe a273 ff3d 261e 8b3d 805f 7bbf
00000390: d3f2 4b3e ed7d 893e e036 163d 6be6 84bf
000003a0: 95c0 9a3e 4461 99bd be0b 0d3e 3acd 813e
000003b0: 813b 833c d2ae 17be 8653 babe 06e3 cbbd
000003c0: 4f2b 563e 5cc3 31bd b3ee a4bd e8c7 023e
000003d0: 4861 a9be cc71 bfbe d9b3 7e3e d90b 193d
000003e0: adc7 84be 9ab4 97be 21af 293e 1303 843d
000003f0: 637c af3d d43e 733d 8f29 2a3e 998b 1c3f
0.01006526 0.038887285 -0.038258463 -0.0096004745 -0.07260383 0.0018217318 -0.025034934 0.0073556458
-0.026705548 0.005231666 -0.0057318294 0.025549624 0.21461454 0.22400191 -0.4153671 -0.36766165
-0.32558706 -0.22770879 0.0644914 -0.09831812 -0.10280081 -0.29312578 -0.2695701 0.57670873
0.048255507 0.0065603578 -0.010494416 -0.101607166 -0.007702315 -0.011280212 0.01948518 -0.014690231
0.009508865 -0.047437716 -0.023704236 0.04732691 -0.040353823 -0.0923163 0.1739728 0.21277384
-0.0035679208 0.2328149 0.0032251386 -0.07427395 -0.017025877 0.03790028 0.035667084 -0.3936171
0.0538526 -0.2284736 0.16812961 0.096980765 0.72020733 -0.16574003 0.2532955 0.1263783
0.11637234 0.4683548 0.05673234 -0.40613243 0.0076093893 0.022208806 -0.0074376003 -0.08384741
0.07557091 0.056796513 0.0006645706 -0.0343032 -0.016291684 -0.0073056105 0.020220509 -0.0017797137
-0.25400305 0.45400023 -0.22360796 -0.53315824 -0.8129328 0.24615607 -0.36663157 0.07737468
0.015776938 0.3399447 -0.40467346 0.47618964 0.019869128 0.040246338 -0.054328643 -0.09894658
0.085917205 0.050189305 0.011523143 -0.035124578 0.0010043654 -0.025454666 0.02012156 0.019846892
-0.17058696 -0.5320051 0.5864637 0.4209263 0.390633 -0.3431856 0.08535413 -0.28121832
0.1369589 -0.10565586 0.35818854 -0.9504491 0.004054562 -0.023317711 -0.01630326 -0.0034264114
-0.0051921634 -0.021837674 0.0029730028 -0.026156778 -0.03314454 0.007496365 -0.0054137236 -0.000979958
0.058493536 -0.022178894 -0.006388089 -0.03268451 0.00859816 -0.027715176 0.021754215 0.0033998338
0.008282514 -0.06334771 -0.024721587 0.054206632 0.054215763 -0.057883542 0.069088414 0.071447864
0.0028749607 -0.0789071 0.01842493 0.06875929 -0.10698377 -0.062011786 -0.07994651 0.009052545
-0.25777224 -0.007867554 -0.23564366 0.34646684 -0.2988501 0.19766085 -0.084323 -0.116553195
-0.30070198 0.23480329 0.16420501 0.31151828 0.0002572367 0.006984363 -0.009974519 -0.03855939
0.34015596 0.020146938 -0.018557098 0.074735336 0.029876288 0.021458132 -0.011053732 -0.011919232
0.0051286533 -0.06363631 0.053954467 0.14584075 -0.02430559 -0.06264099 -0.026965098 0.04528219
-0.124743305 -0.02279804 -0.015764259 0.0071825413 -0.46402755 0.008293745 -0.06798668 0.2302667
-0.10201407 0.3097203 -0.28699857 -0.0064988695 -1.4210358 0.14541356 0.023770817 -0.1571673
0.03255492 0.0035101646 -0.01207224 0.03276757 -0.0633102 -0.04938772 0.04204058 0.016846374
-0.01595889 -0.03629427 -0.013440792 0.031875167 -0.4864292 0.015966231 -0.27785432 0.28584498
-1.1124063 0.17620431 -0.72771305 -0.27138743 -0.29478276 0.674559 0.13057627 0.43236643
-0.016476996 -0.08402732 0.4879729 0.1909044 -0.19130021 0.42738995 -0.0038192698 -0.06517781
-0.24664466 0.12473227 0.0679286 -0.98192596 0.19916849 0.26853886 0.036673427 -1.0382818
0.30225053 -0.07489255 0.1377401 0.25351888 0.016019585 -0.14812782 -0.36391848 -0.09955411
0.20914958 -0.0433992 -0.08053341 0.1277157 -0.33082032 -0.37391508 0.24873294 0.037364814
-0.2593359 -0.29629976 0.16570713 0.06445899 0.08568647 0.05938609 0.16617416 0.6115051

a2c_network.actor_mlp.0.bias f4 [64]
00000000: 1198 8fbd 6af9 8abe cb07 debd d0aa cd3b
00000010: 7914 9ebe a1d0 033c 6dd9 033b 7d7b b8bc
00000020: 0fbd 0a3c dfde 713b fa87 adbd 5365 243d
00000030: d849 8ebe ccbe 653d fb56 853d df4a a6be
00000040: 1c33 19bd 76a8 49be 3b38 b13d 54f2 63bd
00000050: 44ac f5bd fc70 983d 5bae b9bd f42d da3d
00000060: 2e4f 1bbd f095 c2bd 49f5 91bd 84b1 65be
00000070: 7d90 9ebb 7c88 44bd cd2e 11be 5159 2abc
00000080: 6871 86bd 8c5c 20be 01cb 6d3d 91f8 a73c
00000090: 98c9 85be d937 c73a eca7 93bc e4e1 a2bd
000000a0: 7cd0 a43c 5664 9e3c 0b5b 463c 5337 0dbe
000000b0: 410a aa3c da8e 53be 0afd bcbd aa42 a13d
000000c0: 3d2c c8bc adb7 e9bd 0786 a93c f1c6 86bd
000000d0: e588 c0bd 0e52 13be f704 2ebe 814a 08be
000000e0: 99fd 573d 67f5 4ebe 9d7f ef3c db2a e0bd
000000f0: 9948 9cbd 5829 073e 43e5 afbd c4e4 8dbd
-0.07011426 -0.27143413 -0.1084133 0.006276466 -0.30874994 0.0080453465 0.002011861 -0.022519821
0.008467927 0.0036906523 -0.08473201 0.040135693 -0.27790713 0.05609016 0.06510731 -0.32478997
-0.037402257 -0.19693169 0.08653303 -0.055651024 -0.11995748 0.07443425 -0.09066459 0.10653296
-0.03791731 -0.095012546 -0.071268626 -0.22430998 -0.0048390017 -0.047981724 -0.1417801 -0.010397271
-0.06564599 -0.15660304 0.058054928 0.020504268 -0.26130366 0.0015199139 -0.018024407 -0.079532415
0.020118944 0.019334953 0.012106667 -0.13790636 0.020756843 -0.20659962 -0.09227951 0.07874043
-0.024435157 -0.114119865 0.020693792 -0.06580914 -0.094011106 -0.1438677 -0.16994081 -0.13309671
0.052732084 -0.20210801 0.029235655 -0.10945674 -0.076310344 0.13199365 -0.0858865 -0.06928399

a2c_network.actor_mlp.2.weight f4 [64, 64]
00000000: 7643 0dbb 361d d2bc 27ba 233d b8a0 88bc
00000010: 1985 9ebc f05c 88bc d37e 2bbc f3ad 193d
00000020: 81e9 35bc 46f7 99bd d27f cabc 9339 51bc
00000030: 1102 a9bc e331 fb3b 5db3 2bbc 5c16 233a
00000040: b9b3 813c c729 0f3d 2f1f 3dbc ec85 bc3c
00000050: 9509 193c 3d05 de3c 863f 383d 6ff1 a13c
00000060: 29d7 c7bc d668 ddbc bf63 303d ddf3 5c3d
00000070: a66c 223b e0d9 ea3c ef8a 903c f649 ae3c
00000080: 5ec1 cbbb 126d 1b3c 52e0 3dbc e909 1dbd
00000090: d3b8 0ebd 42f5 053d c761 b63b e04a 09bc
000000a0: f870 12bc 6fb2 f03c 8075 e33c 99a4 29bd
000000b0: c025 c93c 15c1 3c3a edd9 b9bc e727 37bd
000000c0: f02b 4b3c 99cb 753b 9e6c e9bb 3bfa afba
000000d0: 0637 c7bc 6ba7 19bd 5c0f 513c b75d f6bb
000000e0: 08d8 c9bb 3f73 f9bb cde2 f939 cc0c f1bc
000000f0: 42aa 203b c03e 2dbc a23c 173d c866 2a3d
00000100: 4987 95bb 13eb 1cbb b1f7 11bd 3ac0 f4bb
00000110: 920d d2bc 83cf 0abd 5e31 5a3d f12c 3cbd
00000120: b813 ba3c 9afc 353d 661c 3dbd 2a19 f2bb
00000130: 9596 833c b7d1 103d 181b d53c 2a99 9cbc
00000140: a5d4 b53b 1f7d 28bd 34d6 b8bc 2d56 c6bc
00000150: 49f6 ca3c 0a6f 05bd b54f 3bbd 49c1 323c
00000160: cfb9 97bd f2e4 0ebd e7ed c7bc cfc0 063d
00000170: 0b1a 0c3d 2e46 ca3b a474 753c c96e 22bc
00000180: cbb3 8dbc ec29 ee3c 91d7 c4bc d4ac 1a3d
00000190: 0a89 da3c 09e9 03bd 900f d73a db40 1fbd
000001a0: e03d 5dbc c507 043d 4837 67bc 4abd 22bc
000001b0: d6b1 8d3d e5a3 d63c 27d0 843c c536 b83b
000001c0: f135 4fbd cf9d c5bc 242b c13c 8cb8 d5bc
000001d0: bc99 babc 11a6 ba3d 7bca 553a 141d 94bc
000001e0: 7370 afbc 5a4b b3bb 9281 c13b 8cec 8bbd
000001f0: 9990 f5bc e397 da3c 46cc a3bd 0823 08bd
00000200: c09f 2e3d 34e2 c4bd aaa5 6d3d 1e56 d33d
00000210: ae0d dbbd 987d 983c d62b 07bf c36c 363d
00000220: dd95 6b3e 15c5 a53c d3dd 313d 30bf 1dbd
00000230: c248 8e3e 2929 7fbc 8ae3 30bd f565 f13d
00000240: b505 9abc b425 08be e35b 6fbd bebe 60be
00000250: 0939 aebd 8ca9 c3bd cef2 743e ba1c 97bd
00000260: c0ef ffba c210 463b 06c5 393e fdf3 033e
00000270: 2787 7c3d ce5e 193d 7e8d d5bd 1de4 dfbd
00000280: b897 69be 87f3 b6be 45e4 bb3c 1de0 aabb
00000290: 22e6 61bd 3b41 2e3c ad43 61bd 4a9a 0a3c
000002a0: 4bcf 163d a520 3abe 6903 9a3c 64a4 a9be
000002b0: 0d2e a8bb f2d3 c2bb ce66 0d3e cbcb f6bd
000002c0: 121e 52bc 8063 c8bd 99a8 bcbe f132 143e
000002d0: 1e20 f3bd b73c f63d 22cf a53d d3ce 9c3d
000002e0: aeb2 89bf 49d7 9d3d cdd5 203d 941f 093d
000002f0: c107 cfbd 0740 80be 29ad 363d 94f9 1b3d
00000300: 3a9a c7bc d69c 27bd faf5 c1bc 1462 bb3d
00000310: dc68 edbb d793 a8ba 97bf 073e 2ce3 993d
00000320: 74bc 3f3c beb2 59bd 2123 443c b32d 75bc
00000330: 0ce3 81bd a7d1 e83c c6a1 a93d 0962 333d
00000340: a409 c33c cb95 b0bd c179 afbc 2e3d 9abc
00000350: 5aa7 a23d 1b72 1f3c dd65 903c 2e6a db3d
00000360: 0a2b 80bc 416e 50bd 37e5 033d 4f8d 00bd
00000370: 98a7 edbd 8530 b5bb 53eb e73c fe97 78bd
00000380: 6f4b 703d b93c ad3c 9aa3 b137 4ad9 413d
00000390: f24d bc3d 991b 2fbd d22e c63c a3bc ad3e
000003a0: c446 883c 0456 703c 7afb 43bd 178f c03b
000003b0: c519 d9bb c57f 9fbd c5b3 bc3d 8f29 ebbc
000003c0: 1ae2 a33d f3a5 5d3d e73a 00bb d46e b8bb
000003d0: ae6d a4bd 4bda 85bb b0f1 c73d 470c ebbd
000003e0: a876 003d 2705 03be 79ee 523d 7e95 01bc
000003f0: 4b44 97be a840 193e bbe5 59bd 0b3d 20bd
-0.0021555102 -0.025648694 0.03997245 -0.0166782 -0.019350575 -0.016645879 -0.010467249 0.037519407
-0.011103035 -0.07517867 -0.024719153 -0.012770074 -0.020630868 0.007665859 -0.010479775 0.00062212883
0.015832769 0.03495195 -0.011543079 0.023013078 0.009340663 0.027102107 0.044982456 0.019768445
-0.024394589 -0.027027529 0.043063875 0.053943504 0.0024783998 0.028668344 0.017644374 0.021275502
-0.0062181195 0.009486454 -0.011589127 -0.03833953 -0.03484423 0.0327046 0.005565855 -0.008379668
-0.008938067 0.029381959 0.02776599 -0.04141674 0.024554133 0.00072004023 -0.022686923 -0.04471579
0.012400612 0.0037505387 -0.007123544 -0.0013426015 -0.02431823 -0.037513178 0.01276001 -0.007518496
-0.006159786 -0.0076126154 0.0004766196 -0.029425047 0.0024515544 -0.010574043 0.03692306 0.041601926
-0.0045632464 -0.0023943826 -0.035636608 -0.0074692043 -0.025641236 -0.033889305 0.053269736 -0.045941297
0.02271448 0.044430353 -0.04616966 -0.0073882537 0.016063014 0.03535625 0.026013896 -0.019116003
0.005549031 -0.04113495 -0.022563078 -0.024211014 0.024775641 -0.0325766 -0.04573031 0.010910341
-0.07408487 -0.034886308 -0.024405433 0.03289872 0.034204524 0.006172917 0.014981423 -0.009914109
-0.017297646 0.029072724 -0.024028571 0.037762478 0.026676673 -0.03220466 0.0016407836 -0.03888021
-0.013503522 0.032233972 -0.014112301 -0.009932825 0.06918685 0.026201198 0.016212536 0.0056217634
-0.050588552 -0.0241231 0.023580141 -0.026088975 -0.022778384 0.09113706 0.0008155477 -0.018080272
-0.021415925 -0.005471629 0.0059053386 -0.06832227 -0.029976176 0.026683753 -0.079979464 -0.033236533
0.04263282 -0.09613457 0.058019318 0.1031916 -0.106959686 0.018614575 -0.52801263 0.044537317
0.23006387 0.020235578 0.04342444 -0.03851241 0.27789885 -0.015573778 -0.04318575 0.11787025
-0.01880155 -0.13295633 -0.05843724 -0.21947762 -0.08506972 -0.09553823 0.23920748 -0.07378526
-0.0019526407 0.003022239 0.18141565 0.12886043 0.06165233 0.03744393 -0.10427378 -0.10932181
-0.22811782 -0.35732672 0.022935996 -0.0052147047 -0.055151112 0.010635669 -0.05499618 0.008459637
0.036818784 -0.18176515 0.018800454 -0.33133233 -0.005132443 -0.005945676 0.13808748 -0.12050589
-0.012824552 -0.09784603 -0.3684738 0.14472558 -0.1187136 0.12023299 0.08096148 0.07656636
-1.0757654 0.07707078 0.039266396 0.03347738 -0.10108901 -0.2504885 0.044598732 0.038079813
-0.024365533 -0.040921055 -0.023676861 0.09149566 -0.007245166 -0.0012861443 0.1325668 0.07514033
0.011702646 -0.053148977 0.011971266 -0.014964509 -0.06342134 0.028420283 0.08282809 0.043794665
0.023808308 -0.08622321 -0.021420361 -0.018828 0.07942076 0.009731795 0.017626697 0.107136115
-0.015645523 -0.050886396 0.03220102 -0.031384762 -0.116042316 -0.0055294656 0.028310454 -0.060691826
0.05866569 0.021147119 2.1176227e-05 0.047326364 0.091945544 -0.04275093 0.024192248 0.3393298
0.016635306 0.014668945 -0.04784725 0.0058764326 -0.0066253864 -0.07788042 0.09213976 -0.02870634
0.0800211 0.05411334 -0.0019566359 -0.005628446 -0.08028732 -0.0040848604 0.09762895 -0.11476951
0.03136316 -0.12794934 0.051496956 -0.007909177 -0.2954429 0.1496607 -0.053197604 -0.039120715

a2c_network.actor_mlp.2.bias f4 [64]
00000000: 244b b23b eabc 08bd 75a6 6ebe 0dc1 273c
00000010: 8ce9 4fbe c6af 983d 5bf9 03bb c062 c8bc
00000020: 1dc3 40bc 5a8b 34bd 73d3 18bc cdec 503d
00000030: adcd 78bd 7528 883b 67a5 af3b 5862 01bd
00000040: dc6b 6e3c 50da a63c 311f d93c 8e64 42bd
00000050: 8ecb 4b3c 2722 53be 91d8 cfbb 2714 c03c
00000060: 6460 633d 3949 31be eebf 4fbd d571 593d
00000070: 3b41 d8ba 9d6a 3fbb 3850 98bd 87dd d5bd
00000080: 2920 01bc e19f e5bc 316b ce3a 0ed1 c1bc
00000090: 9466 d03a 9f8e 72be fb90 88bc 22be bdbb
000000a0: 2add a9bc 1e21 23be f8a9 48be e99b e7bc
000000b0: c31f 96be 0bf9 1abd 07ab cbbd cae3 3dbd
000000c0: bdd8 d8bc 9238 d1bc df64 a2be 0b2b a6bc
000000d0: 3356 3a3b 64c2 a23b 8f2f c73c 7ab7 673b
000000e0: d52b 95bc 6396 9a3c e18e 243d 0431 f63c
000000f0: 78d8 2cbc c8b4 28bd f220 713b 0e23 7cbc
0.0054410864 -0.033383287 -0.23305686 0.010238898 -0.20303935 0.07455401 -0.002013764 -0.02446115
-0.011765269 -0.04407821 -0.009327757 0.05100708 -0.060743023 0.0041552135 0.0053602937 -0.03158793
0.014552083 0.020367771 0.026504131 -0.047459178 0.012438668 -0.20618497 -0.0063429554 0.02344711
0.055511847 -0.17313088 -0.050720148 0.053087074 -0.0016498932 -0.0029207834 -0.074371755 -0.104426436
-0.007881203 -0.028030338 0.0015748498 -0.023659255 0.0015899711 -0.23687218 -0.016670695 -0.005790488
-0.020735342 -0.15930602 -0.19596088 -0.028272586 -0.29321107 -0.037835162 -0.0994473 -0.046359815
-0.026470536 -0.02553967 -0.31717584 -0.020284196 0.0028432726 0.004967021 0.02431467 0.0035357163
-0.018209377 0.018870538 0.040175322 0.03005267 -0.010549657 -0.04118803 0.0036793319 -0.015389217

a2c_network.value.weight f4 [1, 64]
00000000: 2bd5 1a3b 6840 06bd e241 b53d 7aa4 91be
00000010: ae82 f8bd 9972 e0be d6f2 0a3b 29aa ba3c
00000020: 1426 023e 21f7 723d 5cb8 84bb 8e95 2cbe
00000030: e9c9 a43e bedf 75bc 9e3a 08bc 6685 a73d
00000040: 8bff fd3d ea9a 11bc 9500 efbc c544 e93d
00000050: 4a7e 49bc 2070 9ebd ac50 b23d 3cd0 923e
00000060: e53f 073e 4e12 77bc 0780 363e 13dc 29be
00000070: c27c 2a3c bdb1 ecba cbf9 41be 9b15 383d
00000080: 2e65 6bbe 778c 85ba 04f8 69bc 411d 66bb
00000090: e675 6a3e bee1 113d d33c bfbc 3287 433c
000000a0: 21d9 5dbd 3dbc 193e a625 ffbc da24 8ebc
000000b0: 8b63 ca3f 7a96 c93a 9080 933e 62fe 943e
000000c0: 3b44 143d c864 6abd bd30 5a3c b890 d9bd
000000d0: b8ea 4dbc 0117 59bb 1b06 153d 0faa 0abc
000000e0: 247a 27be 392d 3dbc fc2b 04bf d545 97bd
000000f0: 7dd9 78be c88c 263d d2d1 c9bb cdc5 fcba
0.0023625593 -0.032776266 0.08850457 -0.28445798 -0.121343 -0.4383743 0.002120187 0.022786217
0.12709838 0.05931771 -0.0040502977 -0.16853926 0.32185295 -0.015006958 -0.008314757 0.081797406
0.124022566 -0.008887032 -0.029175082 0.1139007 -0.012298176 -0.0773623 0.08706793 0.28674495
0.13207968 -0.015080048 0.17822276 -0.16587858 0.010405721 -0.0018058341 -0.18942945 0.04494248
-0.22987816 -0.0010188957 -0.014280323 -0.0035112652 0.22896537 0.035615675 -0.023344433 0.011934089
-0.05416215 0.15013213 -0.031145882 -0.017351557 1.5811628 0.0015379929 0.28809023 0.2910033
0.036197882 -0.05722502 0.013317284 -0.10623306 -0.012568168 -0.0033125284 0.036382776 -0.008463397
-0.16355187 -0.011546426 -0.51629615 -0.07386366 -0.24301715 0.040661603 -0.0061590457 -0.0019285023

a2c_network.mu.weight f4 [4, 64]
00000000: 639f e43a 8392 eb3b 768b a03d 3ff9 8bbc
00000010: de49 1b3e b3a3 73bb 969a 283b 8e4c 463c
00000020: 6d30 90bb 38df 873b 9527 4a3b 5679 66bb
00000030: 963b b93b edd6 4d3c fee4 443c 04ba 693b
00000040: ad2f 21be 6a96 8b3c 0401 403c 27eb 94ba
00000050: 86ad 483c 0e7f 013e 2cf2 19bb 4f82 24bd
00000060: 3b31 27bd 2f56 763c 9e1f edba ba2f f3ba
00000070: b829 bd3b 6534 d2bb 8367 3b3d 2d74 76be
00000080: be55 3b3d d38e c0b8 bbcf a63c 70a3 ad3b
00000090: 9f2f 93bc 9fcc 433d 999e bfbb e07c b43c
000000a0: e180 bebb 9fd0 6c3d c592 10be 5ff8 d33a
000000b0: 51a1 9bbd 87b7 c8bb 90ae 31be 4b18 0abc
000000c0: 12aa 22bc b62b 183c 8b47 a13e 39c7 11bb
000000d0: 060b 41bc f5e2 94bc 0ab4 c6ba f3e4 893b
000000e0: 30b3 593c 7da6 e03b 3610 603d f93c 36bc
000000f0: c511 72bd 494c 903b 8388 213b 4afc 63bb
00000100: 58cf 873a 0000 98bb aa3a 5cbd ac74 c9bc
00000110: 0aab 97bc 8594 983c 2f2d c83a a5cb b038
00000120: d110 10ba c855 993a 2946 84bb c811 283b
00000130: 758d 81bb 806d 0fbb 896b d2b8 925a f53a
00000140: 2922 cd3c f6a3 f63a 3430 75ba cda8 1dbb
00000150: 8971 2bb8 d997 c7bc 8a8b 37b9 0159 903b
00000160: 188f 813b e595 2d3d d05f b7ba 1d6d 293b
00000170: 99cb 033b 5968 e8ba 3833 4fbc 51d5 213c
00000180: 8aab 3fbd 1ae8 2b3b 9309 2739 bf0d 80ba
00000190: 4451 b73a 3093 2b3c 6fe6 93b9 6975 d23a
000001a0: 052b 993b a71b 3e3d 300f 8cbc 6764 6dbb
000001b0: 30e4 c73c 2f32 cebb c597 07bc 7b98 053b
000001c0: 2abd 6a3b d5d1 543b 6d6f a8bb bdad b8bb
000001d0: b066 dbba aa2d 8cba 0a2d a13a a777 613a
000001e0: a3a5 f2ba 1ba4 9e3a 450b 4a3a 32cd eb39
000001f0: 8486 383d 7829 323b a296 d6b9 5582 78ba
00000200: 7c62 1f39 ca59 32b9 b537 26ba f661 5dbc
00000210: 13e7 38ba 46f8 d43b 96f4 feba 0307 203a
00000220: 1a0a 7a39 1fd2 0f3a 77c0 2b3b dec9 93ba
00000230: 118b b0b7 68a1 9eb5 8b8c a73a a356 93ba
00000240: 6426 ec3c 356d a73a 9e02 85ba 1a71 84ba
00000250: a09f 9639 3b30 643c cc4b bc3a e6a2 7ebb
00000260: e084 953b 9898 f73c f44f e239 d0fd c5ba
00000270: 1dd7 76ba 5729 8d3b 89aa 4bbc a5ff 6c3c
00000280: bb96 593d 65ec ce3a d4e7 d6ba 9d4e 6cba
00000290: d20e 4f3b 30a8 23bd db05 3539 133f 9bbb
000002a0: 4ce4 c338 e128 cebb 4ec4 f9bc 9810 12bb
000002b0: ef85 b9bc 4354 99ba deaa 903c 2403 8f3b
000002c0: ae79 8c3a 2041 e03a 0ce5 653d 1597 683b
000002d0: 69be a4b9 86f3 1f3b b99f df39 3368 e13a
000002e0: a543 5d3b 61d5 323b adab 2b3b 9ffc a23a
000002f0: 75eb 413c 06af 823a 7474 65ba 7cc6 abba
00000300: 16f5 783b a3f5 953b c327 453d e488 f43b
00000310: 9640 ba3d d461 3abc 3212 34bb 8140 86ba
00000320: bd4c 2c39 6e0d 5a3b 23b2 3d3b 3e8d 11ba
00000330: cea9 033b 11c3 16b9 095c 0bbb 7ee6 4b3b
00000340: 0d75 e7bc 6e1c bbba 9983 83ba 66b2 d33a
00000350: 7b26 37ba 4581 fc3d ab29 3539 9625 bd3b
00000360: 96ce 6fba 77a3 863d 59a2 153b 1b5d 0b3a
00000370: 8885 263b fedc 3d38 57d3 0b3b c3bf a1bb
00000380: a72d 943c 2a72 34bb b9c5 f0b9 0eb8 a639
00000390: ebb4 2e3a c81a 87bd db77 eb39 ad6f 6fbb
000003a0: fff1 bf3a 7c5c 363c 6a45 0bbd 4bc8 643b
000003b0: 2af2 7fbb 17b6 a7ba a52c a83d a8a7 833a
000003c0: 03b0 fdba cbc5 9eba ff19 0bbe 3df0 8d3b
000003d0: 9c9f 033a 2494 d139 a980 f3ba da94 a7ba
000003e0: a8c3 0a3b 8ed8 613b 98aa 85bc ed49 a1ba
000003f0: 3117 26bc 5275 e539 6239 73ba e979 1cbb
0.001744252 0.0071890964 0.078391 -0.017086623 0.15164897 -0.003717643 0.0025726906 0.012103213
-0.004400304 0.004146483 0.0030846347 -0.0035167537 0.005652855 0.012563449 0.012017487 0.0035663852
-0.15740843 0.017039496 0.011718992 -0.0011361585 0.012248402 0.12646124 -0.0023490293 -0.040163334
-0.040818434 0.015035196 -0.0018091088 -0.0018553652 0.0057727955 -0.0064149373 0.045753013 -0.24067755
0.045736067 -9.1818765e-05 0.020362725 0.0052990243 -0.017967043 0.047802564 -0.0058477637 0.022032201
-0.0058137034 0.057816144 -0.14118488 0.0016172043 -0.07599128 -0.006125394 -0.17351747 -0.008428643
-0.009928243 0.009287765 0.31499895 -0.002224399 -0.011782413 -0.018174628 -0.0015159857 0.004208201
0.013287351 0.0068557844 0.05470296 -0.011122935 -0.059098978 0.004403625 0.0024648018 -0.0034787827
0.0010361476 -0.004638672 -0.053766884 -0.024591766 -0.018514175 0.018625507 0.0015272255 8.430266e-05
-0.000549567 0.0011698538 -0.004036684 0.0025645364 -0.0039536306 -0.0021885335 -0.0001003361 0.0018719009
0.025040703 0.0018817175 -0.0009353191 -0.0024056912 -4.0875315e-05 -0.024364399 -0.00017504222 0.0044051413
0.0039538257 0.04237928 -0.0013990346 0.002585239 0.0020110367 -0.0017731293 -0.012646489 0.009877519
-0.04679445 0.0026230873 0.00015929928 -0.0009769722 0.0013986011 0.010472104 -0.0002820971 0.001605672
0.004674318 0.04641309 -0.017097086 -0.0036223175 0.0244008 -0.0062926034 -0.008275931 0.0020385075
0.0035818317 0.0032473702 -0.005140236 -0.0056359456 -0.0016738977 -0.0010694761 0.0012296748 0.00086008984
-0.0018512498 0.0012103351 0.0007707368 0.00044975575 0.04505016 0.0027185362 -0.0004092949 -0.000947987
0.0001520011 -0.00017008852 -0.00063406985 -0.013512125 -0.0007053476 0.006499323 -0.0019451554 0.00061045605
0.00023845621 0.00054863276 0.0026207247 -0.0011275371 -2.1045593e-05 -1.1818893e-06 0.0012782974 -0.001124103
0.0288269 0.0012773635 -0.0010147875 -0.0010104508 0.0002872916 0.013927515 0.0014365851 -0.003885442
0.004562959 0.03022413 0.0004316565 -0.0015105549 -0.00094162097 0.0043079066 -0.0124307955 0.014465247
0.053122263 0.0015787004 -0.0016395994 -0.00090144 0.0031594527 -0.039955318 0.00017263686 -0.0047377436
9.340848e-05 -0.0062914942 -0.030489113 -0.0022287723 -0.022646872 -0.0011698086 0.0176596 0.004364388
0.0010717416 0.0017109253 0.05612664 0.0035490443 -0.00031422384 0.0024406626 0.00042652877 0.0017197191
0.0033762243 0.0027287828 0.0026194856 0.0012434906 0.0118359225 0.0009970374 -0.00087530096 -0.0013105418
0.003798788 0.0045764013 0.048133623 0.0074626077 0.0909435 -0.011375863 -0.0027476666 -0.0010242612
0.00016431785 0.0033272165 0.002894529 -0.0005552358 0.0020090225 -0.00014377783 -0.0021264574 0.0031112726
-0.028254056 -0.001427544 -0.0010033726 0.0016151189 -0.000698663 0.12329344 0.00017277028 0.005772303
-0.000914791 0.06574147 0.0022832362 0.0005316303 0.002540918 4.5266926e-05 0.0021335685 -0.00493619
0.018088175 -0.0027533867 -0.00045923682 0.0003179912 0.0006664532 -0.06596905 0.00044911992 -0.003653507
0.0014644264 0.011130448 -0.034001745 0.0034909423 -0.0039054253 -0.0012795356 0.0821164 0.0010044472
-0.0019354824 -0.001211339 -0.13584135 0.004331617 0.0005021037 0.0003997396 -0.0018577772 -0.001278545
0.002117375 0.0034461352 -0.016316697 -0.0012305357 -0.010137365 0.00043765694 -0.0009278265 -0.0023876375

a2c_network.mu.bias f4 [4]
00000000: 6f03 333d 8587 29bb ccab b93c 248c d43c
0.043704446 -0.002586813 0.022664927 0.02594573

exp_avg f4 [4]
00000000: 1e16 1638 9103 a5ba 3bab 1c3a d87b fbba
3.5783385e-05 -0.0012589564 0.0005976443 -0.0019186689

exp_avg_sq f4 [4]
00000000: 1f0e 9136 f5e5 c836 09f0 b236 ed80 a236
4.3229807e-06 5.987235e-06 5.332757e-06 4.842985e-06

exp_avg f4 [64, 12]
00000000: 69c5 5d39 1b7d b6b8 582b 2d39 5204 5db8
00000010: ffc8 68b9 8e82 f138 e861 ea38 7903 2738
00000020: 9859 2d39 89c3 d039 7ff7 67b7 761f 2d36
00000030: 6076 d13b c837 bd3a 51f1 5f3b 2e99 b13a
00000040: 2a0f b4ba 0774 673a eb2c abba 2d39 40bb
00000050: 8c79 a9ba b946 793b 315e f7ba 5c3d 0fbb
00000060: 3979 8339 9789 a83a 6a87 0b3a 606d 9b37
00000070: e772 9239 f14a 45ba 609f 03b9 4729 1eba
00000080: a7e2 4d38 0dfe f439 8c78 c539 45ab 0fb9
00000090: a14f a1ba 5c96 4a3a f344 2b39 c5ca 3639
000000a0: 10e3 8c38 71a4 81ba aaa5 1b3a 43e8 cfb9
000000b0: 894b a039 cdcb 8439 9337 0939 33f1 bfb9
000000c0: 2465 4a3b d346 333b 15d7 433b 332a b2b9
000000d0: a998 a8ba 9a7e 9c3a 592d 70ba 33d2 08ba
000000e0: 653b aab9 f978 0a3a 07b0 933a b7ed c7b9
000000f0: 4f30 95b7 4668 6539 a706 fa38 53d7 e7b8
00000100: 49f9 8b37 8d88 49b9 7f51 c438 821b ad38
00000110: f3c9 1b39 5872 34b8 bca0 d5b8 1584 3839
00000120: f43c 9c3b 2132 ebba cccc de3a 2fdd f939
00000130: dbb5 afba bb44 d439 f310 153a 5d61 da38
00000140: 1773 be39 aff0 d13b 088a 51bb ab96 6cba
00000150: 54e6 3339 b11d f539 e0ec 6f39 de46 91b9
00000160: 2bed 8fb8 0442 be37 6f19 01b9 eb47 0239
00000170: 7e7a 5039 9437 60b8 c2d9 6b38 8a84 1a39
00000180: c960 02bb 5f73 a2ba 372b c0b8 9a22 3cb9
00000190: 4db3 6fb9 516a 8b39 6003 5f39 bb36 6c3a
000001a0: 94ab b7b8 0b67 2cbb 15f2 c23a 2fc9 bd3a
000001b0: 0040 9739 d05d d2b7 48d7 9239 0a3d 0239
000001c0: 91d6 9db8 6763 9338 1b65 7f39 9dba f1b8
000001d0: 7679 fbb7 ac2b 3e3a 80a3 eeb8 7e14 82b8
000001e0: ff97 75b9 d19f 823a 80ad 11b9 14b1 77b4
000001f0: 6c7e bf39 12b1 5dba 8286 87b9 cdda 7db9
00000200: b6b9 cb38 f3a4 1038 7fa9 153a b802 87b9
00000210: c801 c9b9 7dbb 113a 902b 08ba 7e7c c339
00000220: beb4 133a ca65 40ba 3ea9 e8b9 bcd2 c7b9
00000230: d4c0 d5b9 fa23 00ba b5c9 d339 8390 dfb9
00000240: ae6a fd39 69e3 a43a 750c 1f3b dd1c 12ba
00000250: 1512 d3b8 6f23 b339 e96f ed39 416b bab9
00000260: 6bc5 8a39 a4aa 8b3a 327d 143a be48 8d3a
00000270: 1f73 fcb9 d39d 80ba 7e15 9cba b141 08ba
00000280: 0939 0639 37a7 023a 2f95 b7b8 789d 463a
00000290: d3f5 8238 4841 c1b9 9aa9 1bba 2cfd 9f39
000002a0: 4d58 c2b9 3847 9d39 036a 99b9 b39a 8439
000002b0: a267 c939 e7d8 b5b9 42d5 81b9 911d 57b9
000002c0: 52ac b4b9 5d84 f7b9 e216 3039 2e0c 11b9
000002d0: e2ed b139 2613 1e3b 637c 98b6 a5e7 573a
000002e0: b37f c83a 3f21 0bbb 98b9 2e39 89b4 a1ba
000002f0: 04b4 c0b8 3d51 063b fccf 1d3a ddc4 8fba
00000300: bbdd 9db9 d8f5 0d3a 8c1d 1bb9 893a 0739
00000310: cb50 c839 61a6 2cba 7167 0ab9 28a5 88b9
00000320: 58dc b3b8 8313 8538 7885 ff39 11f6 a5b9
00000330: a1b2 253b 0fb1 66b9 d3fc 4c3b c1d8 13bb
00000340: ab0a 1e3a ff3a 3f3a 0217 813b 3656 563a
00000350: af73 343b e2bb 353c eef5 36bb a2ce 8b3b
00000360: 5853 91bb 2cb6 3ab9 12a2 31bb de14 27b9
00000370: 598d 62b7 cfd0 6aba a2df acb8 5a16 a43a
00000380: d5f0 1e3a f46b 1fbb 4f33 9a39 bac4 b1ba
00000390: ee0a 613b 0a5f 3739 4913 073a ef99 263b
000003a0: 95f4 1fba aaaf 0939 7ca1 c6ba ba83 3ebb
000003b0: 7d67 24bb df90 bdb9 031f abba 9814 4bbb
000003c0: d2b9 513b 2f48 d83a d7fa 083b 15e5 8e3a
000003d0: ad57 38b8 cb93 9f39 f868 1aba e6bc 0ebb
000003e0: 71a7 91ba bbf5 173b 9f70 f4b9 56f2 88ba
000003f0: 7616 803a cfcb 6139 6900 e93a 37a0 373a
0.00021149743 -8.701739e-05 0.00016514712 -5.269453e-05 -0.00022200121 0.00011516093 0.00011176226 3.9819137e-05
0.00016531942 0.00039818537 -1.3826298e-05 2.5797322e-06 0.006392285 0.001443618 0.0034170935 0.001354968
-0.0013737429 0.000882924 -0.0013059651 -0.0029330954 -0.00129299 0.0038036539 -0.0018872676 -0.0021856641
0.00025076585 0.0012858388 0.00053226075 1.8528372e-05 0.000279329 -0.0007526121 -0.00012552505 -0.00060333725
4.9086895e-05 0.0004672859 0.00037664582 -0.00013701346 -0.0012307056 0.0007728094 0.00016333516 0.0001743241
6.718014e-05 -0.0009890926 0.00059374666 -0.00039655165 0.00030573856 0.00025328845 0.00013086041 -0.00036610066
0.0030883038 0.0027355447 0.0029882838 -0.00033982247 -0.0012862879 0.0011939586 -0.0009162031 -0.00052193104
-0.0003246918 0.00052823086 0.001126767 -0.0003813335 -1.778468e-05 0.00021877987 0.00011922168 -0.000110550456
1.6686174e-05 -0.00019219723 9.361188e-05 8.2544066e-05 0.00014857184 -4.3021835e-05 -0.000101865706 0.00017596812
0.0047680084 -0.0017944017 0.001699829 0.00047657776 -0.0013405638 0.00040487 0.00056864246 0.000104131854
0.00036325373 0.0064068655 -0.0031973142 -0.0009025137 0.00017156574 0.00046752163 0.00022881059 -0.00027709355
-6.862947e-05 2.2680506e-05 -0.00012311873 0.00012424558 0.00019882058 -5.3457523e-05 5.623117e-05 0.00014735959
-0.0019894114 -0.0012394002 -9.163323e-05 -0.00017941967 -0.00022859611 0.00026591358 0.00021268195 0.0009010841
-8.758079e-05 -0.0026306536 0.0014873171 0.0014479513 0.00028848648 -2.5077636e-05 0.00028007687 0.00012420505
-7.5263095e-05 7.028021e-05 0.0002435636 -0.00011526535 -2.9978091e-05 0.00072544324 -0.000113791786 -6.2027e-05
-0.00023421644 0.0009965842 -0.00013892911 -2.3068088e-07 0.0003652455 -0.00084568665 -0.00025849423 -0.0002420947
9.714386e-05 3.4485896e-05 0.0005709156 -0.00025751232 -0.00038339035 0.0005559249 -0.00051944796 0.00037286052
0.00056345377 -0.00073393865 -0.00044376584 -0.00038113247 -0.00040770194 -0.00048881734 0.0004039534 -0.00042641544
0.00048335403 0.001257998 0.00242689 -0.0005573759 -0.00010064632 0.0003416794 0.00045287542 -0.00035556595
0.000264685 0.0010655713 0.00056644075 0.0010779125 -0.00048150957 -0.000981266 -0.0011908261 -0.0005197777
0.00012800483 0.00049840234 -8.7539076e-05 0.0007576565 6.2446714e-05 -0.00036860467 -0.00059380534 0.0003051547
-0.00037068353 0.00029998436 -0.0002926142 0.00025292262 0.0003841492 -0.00034684615 -0.00024763687 -0.00020515012
-0.00034460664 -0.0004721013 0.00016793192 -0.00013832815 0.00033937307 0.00241203 -4.5444335e-06 0.0008236117
0.0015296846 -0.0021229533 0.00016663072 -0.0012337129 -9.188804e-05 0.00204952 0.0006020067 -0.0010968704
-0.00030110576 0.0005415357 -0.00014792959 0.0001289641 0.00038207168 -0.00065860717 -0.0001319924 -0.00026062992
-8.576427e-05 6.3455685e-05 0.00048736832 -0.00031654586 0.0025283473 -0.00022000469 0.0031278625 -0.0022559615
0.00060288113 0.0007294863 0.0039395103 0.00081762986 0.0027534773 0.011092158 -0.0027917582 0.004266576
-0.004434984 -0.00017806207 -0.0027104658 -0.00015934135 -1.350356e-05 -0.00089575065 -8.243254e-05 0.0012518868
0.00060631084 -0.002432582 0.00029411397 -0.0013562657 0.003433879 0.00017487645 0.0005152715 0.0025421341
-0.0006101814 0.00013130778 -0.0015154327 -0.0029070214 -0.0025086098 -0.00036156827 -0.0013055507 -0.0030987617
0.0032001627 0.0016501005 0.0020901465 0.0010902012 -4.3950673e-05 0.00030436958 -0.00058902754 -0.0021780073
-0.0011112523 0.0023187238 -0.00046623216 -0.0010448198 0.0009772319 0.00021533597 0.0017776611 0.000700477

exp_avg_sq f4 [64, 12]
00000000: f5dc 0a36 bb5c 0136 b8cb c035 8190 8535
00000010: 77d1 4135 44b9 0937 a364 1536 c2c0 9a36
00000020: b59d f434 cc6c 7435 c202 8135 8a65 3036
00000030: 7724 cb38 35d4 0c39 2d76 9838 d2be 3738
00000040: b889 4338 bfd0 f639 a9b2 ee38 c29f 5839
00000050: a979 8f37 5a04 6538 0d22 8838 a3bc 1139
00000060: 220b 9436 5680 e836 bbf0 9536 dd2e 2e36
00000070: 4e9a 2836 6a30 b937 f3b6 a636 c1f0 1b37
00000080: cbff c135 d841 2536 24d4 6c36 6189 c336
00000090: 21fd 7d37 e278 a737 8c85 4c37 e968 b536
000000a0: e384 f436 c1fa 9b38 9c31 9b37 071a fb37
000000b0: f204 4236 cca5 d636 ef82 1437 6a00 8637
000000c0: 0e97 3c38 64c1 8d38 30a2 1f38 6b52 1237
000000d0: d01e 1537 0c32 b638 57aa 4538 6513 8538
000000e0: ae5c 1037 a970 f437 8011 d637 b11c 2f38
000000f0: 563d 8d36 8459 b536 8200 4036 4de7 1336
00000100: c780 f935 eb9f a337 9f7c 9f36 3633 0f37
00000110: de2a 5035 8e4e cf35 aa21 0336 ea40 b036
00000120: 87ef 1139 db5b 2139 9ec1 fb38 1e80 8a38
00000130: c0e0 6338 a7ce 0c3a dce1 2539 791e 8a39
00000140: a5c3 1638 2165 8f38 2749 9f38 7797 4039
00000150: 4688 b436 03ba e936 f468 5936 9e2d 1436
00000160: 55b9 2f36 55dd f237 0e6a d536 992b 5537
00000170: 3c21 4135 8d50 eb35 361c 2f36 8f88 f236
00000180: 79b7 3f38 098a 9138 170a 1a38 7a29 d536
00000190: f336 c536 1e09 e737 fbde fb37 b097 0a38
000001a0: 7a5f 1637 9a79 bb37 fc9d e637 028b 8637
000001b0: 8cb9 9735 5bbe d335 84b8 8e35 e65e 1335
000001c0: 7fa0 bf34 9361 8036 3a85 9c35 aadb fb35
000001d0: 7fc5 9e34 3493 2035 ae82 3a35 04a9 a335
000001e0: 7cf6 2936 8b23 8236 b3e8 3d36 f0bb d735
000001f0: 5340 a535 8cc6 3b37 f23c 4236 13e6 ba36
00000200: c045 9135 420d c535 8a9e 0d36 b0cc 7336
00000210: 7570 7a35 0f39 9d35 a12e 8d35 025d 0b35
00000220: 20cf dd34 7ac4 2236 5215 7735 c6c6 b735
00000230: 5c0c c034 164e 6635 2b56 7d35 c0b4 ad35
00000240: 14eb fa37 dd4c 0838 6473 a737 4c92 5837
00000250: ba80 5c37 9437 1539 cda5 1938 9a1c 8f38
00000260: fcbc 8d36 9066 3c37 8a26 5a37 ca3c 3838
00000270: aad1 6037 7722 7037 b680 9b36 b874 3d36
00000280: b10c 8336 272c 8838 94b8 8a37 0d3c 2638
00000290: 2592 9435 8163 7b36 ea26 8d36 f689 a237
000002a0: c420 f535 947a 0d36 3ccf ed35 5e81 4a35
000002b0: bef4 5735 c7e3 a236 f16c d335 591e 1336
000002c0: 72ec ed34 2cb0 ac35 eecc c535 8967 f435
000002d0: 9273 a937 f37f 2438 3c45 5d37 e162 0637
000002e0: d064 4c37 0a48 b938 80ec 7037 6630 0838
000002f0: b2f3 6935 3682 bc37 dd6e b737 3702 a437
00000300: a73f 3f35 6014 6335 1c2c 5835 1cc3 f934
00000310: 21e1 7734 f826 f635 4d2a 4e35 1fba 9b35
00000320: 1f32 a534 e9bf fa34 e0fc 1a35 7be7 6135
00000330: a62f 6c39 c14f bf39 a84f 3539 5f36 ba38
00000340: 24bc f638 d153 443a 3033 5a39 db3a bb39
00000350: f020 2e38 3a6f 2239 4aed 0b39 0acd 9239
00000360: 569a c038 7e80 e138 c01c 9338 8289 f237
00000370: 0b0b 3e38 09f0 d339 64e8 bc38 bd6e 0d39
00000380: 8667 6137 b85f 3a38 0a5f 7738 0ad7 9a38
00000390: c265 b938 1da9 cf38 9121 d338 2f8b 6338
000003a0: 01a8 2a38 6abf e539 3d8f 0839 9d51 5539
000003b0: 1973 0138 9a8c 5d38 ef2d 8038 98da 2739
000003c0: 13d3 2c38 34b0 1e38 c6f6 5137 033a dc36
000003d0: 2852 5137 4986 2e39 74f0 2538 a3e4 cf38
000003e0: 8cfc 0736 5d37 6b37 8f3f 2f37 eaf5 3f38
000003f0: 118b a238 989f 4d38 c1a9 9937 3fc6 a436
2.0692216e-06 1.9276474e-06 1.4364405e-06 9.951328e-07 7.2202914e-07 8.208972e-06 2.2261308e-06 4.6119976e-06
4.556329e-07 9.1055404e-07 9.612052e-07 2.6285147e-06 9.6865864e-05 0.00013430494 7.269937e-05 4.3808315e-05
4.6619884e-05 0.00047076304 0.000113820024 0.0002065888 1.710358e-05 5.4601907e-05 6.491328e-05 0.0001389855
4.4120397e-06 6.929079e-06 4.4685708e-06 2.5955298e-06 2.5123768e-06 2.2076263e-05 4.9684836e-06 9.294775e-06
1.4454066e-06 2.4625242e-06 3.5290223e-06 5.827446e-06 1.5138911e-05 1.9964242e-05 1.2190441e-05 5.4064335e-06
7.2872367e-06 7.4376825e-05 1.8500541e-05 2.9933652e-05 2.8911131e-06 6.3969983e-06 8.851973e-06 1.5974238e-05
4.4963374e-05 6.759426e-05 3.8059603e-05 8.721468e-06 8.888266e-06 8.687758e-05 4.71271e-05 6.345547e-05
8.6046475e-06 2.9139528e-05 2.5518937e-05 4.1749972e-05 4.209268e-06 5.4046413e-06 2.8610525e-06 2.2039342e-06
1.8589425e-06 1.9505582e-05 4.753077e-06 8.535388e-06 7.754842e-07 1.5445564e-06 1.9540116e-06 5.2527657e-06
0.00013917508 0.00015388375 0.00012004677 6.6042165e-05 5.4330332e-05 0.000537137 0.00015819765 0.00026344115
3.5944995e-05 6.837608e-05 7.5953365e-05 0.00018366972 5.3802823e-06 6.9655957e-06 3.239661e-06 2.2080271e-06
2.618491e-06 2.8951714e-05 6.360241e-06 1.270594e-05 7.1946465e-07 1.7532308e-06 2.6093453e-06 7.2280595e-06
4.570882e-05 6.93985e-05 3.6725858e-05 6.352723e-06 5.8774544e-06 2.7541591e-05 3.0025365e-05 3.3043034e-05
8.962927e-06 2.2348762e-05 2.7491704e-05 1.6038775e-05 1.1304378e-06 1.5776126e-06 1.0633526e-06 5.489986e-07
3.56933e-07 3.8260564e-06 1.166168e-06 1.8764888e-06 2.957349e-07 5.9818854e-07 6.9480564e-07 1.2193636e-06
2.5326435e-06 3.8784397e-06 2.8298643e-06 1.6073445e-06 1.2312179e-06 1.1192296e-05 2.8943728e-06 5.570016e-06
1.0823642e-06 1.4681502e-06 2.110292e-06 3.6328966e-06 9.3295904e-07 1.1714018e-06 1.051889e-06 5.191688e-07
4.131516e-07 2.4254246e-06 9.2045696e-07 1.3692413e-06 3.577178e-07 8.5795307e-07 9.4375235e-07 1.294211e-06
2.991179e-05 3.249651e-05 1.9961684e-05 1.2908666e-05 1.3142993e-05 0.00014230452 3.6632457e-05 6.824099e-05
4.224128e-06 1.1229553e-05 1.3002786e-05 4.3925633e-05 1.3400257e-05 1.4313139e-05 4.634344e-06 2.8231134e-06
3.9055817e-06 6.4932094e-05 1.6536833e-05 3.963341e-05 1.1069393e-06 3.7459833e-06 4.2066576e-06 1.9376148e-05
1.8263459e-06 2.1081987e-06 1.7718189e-06 7.543912e-07 8.044989e-07 4.854493e-06 1.5752431e-06 2.1922372e-06
4.4316727e-07 1.2866271e-06 1.4737286e-06 1.8209549e-06 2.0200187e-05 3.921981e-05 1.3188746e-05 8.010044e-06
1.218282e-05 8.834906e-05 1.4360179e-05 3.247e-05 8.715389e-07 2.247198e-05 2.1866925e-05 1.9551355e-05
7.124567e-07 8.459374e-07 8.053046e-07 4.6521825e-07 2.3085569e-07 1.833977e-06 7.6802536e-07 1.1602568e-06
3.0770113e-07 4.6705762e-07 5.773745e-07 8.415588e-07 0.00022524464 0.0003648978 0.0001729118 8.8792985e-05
0.00011765238 0.0007489296 0.00020809169 0.0003571127 4.151551e-05 0.00015490959 0.0001334447 0.00028000056
9.184021e-05 0.000107527696 7.014861e-05 2.891268e-05 4.5309815e-05 0.00040423896 9.007825e-05 0.00013488061
1.34351485e-05 4.4435e-05 5.89779e-05 7.3833464e-05 8.840441e-05 9.902029e-05 0.00010067516 5.4250642e-05
4.0687624e-05 0.00043820898 0.00013023331 0.00020343666 3.086319e-05 5.282145e-05 6.1120714e-05 0.00016007794
4.1204574e-05 3.7834237e-05 1.2514827e-05 6.5632644e-06 1.2476499e-05 0.00016643958 3.9563005e-05 9.913116e-05
2.026357e-06 1.4019982e-05 1.0445611e-05 4.5766974e-05 7.750665e-05 4.9024442e-05 1.831807e-05 4.9106598e-06

exp_avg f4 [64]
00000000: 0548 dd37 9b90 0d3a 6fc0 15ba ac2f 0dba
00000010: 3615 83b8 1632 4835 0285 8e3a 2c1f 3ab8
00000020: 7d43 b33a af62 7b38 01ae 29ba e844 a3b9
00000030: 2f60 04ba 8666 ac38 81ef 2eb8 00dd c0ba
00000040: 6eec 96b9 2d25 00ba 42f7 b4ba aa4c d13a
00000050: dda4 263a 96ed 243b 6006 beb9 66bf bc36
00000060: 6457 86b9 1e0e 0cba 2412 4db9 5f35 1bb9
00000070: 6e14 19ba 6b39 81b9 2211 0139 b72c e0b8
00000080: 980f 313a e152 6139 fa98 9639 e677 113a
00000090: c5f7 5dba 304d 0a39 c18b 2a39 6f56 6eba
000000a0: 2a4b f438 4d6a 7239 3333 9cb7 0724 5dba
000000b0: ba0b 8fb7 b90d 01bb d739 3aba 87bb 1c39
000000c0: 5856 32b9 c424 cdb9 9b71 b3b9 3426 67ba
000000d0: 7a2b 62b9 d9aa d237 7206 1839 b882 a1b9
000000e0: 40e9 4aba 5943 9439 fb79 0239 14b3 ba3a
000000f0: 4b40 0739 f5fe 22ba 743b adb9 de30 58b7
2.637879e-05 0.0005400271 -0.0005712574 -0.0005385827 -6.2505176e-05 7.457869e-07 0.001087338 -4.4374887e-05
0.0013676729 5.993497e-05 -0.0006472767 -0.00031141122 -0.0005049733 8.2206956e-05 -4.1707888e-05 -0.0014714301
-0.00028786383 -0.0004888352 -0.0013806599 0.0015968282 0.0006356964 0.0025166026 -0.00036244374 5.6251183e-06
-0.00025623583 -0.000534268 -0.00019557081 -0.00014801834 -0.0005839531 -0.00024647577 0.00012308781 -0.00010689481
0.0006754338 0.00021488547 0.00028724206 0.00055491773 -0.00084674015 0.0001318946 0.00016264526 -0.0009091859
0.00011648827 0.00023118519 -1.862049e-05 -0.00084358494 -1.7052389e-05 -0.0019692017 -0.0007103956 0.00014947179
-0.00017007568 -0.0003912804 -0.00034226183 -0.00088176434 -0.00021569236 2.5113508e-05 0.0001449825 -0.00030805706
-0.00077404454 0.00028278938 0.00012443207 0.0014244043 0.00012898554 -0.0006217801 -0.00033041427 -1.2885981e-05

exp_avg_sq f4 [64]
00000000: a321 7f36 08d6 3139 8170 d836 cf3f e137
00000010: b936 6d38 1fdb ef36 1340 5339 e8ad 2d37
00000020: b8f1 5138 6599 d035 14c0 8036 ec7d 8035
00000030: d433 6e38 4bbd 0d38 1523 df35 a5d7 2038
00000040: 6ddd 6035 70b8 9439 cf6a 0239 1e07 1b39
00000050: b0d7 bd38 e77e 0d39 c264 f536 c070 3538
00000060: ea48 d935 a33e aa36 1583 0438 3421 8f37
00000070: acc7 ed36 adae d735 feb1 8e39 8959 b337
00000080: f7e4 d838 012e 0d38 2052 4436 666e c136
00000090: 9b65 de38 8d6b 1635 d25a 9737 ec2d 9139
000000a0: e9a9 3535 ad20 6e37 1f51 d438 b3fd 6938
000000b0: a064 8035 baa6 b238 5f02 6237 14ad 2636
000000c0: 87a8 3635 edbb 3238 2e83 ab38 5217 9a38
000000d0: beef 0038 6cdb f037 746e e138 44c2 a437
000000e0: 03bd a938 f0d7 9537 989c 8037 ed48 c338
000000f0: f239 c338 fc54 5339 f828 4936 d656 b635
3.801754e-06 0.00016959768 6.450399e-06 2.6851803e-05 5.6556168e-05 7.148264e-06 0.00020146398 1.0352094e-05
5.00546e-05 1.5541851e-06 3.837058e-06 9.573391e-07 5.679189e-05 3.3793312e-05 1.6625005e-06 3.8347807e-05
8.376872e-07 0.00028366176 0.00012437555 0.00014784603 9.052397e-05 0.00013494083 7.3132987e-06 4.325877e-05
1.6188981e-06 5.0736867e-06 3.1593332e-05 1.706239e-05 7.0863953e-06 1.6069586e-06 0.00027216965 2.1380156e-05
0.00010342331 3.3659864e-05 2.925408e-06 5.7647003e-06 0.000106047104 5.603586e-07 1.8042894e-05 0.0002769077
6.7675006e-07 1.4193513e-05 0.00010124058 5.5787805e-05 9.566029e-07 8.518757e-05 1.3471202e-05 2.4836672e-06
6.8045523e-07 4.2613527e-05 8.1783495e-05 7.347636e-05 3.0740855e-05 2.8712406e-05 0.000107494096 1.9640785e-05
8.093754e-05 1.7862738e-05 1.5331709e-05 9.311908e-05 9.309118e-05 0.00020154187 2.997518e-06 1.3585329e-06

exp_avg f4 [64, 64]
00000000: 1a00 c735 edc1 2839 dc43 59b6 92f1 3eb8
00000010: 464f c1b9 997d f137 551f 18ba 445e 3a38
00000020: 8440 9138 de16 3bb7 efa0 f037 9f6d 3d38
00000030: 3066 2136 7b5e 5eb6 4378 5838 1fc1 b137
00000040: eb50 1237 6f43 31b9 06c3 d5b8 1b45 61b9
00000050: 2a15 1639 a84a 6c38 645d 6b38 66d9 a9b7
00000060: 564c a237 3a79 5cb8 d75a 14b9 d966 9038
00000070: 0715 1739 d207 8037 03bb 5b39 8a70 0d39
00000080: a02d ae38 cc25 82b9 ead2 f537 4c5e ca37
00000090: 5e0d 7b39 cdbf 7db7 2fc2 42b8 48d8 8d38
000000a0: c2a7 dd37 74e8 35b7 0be0 2939 372e 1e38
000000b0: 671a 27b6 8930 0939 1779 7138 041a 8937
000000c0: 2208 bb37 d380 e7b8 2b2b 13b9 6e6c fa38
000000d0: 0eff 19b9 3dd2 a2b8 e99c 0638 df52 a038
000000e0: a97b a3b7 de3a 2638 ff27 2b38 fb3f 86b8
000000f0: c518 1eb9 0c90 2138 d974 aab7 349c 55b7
00000100: 163b 0737 b990 8bb9 8dbf 0fb8 ed7e 1e39
00000110: 92ba 0439 9e8f 0eb8 d748 40b8 c8d3 6fb8
00000120: 1767 7738 e3b7 be37 ac40 3fb8 6120 e1b5
00000130: dedd b4b8 3114 9cb8 fa42 d337 e449 a737
00000140: c6c2 2037 45b2 bd38 46b6 ae39 8941 3bb9
00000150: 603d 2738 e07d 9639 34dd 07b8 7aad 2937
00000160: bee3 c4b7 b167 eb37 b7cd 9b38 ce1c bfb7
00000170: de28 6438 bc8c 2338 ab25 2f39 ee12 4bb5
00000180: bcfc acb8 9b69 0d37 de06 c2b6 a01c 09b6
00000190: 3e06 cdb8 66ff 2634 a1e6 ec38 419f ec38
000001a0: 9539 8837 526b d837 5fc6 e838 1be0 98b8
000001b0: 816b f637 2f59 f1b6 e5a1 d337 2603 6f38
000001c0: 2478 ab36 d10e 1d38 d77d bc38 e72d ccb5
000001d0: 78a6 6d38 679e 0b39 7669 53b9 7eeb a938
000001e0: 59cd 7eb9 1edf 16b9 b601 27b8 c0f4 8039
000001f0: 8139 2cb9 2b8a b5b8 2e7f ba37 f024 7c37
00000200: af5c 5f37 475b 17ba e502 b637 d7bb aa39
00000210: c727 4cba bfc7 7e39 0be6 ff39 7291 cc38
00000220: 0e12 6db8 f8c6 11b9 899a 06b9 604a 90b8
00000230: 3e3f 91b9 2ac2 fcb9 19bf 2938 adfe 9236
00000240: f0a3 ed37 74e2 87b8 6880 a43a a6a4 adb9
00000250: 04c7 1d3a 21a1 f33a 7a2d 9eb9 375e ab39
00000260: d583 0239 f7c5 a339 544f 54ba ba41 33b9
00000270: 8bda bb37 bfe4 e139 8281 273b 158e dd39
00000280: e7a9 663a 0c29 abba 40c8 3d39 940a 92b8
00000290: dc77 5eba 3f50 68b8 82b7 7e39 8f03 153a
000002a0: 41c2 d938 faa5 4438 9c01 823a 9633 903a
000002b0: 782d 5838 791f 3b39 78cc 0bb9 ff43 3839
000002c0: 6ac6 0138 2b74 16ba 8867 4cb7 81d7 03b9
000002d0: 6aef 2f3a 839c bb3a 3572 ddb7 3843 9f3a
000002e0: ec1f 193a 64b3 6cba 1cb9 1638 4b8c 163a
000002f0: fd52 acba bd36 d2b9 c9b3 63b9 9b2e 44b9
00000300: 52d3 52b5 b180 50ba 6a34 25b9 d96b e739
00000310: 8456 0fb8 feb2 24b9 a3da 5c39 f200 84b9
00000320: 57f5 58b9 d8f1 9b37 82d8 22b9 7997 b038
00000330: 2954 00ba 977c abb9 660f 6439 1180 04b8
00000340: d45e 9b38 d01f 083a 9ab8 bc3a 56b1 1eba
00000350: addf 0f3a 1aef b03a 0531 b138 d30b da38
00000360: ed9b 50b8 f9d2 1d39 30d1 3f3a 4e0b 31b8
00000370: 78a8 8839 ef14 1939 c645 353a 1288 f5b9
00000380: 8f43 e2b9 33ab 9939 76af 9bb8 64c0 3e38
00000390: 75e8 a8b9 8409 43b8 1eff ce39 6141 463a
000003a0: 8ded 4638 1fd7 fb38 fa0a 5f3a bb09 aab9
000003b0: c555 0d39 c43a a839 6aee 9b39 99f6 7c39
000003c0: 5f5a 2638 1d91 1c3a 445a 2a3a a1f3 9b39
000003d0: ed4c a039 f58d d739 ff48 79ba 0da9 ab39
000003e0: f847 2fba e329 5bba 94c6 57b9 032c a63a
000003f0: f6ec 9738 b407 163a 18ce 1239 e5ab a637
1.4826685e-06 0.00016093971 -3.237502e-06 -4.552451e-05 -0.00036870892 2.8787925e-05 -0.00058030087 4.4433647e-05
6.926156e-05 -1.1151393e-05 2.868517e-05 4.5163204e-05 2.405035e-06 -3.3135573e-06 5.1610416e-05 2.1189973e-05
8.721118e-06 -0.00016905156 -0.000101929574 -0.00021483416 0.00014312999 5.6336314e-05 5.6115343e-05 -2.0247604e-05
1.9347452e-05 -5.256499e-05 -0.0001414822 6.885612e-05 0.00014408315 1.526243e-05 0.00020955135 0.00013488732
8.305465e-05 -0.00024823693 2.930449e-05 2.4124187e-05 0.00023942205 -1.5124632e-05 -4.6434052e-05 6.7636895e-05
2.6423371e-05 -1.0842563e-05 0.00016200558 3.7713176e-05 -2.4900307e-06 0.00013083419 5.757165e-05 1.6343787e-05
2.2295924e-05 -0.00011038934 -0.00014035094 0.000119411256 -0.00014686232 -7.763922e-05 3.2094224e-05 7.6448305e-05
-1.9488698e-05 3.963231e-05 4.0806826e-05 -6.401535e-05 -0.00015077282 3.8519545e-05 -2.031999e-05 -1.2732158e-05
8.060384e-06 -0.00026619973 -3.4272252e-05 0.00015115338 0.00012658004 -3.3989192e-05 -4.5844205e-05 -5.7179277e-05
5.89854e-05 2.2735394e-05 -4.559818e-05 -1.677323e-06 -8.624395e-05 -7.4424206e-05 2.5184348e-05 1.994236e-05
9.582092e-06 9.0454276e-05 0.0003332367 -0.00017858123 3.9873063e-05 0.00028704014 -3.239252e-05 1.0113576e-05
-2.3471071e-05 2.8062468e-05 7.429293e-05 -2.2782388e-05 5.4397497e-05 3.8993297e-05 0.00016703333 -7.565094e-07
-8.2486746e-05 8.428843e-06 -5.78245e-06 -2.0431253e-06 -9.7763244e-05 1.5552868e-07 0.00011296315 0.0001128302
1.6239277e-05 2.5799181e-05 0.000110995716 -7.289668e-05 2.9375546e-05 -7.192742e-06 2.5228548e-05 5.6984973e-05
5.1101833e-06 3.7445516e-05 8.987978e-05 -1.5212544e-06 5.666024e-05 0.00013315082 -0.00020161815 8.102412e-05
-0.00024299826 -0.00014388232 -3.9817496e-05 0.00024596415 -0.0001642462 -8.656488e-05 2.223215e-05 1.5028971e-05
1.3313415e-05 -0.0005773794 2.1697439e-05 0.00032564878 -0.00077879097 0.00024297739 0.00048808786 9.754569e-05
-5.6522018e-05 -0.00013902399 -0.00012836805 -6.8803085e-05 -0.00027703674 -0.0004820985 4.0470713e-05 4.3807872e-06
2.8328941e-05 -6.479482e-05 0.0012550475 -0.00033119804 0.00060187303 0.0018587449 -0.0003016999 0.00032685857
0.00012446877 0.00031237278 -0.0008098979 -0.00017095255 2.2393904e-05 0.00043085773 0.002555937 0.00042258264
0.0008799121 -0.0013058498 0.00018099044 -6.963793e-05 -0.00084864884 -5.5387845e-05 0.0002429169 0.0005684429
0.00010383549 4.688462e-05 0.0009918693 0.0011001702 5.154076e-05 0.00017845434 -0.00013332244 0.00017572938
3.0940784e-05 -0.0005739356 -1.2183453e-05 -0.00012573415 0.00067113957 0.0014313612 -2.6398435e-05 0.001215077
0.00058412435 -0.0009029417 3.5935183e-05 0.0005742951 -0.0013147291 -0.00040095104 -0.00021715382 -0.00018709378
-7.853861e-07 -0.0007953747 -0.00015755152 0.00044140106 -3.417443e-05 -0.00015706939 0.00021062283 -0.00025177706
-0.00020690761 1.8590057e-05 -0.0001553018 8.420548e-05 -0.00048953533 -0.00032708488 0.00021749511 -3.1590524e-05
7.408639e-05 0.0005192729 0.0014398277 -0.0006053647 0.00054883474 0.0013498992 8.449148e-05 0.000103972525
-4.973628e-05 0.0001505128 0.0007317243 -4.2210617e-05 0.0002606546 0.00014599015 0.0006914999 -0.00046831422
-0.00043156414 0.00029309987 -7.423658e-05 4.5478708e-05 -0.0003221665 -4.6500485e-05 0.0003948146 0.0007562843
4.7428115e-05 0.00012008682 0.00085084105 -0.00032432177 0.0001347876 0.0003208724 0.00029741536 0.00024124458
3.966165e-05 0.00059725513 0.0006498436 0.00029745421 0.00030574892 0.00041113762 -0.00095094735 0.00032741614
-0.00066864444 -0.00083604286 -0.00020577974 0.0012677911 7.2443785e-05 0.0005723194 0.00014000421 1.9868787e-05
