logs/rl_games/quadcopter_direct/2024-07-11_12-19-11/nn/last_quadcopter_direct_ep_75_rew_101.643486.pth (torch, 79120 bytes, 30 tensors)

value_mean_std.running_mean f8 [1]
00000000: 46e6 689d 2995 a23f
0.036294270005282445

value_mean_std.running_var f8 [1]
00000000: 0974 a87a 33e7 733f
0.0048591624168041825

value_mean_std.count f8 []
00000000: 0000 0020 0020 6c41
14745601.0

running_mean_std.running_mean f8 [12]
00000000: ea9f 3cbb bb48 c83f 69b8 a574 2cad 9b3f
00000010: 1e6b 116d 8ae8 c93f 2237 370c 64d0 febf
00000020: a304 5af5 d043 ec3f 4d31 0254 c9d8 0740
00000030: de19 b89f 661e b53f be9c bb9e fd31 ba3f
00000040: 902f 4218 6a85 e6bf 429a 2036 54b6 9d3f
00000050: 66ca 63ee 2535 473f a8b5 d027 a4a2 aa3f
0.18971964495108234 0.027027792567814766 0.20240907979572226 -1.9258766629386135 0.8832783500694358 2.980852752987778 0.08249513053315335 0.10232529759706474
-0.7037859414863181 0.02901584225051069 0.0007082400523173548 0.05202210413004177

running_mean_std.running_var f8 [12]
00000000: 2765 571a 8831 ec3f 6f76 eca9 6c56 ed3f
00000010: f9c8 767f aa83 e93f c4a1 5fe0 1dfa 5740
00000020: 1a8c e5b0 b878 5d40 6367 170c 9f08 4740
00000030: 4c3a 3772 22c7 c03f b8e4 4d12 7e04 c23f
00000040: c2c1 a188 4f98 cb3f 78a5 b0ab 7d12 eb3f
00000050: b69b 6cea d124 e73f 6790 8e88 c7c7 e33f
0.8810463442306727 0.9167998617956082 0.7973225106746035 95.90807351435711 117.88627264420248 46.06735373633162 0.13107710434856512 0.1407620992065739
0.2155856530330436 0.8460071900673674 0.7232446268652584 0.6181371371390129

running_mean_std.count f8 []
00000000: 0000 0040 0020 5c41
7372801.0

a2c_network.sigma f4 [4]
00000000: 5ef8 13bf c0e6 b4bf d14c b8bf dc31 3dbf
-0.57800853 -1.4132919 -1.4398443 -0.73904204

a2c_network.actor_mlp.0.weight f4 [64, 12]
00000000: 9551 84bd 2058 33bd b1eb d33b 8825 ad3c
00000010: 7320 273e 8a41 0abd d9ca 92be dbe0 563d
00000020: de09 8bbe 14e4 1b3e 0d0b 23bd cd72 433d
00000030: be44 36be e0c2 0fbe ee32 8fbe c6b2 d0be
00000040: 34d1 973d f62c 8ebe d344 1c3e 44bf 7bbe
00000050: dca2 953d 7915 04be bf27 5abe aaab 193f
00000060: bbdd f3bc 4721 08bd 60a6 97bd 6b95 7bbd
00000070: 4411 d33d b405 35be 13c5 9dbd 6921 88bc
00000080: e0c5 7abd aca8 093e 01f7 da3d 25c7 8f3c
00000090: d1d4 c23d 53e6 7cbd 7f84 b3bd 189e b6be
000000a0: 781c 5cbe 313b ed3e c8f9 253e d3d7 dd3d
000000b0: 160a a03e 5fec 47be 770c ad3e 3e64 a2be
000000c0: 76e1 ed3d 0257 99bd 58d5 963c da11 d1bd
000000d0: 1fe4 213e cd5f 70be 9ff4 593e 8784 a93d
000000e0: e4d3 af3c a15d f63e 84e5 173f e771 7fbe
000000f0: 1509 bf3d 15cd 87bd 4748 1bbe 6ab9 23bf
00000100: f18f efbe 13fe 093e b19d afbb 0c22 243e
00000110: 417f f13d f2f4 62be e40d a03d f9e8 a1be
00000120: 3435 27be 91dd f53d 8058 a13d b1c9 e6be
00000130: c23b dfbe 805e 113e c225 e1be 3935 f13d
00000140: 919b 1bbc 8906 0b3f 1227 1abf 5f4e e53e
00000150: 5fef 313e 5fc0 4e3d 4d8d 08be 4e3b d5be
00000160: 7cab 03bf e503 4f3e 2218 aabd c41e 0bbe
00000170: eb72 113c 8ae6 8cbd 9501 c2be c4e8 03be
00000180: 10e9 51be 1bdf f7be fe36 2e3f 74a4 313e
00000190: b621 6b3e 05f6 9abe da2c 9cbd 4630 a9be
000001a0: 3256 e13c 1dd9 27bf 9f75 0f3d e1c8 b0be
000001b0: 5657 abbd bb4c ebbd 9255 7bbd 47f5 0bbf
000001c0: 5d15 28be 2ff0 e1bd d29e 27be 9c64 0bbe
000001d0: a2a2 963e 5730 11be aaab a23c f95b 203e
000001e0: 3c1b 833c 3bf8 3b3e ba57 e2bd 68bf 97be
000001f0: 3ed1 90be 1a37 a1be 8955 093d 2314 213d
00000200: 5357 dd3d 318f cabe 9286 153e 9750 57be
00000210: 2515 afbd 31d2 413e 1832 4b3d 88a1 893e
00000220: 6aaf 473f 543f 97be 4afd 993d c51d afbd
00000230: b93e ef3d f21d 2d3e 3eac 2fbe 29cc 60be
00000240: b1a5 89bd a61c c23d a9e7 99be 7c65 4d3d
00000250: 5421 103e 85a7 023c ad7f 37be b9cc afbe
00000260: 7691 f5bd e960 743e de7d 9e3d da61 ce3e
00000270: 9c61 0a3e e29b 25bc 60fd 9a3d 131f 2bbe
00000280: 87bd b03e b109 a3bd f1c5 27be bd74 133e
00000290: 3913 563c fedd 803e 1242 b0ba f625 9fbe
000002a0: 6d53 e7bd 6097 89bc 0147 453e 34b0 aebd
000002b0: e1be 0b3d d822 2f3e 4736 aabd 4f3e 3bbe
000002c0: cfd2 5abe 853e 093e de74 0f3e 42ee fcbd
000002d0: b969 0b3c cb99 2dbb dc01 27be af23 623e
000002e0: faac 67be 0058 32be 0da3 7fbe 265f 09be
000002f0: 8b71 f8bd b971 173e b829 fc3d 0df2 8abd
00000300: 04dc 463e 1ed7 44be af3c fbbc 9738 ccbd
00000310: 9672 0cbe 0938 2abe 958f 5c3e 6e2c 2a3d
00000320: 7431 80be df9d d9be 5695 a7bd dc22 003d
00000330: 0b9a bdbe 323d f4bd 1b87 75bd 2a10 e9bd
00000340: 7f37 22bf 6125 f03d 9b44 16bf ed01 89bd
00000350: 2381 e3bd 0039 2a3f a5df d5bb 168a da3e
00000360: 3bd3 efbe 22ee 2ebe ccca 37bd dae6 953e
00000370: 7121 043c 874b c93e 03b1 223e ed54 9e3d
00000380: 9937 ee3c 97a1 b1bd 9aac 24bf 40e5 17bf
00000390: 5306 abbc f9b9 a8bd 8744 4d3d 4ea5 59bf
000003a0: 03d3 083e 3fb1 11be ad31 d7bd 10b3 0e3e
000003b0: 0e73 efbc c5a3 34bd 6c50 4abe ea26 973d
000003c0: 8bd9 6d3e c641 08be 1ede b2be 38c3 12be
000003d0: 4902 223e 3263 debe 922f 9abd 089c e63c
000003e0: a2d0 33bc 9358 b43d d1ac 883e 9e38 6b3c
000003f0: 01a4 5a3e 53a8 593e bcd7 6a3e 7d2a 423d
-0.06460873 -0.043785214 0.0064673056 0.02113606 0.16320972 -0.03375391 -0.28670385 0.052460533
-0.27155966 0.15223724 -0.03980546 0.047716904 -0.1779966 -0.14039183 -0.27968544 -0.40761393
0.07412949 -0.27768677 0.1526063 -0.24584681 0.073064536 -0.12898816 -0.21304224 0.60027564
-0.029768815 -0.03323486 -0.074047804 -0.061421793 0.103060275 -0.17677957 -0.077036045 -0.016617494
-0.061223865 0.1344325 0.106916435 0.017551014 0.09513248 -0.06174309 -0.08765506 -0.3566749
-0.21495235 0.46334222 0.16208565 0.10832181 0.31257695 -0.19523762 0.33798572 -0.31717104
0.11615269 -0.074872985 0.018412277 -0.10208483 0.15809678 -0.23474045 0.21284722 0.08277231
0.021463342 0.48118308 0.5933459 -0.24945794 0.09327904 -0.06630913 -0.1516429 -0.63954794
-0.46789506 0.13475828 -0.0053593745 0.16028613 0.1179185 -0.22163752 0.078151494 -0.31623057
-0.16328889 0.12005151 0.07878208 -0.45075753 -0.4360028 0.14196205 -0.4397412 0.117777295
-0.009497539 0.54306847 -0.60215867 0.44786355 0.17376469 0.050476428 -0.13335152 -0.41646808
-0.5143354 0.2021633 -0.08305384 -0.13585955 0.008877496 -0.06879909 -0.37891832 -0.12881762
-0.20499063 -0.48412403 0.6805266 0.1734789 0.22962078 -0.30265823 -0.07625742 -0.33044642
0.027506921 -0.65565664 0.03502428 -0.34528258 -0.083662674 -0.114892446 -0.061360903 -0.5467114
-0.164144 -0.110321395 -0.16369179 -0.13612598 0.29420954 -0.14178596 0.019857246 0.15660085
0.016004197 0.18356411 -0.11051889 -0.2963822 -0.2828464 -0.31487352 0.03352884 0.039325844
0.108076714 -0.3956237 0.14602116 -0.21026836 -0.08548955 0.18927838 0.04960832 0.2688105
0.78002036 -0.29540503 0.07519014 -0.085506 0.11681885 0.16905954 -0.17155549 -0.21952881
-0.06721056 0.094781205 -0.30059555 0.05014561 0.14075214 0.00797451 -0.17919798 -0.34335878
-0.11990635 0.23865093 0.07738851 0.4030903 0.13513798 -0.010107966 0.07567859 -0.16711073
0.34519598 -0.07960833 -0.16384102 0.14400001 0.0130661065 0.25169367 -0.0013447425 -0.3108365
-0.11295209 -0.016795814 0.19265367 -0.08529702 0.034117583 0.17103136 -0.08311134 -0.18285488
-0.2136948 0.13402756 0.14009425 -0.123501316 0.008509093 -0.0026489373 -0.16309303 0.22083925
-0.22624579 -0.17416382 -0.24964543 -0.13415202 -0.121310316 0.14789476 0.12312645 -0.06784449
0.19419867 -0.19222686 -0.030668585 -0.09971731 -0.13715586 -0.16622938 0.21539147 0.041546278
-0.2503773 -0.4250326 -0.081827804 0.031283244 -0.37031588 -0.119257346 -0.0599433 -0.11380036
-0.6336593 0.117258795 -0.58698434 -0.066898204 -0.11108615 0.66493225 -0.0065269046 0.42683476
-0.46840844 -0.17083028 -0.044871137 0.29277688 0.008064614 0.39315435 0.15887837 0.07731042
0.029079245 -0.08673399 -0.6432587 -0.5933418 -0.020877039 -0.082385965 0.05011418 -0.8501786
0.13361745 -0.1422777 -0.10507522 0.13935494 -0.029229667 -0.044101495 -0.19757241 0.07380469
0.23227517 -0.1330634 -0.34935087 -0.14332283 0.15821184 -0.43435055 -0.075286046 0.028150573
-0.010975035 0.08805957 0.26694348 0.01435676 0.21351625 0.21255617 0.22933859 0.0474038

a2c_network.actor_mlp.0.bias f4 [64]
00000000: 632e 9fbe e9a4 4fbd 688a d2bd 36f1 603d
00000010: 6ab5 bbbe ccd0 fa3d 70cd 833d e233 c6bc
00000020: 95c1 d03c ba84 003e 9707 083d ff29 2cbd
00000030: d246 80be 84da 813d c38c d6bd 6905 bbbe
00000040: bc00 cbbe 65ce 4fbe 89d6 8cbd 53e6 0a3e
00000050: 970b 3bbe 6927 ba3c 6956 9abe c665 84bc
00000060: 0a5c 07bd c713 8bbd 58de 1fbe 42cf b2be
00000070: d003 03be b24c 1cbd ef48 1ebe a4d0 4f3e
00000080: e676 51bd fd54 c0be fe16 f9bc 3715 d5bd
00000090: d781 79bd 1225 0ebe 2df1 b3be 1ca4 6cbd
000000a0: d174 59be 8871 90be f00a b9bd aead 94be
000000b0: 31ad 7f3d d3c2 20be cb05 fb3b d671 17bd
000000c0: 2a9b b5bd 2b11 d5bc 76f6 21be 6d3c 0b3c
000000d0: df7c 08bd a14a 9ebe ce7c ef3c 3f89 a4bc
000000e0: 0087 863d 6b12 35be 8b01 5fbe 6321 bfbe
000000f0: 0630 8ebd e562 7abe 4eeb 7dbc 3278 d7bc
-0.31090078 -0.05069438 -0.10280305 0.054917537 -0.36661845 0.12246856 0.064356685 -0.024194662
0.025482932 0.12550631 0.033210363 -0.042032238 -0.25054032 0.06340507 -0.10476067 -0.36527565
-0.39648998 -0.20293577 -0.06876857 0.13564424 -0.1826614 0.02272387 -0.3014405 -0.01616181
-0.03304676 -0.067908816 -0.15612161 -0.3492375 -0.12794423 -0.03815908 -0.1545751 0.20294434
-0.05113878 -0.3756484 -0.030406471 -0.10404437 -0.06091484 -0.13881329 -0.3514494 -0.057773694
-0.21235968 -0.28211617 -0.09035289 -0.29038757 0.062421028 -0.1569932 0.0076606027 -0.036973797
-0.08867486 -0.026009163 -0.15816674 0.008498293 -0.03332221 -0.30916312 0.029234316 -0.020084975
0.06568718 -0.17682807 -0.21777932 -0.3733016 -0.069427535 -0.24451788 -0.015497996 -0.02630243

a2c_network.actor_mlp.2.weight f4 [64, 64]
00000000: f8b9 94bd 47b7 8ebd 5e48 06bd d96e 1ebd
00000010: 1d4d 43bd 93fa ac3d 8f5f 85bd f2db 2ebe
00000020: 75c6 803a 5181 403d b42d 4ebd a33a 63bd
00000030: caa0 743d 1dbe 103d ba7e a33d b209 8d3d
00000040: 7940 efbb 1180 aebd 968b 383e b562 65bd
00000050: 3b0e f5bd a1a7 ae3d 10f7 583d 2aad 40bc
00000060: 2a9a 973d 6f07 60bd 3f60 c5bd 5bfe ea3d
00000070: 2e8a 4b3d f1b7 223d 59cf cc3c 2330 a9bd
00000080: 6636 043e 65b4 303d 589f d63d b79e 183d
00000090: 70c9 f03c fae7 363d 3a30 653b 15df ba3d
000000a0: 9256 b43d 3af0 f73a 6251 f23d e042 88bd
000000b0: 9c3b bbbd 083d 9e3d 2320 a93c 4e0d 26bd
000000c0: 2664 b7bc 568d 953c 83cf a83d b73f 913d
000000d0: 0295 0fbc 7e35 d1bd 1254 333b f2a2 71bd
000000e0: 7ede f33d 3169 213c d597 c23c 16a4 29bd
000000f0: 6f77 993b b735 de3c 450a 96bd e0f3 973c
00000100: a067 c3bd f195 ed3d 37f7 863d d643 ad3e
00000110: 84fd 643e 6394 2c3e 2d55 4b3e a81e 16bd
00000120: 066a 9b3c a467 3b3e bdab ec3d ac3e aa3c
00000130: b17b 09be 5887 fe3d effd 03bd e798 03be
00000140: d80b 3b3d 8163 bdbd c1de 09be 371e 963e
00000150: a7a0 993c f058 5f3c 86a2 42be 351f 60be
00000160: 1dc4 423d 072b 843d 14b4 c13d bf95 afbd
00000170: 2b1e 4cbe d1ea 4c3e f0e6 573e 1c3e c63e
00000180: cf76 74bd 133d a8bd 3ed6 8f3d d3e0 33be
00000190: 070a 4ebe 90e9 cbbc 3b72 9cbe 7d44 7dbe
000001a0: 47e2 2fbd cafa 8f3d 095c fdbd af67 923b
000001b0: 19e7 563e 4dcd 613e a743 283e 9dad 81bd
000001c0: d216 7ebe dde7 e33d 3465 6d3e 8333 fdbd
000001d0: 6235 82bc e07d cbbd 388f f23d 727a dcbe
000001e0: 277c 353e 9c0d 7b3c 204b bc3c 9044 65be
000001f0: 313b 8dbd 337b 443e cfc7 59be 8222 d7bc
00000200: 50e8 c9bd 0b8c f4be fede 113c 89d0 2b3d
00000210: d9a2 a1be 6b88 8f3e bf0c f8be ac01 953c
00000220: 9476 853d 00a5 54be 15b2 963e 6751 e63c
00000230: 381b 91be 8ba6 debc 6d59 09be 9137 12be
00000240: d50e 7cbd 944c f3be 64b4 15bb e9b9 55bd
00000250: 03c7 c6bd e6c5 1abe f17a 293d c5d1 113e
00000260: bd1b 4cbd 64ec 933d 8636 0d3e f1e3 46be
00000270: 21d2 c0bd 91ae 92be f422 d2be 23fc d03d
00000280: 10df 583e 7b86 16bf e2c5 6fbe 3765 11be
00000290: b02d 0fbe b7a9 ae3d 9be7 a33d 24af f2be
000002a0: d7f8 7ebe 6721 3abe 7ee1 97bd 8566 a5be
000002b0: dda1 0cbe 1acb f1be 6202 e23c ab9f e13d
000002c0: 827e 34be f279 b9be 2f6f 17be aa81 68be
000002d0: 4561 493e 66ac 24be ae33 423b d3e3 d3bd
000002e0: 50ae 5fbe f8cb 58be cba0 68be 82f4 4e3e
000002f0: eb4e 9ebe c1e2 00be 9b1d edbc e51b 483e
00000300: d2c3 913d 0f11 7f3d 8215 b1bd 0bee 423c
00000310: 5eee cebc ef0b 86bd c9d5 de3d e26e f13d
00000320: 65ad 27bd 7f32 ee3b bc38 f8bd d224 43bd
00000330: aa0e 863d 3d3b a1bd 7b89 253e 1625 6bbd
00000340: a84d cfbd 22f6 57bb dd09 6e3e b063 593b
00000350: a1fd c2bd 3466 b7bd a9eb 18be 6d14 93be
00000360: b7f6 e9bd b2cb 2a3d 07cd 04be ee72 3a3e
00000370: 0383 e7bd 08f1 603e e3d7 ba3c aa89 a03d
00000380: 9973 eb3d a717 883e 5262 813e bae3 1c3d
00000390: f329 b1bd a624 673c e6f3 43be 9e1e fc3d
000003a0: 42d6 9c3d 4d01 9c3b 615a 02be 6a0c 6b3d
000003b0: a452 2ebd 03d8 fd3c 8f42 c2bd 6b17 83be
000003c0: 8d8d a73c f24a e93d 7d57 8cbd a5b9 383e
000003d0: 2eb5 30be 4bf2 0bbe 113b 0e3e 336a 5bbd
000003e0: d616 33be df73 02bb b499 923d 519b 3fbe
000003f0: 4a6a 6fbe 3031 f63c deee 11bd 873b 02bd
-0.07262033 -0.06968551 -0.03278386 -0.03867993 -0.047680963 0.08446231 -0.06512367 -0.1707609
0.000982477 0.046998326 -0.050336555 -0.055475842 0.059723653 0.035337556 0.079831555 0.06886615
-0.007301387 -0.085205205 0.18021998 -0.056002337 -0.11965605 0.085280664 0.052969992 -0.0117600355
0.07402451 -0.05469459 -0.09637498 0.11474296 0.049692325 0.0397262 0.025001215 -0.082611345
0.12911376 0.043140788 0.10479611 0.037260737 0.029392928 0.044654824 0.0034971372 0.09124581
0.088055745 0.0018916198 0.11831929 -0.066533804 -0.09142229 0.077264845 0.020645207 -0.040540032
-0.022386622 0.01825587 0.08242705 0.07092231 -0.008763554 -0.10215281 0.0027363342 -0.058993287
0.119076714 0.00985174 0.02375404 -0.04141625 0.004683427 0.027125223 -0.073261775 0.018548906
-0.09541249 0.11600865 0.06590121 0.33840817 0.22362334 0.1685348 0.1985671 -0.03665033
0.018971454 0.18301255 0.11556194 0.020781837 -0.13426091 0.124281585 -0.03222459 -0.12851296
0.045665592 -0.092474945 -0.1346388 0.29319927 0.018753363 0.013632044 -0.1900731 -0.21886905
0.04755031 0.06453519 0.09458175 -0.08573484 -0.19933383 0.2001145 0.2108419 0.3871926
-0.059683617 -0.08214774 0.07023285 -0.17566232 -0.20121013 -0.024891645 -0.305559 -0.24733157
-0.042940404 0.07030256 -0.1237107 0.0044679265 0.20986594 0.22050972 0.16432057 -0.06331942
-0.24813393 0.11128209 0.23183137 -0.12363341 -0.015894596 -0.09936118 0.11843723 -0.43062168
0.17723142 0.015323069 0.022985041 -0.22389436 -0.068960555 0.19187622 -0.21267627 -0.026261572
-0.09858763 -0.47763094 0.008903263 0.04194692 -0.31569555 0.28033766 -0.48447224 0.018189274
0.065167576 -0.20766068 0.2943274 0.028114988 -0.2834108 -0.027179023 -0.1341302 -0.1427901
-0.061537582 -0.47519362 -0.0022843117 -0.05217925 -0.09705927 -0.15114555 0.04137701 0.14240177
-0.04983114 0.07222822 0.1379033 -0.1942289 -0.09415079 -0.2864881 -0.41042292 0.10204341
0.21178842 -0.5879895 -0.2341533 -0.14198767 -0.13982272 0.08528464 0.080031596 -0.47399247
-0.24899612 -0.18176804 -0.07416056 -0.3230478 -0.13733621 -0.47225267 0.027589027 0.110167824
-0.17626384 -0.3622585 -0.14788507 -0.22705713 0.19666012 -0.1608139 0.0029632854 -0.103461884
-0.21843839 -0.21171558 -0.22717588 0.2021046 -0.30919585 -0.125865 -0.028944781 0.19541891
0.07117428 0.062272128 -0.086466804 0.011897574 -0.025260147 -0.06545245 0.1088062 0.11788727
-0.040936846 0.007269203 -0.12120196 -0.047642536 0.06545766 -0.07872627 0.16165726 -0.057408415
-0.10122234 -0.0032953103 0.2324595 0.003317099 -0.09521032 -0.089550406 -0.14933647 -0.2872652
-0.1142401 0.041698165 -0.12968837 0.18207905 -0.113042854 0.21966946 0.022808021 0.07838757
0.11496658 0.26580545 0.25270325 0.038303114 -0.08650579 0.014107859 -0.19136009 0.12310527
0.07658054 0.0047608973 -0.1272979 0.057384886 -0.04255928 0.030986791 -0.09485351 -0.25603804
0.020453239 0.11391248 -0.068526246 0.18039568 -0.17256615 -0.13666646 0.1388972 -0.053568076
-0.1748918 -0.001990549 0.07158223 -0.18711592 -0.2338039 0.030052751 -0.035628192 -0.03179505

a2c_network.actor_mlp.2.bias f4 [64]
00000000: d867 f33d 05f9 2bbb 1191 423d c855 79bd
00000010: 75f0 0ebe d302 66bd 8624 c1bc 5027 f93b
00000020: 999a 1abd 07df 66be cd96 19bc d955 97bd
00000030: 82ec 73bd 5db0 91bd 6a3e e63c a895 84bd
00000040: aeeb b23c b737 48be b99c 593b 8cc1 3e3c
00000050: 3488 6dbd 996f dcbc 1356 28bc 9fe2 13be
00000060: 9c61 95bd 5d01 80bd 133e 90bc ce11 88bd
00000070: f55f 25bc 5848 663d 6579 78bd 1a1e 1ebe
00000080: 330c 25bc 52a3 bebd 53c0 96bd d123 c03c
00000090: 458b b4bd 17f7 9cbd 0976 243d fbb6 37be
000000a0: 6014 2ebe f2d4 c8bd 51cc 15bc a0a0 abbe
000000b0: 0b59 10be 5b92 cd3c d233 9abd 955d 73bd
000000c0: aeb7 cc3b bb9c 6fbe a3f4 0abe 6362 9a3d
000000d0: b414 783e 3b58 45be 05ae bb3d 2fe2 ae3c
000000e0: 915f 143e 7e6f 89bc 7ef4 91be 501b 36be
000000f0: 4aea c0bc ec39 ecbd db93 29bd 0756 57bc
0.11885041 -0.0026240957 0.047501627 -0.060872823 -0.13958915 -0.056155037 -0.023576986 0.0076035634
-0.037745092 -0.22546016 -0.009374333 -0.07389421 -0.059551723 -0.07113717 0.028105933 -0.06473857
0.021840896 -0.19552504 0.0033204986 0.011642825 -0.05799122 -0.026908683 -0.010274428 -0.14441918
-0.07294008 -0.0625026 -0.017607724 -0.06644021 -0.010093679 0.056221336 -0.060662646 -0.1544117
-0.010073709 -0.09308495 -0.07360902 0.023454579 -0.08815626 -0.07664316 0.04015163 -0.17940895
-0.1699996 -0.09806241 -0.009142951 -0.33520985 -0.14096467 0.025094202 -0.07529415 -0.05941542
0.0062474823 -0.23399632 -0.13569884 0.07538297 0.24226648 -0.19271939 0.09164051 0.021348087
0.1448958 -0.016776796 -0.28506845 -0.17783856 -0.023549218 -0.11534485 -0.04140077 -0.013143069

a2c_network.value.weight f4 [1, 64]
00000000: c33b ca3c 50a9 873d 6f85 c23e feaa b6bd
00000010: 0943 32bd d916 143d e352 e0bb 39fe d6bb
00000020: 99f4 7d3d b114 64bd 14e4 083e f5b0 9ebd
00000030: a372 e83c 756d df3d 74b7 40bd e8fd 25be
00000040: daa8 633d 0bce 17bd c741 c8ba 0d7d c2bc
00000050: 21df 53bc 616b 8c3d 0850 1cbd 17b5 203d
00000060: 3af3 513b 0fc5 07be 49fc 2b3d 928d 86bc
00000070: ccfa ecbc d350 083e 6140 1dbb 99e0 e0bb
00000080: 3a58 2f3d 768d c03b a414 2bbd fe1c b83c
00000090: e916 a03d 8a54 7ebd 64c2 333d 84bc 123d
000000a0: 120c af3c 8ea1 fd3e 6734 a53d 89d8 bbbe
000000b0: 9105 a33e cd45 a23b fcf1 553d e609 91bc
000000c0: 5027 3c3c 9729 9fbe fc82 133e 58d4 3c3d
000000d0: bd15 0e3e 01bd ef3c 8591 ae3a 0a0f 2a3c
000000e0: 8b8b c63d 2a4e b0ba 8472 d4be 4a80 0dbe
000000f0: 34c4 7c3e 30aa 85bb 31b4 5ebc 5177 e13b
0.0246867 0.06624091 0.37992427 -0.08919333 -0.04352096 0.0361546 -0.0068458184 -0.0065610674
0.062000845 -0.055683795 0.13368255 -0.077485956 0.028374976 0.10909549 -0.047049955 -0.16210139
0.05558095 -0.037061732 -0.0015278392 -0.02374127 -0.012931616 0.068564184 -0.03816226 0.0392352
0.0032035843 -0.13258766 0.041988645 -0.016424928 -0.028928183 0.13312082 -0.0023994672 -0.0068627116
0.04280875 0.0058762385 -0.04176773 0.022474762 0.0781687 -0.06209234 0.043886557 0.035824314
0.02136806 0.4953732 0.080666356 -0.3668864 0.31840184 0.0049521686 0.052232727 -0.017704915
0.011483982 -0.31086418 0.14405435 0.046100944 0.1387548 0.029264929 0.0013318515 0.010379562
0.096945845 -0.0013451029 -0.41493618 -0.1381847 0.2468422 -0.004079126 -0.013592766 0.0068806787

a2c_network.mu.weight f4 [4, 64]
00000000: d3ab 0dbd f19b 8e3d 421c 58be 42cf 933d
00000010: 9812 273e 86e9 fc3d 73fe 583c a5a3 243c
00000020: 6a96 7dbc 2059 183e 5a2e 1cbd ba2a e6bd
00000030: 04b8 dabd 2936 12bc 081a b3bd ef83 ee3b
00000040: cd8a 67be 913e 7bbc 6547 52bc 755c 09bd
00000050: 4867 b8bc f396 d43d 7a96 bc3c 5d74 753e
00000060: 7545 9c3c 544c 043e 5b72 9b3c 58f0 21bc
00000070: c259 e3bc 7d42 593c cf41 e8bc 21d0 00be
00000080: b89a 45be 72ed ed3c 6683 263d be84 c8bb
00000090: cd13 dd3d c822 263e 56c0 5d3d b037 5c3e
000000a0: 96b4 4a3e 37f3 773e 5645 54bd bcd0 bf3c
000000b0: 1e92 15bd 1a93 8c3b c97e 61bd 239f c3bc
000000c0: 078f adbc 42aa 1ebe 80c3 283e cc87 ccbc
000000d0: 208c fcbd 3506 a63a 97b9 a3bc c986 963d
000000e0: 3825 81bd f707 453c 1a09 3abe f878 26bc
000000f0: 0577 a7bd 2558 543c c9eb 1fb8 8466 7b3b
00000100: 8381 04bb d2ed 083e da47 2b3d 2a6a 7d3c
00000110: 813c 2a3d 637f bdbd 5b6a 73bb 8672 0f3b
00000120: 03cd 11bb 49cf 9b3c 9e10 cc3c 3078 a5bb
00000130: 5edc e7bc cd8c 55bb 00d5 d73c 405a 74bd
00000140: c8ab 1f3d 58ff 803c f9b0 19bb 128f 14ba
00000150: b09e 9eba f516 bbbc 700d 863a 2f20 b2bd
00000160: 381c 8abb 4cf4 833e 46a3 0fbc b219 aeba
00000170: 9f95 33bc fe46 6bbb f6a6 c6bd 27a9 1d3e
00000180: fdf2 ba3d 4553 c1b9 946a 0dbb 0dc0 6d3b
00000190: 8024 f6bc 68e7 8e3d 0f9e 273d 8990 bf3c
000001a0: f5a7 b0bd fa00 ca3d 9627 8fbd 1b36 663d
000001b0: 8c37 1fbe 1be6 2d3b 203d 98bd ad71 e0bb
000001c0: 3340 13b9 d81a a43d 71f4 fabd 3659 5fba
000001d0: b154 4b3b 6b7e a5bc 5e61 31b9 5591 b63b
000001e0: ed38 763c bbf3 eeb9 5937 90bd 3bf8 2cbc
000001f0: be63 653d e009 e1bb 7a7a 983a 3aa7 d33b
00000200: 97c8 6b3b 590c 903b 06c6 26be c560 cfbc
00000210: 37e2 1b3e 908e a5bd 95ab 19bb 050e 973b
00000220: f5ba 36bc 11e0 4b3c bfae 853c 8389 1bbc
00000230: 9197 5c3c e8a2 993c 01cf 35bc c0bd 00bd
00000240: 33f4 823c 7957 c23b 3fb9 a43b a2c9 a53b
00000250: 110b 213b 8de0 04be 5724 c3bc e648 69bd
00000260: de39 06bb eaf4 c0bd f3bf 353c cc51 5739
00000270: b6f6 d43b f229 71ba b97a e0bd e498 283e
00000280: b7f4 b4bd 5790 efba a2f7 993c 3483 68bb
00000290: da1a 8b3d 3df7 05be 862c 5bbc 0633 303d
000002a0: 8e11 d43c 9788 293d 2470 23be 7897 a53d
000002b0: a319 443d 7a02 35bb 36cf 21bd 911d 98ba
000002c0: 7de5 08bb 7b6a 2c3d 6aae b23d 38a0 52bb
000002d0: 5a57 353d d916 2b3d 0f45 c7ba 8664 b9bb
000002e0: 6372 8dbc f4be 1f37 0152 dd3c b432 003c
000002f0: 0602 b63d ac9c 9e39 9934 4f3b 3d79 28ba
00000300: 1a81 3fbb 19c3 a0bc 6845 823d 5b52 4bbe
00000310: 9057 893b 00c2 833d 0c7e fdbb aa38 2f3c
00000320: dabb 52bd 6540 a23d ab39 323d 9a51 eebc
00000330: 9d3c 0cbe 8204 273d faeb cdbd d8c3 083e
00000340: 7d5c 7f3d e35c 063e 68b3 c5bc 3ccc 3ebc
00000350: 0ce9 6f3c 195c a53d f0ff 6b3d a4a3 e5bb
00000360: d0d0 fa3b 5aa9 8d3d 10d0 08bd ef08 373c
00000370: 0490 77bd dce9 c63c 9666 8abd 4c0d acbd
00000380: a7ea 1dbd aa2a 6ebb a725 5ebc e24b 2a3d
00000390: 88e0 923d 47f6 04be 7dd0 06ba 73a1 2a3d
000003a0: e7a2 aebd 2632 a83d 0063 b7bd 4051 bcbd
000003b0: 34b4 89bd bba6 ac3a 9cf3 9c3d 21e7 11bb
000003c0: 853e 48bb 99f1 4a3d cf7b a539 3d0b 1e3c
000003d0: 8d7f 90bd 2088 e53d 4a93 b53b 3401 babc
000003e0: 531b 5bbd 0ac5 253a d6f0 babb 63a3 a53c
000003f0: eb5b fabd 58f4 2cbb 77d9 b2bb 449f 8abb
-0.034587692 0.06963337 -0.2110453 0.07217266 0.16315687 0.123492286 0.013244259 0.0100487815
-0.015477756 0.14877748 -0.03813014 -0.11238618 -0.106796294 -0.008924046 -0.087451994 0.0072789113
-0.22611542 -0.015334741 -0.012834405 -0.03353544 -0.022510186 0.10380354 0.023020972 0.2397017
0.019076088 0.12919742 0.018975427 -0.009883963 -0.02775276 0.013260481 -0.028351692 -0.12579395
-0.19297302 0.029043887 0.040652655 -0.0061193397 0.10794792 0.16224205 0.054138504 0.21505618
0.1979545 0.24213873 -0.051823936 0.023414962 -0.0365163 0.004289997 -0.055052552 -0.023879593
-0.021186365 -0.15494636 0.16480827 -0.024967097 -0.12331414 0.0012666645 -0.019985957 0.07349927
-0.06305927 0.012025825 -0.18167534 -0.010160677 -0.08176998 0.012960468 -3.8128146e-05 0.0038360665
-0.0020218797 0.13371971 0.04181657 0.015467206 0.041561607 -0.09252813 -0.003714225 0.002188833
-0.002224744 0.01901974 0.024910267 -0.005049728 -0.028303321 -0.0032585145 0.026346684 -0.05965638
0.038982183 0.015746757 -0.0023451431 -0.0005667071 -0.0012101736 -0.022838095 0.0010227393 -0.08697545
-0.0042147897 0.2577232 -0.008766955 -0.0013282804 -0.010960965 -0.003590047 -0.09699814 0.15396558
0.091283776 -0.0003687387 -0.0021578418 0.0036277801 -0.030046701 0.06977731 0.04092222 0.02338435
-0.08625785 0.098634675 -0.06989972 0.056203943 -0.15548533 0.0026534859 -0.07433534 -0.0068494887
-0.00014042929 0.080129325 -0.12253655 -0.00085200684 0.0031025822 -0.020201882 -0.00016916308 0.005571524
0.015028221 -0.0004557649 -0.07041807 -0.01055723 0.056003325 -0.0068676323 0.001163318 0.006459144
0.0035977715 0.004396003 -0.16286477 -0.025314698 0.15223013 -0.08083832 -0.0023448218 0.0046098256
-0.0111529725 0.012443558 0.016318677 -0.009493235 0.013463871 0.018754438 -0.011096717 -0.03143096
0.015985584 0.0059308377 0.005026966 0.005059437 0.0024573246 -0.12976284 -0.02382104 -0.056954287
-0.002048127 -0.09421714 0.011093128 0.0002053447 0.006499137 -0.0009199671 -0.109609075 0.16464573
-0.08835738 -0.001827727 0.018794838 -0.0035478594 0.06792231 -0.13082595 -0.013377314 0.04301741
0.025887277 0.041390028 -0.15960747 0.08085531 0.04787601 -0.0027619884 -0.039504252 -0.0011605491
-0.0020888739 0.042093735 0.08724673 -0.0032138955 0.044272758 0.041769836 -0.0015203076 -0.0056577353
-0.017266458 9.521598e-06 0.027016642 0.007824589 0.08887105 0.00030252838 0.0031617044 -0.00064267573
-0.0029221238 -0.01962428 0.063608944 -0.19855635 0.0041913465 0.06433487 -0.007735973 0.010694662
-0.05144868 0.079224385 0.043512028 -0.029091645 -0.13694997 0.040775783 -0.100547746 0.13355958
0.062344063 0.13121371 -0.0241334 -0.011645373 0.014642965 0.08074207 0.057617128 -0.007008033
0.007654287 0.06917067 -0.03340155 0.0111715635 -0.06044008 0.024281435 -0.06757848 -0.08400974
-0.03855386 -0.0036341348 -0.013558782 0.041576274 0.07171732 -0.12984572 -0.00051427615 0.041657876
-0.08527165 0.0821269 -0.089544296 -0.09195185 -0.06723824 0.0013172248 0.07663652 -0.0022263008
-0.0030554843 0.04954681 0.00031563497 0.009646234 -0.070555784 0.112076044 0.00554124 -0.022705652
-0.053492855 0.00063236116 -0.0057049794 0.02021951 -0.12224563 -0.0026390757 -0.0054580527 -0.0042304117

a2c_network.mu.bias f4 [4]
00000000: 923c 41be 41e2 a03d 1fee 2a3c 75bc 59bd
-0.18870762 0.078556545 0.010432749 -0.053158242

exp_avg f4 [4]
00000000: 4308 1e3a 5259 a3b9 4a18 20bb abbd a9ba
0.0006028453 -0.00031156332 -0.002442854 -0.0012950202

exp_avg_sq f4 [4]
00000000: c21e a838 5681 8039 70f8 8c39 22aa dc38
8.016593e-05 0.00024510425 0.0002688798 0.00010522107

exp_avg f4 [64, 12]
00000000: 429b 88b6 c24f 5eba 908f 84b9 0f62 6439
00000010: 7d33 f637 348a a9b9 9b00 a0b9 421d 8637
00000020: bb81 30ba 5469 0b37 696d 46b9 6513 e237
00000030: 86e7 d038 cc06 31ba a3c4 a9b9 7b97 1939
00000040: 1173 e238 4223 f7b9 8db4 dc38 97a4 29b8
00000050: 619c e8b9 431a b839 06c8 08ba 8ac3 e4b9
00000060: 0817 5cb8 46b2 94b8 65c5 03b8 7b28 2038
00000070: b4e3 8938 218c 08b9 84ed d8b8 dfae 5c37
00000080: 0f4a b2b7 e05e fd36 be60 6fb8 5b08 8cb7
00000090: c652 e037 e729 cab8 2d8f 9eb5 b84c 8138
000000a0: b356 8738 6bf1 2e39 b5ec ecb8 9552 1cb9
000000b0: 1ce4 79b7 108f 5637 3d5d d9b8 2da4 b6b8
000000c0: d2ae 3ab9 8acf b8b8 4212 45b9 27e1 29b8
000000d0: db60 a9b9 ffbe 2b39 27e6 a739 92ac 9ab9
000000e0: 1d6f 2a39 0165 8436 e5fc 76b9 788c e038
000000f0: ce2e ffb8 39f3 d636 dd28 01b8 c015 1539
00000100: a6a9 3a37 5f2e 2639 1c56 04b9 c2ef 12b9
00000110: e933 a6b8 01f5 1d37 44e6 2538 29d4 eb37
00000120: 54b2 8e39 cdf4 67bb a8a3 abb9 c130 833a
00000130: 0a09 0939 5c3e 3bba f134 73ba 9c66 0cba
00000140: 1410 44bb a016 1c3a 0ee0 7cba a0f4 f739
00000150: d161 13b8 78e8 89ba 2e7c 86b9 e370 8339
00000160: 1c6a 4f38 de73 ff33 a1a0 9cb9 8bda 37b9
00000170: 971a 3eba a4ea f638 d893 60b9 fe98 f1b8
00000180: b1c5 7bb9 58d8 003b d2a6 4d39 affb feb8
00000190: 9025 0fba 8be7 9d39 f707 cd39 6d46 2a39
000001a0: 25aa 0f3a 10b4 1db9 f3c2 ac39 3b46 363a
000001b0: 836c 9138 db1c 6fb9 fb87 3eb8 48b4 3f38
000001c0: 3d6f c036 eff7 37b9 7f96 86b8 9c42 0fb9
000001d0: badf 99b9 df69 a838 5929 34b9 6f09 2ab8
000001e0: 151a 1f39 a494 5e3a 8f25 8639 5a5d 87b9
000001f0: 06bc 9838 2b43 f139 4d7c 073a b388 b538
00000200: 225e 943a c39d 8238 539c 0a39 ec2f 18b8
00000210: c8b2 ebb8 28be 523a c531 8fb9 0bed 1ab9
00000220: 7b03 6ab9 57b2 9e39 d802 8439 050a 0539
00000230: d9bb 3c3a a500 49b9 bf3d 02b9 4ae2 4cb9
00000240: 8ecb f336 a47f 3dba 0f3d 8fb7 b169 6839
00000250: 3917 2339 3855 02ba c64c c6b9 9574 87b6
00000260: d9c8 45ba 8a9c bf38 731b fbb8 b6bd 8138
00000270: 89ec ceb8 b436 93b8 cfc3 3cb9 2085 5439
00000280: f925 08b9 9599 b3b8 baee 01b9 a8fd 0db9
00000290: 13cf aeb9 188f d8b8 14d5 2ab9 bd87 da38
000002a0: 9d8b 65b8 a488 05ba 1c84 f3b8 ff54 1a39
000002b0: 10fd 1fb8 5af9 feb8 e398 54b9 edc1 3c37
000002c0: 3d46 28ba dfbd b134 de47 87b8 73f7 0739
000002d0: 62ca 65b9 cc52 6fba beb9 a3b9 eb9d 9039
000002e0: 978e cc35 ff14 08ba e1b6 0aba 545c 9538
000002f0: 10f1 44ba cf59 6bb9 01d2 33b9 786c aa38
00000300: 28a3 afb7 cc96 c739 a077 80b7 8e85 06b9
00000310: 2ebd 6fb8 f37d 8539 b336 7939 80c6 6937
00000320: 4a01 f939 2998 3038 4c3f 05b7 0c48 a3b9
00000330: a632 85b9 d934 babb b3e2 0dba 5ed9 c43a
00000340: c28b e037 fc45 13bb 26dc 0bbb 8391 bbb9
00000350: a012 a6bb 64c8 44b9 2607 d5ba 9bf4 b93a
00000360: c8ea a7b9 eabb f336 7278 3db9 1033 2839
00000370: 3972 86b9 d29a 2eb9 1f5d d8b9 883a b4b8
00000380: b399 0aba dcbc b6b9 1443 53b9 d17f 4137
00000390: ae8f 6b39 5050 d838 5803 efb8 44e3 33b8
000003a0: 4d2d 8a39 dd7d 0a3a cee4 163a 98cb 93b9
000003b0: 9ac0 0e3a a958 483a adca 6238 b8f7 12ba
000003c0: 47ad 38b9 e0eb 3439 0ffc fdb8 df02 2b38
000003d0: 3141 f835 4f88 2ab8 c752 2338 d92e eeb8
000003e0: 094f 5f39 764b 09b7 2b4e 26b9 2631 22b9
000003f0: 56b2 06b9 c1b1 bcb9 d39e b938 04cc 6038
-4.0711902e-06 -0.0008480513 -0.00025283964 0.00021780304 2.9349461e-05 -0.0003233716 -0.0003051803 1.5987669e-05
-0.00067331985 8.309569e-06 -0.0001892351 2.695033e-05 9.9613375e-05 -0.0006753027 -0.00032380698 0.00014647648
0.000107979526 -0.0004713778 0.00010524048 -4.0446026e-05 -0.00044367 0.0003511478 -0.0005217794 -0.00043633237
-5.2473537e-05 -7.090396e-05 -3.1416672e-05 3.8184673e-05 6.575082e-05 -0.00013022173 -0.00010343923 1.3153737e-05
-2.125374e-05 7.5510325e-06 -5.707214e-05 -1.6693191e-05 2.6741425e-05 -9.6399155e-05 -1.1813587e-06 6.165489e-05
6.4534506e-05 0.00016683868 -0.00011297447 -0.00014908084 -1.4894667e-05 1.2788703e-05 -0.00010364733 -8.7090164e-05
-0.00017803468 -8.812461e-05 -0.00018794186 -4.050243e-05 -0.00032306355 0.00016378982 0.000320242 -0.00029501744
0.00016253856 3.945665e-06 -0.00023554599 0.00010707317 -0.000121680656 6.406012e-06 -3.0794054e-05 0.0001421785
1.1125963e-05 0.00015848268 -0.00012620579 -0.00014012962 -7.925166e-05 9.414974e-06 3.9553517e-05 2.8112978e-05
0.00027217215 -0.0035393715 -0.00032737595 0.0010009037 0.00013068705 -0.0007142776 -0.0009277603 -0.0005355866
-0.002991681 0.0005954299 -0.0009646424 0.0004729377 -3.513863e-05 -0.0010521552 -0.00025650993 0.00025070374
4.9451468e-05 1.1895439e-07 -0.00029874317 -0.00017533654 -0.0007251887 0.00011773899 -0.00021417381 -0.000115202725
-0.00024010871 0.00196602 0.00019612469 -0.000121585435 -0.00054606143 0.00030117886 0.0003910658 0.00016238699
0.00054803706 -0.00015039765 0.00032951645 0.0006953214 6.934351e-05 -0.00022803566 -4.542617e-05 4.570585e-05
5.7349957e-06 -0.00017544602 -6.41765e-05 -0.00013662357 -0.00029349123 8.030584e-05 -0.00017181541 -4.0539944e-05
0.00015173138 0.0008490777 0.00025586455 -0.0002581876 7.282947e-05 0.00046017146 0.00051683636 8.656215e-05
0.0011319558 6.2282685e-05 0.00013218941 -3.6284255e-05 -0.00011238974 0.00080392 -0.00027312167 -0.0001477489
-0.00022317276 0.00030268982 0.0002517912 0.00012687601 0.00071996223 -0.00019169094 -0.00012420768 -0.00019539255
7.265661e-06 -0.0007228798 -1.7075361e-05 0.00022164617 0.00015553542 -0.0004971805 -0.00037822704 -4.0368855e-06
-0.0007544882 9.1367474e-05 -0.000119737255 6.186536e-05 -9.8669036e-05 -7.0196955e-05 -0.00018002022 0.00020267488
-0.00012984117 -8.563992e-05 -0.00012391331 -0.00013541302 -0.00033342149 -0.00010326336 -0.00016291841 0.00010420333
-5.472788e-05 -0.00050939084 -0.0001161175 0.00014718248 -3.8144237e-05 -0.00012158109 -0.0002027485 1.1250825e-05
-0.0006419158 3.3106969e-07 -6.450688e-05 0.00012966785 -0.00021914535 -0.0009129464 -0.0003122817 0.00027583478
1.5240684e-06 -0.0005191117 -0.00052915333 7.122071e-05 -0.0007512728 -0.00022444803 -0.00017149003 8.1264356e-05
-2.0937601e-05 0.0003806859 -1.5314494e-05 -0.00012828989 -5.7158228e-05 0.00025461576 0.00023766868 1.3934099e-05
0.0004749394 4.210338e-05 -7.942155e-06 -0.00031143462 -0.00025405473 -0.0056825695 -0.0005412504 0.0015018394
2.676796e-05 -0.0022472134 -0.0021340935 -0.00035775834 -0.0050681382 -0.00018766668 -0.0016252741 0.0014187278
-0.00032027648 7.2638404e-06 -0.00018069314 0.00016040751 -0.00025643574 -0.00016651608 -0.0004126811 -8.593971e-05
-0.0005287185 -0.00034854456 -0.00020147517 1.1533456e-05 0.00022464871 0.00010314642 -0.00011397031 -4.2888583e-05
0.00026355163 0.00052830373 0.00057561405 -0.00028189714 0.000544557 0.0007642606 5.4071355e-05 -0.0005606371
-0.00017612158 0.00017254008 -0.0001211093 4.077225e-05 1.8496413e-06 -4.0658106e-05 3.893932e-05 -0.000113574504
0.0002129638 -8.183406e-06 -0.00015860113 -0.00015467833 -0.00012845671 -0.0003599059 8.851071e-05 5.3595766e-05

exp_avg_sq f4 [64, 12]
00000000: 4e8f 8637 45b8 6737 0ec4 d536 5c7e 4336
00000010: 1302 2b36 54cc d536 55ab 9536 3671 7036
00000020: b0fa 5037 0253 8636 808f 6136 a488 a836
00000030: b6fd 9537 0a27 f637 17da da37 16a3 3637
00000040: b9e1 5a36 7d48 b837 21fc b937 58ac 7b37
00000050: 753a ce38 c6dc 1037 8d2a 0337 c546 9f37
00000060: ca26 7936 f818 8b36 babb 4236 d348 a735
00000070: 2528 bc35 dbb3 5f36 cc3d 0836 5a69 1c36
00000080: 9cab a136 b41e 1636 0f0d df35 9423 1f36
00000090: ada4 1539 c652 e638 8732 5e38 da4e 3c37
000000a0: 9ff8 c636 cc21 b337 5a50 0438 b2d0 1238
000000b0: 3a76 8238 6c57 2c38 81e7 1238 8af1 1238
000000c0: 56b9 5c39 89d2 0639 eef6 9d38 f661 0338
000000d0: d6fc 0e37 01e3 5b38 823d 5f38 eec6 2738
000000e0: d46a 8139 998d 1738 e24f 5438 18f1 6c38
000000f0: 967b fc38 4a6f db38 a7bd 5838 2690 2237
00000100: 04c4 8536 29df a737 57fe 0538 2c70 0638
00000110: 69ed 9d38 1761 3538 940d f137 e407 1938
00000120: 3d00 3839 1854 8a39 038f 0a39 6fc0 3038
00000130: 189b 6e37 6c35 9738 8a84 e038 e837 8f38
00000140: a189 a439 8fec d338 b1d5 6538 a4f9 f338
00000150: 65a1 a738 dcd5 9c38 691f 1b38 0b45 2d37
00000160: 1255 8936 2420 ab37 d381 e837 63ac b237
00000170: 06fb ad38 cebe 0838 a3f3 a337 b2de f037
00000180: f967 aa38 cb90 c338 6e5f 8f38 dbb7 0a38
00000190: 8c4e 0937 b1a6 5638 630f 8238 3d90 1338
000001a0: 4a8d 7d39 9b9e ce37 d31e 0038 e263 8438
000001b0: 99c0 a137 6d07 a737 aa3c 6a37 3976 8b36
000001c0: 479f 0636 c4e1 2937 d73e 0b37 64aa 2f37
000001d0: fb61 9637 2705 3937 668a 2237 1546 2137
000001e0: 95ee 8237 ecba 7337 e8a7 3e37 bc0a 9636
000001f0: 2eb2 0036 9fbd 1a37 77a3 1937 e71f 0537
00000200: f748 0838 19e6 c136 cbf5 bb36 7b4c 1237
00000210: a548 0139 8250 ef38 a680 8f38 dfbf 8d37
00000220: ce3b 6136 6ed9 0938 858e 3738 e35e 1c38
00000230: 6a94 e138 f3c7 6c38 660c fc37 3a2f 4238
00000240: 58c9 1a37 8b1c 3537 ff53 5737 2ef4 ea36
00000250: ce62 0236 f950 2b37 f738 2837 23c1 e536
00000260: bbdc 3b38 0f43 9936 8dd6 9536 535d 3037
00000270: c4b0 8137 599a 8737 29d7 6037 71b5 b336
00000280: c160 fa35 d772 2337 e0b4 4637 06ef f836
00000290: 5a51 3238 aa6e e336 e4ff ac36 b9d6 1b37
000002a0: acae a836 cfba be36 3ae3 9d36 e796 8336
000002b0: 192d 0236 7f30 d436 246f 9b36 b6e6 5436
000002c0: 5d85 a037 15cb 0c36 f470 1d36 bb86 7c36
000002d0: d718 9837 7ebb 5737 82b1 4437 88eb d636
000002e0: 4f3a 0236 90df 1737 07d3 3937 c729 d736
000002f0: bc0b 2a38 6273 c536 d994 c336 2301 0337
00000300: 1c54 8f38 da83 6338 ac30 e637 84d8 4137
00000310: d6b7 9436 66ba d237 ea1d c237 4b06 9b37
00000320: 538c c638 f68c 4b37 b5f4 8137 3e3e bc37
00000330: 5a36 3339 1945 8439 7a29 1739 385b a038
00000340: d465 c937 813d ec38 84a2 0c39 0d4e cd38
00000350: ae0e 163a cd3f 9a38 5864 8238 08db f638
00000360: c23e 8a38 03c8 dc38 e63c 5138 e5ab 8337
00000370: 7a82 9c36 ae4f d437 1bd5 1c38 1687 1b38
00000380: 9ea6 ba38 b0e2 0a38 a120 ff37 0fa5 4a38
00000390: 03e0 3a39 a94e 4f39 bc2f ce38 1330 ba37
000003a0: 2d1a fd36 1a7d 7138 959d 9b38 183a 7738
000003b0: dd21 3939 90ed af38 ce61 5a38 ba17 9638
000003c0: ab19 5438 2481 2838 2b93 9337 27e4 d936
000003d0: 02cb e835 12e5 4837 b935 6d37 edf6 5837
000003e0: 2566 4738 c667 4037 57f3 6637 ac57 9337
000003f0: 7be8 1338 1d16 0c38 0c3c bf37 16ef 1c37
1.6040776e-05 1.38115765e-05 6.3707184e-06 2.9130815e-06 2.5482193e-06 6.3716816e-06 4.4604917e-06 3.5828684e-06
1.2456134e-05 4.0031746e-06 3.361114e-06 5.022697e-06 1.7880328e-05 2.9343664e-05 2.6089181e-05 1.0886017e-05
3.261592e-06 2.1968264e-05 2.2171125e-05 1.5000893e-05 9.833734e-05 8.634472e-06 7.818116e-06 1.8987232e-05
3.712647e-06 4.1454296e-06 2.9017524e-06 1.2463664e-06 1.4018775e-06 3.333428e-06 2.030155e-06 2.3307134e-06
4.818152e-06 2.2369613e-06 1.6618595e-06 2.3713555e-06 0.00014271094 0.000109826724 5.297598e-05 1.1224032e-05
5.929803e-06 2.13542e-05 3.1546086e-05 3.5003475e-05 6.2209045e-05 4.1089414e-05 3.5024717e-05 3.5034063e-05
0.00021049878 0.00012857666 7.5323376e-05 3.1324067e-05 8.5227275e-06 5.2425083e-05 5.3224627e-05 4.000117e-05
0.0002468439 3.613308e-05 5.0619135e-05 5.649132e-05 0.00012039316 0.00010463463 5.167504e-05 9.689515e-06
3.986528e-06 2.0011868e-05 3.1946543e-05 3.2052558e-05 7.5305645e-05 4.3244185e-05 2.8735762e-05 3.648539e-05
0.00017547696 0.00026384066 0.00013213982 4.2140888e-05 1.4222016e-05 7.210192e-05 0.0001070584 6.829185e-05
0.0003138306 0.000101053265 5.479687e-05 0.00011633642 7.9932426e-05 7.478494e-05 3.6984133e-05 1.0327679e-05
4.0928217e-06 2.0399755e-05 2.771701e-05 2.1299527e-05 8.2960396e-05 3.2602627e-05 1.9544566e-05 2.871393e-05
8.125598e-05 9.3252944e-05 6.8365465e-05 3.3072993e-05 8.184124e-06 5.117682e-05 6.201749e-05 3.5181863e-05
0.00024180594 2.463097e-05 3.0546285e-05 6.312855e-05 1.928238e-05 1.991141e-05 1.3961611e-05 4.1562857e-06
2.0060268e-06 1.012575e-05 8.299677e-06 1.0470485e-05 1.792702e-05 1.1028059e-05 9.688176e-06 9.612665e-06
1.5608306e-05 1.452745e-05 1.1363976e-05 4.471598e-06 1.91772e-06 9.223265e-06 9.15757e-06 7.934846e-06
3.249288e-05 5.778635e-06 5.6016484e-06 8.720085e-06 0.00012329461 0.00011411404 6.842734e-05 1.6897857e-05
3.3562424e-06 3.2865843e-05 4.376333e-05 3.728167e-05 0.0001075648 5.6453002e-05 3.0046514e-05 4.6297188e-05
9.225994e-06 1.0795086e-05 1.28345555e-05 7.0021697e-06 1.9429021e-06 1.0211247e-05 1.00268435e-05 6.847216e-06
4.4789846e-05 4.567562e-06 4.465523e-06 1.0512146e-05 1.5460311e-05 1.6165128e-05 1.3401536e-05 5.3557383e-06
1.8654611e-06 9.742295e-06 1.1843833e-05 7.418802e-06 4.251427e-05 6.77801e-06 5.155789e-06 9.288714e-06
5.0271246e-06 5.6841886e-06 4.7054173e-06 3.9216716e-06 1.939776e-06 6.323738e-06 4.6322984e-06 3.1724753e-06
1.9135588e-05 2.0979835e-06 2.346057e-06 3.762935e-06 1.8131379e-05 1.2858653e-05 1.172384e-05 6.4051164e-06
1.940545e-06 9.052354e-06 1.1075993e-05 6.412363e-06 4.0542087e-05 5.88449e-06 5.828781e-06 7.808473e-06
6.834438e-05 5.4243814e-05 2.7440801e-05 1.1554108e-05 4.432145e-06 2.512075e-05 2.3140532e-05 1.848037e-05
9.467513e-05 1.2132563e-05 1.5491949e-05 2.244033e-05 0.00017091018 0.00025228484 0.00014415933 7.646385e-05
2.4008485e-05 0.00011264813 0.00013411982 9.7897e-05 0.00057242333 7.355176e-05 6.2175735e-05 0.00011770992
6.592042e-05 0.000105276726 4.98862e-05 1.5696462e-05 4.6643518e-06 2.5309473e-05 3.739177e-05 3.708069e-05
8.900206e-05 3.3112883e-05 3.0413563e-05 4.8314276e-05 0.00017821793 0.00019770362 9.831737e-05 2.2195314e-05
7.543035e-06 5.7575387e-05 7.420328e-05 5.8943493e-05 0.0001765559 8.3889e-05 5.2066338e-05 7.156977e-05
5.0568644e-05 4.0174593e-05 1.7592296e-05 6.4936644e-06 1.734443e-06 1.19742635e-05 1.4138809e-05 1.2932095e-05
4.7540427e-05 1.1468253e-05 1.3765725e-05 1.7564591e-05 3.5264045e-05 3.3399196e-05 2.2796936e-05 9.353991e-06

exp_avg f4 [64]
00000000: 11f4 a33a 5475 5d3a 1062 da38 70d3 f138
00000010: 0dc6 4238 b55c 2439 b749 b43b 99d8 ab3a
00000020: 5e84 94ba 05a9 003a c948 00bb 242a adba
00000030: 2af4 bc3a 318c f739 7ac0 8d3a 7938 ba3a
00000040: c314 34ba e2d8 173c 1e06 363a a39c 88ba
00000050: 351c 9cb9 d0d0 723a a88d 253b 78e7 5139
00000060: 8f3e b139 bc88 a5ba f6d7 243b ae8a 683a
00000070: 3952 753a 1fec 1f3b 5d41 85b9 0982 65bb
00000080: 0b6a e9ba 68d6 063a 09a5 0e39 08ed 973a
00000090: eb35 a9ba a03f e8ba 0b78 e7ba 074f 2e3b
000000a0: ca03 d8b9 f06c 163a a289 c539 2eb4 9c3a
000000b0: 39d9 84ba 2692 603b 62d7 ac3a ba66 aaba
000000c0: df63 8e3a edbb 673b 16c1 dfb9 a9f3 433b
000000d0: 6f71 f4ba b414 023b 17bd 1abb ae68 1e3b
000000e0: de75 b439 e407 84b9 d1d6 9539 06df f53a
000000f0: b566 a23b 5501 083a 2d32 463b 7126 d5b9
0.001250865 0.0008447964 0.000104133156 0.00011531159 4.6437654e-05 0.00015674795 0.0055019516 0.0013110816
-0.0011330952 0.00049079984 -0.0019574633 -0.0013211411 0.0014416028 0.00047215962 0.0010814809 0.0014207504
-0.0006869549 0.0092680175 0.00069436606 -0.0010422658 -0.00029775655 0.0009262683 0.0025261436 0.00020018022
0.0003380668 -0.0012629251 0.0025153137 0.00088707625 0.00093582604 0.0024402214 -0.00025416436 -0.0035020134
-0.0017808093 0.00051436434 0.00013603656 0.0011591027 -0.0012909746 -0.0017719157 -0.0017659677 0.0026597397
-0.00041201554 0.0005738279 0.00037677313 0.0011955553 -0.0010135538 0.0034266799 0.0013186748 -0.0013000586
0.0010863504 0.0035359815 -0.00042677735 0.0029899871 -0.0018649529 0.0019848766 -0.0023611241 0.002417128
0.00034420093 -0.0002518288 0.00028579545 0.0018758483 0.0049560913 0.0005188187 0.003024231 -0.00040655167

exp_avg_sq f4 [64]
00000000: 51e7 0238 f2d6 5f39 a416 3137 419e 1739
00000010: c2aa 103a ebcf 3239 8879 463a 6738 4039
00000020: 4186 0b3a 0f52 1538 42fb 9038 5c70 6b39
00000030: a14e cd38 e1b2 c038 866c 3e38 6054 bf38
00000040: b00c 6539 199a b43a 5f22 4039 c810 db39
00000050: ec32 da38 4fd4 2a39 2d80 b739 4367 9739
00000060: 805e 5639 515b c238 fadb a839 1158 3e39
00000070: d84e 4a39 69e3 1539 ce7c b939 4720 a039
00000080: 99e7 6a39 3ba7 c339 1c15 8738 2b71 e838
00000090: c4ef 3539 0fdf b338 b971 0e3a ec56 453a
000000a0: b012 5639 7212 2539 8dc7 4739 80aa ed39
000000b0: d980 8338 df83 ae39 b98a 9739 85af 1139
000000c0: 5312 0539 c6a1 9e39 acea 4d39 6eaa 8e39
000000d0: eede 4239 f9e0 7738 5d02 1d3a d1ad d939
000000e0: d73d 6239 6d86 8a39 9ad1 0539 6fe9 063a
000000f0: 8eea 323a 8e8f 063a d47b 1a3a 6db1 9038
3.1209845e-05 0.0002134701 1.0555294e-05 0.00014459436 0.0005518609 0.00017052858 0.000757121 0.00018331558
0.00053224346 3.560079e-05 6.9132555e-05 0.00022453204 9.7898075e-05 9.188592e-05 4.54006e-05 9.123306e-05
0.00021843868 0.0013778835 0.00018323351 0.00041783438 0.00010404535 0.00016291554 0.00034999978 0.000288779
0.00020443834 9.26765e-05 0.00032207352 0.0001815262 0.00019293593 0.00014294464 0.00035378936 0.00030541627
0.00022402256 0.00037317895 6.4412336e-05 0.00011083701 0.00017350825 8.576933e-05 0.0005433816 0.0007527906
0.00020415592 0.00015742498 0.00019052457 0.00045331195 6.2705665e-05 0.00033286118 0.0002890432 0.00013893664
0.00012690695 0.0003025664 0.00019637746 0.0002721133 0.0001858433 5.909891e-05 0.0005989427 0.0004151897
0.00021576077 0.00026421566 0.00012761951 0.00051464787 0.00068251125 0.00051330857 0.00058930856 6.899503e-05

exp_avg f4 [64, 64]
00000000: a185 32b7 8e24 54b6 9a36 31b7 3109 34b5
00000010: a2b2 02b8 adcb 0cb6 ba3e bd37 67c6 f0b6
00000020: a95b 08b8 8f3d 8336 e818 81b7 fad3 00b8
00000030: 250e df36 f4ca b2b7 540c fd36 a44b 3eb7
00000040: c1c2 c0b7 fef5 1538 f1c0 86b7 92ee 73b7
00000050: b0a8 c0b7 15b3 26b7 b788 35b7 c5bd bab7
00000060: 1409 6437 091a a537 24be 9536 807e c0b7
00000070: 27f6 5e37 5f50 a237 fc3c 3038 1f2a 03b7
00000080: 9c43 a4b7 87c1 35b8 dff7 b2b7 916d 5d37
00000090: 522f e2b7 4e39 53b7 8789 fdb7 8a35 4437
000000a0: 7973 c737 a82d 5fb7 d5df 4a36 704d 8037
000000b0: dd5c 85b5 2306 adb5 09c5 cd37 83aa b0b7
000000c0: f327 e336 6144 61b7 9c5c ecb7 9915 7837
000000d0: dc67 98b7 6992 8435 47f7 bb37 d5ba ec35
000000e0: 44dc f834 37f5 b6b7 c996 d1b7 37f7 28b7
000000f0: 2d16 a7b6 f27b d5b7 e41f ff36 e403 0fb7
00000100: 7efa a938 d7a1 f2b8 1d94 1737 59ed b138
00000110: b4a8 d738 20ad d8b6 8776 11b8 2290 a638
00000120: f7c5 c1b8 aab0 05b9 7912 02b8 c807 7539
00000130: 5c74 3b36 9814 ee38 70b8 8636 eba4 6938
00000140: e3a5 0439 d6cf 32b9 2119 1d39 c0a6 16b8
00000150: 51c4 6eb6 e561 ca38 c674 15b8 ca71 8b38
00000160: bbb2 52b8 3ba9 b9b8 bd8d 90b8 54fa c638
00000170: 0b13 4938 963c e3b8 c795 c4b9 c501 1b38
00000180: 2621 3a38 7372 053a d2f0 9639 8b3a 76b8
00000190: 1706 3939 0157 1f38 ed58 e438 f5a6 1bb9
000001a0: 9571 9db8 2cd6 9839 dd40 04b8 1676 0a38
000001b0: e7cc 25b8 f9fb adb8 9ce9 f2b9 75d5 abb7
000001c0: 0583 4fb7 7dd7 9eb7 954a 3739 4f2a 0f38
000001d0: 693b 88b8 5b87 0eb8 784e 38b9 e376 5338
000001e0: b43f 54b8 cdcf 0139 81ca dd38 86db 4239
000001f0: a185 28b9 934f 2939 4bb0 89b8 5303 b2b5
00000200: f881 9838 003d d0b9 1c52 71b7 bbba 9e3a
00000210: d165 db3a 1633 92b8 589a 05ba a75c 3138
00000220: de00 c7ba c800 70b9 1ba2 b539 d664 e639
00000230: 87d1 053a c42b 76b9 c783 2439 9883 f739
00000240: a8e2 e939 3f96 a0b9 5de6 e1b9 20bc 3fba
00000250: 74ea adb8 29be 343a c1a8 dc39 9163 07ba
00000260: 0d6d 003a 06ca 2e3a 8899 8f39 142f 0c3a
00000270: 58cf c239 207d 89b9 099a 1f3a 4d4a 5a3a
00000280: 6ddc aeb7 582d 153b 470f 5a3a dbce 1839
00000290: 7f96 38ba aea5 3d3a 50ca c239 6709 6dba
000002a0: 830f 733a 535e 0e3b ac0d 3039 9136 e539
000002b0: 3166 8837 bcf1 3a39 6fd2 05bb 6547 c3b9
000002c0: ad5c ea39 a06d d939 afcb 6f3a 3f1d 71b9
000002d0: 248d f4b9 781d 35b7 80c5 cfb8 d40b 9b38
000002e0: 2c7c 3a3a 6387 5c3a ac66 103a 161b 9a3a
000002f0: c1e0 ec39 6b09 e53a 2c1a 27ba b55e 9939
00000300: 945e 0b38 8088 64b9 605b deb6 2b07 2439
00000310: 3e5f 2039 d4e5 0239 1763 01b9 9216 6638
00000320: 6e61 22b8 dfe5 c0b8 a2e5 c637 a9d5 9fb7
00000330: 9955 bab8 eaa3 9c38 feb4 e337 2215 e037
00000340: 421b 7838 50a5 a6b8 c915 2639 e1f3 3bb8
00000350: 6806 b637 b89e 2938 45f4 d9b7 71ab f337
00000360: e0bb 9b38 89d8 ab38 a4af 3038 bab0 df37
00000370: 08e0 4238 a6fc 6cb8 c319 b9b8 a33d e837
00000380: e840 2738 c062 5939 cc7a f238 9ca0 94b7
00000390: e649 2f38 cc81 3834 43bd 3c38 ac18 84b8
000003a0: 8744 13b7 d0ca 0639 fb03 1239 7755 7bb8
000003b0: f2c6 39b8 d43c 8537 17ff 26b9 e2b8 3eb8
000003c0: 176d 44b8 2beb c6b7 cdf5 f738 64f8 7d38
000003d0: 62c2 8ab7 0678 12b7 96a4 e9b8 5435 52b6
000003e0: 27a1 fcb8 44e2 88b8 a0c3 a1b8 0abb 9738
000003f0: d516 e4b6 23f6 5c39 20f8 23b7 7945 e4b6
-1.064074e-05 -3.161174e-06 -1.0562735e-05 -6.70686e-07 -3.116078e-05 -2.098018e-06 2.2559765e-05 -7.1756544e-06
-3.2510292e-05 3.9112706e-06 -1.5389596e-05 -3.0714997e-05 6.6475645e-06 -2.1313761e-05 7.5414227e-06 -1.1342494e-05
-2.2978873e-05 3.5753466e-05 -1.606389e-05 -1.4539475e-05 -2.2966735e-05 -9.936067e-06 -1.0820272e-05 -2.2261296e-05
1.3591973e-05 1.9681656e-05 4.4626813e-06 -2.294709e-05 1.3289543e-05 1.934933e-05 4.2018466e-05 -7.818016e-06
-1.9581807e-05 -4.3334e-05 -2.1334678e-05 1.3198137e-05 -2.6963335e-05 -1.2589922e-05 -3.0223991e-05 1.1694976e-05
2.377642e-05 -1.3302466e-05 3.0230633e-06 1.5294849e-05 -9.936299e-07 -1.289129e-06 2.4529656e-05 -2.1060236e-05
6.769778e-06 -1.3426966e-05 -2.8176517e-05 1.47869805e-05 -1.8168175e-05 9.877377e-07 2.2407285e-05 1.7637745e-06
4.6353864e-07 -2.1810278e-05 -2.4984956e-05 -1.00711395e-05 -4.9795694e-06 -2.5449295e-05 7.6033048e-06 -8.52437e-06
8.105206e-05 -0.00011569604 9.034787e-06 8.484227e-05 0.00010283422 -6.457456e-06 -3.468108e-05 7.942344e-05
-9.239831e-05 -0.00012749681 -3.101162e-05 0.0002336792 2.7932902e-06 0.0001135256 4.0149826e-06 5.570512e-05
0.00012650299 -0.00017052828 0.00014982048 -3.5918085e-05 -3.5579035e-06 9.650345e-05 -3.5633122e-05 6.649231e-05
-5.0234357e-05 -8.853009e-05 -6.892856e-05 9.488003e-05 4.793987e-05 -0.000108354885 -0.00037495626 3.6956528e-05
4.4376728e-05 0.00050906016 0.00028789655 -5.8705493e-05 0.00017645243 3.7989583e-05 0.00010888451 -0.00014844148
-7.5075e-05 0.0002915127 -3.153166e-05 3.301174e-05 -3.9529896e-05 -8.2962164e-05 -0.0004633189 -2.0484187e-05
-1.2368667e-05 -1.8935412e-05 0.00017480024 3.413326e-05 -6.496051e-05 -3.3981498e-05 -0.0001757684 5.0417042e-05
-5.0604067e-05 0.0001237981 0.000105758205 0.0001858306 -0.00016071509 0.0001614674 -6.565506e-05 -1.3263001e-06
7.2721334e-05 -0.000397183 -1.4383837e-05 0.0012110093 0.0016738718 -6.971338e-05 -0.00050965464 4.2286378e-05
-0.0015182754 -0.00022888475 0.00034643788 0.00043944147 0.00051047694 -0.00023476692 0.0001568935 0.00047209556
0.00044610095 -0.0003062952 -0.00043086978 -0.00073141046 -8.292953e-05 0.0006894791 0.000420874 -0.0005164678
0.00048990623 0.0006667677 0.00027389475 0.00053475914 0.00037157047 -0.00026223902 0.00060883217 0.0008327112
-2.084506e-05 0.0022762623 0.00083183165 0.0001457291 -0.00070414686 0.0007234466 0.00037153298 -0.00090422336
0.0009272026 0.0021723702 0.00016789761 0.0004371894 1.626005e-05 0.00017828395 -0.0020419618 -0.0003724649
0.00044701007 0.00041471142 0.00091474777 -0.00022994446 -0.00046644465 -1.0795302e-05 -9.9073164e-05 7.393179e-05
0.000711384 0.0008412508 0.00055084634 0.001175734 0.00045180882 0.001747412 -0.00063744443 0.00029252996
3.3228265e-05 -0.00021794625 -6.626753e-06 0.00015642929 0.0001529427 0.00012483384 -0.00012339313 5.4857293e-05
-3.871455e-05 -9.19809e-05 2.371037e-05 -1.905377e-05 -8.885115e-05 7.469191e-05 2.714479e-05 2.6712722e-05
5.9153193e-05 -7.946289e-05 0.00015839109 -4.4811404e-05 2.1699074e-05 4.044056e-05 -2.5982163e-05 2.9047691e-05
7.4259704e-05 8.194248e-05 4.2125248e-05 2.6665966e-05 4.646185e-05 -5.6502082e-05 -8.826286e-05 2.7685257e-05
3.987635e-05 0.0002073152 0.00011562332 -1.7717764e-05 4.1792075e-05 1.7183555e-07 4.4998957e-05 -6.298846e-05
-8.777838e-06 0.0001285479 0.00013925128 -5.992266e-05 -4.429272e-05 1.588316e-05 -0.00015926022 -4.5471716e-05
-4.683164e-05 -2.3712948e-05 0.00011823662 6.0551232e-05 -1.6541399e-05 -8.730223e-06 -0.00011140962 -3.132348e-06
-0.00012046313 -6.5271306e-05 -7.713516e-05 7.23508e-05 -6.7975875e-06 0.00021072528 -9.773328e-06 -6.803017e-06
