logs/rsl_rl/unitree_go2_flat/2024-07-09_15-57-51/exported/policy.onnx (onnx, 165141 bytes, 8 tensors)

actor.0.weight f4 [128, 49]
000000 d0 1e 0f 3d 5a 38 4d be 92 0e 64 3e 3e 38 98 3d
       0.034941494 -0.20041028 0.22271183 0.07432602
000010 29 93 c5 3c 86 86 21 3e 91 20 e3 3d 25 67 68 bc
       0.024118023 0.15773973 0.11090196 -0.014184748
000020 e2 be 93 bb df 58 c5 bd c0 11 95 bc c5 5c ec 3d
       -0.004508839 -0.096360914 -0.01819694 0.11541132
000030 65 06 27 bd c9 67 16 3a 2c 3e 0e 3f ba de ed 3e
       -0.040777583 0.0005737511 0.55563617 0.4645899
000040 6a 4c 01 be 3d 5c 01 bf e4 77 19 3f 82 04 c1 be
       -0.12626806 -0.5053137 0.59948564 -0.37698752
000050 67 9b 03 3e e2 00 45 3b 91 47 36 bf f7 b0 3f 3d
       0.1285225 0.003006034 -0.7120295 0.046799626
000060 7b 15 61 3d 23 8f 59 3d e7 bc 31 3d 40 a5 e9 bc
       0.054952126 0.05311502 0.043393042 -0.02852118
000070 50 71 da 3d 9e 93 b3 3c ce 74 5d bd b1 ef f3 3a
       0.10666144 0.021920975 -0.05406647 0.0018610862
000080 c6 8e d8 3d 82 89 20 3d c1 56 35 bd 7a 5c aa bc
       0.10574107 0.039193638 -0.044272188 -0.02079605
000090 9d 7d a7 3d 35 c9 c8 bd 50 e5 72 3e 79 93 3a 3e
       0.08178256 -0.09804002 0.23720288 0.18220319
0000a0 fb 0b c8 3d 7d eb 9e be 4a 8d e0 bd 40 57 cc 3d
       0.0976791 -0.31039038 -0.10964449 0.09977579
0000b0 c5 ca 7e bd 40 eb a5 3e 4c a5 bb be 19 c8 81 be
       -0.062205095 0.32406044 -0.3664955 -0.25347975
0000c0 87 6c ea 3d d8 b7 3d 3d 23 d1 b4 3e aa d0 8c 3d
       0.11446481 0.046317905 0.3531581 0.06875737
0000d0 37 8b b2 bd cb 50 f1 3d cf 38 16 be c1 89 ff bd
       -0.087179594 0.11782988 -0.14670108 -0.12477446
0000e0 25 ae a5 3b 89 00 f6 bd d9 a6 44 bd ba 99 80 bd
       0.00505616 -0.12011821 -0.04801068 -0.06279321
0000f0 53 81 a4 bd 37 c9 d9 3c 38 5b 91 be 8c fb ca 3d
       -0.08032479 0.026585205 -0.28389907 0.0991126
000100 8e bd 32 3e df 81 16 3f 4d 2d 64 bc 04 07 7d be
       0.17455122 0.5879192 -0.013926816 -0.24709707
000110 75 0f 32 be 66 b4 0b 3f 3d 8c 04 be 3c 9a a8 be
       -0.17388709 0.5457214 -0.12944122 -0.3293017
000120 67 f5 24 3e a0 9d b9 be 93 08 44 bd 55 f0 ce 3d
       0.16109239 -0.3625307 -0.04785974 0.101044334
000130 6b 88 93 3d ad 11 91 bb ed ea 14 3d aa 6e 96 bd
       0.07203754 -0.004427156 0.036356855 -0.07345326
000140 b1 13 c5 bd 91 a7 ca bd 5e 66 c0 bc e5 88 7a 3d
       -0.096228965 -0.09895242 -0.023486312 0.06116571
000150 79 58 e5 bd 7a 4b c1 bd 62 7d 74 bd c4 6b 21 be
       -0.111985154 -0.09438224 -0.059689887 -0.15763766
000160 75 ea 04 3e 08 01 c7 3d 43 1a a1 3d d6 fc 7d bb
       0.12980063 0.097169936 0.07866337 -0.0038755438
000170 23 a5 e1 bc 94 a8 f6 3d 3a c9 88 3e af 2a 3f 3e
       -0.027544564 0.120438725 0.26716024 0.18668626
000180 a5 41 6f 3d 77 56 05 3c 10 82 e0 bd 7c 46 e1 3d
       0.058412213 0.008138291 -0.109623075 0.10999772
000190 22 d4 8d 3c 54 bd 8e 3e 1e bb c0 be 29 e6 cb 3c
       0.017313067 0.2787882 -0.3764276 0.024890022
0001a0 ca ca f1 3d 01 d5 fa 3c f5 11 ee bd 2b 28 4e be
       0.11806257 0.030619146 -0.11624519 -0.2013251
0001b0 6a 19 90 3d 6e 98 84 3c 50 eb 01 be 75 93 28 be
       0.07036097 0.016185965 -0.12687421 -0.164625
0001c0 92 c2 b2 3b 2c 87 b5 be 23 af 3f 3d 28 dd d9 3d
       0.0054553235 -0.3545469 0.046797883 0.10637885
0001d0 8c 96 5b 3c 4d f9 b5 bc 31 18 45 be 34 1f e1 3d
       0.013402592 -0.022213602 -0.1924751 0.1099228
0001e0 06 99 31 3e 7c c7 3d 3e 2c a8 ff be 5b 32 ce 3d
       0.1734353 0.18533128 -0.49932992 0.10068198
0001f0 fc 5a 84 bb 72 8e ab 3b f4 a5 ae bc 68 0a ff 3c
       -0.0040391665 0.0052354867 -0.021319367 0.031132892
000200 f3 f9 c1 3d 7a 52 b7 bc 04 09 c3 3d d1 0c 51 3d
       0.09471502 -0.022378195 0.09523204 0.051037613
000210 4f a0 99 bd 16 25 33 3d f8 dc 87 bc 62 15 1f be
       -0.075012796 0.04373654 -0.016584858 -0.155355
000220 df f9 2c be bf 7c ce be f5 42 4e be 7b 24 59 3d
       -0.16892193 -0.4032955 -0.2014273 0.053013306
000230 2d fe 07 be ad 15 19 be f4 ea 51 bd 56 b1 15 be
       -0.13280554 -0.14949675 -0.05124946 -0.1461843
000240 a7 e6 9b 3c be 60 a1 bd d4 ed 95 be fd e5 04 3d
       0.019030882 -0.0787978 -0.2928301 0.032445896
000250 ee 7b 20 3e 9b c9 3c be 8e 98 90 3e d4 46 ba be
       0.15672275 -0.18436281 0.2824139 -0.36382163
000260 cf e1 1f 3e d3 3a d5 bd 48 44 f9 3d 78 34 3a bd
       0.15613483 -0.104116105 0.12171227 -0.045460194
000270 8c 20 03 be 37 e9 53 bc 17 0d db bd 76 04 0e 3e
       -0.12805384 -0.012934021 -0.10695856 0.13868889
000280 1c 54 00 3e d9 52 6a be 4c f3 8a 3d c4 43 82 bd
       0.12532085 -0.22883166 0.067846864 -0.063605815
000290 f6 cb 5c 3f 13 ef 4c bf f2 9b 12 bf 37 36 b9 be
       0.8624872 -0.800523 -0.57269204 -0.36174175
0002a0 4f a4 17 be 41 37 59 be 98 ba be b9 fe 0b 43 be
       -0.14808773 -0.21212484 -0.00036378647 -0.19047543
0002b0 cb 96 70 bc 0d a7 8a 3c 43 aa f6 3d 15 f7 c5 bd
       -0.014684389 0.01692536 0.120441936 -0.09666268
0002c0 bf b0 58 bc 1e e4 68 bd ba a7 94 3d 0c e8 c0 bc
       -0.013225733 -0.056858175 0.07258554 -0.023548149
0002d0 17 58 b1 bd 36 d1 06 bd a0 e6 b4 bd 71 04 d1 bd
       -0.0865938 -0.032914363 -0.08833051 -0.10205925
0002e0 f6 0e 94 3d 9f 77 0f bd 57 be 16 be 44 91 f1 3d
       0.07229416 -0.03502619 -0.14721046 0.11795285
0002f0 37 dc 7d 3d eb 9f 42 3e ef 81 83 be 44 38 2b 3e
       0.06197759 0.19006316 -0.2568507 0.16720682
000300 63 d6 bc 3c 1e a6 16 3e 33 e3 12 be cd 64 0e bc
       0.023051446 0.14711806 -0.14344482 -0.008691025
000310 2e 31 7d 3d e0 43 27 be 50 50 c0 3d 4e aa 26 be
       0.06181448 -0.16334486 0.093903184 -0.16275904
000320 af ad 76 be f9 10 0d be 93 f6 2e 3d 63 4e 81 3d
       -0.24089693 -0.13776006 0.04271562 0.06313779
000330 97 5d 1c be 6d b8 1b be 13 9c 76 3d 0e d7 32 3d
       -0.15270077 -0.15207072 0.060207438 0.043662123
000340 0a f1 c3 3d 83 4f a3 be 9c 65 72 3d 1a 96 0a be
       0.09567459 -0.318966 0.059178934 -0.13533822
000350 d4 e1 1d 3e 17 75 f6 be f9 a7 45 3e 09 50 f7 bd
       0.15418178 -0.48136207 0.19302358 -0.12075812
000360 21 7f 02 bf ac 7b 49 be 26 e0 b5 3e a8 bd 64 3e
       -0.50975233 -0.19676083 0.35522574 0.22337973
000370 80 8e 3d 3e af 4a b1 bd c2 06 8d 3d 44 b0 e6 3d
       0.1851139 -0.08656823 0.068860546 0.11264089
000380 30 18 b0 3c fa 2f 10 bd bc d2 5e bd 5e 9d 9b bc
       0.021495908 -0.035202004 -0.05440019 -0.018995937
000390 32 63 f1 3b 85 dd 97 bc 70 b2 f2 bc 4d d1 0a 3d
       0.0073665613 -0.018538246 -0.029626101 0.03389101
0003a0 0d c4 89 bd 63 3b 9f be 3e 4d c8 bc f8 eb d8 3b
       -0.06726847 -0.31099996 -0.024450894 0.0066199265
0003b0 de 44 20 3d 67 ef 1b 3d 03 1d 2d bd 2f 00 88 3d
       0.039128177 0.03807011 -0.042263996 0.0664066
0003c0 61 b0 bd be 2d fb 35 bd 38 e9 1d 3e 51 93 d1 bc
       -0.3704863 -0.044428993 0.15420997 -0.025582941
0003d0 89 18 fe 3d 64 ee d9 3a 3a de 41 3e 03 c2 39 be
       0.124070235 0.0016626832 0.18932429 -0.18140416
0003e0 e8 23 b8 be fe 48 5f be 0b 93 4b 3d 41 07 58 3d
       -0.35964894 -0.21805188 0.049700778 0.052741293
0003f0 2e 2a 0b be eb 20 87 3d dd fd 0f be 1a 91 08 3e
       -0.13590309 0.065980755 -0.14061685 0.13336602

actor.0.bias f4 [128]
000000 f9 88 a3 3d bc d4 1b be 8f c6 86 be 02 54 2c 3d
       0.0798511 -0.1521787 -0.26323363 0.042072304
000010 42 c8 68 be 71 78 c9 bd 2a f9 31 3d 72 c8 91 3d
       -0.22732642 -0.098374255 0.043450512 0.0711831
000020 b3 b6 47 3b ab 31 dc 3d 6d d4 d0 bc a9 08 a0 bd
       0.0030473887 0.10751661 -0.025491918 -0.07814152
000030 3b 51 f6 3d cf 95 9f 3d 60 02 25 bc bf 67 43 be
       0.12027212 0.077922456 -0.010071367 -0.19082545
000040 76 8a b0 3d 21 43 88 bd 7a 88 02 3d e9 30 ab 3d
       0.08620159 -0.06653429 0.031868435 0.08358938
000050 a2 25 f5 bd 2f 3d 18 3c 11 66 e4 bd 93 6e a9 bd
       -0.119700685 0.009291931 -0.1115228 -0.082730435
000060 50 c0 0a be 14 a0 86 3a cd 45 0a bd fa d6 ae bd
       -0.13549924 0.0010271096 -0.033757973 -0.08537097
000070 7d c0 b6 bb 43 d2 2c 3b 16 43 c4 3d 49 e3 f2 3d
       -0.0055771456 0.0026370443 0.09583108 0.118597575
000080 c4 d2 cb bd ac f1 f3 bd c2 2e 1c 3d bb b3 0e bd
       -0.0995231 -0.119113296 0.03813053 -0.034839373
000090 cb 87 5b bc 2f 1e 55 3d 3c 91 cd 3d ad 2a 01 be
       -0.013399075 0.05203074 0.10037467 -0.12613936
0000a0 2a dd 75 bb de e8 ac bc e1 c0 63 be 86 26 1d be
       -0.0037515857 -0.021107133 -0.22241546 -0.15346727
0000b0 b2 8f 12 be e3 bb 3c 3e 71 42 1d be 0d 6c 6b be
       -0.14312628 0.18431048 -0.15357377 -0.22990437
0000c0 dc e0 2e 3d 77 9a 43 bd 85 7a 03 be b3 b4 dc bb
       0.04269491 -0.04775473 -0.12839706 -0.006735408
0000d0 44 3e 70 bd 60 89 6a bd b5 22 01 3e 47 0b 6c 3c
       -0.05865313 -0.057259917 0.12610896 0.014406986
0000e0 de 8f 31 be d1 b1 a5 bd 77 72 a0 be 24 7c 90 39
       -0.17340037 -0.080905564 -0.3133733 0.00027558312
0000f0 d2 cc 95 bd 19 48 f3 bd 1c 78 11 be d7 34 cd bd
       -0.07314457 -0.11878986 -0.14205974 -0.10019844
000100 a0 a6 78 3d 85 27 00 3e f0 92 a7 bd b6 31 b6 3b
       0.06070578 0.12515076 -0.08182323 0.005560125
000110 4b 4a ab be 58 b0 a3 3d 28 e3 1c bd 5c 7f 60 bb
       -0.3345512 0.07992619 -0.03830257 -0.00342556
000120 c8 c6 b2 bd f4 31 cc bd e3 e2 2e be d6 9a 87 3b
       -0.08729321 -0.09970465 -0.17078738 0.004138331
000130 06 a5 63 bd 0b f5 5c bb 66 45 0d be 52 85 03 3d
       -0.0555773 -0.0033715393 -0.13796005 0.032109566
000140 6c 41 50 39 03 bb 4a 3d a3 43 8a bb 15 78 5f bd
       0.00019860797 0.049494755 -0.0042194887 -0.05455788
000150 14 15 c8 3d 14 f9 00 3d 81 03 aa bd 57 54 f5 bd
       0.09769645 0.03148754 -0.083014496 -0.11978977
000160 aa eb d2 3d d1 ca 0f 3e 41 33 4f 3d b8 70 73 bc
       0.102988556 0.14042212 0.05058599 -0.014858417
000170 4f 8e df 3d 0b 19 5b bd 4e 5e ea 3d 97 dd 20 be
       0.10915815 -0.05349068 0.114437684 -0.1570953
000180 e1 23 71 be 23 d1 ea bc 54 86 bf bd d3 be 6d be
       -0.23548843 -0.028664177 -0.09351793 -0.23217325
000190 ea 10 02 3b e2 df 5c bd 25 69 ff 3c ec 7e 1a be
       0.0019846507 -0.05392445 0.031178067 -0.1508748
0001a0 0a 85 22 be 87 a1 03 3d 13 73 df bd a0 92 e1 3d
       -0.15871063 0.032136466 -0.109106205 0.110142946
0001b0 64 92 bc bd 2e 36 29 be 85 16 bb bd b6 b8 25 be
       -0.09207609 -0.16524574 -0.09135155 -0.16183743
0001c0 fa c7 a9 3c 53 96 b9 bd 52 6e 9f bd 7d 42 bc 3c
       0.020725239 -0.09061875 -0.07784714 0.022980923
0001d0 60 ce 2e be 48 8b c7 bc 82 c3 85 bc 13 3d 12 3d
       -0.17070913 -0.024358407 -0.016328577 0.035702776
0001e0 73 0d 00 be b8 02 f1 3c 50 d9 a3 3d 0d bd 34 be
       -0.1250513 0.029420242 0.080004334 -0.17650242
0001f0 b4 02 03 3e 33 59 8e bd 43 2c 2c bd b0 0f a8 bd
       0.12794 -0.06950607 -0.0420344 -0.08206117

actor.2.weight f4 [128, 128]
000000 46 05 c9 3d 7b 8a bd bd ab 69 29 3e c2 9e a7 3d
       0.09815459 -0.09254929 0.16544215 0.081845775
000010 3f 14 84 3c 94 76 1a 3e 7f 12 41 bd 64 3b 46 be
       0.016122935 0.15084296 -0.04713678 -0.19358593
000020 98 18 03 bc d7 6a 20 bd 90 9c 4b bd 2d 75 7c bd
       -0.008001469 -0.03916439 -0.049709857 -0.061635185
000030 b1 b1 4c 3d b5 be 0b be 22 87 9b 3d c2 22 0a 3d
       0.049974147 -0.13646968 0.07594134 0.033724554
000040 7d e8 7e bd ce 2d c7 3d 43 72 8e bd 20 88 86 bd
       -0.062233437 0.097255334 -0.069553874 -0.065689325
000050 1a 7b 59 bd d3 01 5f bd a7 77 1b bd 9f d4 69 bd
       -0.053095914 -0.0544451 -0.037955906 -0.057087537
000060 b4 8b d1 3c ac 4a 33 3d 4c 06 e0 bc 8b 1b 5d bc
       0.025579311 0.043772385 -0.027346753 -0.013495336
000070 33 07 11 3e 4a b2 b1 3c 3e d2 cb bd 2e d5 9a bc
       0.14162903 0.02169146 -0.0995221 -0.01890048
000080 ef d7 50 bc e8 4d ad 3e eb 1d bf bd 15 92 20 be
       -0.012746795 0.338485 -0.09331878 -0.15680726
000090 79 6f e9 3c 80 ca 1c 3d 4f 4e 72 be 74 23 84 3d
       0.028495537 0.038279057 -0.23662685 0.06452075
0000a0 72 81 11 3c 25 fd 44 3b 91 52 da 3b e1 b3 be 3c
       0.00888096 0.0030058112 0.0066626747 0.023279132
0000b0 20 90 f5 bd 72 ba 4a be 4e 44 68 3b 22 3d 38 3b
       -0.1199038 -0.19797686 0.0035441103 0.002811261
0000c0 33 54 82 3d 10 32 2a 3e 64 fb 05 be 60 51 01 be
       0.06363716 0.1662066 -0.13084179 -0.12628698
0000d0 56 14 d3 bd be 01 da bc 2b 53 5d bd e1 70 e4 bd
       -0.10306613 -0.026612159 -0.054034393 -0.111543424
0000e0 d9 f1 8e bc 16 4f 46 3c e2 dc d6 bd b9 16 1a 3e
       -0.017449306 0.0121038165 -0.10491349 0.1504773
0000f0 a1 95 8f 3b 8b 43 ab 3d 91 90 86 bd 10 2d b5 3d
       0.004381851 0.08362492 -0.065705426 0.088464856
000100 c2 b3 47 3c ad f5 01 3d 38 b3 f2 3d eb d7 01 be
       0.012188854 0.031728435 0.118505895 -0.12680022
000110 3a 58 e7 3c 94 46 83 3c 2b 5a 56 bd 23 45 c0 3d
       0.028240312 0.016024865 -0.052332085 0.09388187
000120 65 fd d2 bd fb ba 00 bc 1f b8 8d bb 0b 79 0f 3d
       -0.103022374 -0.00785708 -0.0043249275 0.035027545
000130 49 87 4e 3d 36 b5 8e 3d a9 41 e1 bc 7a ed 2b bc
       0.050421987 0.06968157 -0.02749713 -0.010493631
000140 4a f7 a8 3c 1b 03 4f 3d 02 97 4d 3d 8b 72 bf 3d
       0.02062573 0.05054007 0.05019284 0.09348019
000150 8b 1f 95 bd 37 8c 1f be a7 44 2d bc 78 fd 65 bc
       -0.07281407 -0.15580831 -0.01057545 -0.014037482
000160 d1 7f 4a bd 65 9f b8 3d c1 c7 dc 3c 30 a1 04 bd
       -0.0494383 0.09014777 0.026950719 -0.032380283
000170 aa e1 ff bd 54 b8 38 be 46 02 cb 3c f5 e4 61 bd
       -0.12494214 -0.18039066 0.024781357 -0.05514999
000180 04 04 61 3c 5c 97 a9 3c 00 1b a1 3d 0b 7f 0f bd
       0.013733868 0.020702057 0.07866478 -0.035033267
000190 ba a5 b1 bd c5 e7 d0 3b 06 b5 4c 3d 7c d9 3c be
       -0.08674188 0.0063752853 0.049977325 -0.18442339
0001a0 8a a8 9a 3d 08 66 44 3d 1a 60 83 3d e9 2c 09 3d
       0.075516775 0.047948867 0.06414814 0.033490095
0001b0 8b 2d 41 be 9d e8 b5 bb 1b ed 23 3e 71 4d 63 bd
       -0.1886503 -0.0055514113 0.16008417 -0.055493776
0001c0 a7 13 c0 3d 91 8b 17 3c 99 d0 82 3c 74 44 b3 bd
       0.093787484 0.009249584 0.015968608 -0.08753291
0001d0 e2 36 e1 bc ca 8e 52 3c 63 f7 54 3d 16 67 a5 39
       -0.02749199 0.012851426 0.05199374 0.00031548057
0001e0 df 2c 56 be 7d fd bb bd 6b 21 14 3d d4 22 2f 3d
       -0.20915554 -0.091792084 0.036164682 0.042757824
0001f0 09 0c ce bc c2 56 4d bd 2a c8 78 bd 2d 77 63 bc
       -0.025152223 -0.050131567 -0.060737766 -0.013883394
000200 9f 07 56 3c ca 6b 15 bc 17 51 1f be 71 82 a0 bd
       0.01306334 -0.009119937 -0.15558277 -0.0783738
000210 60 9b 46 3d 97 c5 e6 bb d5 0b da bb cf ba f6 3d
       0.04848802 -0.0070425975 -0.0066542425 0.1204735
000220 24 d5 a1 bc f0 a6 e1 3c c9 fa 91 3c f3 fc 27 3d
       -0.019754954 0.027545422 0.017819779 0.041012716
000230 f2 86 bb bd af 05 25 3d a8 2d 65 be d2 90 e3 bc
       -0.09156598 0.040288623 -0.22380698 -0.027779017
000240 78 eb 63 bd 2a 05 09 be fc 2a b5 3c 97 28 3a be
       -0.055644482 -0.13380876 0.022115223 -0.18179546
000250 aa 93 e6 bd ff 78 75 bc 9d 1d 5d bd 94 b7 32 3e
       -0.112586334 -0.014982461 -0.05398332 0.17452842
000260 54 77 58 bd 2c 2d a6 bb 48 fa 0c 3e ba b2 53 bd
       -0.052848175 -0.005071303 0.1376735 -0.05168412
000270 58 23 51 be 9a 63 dd bc 11 e7 98 bc 01 f2 30 3d
       -0.20423639 -0.027025033 -0.018664869 0.043199543
000280 d1 35 98 3a db 3c 96 3c 6c 9f 2e 3d e1 7a 0e 3d
       0.0011612718 0.018339565 0.042632505 0.034785155
000290 16 46 34 be 40 10 58 3d 7c d0 51 bc b4 3e 2e 3c
       -0.1760486 0.052749872 -0.012806054 0.010635067
0002a0 72 65 bd bd 6e 51 8a 3b 67 ce 24 be 5c 33 ed bd
       -0.09247865 0.004221133 -0.16094361 -0.11582062
0002b0 fc 06 c2 3c 01 34 b4 bd 30 09 79 3d b4 18 0b bd
       0.023684971 -0.087989815 0.060799778 -0.033959106
0002c0 83 5f 04 bd f0 ce b2 bd 54 14 a0 bd f8 46 34 3d
       -0.03231765 -0.087308764 -0.07816377 0.044012994
0002d0 d2 e8 4f bc b0 d9 28 3b b3 ac 3f bc 52 f6 24 3d
       -0.012689786 0.0025764517 -0.01169889 0.04027397
0002e0 3f b1 30 bc 06 90 fb bd 34 2c 46 bd db e8 18 be
       -0.010784446 -0.1228333 -0.048382 -0.14932577
0002f0 ac 7d 65 3d e1 47 1e bd a5 be 9c 3d de 01 a0 3d
       0.056028053 -0.038642768 0.0765355 0.07812856
000300 73 8e b8 bd b3 54 8e bd 9d c9 19 bd 3e 8e 87 bd
       -0.09011545 -0.06949749 -0.03754579 -0.066189274
000310 bd 80 e7 bc c2 4c 84 bd af 68 26 bc 15 9d cd 3d
       -0.02825963 -0.06459953 -0.010156794 0.10039727
000320 b3 3f 9f bd a3 5c d5 bc 12 45 94 3d a2 e6 c8 3d
       -0.077758215 -0.02604515 0.072397366 0.09809615
000330 17 36 fb bd 5c d9 14 3e ae b2 45 bd 14 70 0c be
       -0.12266176 0.14536041 -0.048266105 -0.1371463
000340 2d 19 31 be 7a 9b da bc 8d c3 71 bd 2b 17 49 bd
       -0.1729476 -0.026685465 -0.059024382 -0.04909436
000350 33 4f b8 3d ad ad fe 3d 36 6d ae 3c 8c 25 f4 bc
       0.08999481 0.1243547 0.02129231 -0.02980306
000360 26 f6 11 3d 79 57 9a 3c 45 72 c1 bd 3f 57 dc bd
       0.035635136 0.018840538 -0.09445623 -0.10758828
000370 43 47 03 3b 3f 2d 08 3e 46 e0 89 3d 4d 4a c6 bd
       0.002003149 0.1329851 0.0673223 -0.096821405
000380 c1 c3 dd bd 91 a4 99 bc 22 da b3 bd 20 67 20 3d
       -0.10828353 -0.01875523 -0.0878184 0.039160848
000390 9c cc d5 3d 2b 3c b6 bd c5 5d 26 3d 8a 38 f3 bd
       0.10439417 -0.08898195 0.04061677 -0.11876018
0003a0 4b 92 af bd 45 8d b0 3d 86 6a 13 bd 08 41 0e 3d
       -0.08572825 0.08620695 -0.03599026 0.034729987
0003b0 35 b3 f2 3c 14 44 b2 3d 0f f0 99 bc 67 53 ac bd
       0.029626468 0.08704391 -0.018791227 -0.08414345
0003c0 25 3d b5 bd 05 c9 bc bd eb 7e 4d bd 53 24 ab 3c
       -0.08849553 -0.09218029 -0.050169867 0.020891344
0003d0 b5 78 84 bd 69 3d 9e bc e8 45 91 3b e4 e2 7a bc
       -0.064683355 -0.019316392 0.0044333823 -0.015312884
0003e0 fc 53 19 3e d9 49 74 3d fb dc 20 bd d5 07 ab 3c
       0.14973444 0.05964074 -0.039273243 0.020877758
0003f0 1a 82 61 3c bf 5c 04 bc 2d 64 a7 3d 7c 95 94 bd
       0.013763929 -0.008078753 0.08173404 -0.072550744

actor.2.bias f4 [128]
000000 53 c2 0b bd 8c e3 f0 bd c3 89 d0 bc 8f a5 aa bc
       -0.03412087 -0.11762151 -0.025456315 -0.020830898
000010 62 73 18 bd dd 25 c9 bd 68 89 e8 3b 2f 41 ed bd
       -0.037219413 -0.09821675 0.007096458 -0.115846984
000020 3b 44 f2 bd 97 c6 5d bd 52 02 10 be 62 4d 1e bd
       -0.1182942 -0.05414447 -0.14063385 -0.038648017
000030 6d e2 f7 3c 69 63 cc bd 55 ea a0 bc c0 18 9d bd
       0.030259335 -0.099798985 -0.019642988 -0.07670736
000040 fa 04 e3 bd 89 cc 8c bd 12 86 b6 bd 7a 60 15 3d
       -0.110849336 -0.068749495 -0.08912291 0.03646896
000050 f7 d4 f4 3c 58 f9 7e bb 35 4c 8c bc 39 2c a4 3c
       0.029886706 -0.0038905945 -0.017126182 0.020040618
000060 3c 08 8d bd 72 ba 15 3d 60 dd 7a 3d 85 8b 04 bd
       -0.06886336 0.03655476 0.061246276 -0.03235962
000070 b5 9e 1b be 7f 87 ad bd 83 cc e2 bd e9 75 05 be
       -0.1519726 -0.084731095 -0.11074164 -0.1303326
000080 35 a8 15 bd dd 5e d1 3d cf 28 74 bd d6 70 56 bd
       -0.036537368 0.10223172 -0.05960923 -0.052353702
000090 f9 5a 06 3d 63 b6 c7 bd b0 b0 86 3c 71 09 81 bd
       0.032801602 -0.097515844 0.016441673 -0.06300629
0000a0 9a d7 ec bc 9c 2d cd 3c fb fa 25 bd 46 e5 88 bd
       -0.0289114 0.025046162 -0.040522557 -0.066843554
0000b0 63 31 25 bd 5b a3 bc bc b6 89 3a 3c 22 b0 ba bd
       -0.040330302 -0.023027113 0.011385372 -0.09115626
0000c0 bd 16 da bd 52 66 b8 bc 77 0d 2d 3b 40 71 13 bd
       -0.10648868 -0.022509728 0.002640573 -0.035996675
0000d0 91 2c fb bd 86 27 89 bd 6c 75 80 3c 7f b4 e8 bd
       -0.1226436 -0.066969916 0.015680991 -0.11362552
0000e0 cc be e6 bd a1 9e 0b bd d7 04 34 3d 45 ee 91 bd
       -0.1126686 -0.034086827 0.043949928 -0.071255244
0000f0 4b 0a 0b be f5 22 5e be b6 ec db bd 85 83 ba bd
       -0.13578145 -0.21693023 -0.107385084 -0.091071166
000100 09 5f df bd 17 51 ff bd 76 f4 fc bd 4f 9b a8 bd
       -0.109067984 -0.124666385 -0.12351315 -0.08232748
000110 d3 57 aa 3c b2 27 83 bc bf e0 85 bd 15 21 ab bd
       0.020793831 -0.01601014 -0.065370075 -0.08355919
000120 73 b5 bd bc 67 17 00 be 90 05 d1 bb 3e f5 76 bd
       -0.02315781 -0.12508927 -0.006378837 -0.060292475
000130 cb cc a7 bd 23 c8 25 bd bb 3c 11 bc c5 f4 06 be
       -0.08193358 -0.04047407 -0.008864577 -0.1317931
000140 80 9c 3a bd ff c6 af 3c 0e 06 a0 bd 58 77 1c be
       -0.045559406 0.021457193 -0.07813655 -0.15279901
000150 1e 71 e4 bd 42 9f d2 bc fc bd 63 3d 49 d4 9c bd
       -0.11154388 -0.025710706 0.055601105 -0.07657678
000160 a0 60 4c 3d cc 84 dc bc fd 44 7e 3b 43 31 dd 3c
       0.049896836 -0.026918791 0.0038798444 0.027001029
000170 71 d8 b8 bd f0 78 ab bd e9 c6 ce bd de 2f 1e be
       -0.09025658 -0.08372676 -0.10096533 -0.15447947
000180 78 39 38 be 01 6f ca bd cd e9 fc 3b 86 61 be bd
       -0.17990673 -0.098844536 0.007718301 -0.09295945
000190 65 a4 ee 3c a9 4a 02 bd 9a cd ab 3c bc 20 ce bc
       0.029131124 -0.031809483 0.020972062 -0.025162093
0001a0 48 23 d1 3c ff 48 38 3d 63 21 a0 bc d7 83 9c bd
       0.025529519 0.04499149 -0.01954717 -0.07642334
0001b0 bc b0 24 bd c0 55 20 bd 70 b6 98 bd 08 22 90 bd
       -0.04020761 -0.039144278 -0.07456672 -0.07037741
0001c0 e0 68 ee bd 3e 3b 68 bd 06 0f a7 3c 21 53 d8 bd
       -0.11641097 -0.056697123 0.020392906 -0.105627306
0001d0 95 46 7e bd 1c 5f 2f 3c 92 5b 3c bb e2 1e 89 bd
       -0.06207903 0.010703828 -0.0028741104 -0.066953436
0001e0 c1 b8 b4 bd 55 89 a1 3c 18 34 f8 bd a4 d8 22 bd
       -0.088243015 0.019718805 -0.12119311 -0.039757386
0001f0 cf c7 5f 3c 78 8b 16 bd c1 08 90 3c 95 eb 55 bc
       0.013658478 -0.0367541 0.0175823 -0.013056655

actor.4.weight f4 [128, 128]
000000 56 77 df 3d 28 15 d9 3d 54 49 bb bd e0 61 95 bd
       0.109114334 0.10599738 -0.091448456 -0.07294059
000010 2d e5 fa bd b8 c8 87 3d 5a 20 37 3e 8e 2e ae bd
       -0.12250743 0.06630081 0.17883435 -0.08504973
000020 88 02 1a be 93 40 0c bd 84 4d b0 bb 19 8d 84 3d
       -0.15040028 -0.03424127 -0.0053803343 0.06472225
000030 e8 63 02 bd 25 d7 cb 3d c1 ea cc 3d 0f 50 82 bd
       -0.03183356 0.09953145 0.10005713 -0.06362926
000040 47 de f8 bd 46 e7 33 bd a4 2c 0e 3d f1 be f3 3b
       -0.12151771 -0.04392173 0.03471054 0.0074385335
000050 08 a5 5c bd 37 67 52 3c 40 a5 95 3d 09 f6 6b bc
       -0.053868324 0.012841991 0.073069096 -0.014401921
000060 f1 83 0b bd b0 11 8b bd eb 22 72 bd c2 60 5c 3d
       -0.034061376 -0.06790483 -0.05911533 0.053803213
000070 09 5b a2 3d 1b f7 e7 bd 4d ae 86 bd ba f9 4d 3d
       0.0792752 -0.113264285 -0.06576214 0.050286986
000080 d1 83 93 3d 22 37 e6 bc c4 49 f9 3b ea de de 3d
       0.07202876 -0.028102461 0.0076076705 0.10882361
000090 66 e6 ed bc 7d a3 97 3d 1c 6c 4f bd f3 b4 00 be
       -0.029040527 0.0740423 -0.05064021 -0.12569027
0000a0 05 66 96 bd e3 61 34 3e 7b c1 99 3d 47 bd 98 bd
       -0.073436774 0.17615466 0.075076066 -0.07457977
0000b0 a1 19 ec 3c 67 b4 3f bd b2 20 a5 bc 92 16 f5 3d
       0.028820815 -0.046802904 -0.020157192 0.119671956
0000c0 99 c6 95 3d b9 99 4f 3d 7c 63 55 bd ad 8e f9 bc
       0.0731327 0.05068371 -0.05209683 -0.03046354
0000d0 9e eb 38 3d 29 73 c1 3b c3 9d 6e 3d e8 c2 dd 3c
       0.045146577 0.0059036207 0.058255922 0.027070478
0000e0 a8 a5 c9 3c ca f0 90 3d 77 3d d0 3c 1b 52 80 3b
       0.024615124 0.07077177 0.025419934 0.0039160377
0000f0 ff 24 d3 bd f3 33 06 bd 6e 6c 66 3d 05 67 a0 bd
       -0.10309791 -0.032764386 0.05625575 -0.078321494
000100 eb cc 80 bd 2d 1a d4 bd ea a6 af 3d 6d 1a c6 3d
       -0.06289085 -0.10356555 0.08576758 0.09673009
000110 a8 b2 5b 3c c3 5d 09 3d 48 41 1c bd 7e f5 1c be
       0.013409294 0.033536684 -0.038148195 -0.15328023
000120 dd 54 e7 3d be b9 0f 3e 9a 74 29 bd 53 f6 24 bd
       0.11295483 0.14035699 -0.041370966 -0.040273976
000130 9e a5 ea bd c8 ee 03 be 48 e5 f5 3d d9 e3 67 bd
       -0.1145737 -0.12884057 0.120066226 -0.056613777
000140 4a f8 07 bc 8e cc d0 bd 4b 70 c4 bd e7 08 0e be
       -0.008298943 -0.10195266 -0.09591731 -0.13870583
000150 e6 d6 c4 bc a0 07 aa 3d 5e 18 a8 3d 74 00 9f 3d
       -0.024028253 0.083022356 0.08207773 0.07763758
000160 97 18 44 3e eb 04 84 bd bc 73 9c 3c 13 ba 2a bd
       0.19150005 -0.064462505 0.019098155 -0.04168136
000170 f5 fe 5f 3d cc 10 a9 bc 66 13 98 bd 27 8d 76 bd
       0.054686505 -0.020637892 -0.07425575 -0.060193207
000180 be 7f d3 bc 53 70 6d 3d 9a 9e 1d 3e c1 cd 27 3d
       -0.025817748 0.05796845 0.15392533 0.040967707
000190 28 6f 8a bd b8 f3 4c 3c b0 0b 2f bd 79 6d df bc
       -0.067594826 0.012509279 -0.042735755 -0.02727388
0001a0 5c 91 77 3d 33 5d 16 3e 17 5f 92 bc e8 21 cc bc
       0.06044136 0.1468399 -0.017867608 -0.024918512
0001b0 d1 83 0d 3c 63 86 bd 3d 89 32 2f bd 69 27 9b bc
       0.0086373845 0.09254148 -0.042772803 -0.01893969
0001c0 10 0f 8f bd 3a 1f 8d bd d8 0d 30 3d 20 02 d9 bd
       -0.06985295 -0.068907216 0.042981952 -0.105961084
0001d0 be e4 aa 3c b2 f3 b8 3d 2e 38 a9 3d 1e 95 32 bd
       0.020861026 0.09030856 0.082626686 -0.04359924
0001e0 55 34 5c 3d ba 3f 61 bb 30 2d 3d bd 88 c9 93 3d
       0.053760845 -0.003437026 -0.046185672 0.072161734
0001f0 a3 8c 5a bd c4 d0 a0 bc 6b f5 24 3e 1e 0a 9b bd
       -0.053356778 -0.019630797 0.16109245 -0.07570289
000200 88 c6 ca bc 9c 91 1b bd e2 df af bc 00 3c e1 3c
       -0.02475287 -0.03798066 -0.02146906 0.02749443
000210 f9 12 16 3d d9 28 4b 3d 3a 99 d0 bb 47 e9 86 bd
       0.036639187 0.049599502 -0.0063659223 -0.06587463
000220 06 01 eb 3c 7a bf 16 bd 11 ef b5 bd 75 12 90 3b
       0.028687011 -0.0368037 -0.08883489 0.0043967315
000230 03 80 31 3d 9d 56 f0 3c c1 ad 83 bd 95 f0 0c bd
       0.043334972 0.029338175 -0.06429625 -0.034409124
000240 7d 52 6f 3d 18 f2 52 3d 5b da 87 bd 52 b9 3e 3c
       0.058428276 0.05150041 -0.06633445 0.0116408635
000250 30 be cf 3c ed b1 88 bc 53 bf b1 3d 15 ac b7 bd
       0.025359243 -0.016686404 0.0867907 -0.08968369
000260 ba 45 ae 3d 79 39 fb 3b 4f 30 27 3c 89 1e 81 bd
       0.08509393 0.0076667634 0.010204389 -0.06304652
000270 ba 63 24 3d e4 e7 93 bd 61 07 93 3c 5c cc 0e be
       0.04013417 -0.07221964 0.017947854 -0.13945144
000280 9e d5 cd 3c 43 63 df bd 0c b9 e9 3c f3 78 e1 3d
       0.025126275 -0.109076045 0.02853062 0.11009397
000290 25 4b c9 bd 82 53 94 bc 0b 2f 22 3e a0 53 70 3d
       -0.09828786 -0.018106226 0.15838258 0.0586735
0002a0 4c cb 1a bd e7 70 fd 3c a5 62 3c 3d 85 77 37 bd
       -0.037791535 0.030937625 0.045992512 -0.044791717
0002b0 03 85 81 bc 22 f1 12 bd 1c 4d f1 3b 83 bf 1a bb
       -0.015810495 -0.035874493 0.0073639285 -0.0023612685
0002c0 f1 10 db bc 0d fb ba 3d 7e aa 78 bd f4 fa 8e bd
       -0.026741477 0.091299154 -0.06070947 -0.06981459
0002d0 13 4b 02 3d 25 5a d0 bc 45 de 74 bc 02 db 03 bc
       0.031809878 -0.02543361 -0.014945571 -0.008047821
0002e0 ef 89 1e 3d bb b0 47 3c 73 4f 33 3e b5 f2 aa bd
       0.038705762 0.012188132 0.17510776 -0.08347074
0002f0 34 b7 4f 3d 61 00 04 3d de 60 c2 bd fb 1a c2 3d
       0.050711825 0.032226924 -0.09491132 0.09477802
000300 f3 80 cd bd 23 dd ba bd f8 70 d1 bc e2 1b a5 3c
       -0.10034361 -0.0912421 -0.025566563 0.020154897
000310 55 28 9e bc 5c 57 b1 bc 56 e3 1d 3e 8a 36 ce 3b
       -0.019306341 -0.021648102 0.15418753 0.0062931227
000320 70 e8 03 bd af 94 bd bc 7c 5a 5a bd f5 64 5b bd
       -0.03220409 -0.023142187 -0.05330895 -0.053563077
000330 df 54 21 3d d7 cd 0b 3d 55 b3 3f bd 97 06 9e 3d
       0.03938758 0.03413185 -0.046801884 0.07716101
000340 c6 eb f0 bd ce 5f e4 3c 88 22 9f bd 3e 08 8e bd
       -0.1176372 0.027877714 -0.07770258 -0.06935166
000350 e9 94 b6 3a 08 01 41 3d c3 60 92 bd 9a e0 30 3c
       0.0013929877 0.047120124 -0.07147362 0.010795737
000360 08 52 f7 3a 13 42 3b bd 14 27 25 3d 28 ac 06 3e
       0.0018869052 -0.04571731 0.04032047 0.1315161
000370 55 5f a4 bc f4 8e 74 3d 46 68 82 3d 4e f1 ce 3c
       -0.02006499 0.059706643 0.06367545 0.025261547
000380 36 b5 7f bc e8 f0 35 3c 87 fa 88 3d bc 98 96 3c
       -0.015607169 0.0111048 0.06688409 0.018383376
000390 f3 52 fd bc 76 01 92 3d 11 cc a3 3d 6c d5 6a 3b
       -0.030923342 0.07129185 0.07997907 0.0035832776
0003a0 ca 8d aa 3d 5f f2 76 3c 65 0d a1 3c 37 8b 44 bb
       0.08327825 0.015072434 0.019659707 -0.0029990205
0003b0 3e 62 03 3b e0 6e 84 bd 52 0a de bc f0 d5 19 3d
       0.002004757 -0.0646646 -0.02710453 0.037557542
0003c0 da 8e af bc 47 e1 a2 3d 34 59 33 bc c0 46 b3 3c
       -0.021430422 0.079531245 -0.010946561 0.021884322
0003d0 54 27 5c bd a1 32 d5 3c 40 44 02 be ce 6f 69 bd
       -0.053748444 0.026025118 -0.12721348 -0.05699139
0003e0 db 09 b3 3c ff c1 43 bd d6 9d 25 bd a9 d0 e3 3b
       0.021855285 -0.04779243 -0.040433727 0.0069523645
0003f0 64 85 34 bc ac 3c a1 3c a0 06 15 bd a5 f4 85 bc
       -0.011018131 0.01968225 -0.03638327 -0.016352007

actor.4.bias f4 [128]
000000 65 a7 95 bd d4 4c 27 bc 77 a9 0f 3d f2 55 7a 3d
       -0.073073186 -0.010211188 0.035073724 0.06111712
000010 40 f8 c7 bc 67 26 4d 3d 94 f0 8d 3d 79 ff e1 3a
       -0.024410367 0.05008545 0.06930652 0.0017242274
000020 56 a2 c7 bd 25 fa f9 3c 05 d5 c1 bd e2 ab 86 bb
       -0.0974776 0.030514786 -0.094644584 -0.0041098455
000030 63 6a 7e bd 08 92 3a be 15 26 82 3d 67 9d 6b be
       -0.062113177 -0.18219769 0.0635492 -0.23009263
000040 93 3b a8 bd 35 b0 f6 3d 96 c7 3d 3d 76 83 0b 3c
       -0.08214488 0.120453276 0.046332918 0.008515229
000050 40 4b d3 bd 38 a1 b7 3c 9b 58 38 bd aa d7 01 be
       -0.10317087 0.022415742 -0.045006376 -0.12679926
000060 88 45 b6 bd 91 f3 71 bd 40 a8 4e 3d c9 d4 7e 3d
       -0.08899981 -0.059070174 0.050453424 0.062214646
000070 1f f7 50 bc e2 94 f3 3d b7 42 da 3d c3 17 e2 3c
       -0.012754231 0.118936315 0.10657256 0.027599221
000080 72 8a 0e bd 68 96 6f bd f4 91 f2 3c 10 4b 40 bd
       -0.0348 -0.058493048 0.029610611 -0.046946585
000090 ab e9 12 be d5 ac 8c bc 23 7f 37 be 32 ba b5 3d
       -0.1434695 -0.017172256 -0.17919593 0.088734046
0000a0 c3 3c af 3c be 04 e0 3c 37 2f 97 be 0d d4 a4 bd
       0.021391278 0.027346011 -0.2952821 -0.08048258
0000b0 ab d5 4d be 0f 39 11 3d 88 d6 fd 3b e4 ea 6a bd
       -0.20101039 0.035454806 0.0077465214 -0.057352915
0000c0 de cf 7f 3d a3 f7 a7 38 70 b4 1b 3d ea a1 a6 bd
       0.062454097 8.0093065e-05 0.038013875 -0.081363514
0000d0 a3 51 dd bc 87 dc f6 3c 7d e2 40 bc 0c 45 12 be
       -0.027016466 0.030134453 -0.011772749 -0.14284152
0000e0 2a 1f b2 bd 03 7a 1d be fc 4c 7f bd f6 eb 81 bd
       -0.0869735 -0.15378575 -0.062329277 -0.06343834
0000f0 f8 64 4e be c7 fd 31 3d d4 57 f8 bc d9 1d 5c 3a
       -0.20155704 0.04345491 -0.030315317 0.00083967816
000100 c0 a3 0a bc 89 15 5d bc 2b c5 23 be ca 44 0b be
       -0.008461893 -0.013493904 -0.15993182 -0.1360046
000110 38 98 dd bc a7 fc b4 bd 25 3b 90 bc 93 17 71 bd
       -0.027050123 -0.08837252 -0.017606327 -0.058860373
000120 e6 b3 d6 bc fd 22 ac bd b9 29 22 3c e6 40 38 3d
       -0.02620883 -0.08405111 0.009897643 0.044983767
000130 67 5a 15 bc 12 3c 28 bd c6 c7 0d 3c 97 75 42 3c
       -0.009115792 -0.041072913 0.008653587 0.011868856
000140 72 4a 54 bd 31 60 99 bd b1 fe a2 bd 6a 34 03 be
       -0.05182881 -0.0748905 -0.07958735 -0.12812963
000150 4c 41 ac bd 36 2e 12 be 82 f6 31 3d 9e 28 64 bc
       -0.08410892 -0.1427544 0.04344798 -0.0139256995
000160 ee 40 f4 bb 80 8b b5 3b 0b 40 30 be 53 aa 11 bd
       -0.0074540293 0.0055403113 -0.1721193 -0.035562824
000170 c4 2f b9 3d 61 20 2a be d0 b6 87 bd 8c 0a 52 3d
       0.09042314 -0.16613914 -0.066266656 0.05127959
000180 06 c9 0a bd 53 af bb 3d 3b 42 03 bd 34 9b db 3d
       -0.033883117 0.091643 -0.032045584 0.10722962
000190 b0 fa 00 bd ab 1f 96 bd 36 95 88 bd 35 3e 58 bd
       -0.031489074 -0.07330259 -0.06669085 -0.0527937
0001a0 c6 a4 15 3d 1f 29 78 bd 14 70 06 bd e9 0e fa bc
       0.036534093 -0.06058609 -0.03282173 -0.030524688
0001b0 97 c8 86 bd cd df d9 ba 0a df 9b bd 80 36 13 3d
       -0.06581228 -0.0016622484 -0.07610901 0.035940647
0001c0 76 f6 5d bd 6b c7 22 bd 4a 02 d8 3c d3 c8 bb bd
       -0.05419012 -0.03974096 0.026368279 -0.091691636
0001d0 13 72 f1 bd 35 74 25 be f7 2d 0e bd 49 23 81 bd
       -0.11789336 -0.1615761 -0.034711804 -0.06305558
0001e0 c4 79 8e bd e2 3d c9 3c 01 6e b2 3d 4b b4 de 3c
       -0.06956819 0.02456564 0.08712388 0.02718558
0001f0 81 ce 27 be c0 42 7b bd 42 43 b6 bd 31 bd c5 3c
       -0.16387369 -0.061342955 -0.08899547 0.024138065

actor.6.weight f4 [12, 128]
000000 59 31 39 bd cc 61 20 bd 56 eb d6 3b fd 39 ea bb
       -0.045213077 -0.039155766 0.006558816 -0.007148026
000010 3d 7a 63 bd 4e 05 7a bc 1f 62 b0 bd 09 20 f5 3c
       -0.055536497 -0.015260054 -0.08612465 0.029922502
000020 94 49 3d 3d 4d fc 24 bb ef 7c a1 bb 2c 5e 06 3d
       0.046212748 -0.0025174797 -0.0049282233 0.032804653
000030 6d 58 82 3d df 5c 38 3d 17 c4 8a bc 53 b1 01 3e
       0.06364522 0.045010444 -0.016939206 0.126653
000040 0a 76 a5 bc ea a4 b1 bd 31 cf 7a 3c e4 48 63 3d
       -0.020197887 -0.08674033 0.015308187 0.055489436
000050 9a 8e 05 be 88 48 2e bc 94 97 12 3d 6b 90 cb ba
       -0.1304268 -0.01063741 0.035789087 -0.0015530711
000060 1b 2f 89 3d 93 2d 97 ba e8 a1 24 3c 47 b6 5b bc
       0.06698438 -0.0011533968 0.010048367 -0.0134101575
000070 44 e3 35 bc 30 79 c9 3b a7 18 ca bd d0 57 f2 3d
       -0.011101548 0.00614848 -0.09867983 0.11833155
000080 c3 a3 f2 bb 3d f3 73 3d cc 88 d8 bc 93 2f 49 bd
       -0.007404776 0.059558142 -0.026432417 -0.049117636
000090 18 b5 8b 3d f8 f9 e1 bc bf a7 ed 3d fd 93 72 bd
       0.0682165 -0.027585015 0.11604261 -0.059223164
0000a0 ca 6a 3f bd 3a ee 70 bc 58 32 b4 3d d1 28 f2 bb
       -0.0467327 -0.014705235 0.08798665 -0.0073901196
0000b0 8b 48 5a 3d 62 6c d5 bc db e5 e5 ba 56 06 5b bd
       0.05329184 -0.026052658 -0.0017539816 -0.05347284
0000c0 09 73 9f 3c 0c ff 24 bb ab 43 28 bd 8a 0e 3a bc
       0.019464033 -0.0025176434 -0.04108016 -0.011356005
0000d0 6d ca 50 3d c4 85 8d bc 60 23 06 bc 03 7d 74 3d
       0.0509743 -0.017275698 -0.008187145 0.059689533
0000e0 7b 48 b9 bb e6 1b 46 3d 3f f9 30 3d 12 14 2a 3d
       -0.0056543923 0.04836645 0.04320645 0.041523047
0000f0 da ec 89 3d 8e b8 08 bc a9 47 77 3c de 36 42 bd
       0.06734629 -0.0083447825 0.015092769 -0.047415607
000100 9b c9 47 bc 04 ad ca bc 09 c8 65 3d 56 61 8a 3d
       -0.012194063 -0.024740703 0.05609897 0.067568466
000110 1e c9 13 3d 51 d6 96 3c 7c 55 b8 bb fa 3f bd b9
       0.036080472 0.01841274 -0.005625425 -0.00036096555
000120 f3 a9 88 bc 3e 3f 84 3d 94 0d a0 3d fe 55 00 bd
       -0.0166826 0.06457375 0.0781509 -0.03133201
000130 c7 ed 2f bd 8a fe 08 3c a7 ad bd 3c fa 94 52 bc
       -0.04295137 0.008361468 0.023154093 -0.012852902
000140 63 fe ec 3d 3e af bb 3d de d6 49 3c 0f 96 79 bd
       0.11571958 0.09164284 0.012319295 -0.060934123
000150 fc 7f ca 3b b1 35 29 3d 41 e1 7b 3c 08 62 8e bc
       0.0061798077 0.04131097 0.015373529 -0.01738073
000160 ed 2f 2b 3b 15 ae 0a 3d 54 9a ae 3d d2 f6 e5 bc
       0.0026121095 0.033857424 0.085255295 -0.028071795
000170 0a 7d 17 3c b7 9a 1b 3d e6 c8 16 3d 64 26 5a bd
       0.00924612 0.037989344 0.036812685 -0.05325927
000180 d4 61 04 bd e7 94 2d bc 0d 5b 3b bd 40 46 74 bd
       -0.03231986 -0.010594583 -0.04574113 -0.059637308
000190 73 41 0e 3d fc 17 04 3d ec fb 63 3c ce 7e 02 3c
       0.034730386 0.032249436 0.013915043 0.007964803
0001a0 40 6a 16 bd 1f 15 91 3d 62 01 d8 bc cd da bf 3c
       -0.03672242 0.07084107 -0.026367847 0.023419762
0001b0 5c ed f2 3b 69 a7 05 bd 89 11 5a 3d 6b af 93 bd
       0.0074135493 -0.032630358 0.05323938 -0.07211193
0001c0 09 a9 ab 3d b0 30 3e bc 22 fa 22 3b f2 8b 85 3d
       0.0838185 -0.011608288 0.002486833 0.06520833
0001d0 57 ad c5 3d a1 a8 95 3d 54 21 e5 3c ae 03 3a 3c
       0.096522026 0.07307554 0.027969994 0.011353416
0001e0 4d 9c 5b bc be 30 8c bd 32 41 14 3a b5 a4 11 bc
       -0.013403964 -0.06845234 0.0005655467 -0.008889367
0001f0 3a 1b 9c 3c 5e 90 1f bd 3e c1 2e bd 5b 16 5e bc
       0.019055951 -0.03895604 -0.04266476 -0.013555135
000200 d8 46 04 bb c7 00 fd 3c b3 7f ef bb 24 a2 c7 3c
       -0.0020183828 0.03088416 -0.007308924 0.024369307
000210 33 0a 15 3d 21 83 a4 bc e4 79 66 3d e1 0c f1 bc
       0.03638668 -0.020082058 0.056268588 -0.029425086
000220 a0 2c c6 bb 14 3e d8 3c 87 ed 95 bc 63 e5 29 bd
       -0.0060478 0.026396789 -0.018301738 -0.041478526
000230 52 19 68 bd 54 81 b6 bd 30 32 04 bc 1d be 65 bd
       -0.056664772 -0.08911386 -0.008068606 -0.05608951
000240 03 28 a1 bb 0f 88 e2 bb 1f 1d ac 3c 8a 83 96 3d
       -0.0049181 -0.006913192 0.02100998 0.07349308
000250 f9 dd 0c bd 87 db 41 bb 5f 14 46 3b e2 49 63 bd
       -0.034391377 -0.0029580311 0.0030224544 -0.055490382
000260 9c 4d b4 bd 5a b0 a7 bb 2c 26 4d 3d f7 04 fe bc
       -0.08803865 -0.0051174583 0.05008523 -0.031008227
000270 b6 d9 1f 3c 84 3c e1 3d e4 52 35 3d 93 27 08 3d
       0.009756496 0.109978706 0.044268504 0.033240866
000280 06 23 84 3a 32 72 34 bd e2 a5 5b 3c 06 19 bf 3c
       0.0010081239 -0.044054218 0.013406249 0.023327362
000290 40 9b 08 bd 3a 22 cc bc b0 b2 9f bd b7 9d 0b bd
       -0.033351183 -0.024918664 -0.07797754 -0.034085955
0002a0 2e b8 15 bd 80 bc 5c bd 49 57 a9 bd 53 fa 34 bd
       -0.0365526 -0.053890705 -0.082686014 -0.04418404
0002b0 b9 6b 2a bd c0 39 00 bb 16 77 13 3c ee 08 b3 3b
       -0.04160664 -0.0019565672 0.00900056 0.005463711
0002c0 fb 16 0b 3c 16 54 9c bb 19 55 b5 3d 2e 9e 61 3c
       0.008489366 -0.004770766 0.08854122 0.013770623
0002d0 9f df 54 3d ca 60 d7 3c 6c 9a 92 3b 11 5d 85 3d
       0.051971074 0.02629127 0.004473975 0.06511892
0002e0 e8 ac ca bc 16 d2 90 bd 2b 45 1b bc 4b 20 b7 bc
       -0.024740651 -0.07071321 -0.00947694 -0.022354266
0002f0 38 f4 f9 bc 3f 32 32 bd 78 65 b8 bd e8 44 93 3d
       -0.03051196 -0.04350495 -0.09003729 0.07190877
000300 53 43 5b bc ef c3 23 3d 9f f9 03 3d cd 39 31 bd
       -0.013382751 0.03998178 0.03222048 -0.043268014
000310 c1 29 0c 3c 85 41 c6 bc 4f fa fb 3c c7 39 71 3a
       0.008554877 -0.024201164 0.030759005 0.000920203
000320 28 58 73 3d 90 63 96 bb e7 7e 4b bc de 03 4c 3d
       0.059410244 -0.0045895055 -0.012420393 0.049808376
000330 45 64 f3 bc 10 b9 19 3d 06 cf b6 bc 9e 91 47 3c
       -0.029710898 0.037530005 -0.022315513 0.012180714
000340 e6 dc 49 bd 34 26 06 3a 37 05 24 bd 99 1b 74 bd
       -0.04928293 0.0005117387 -0.040044036 -0.05959663
000350 20 46 3b bd 4a b4 98 3d db 4c f4 3b df fd dd 3c
       -0.045721173 0.074562624 0.007455451 0.027098594
000360 e1 ca af bc 3a 7a d4 3c a5 61 ab bc 75 b7 93 3d
       -0.021459045 0.025937188 -0.020920584 0.07212726
000370 a7 62 b8 3c 80 a5 95 bb d6 d1 2f bb 71 5b 81 3d
       0.022507979 -0.0045668483 -0.0026827953 0.06316269
000380 88 32 99 bc db 80 b4 bc d9 fa d6 bc e5 16 e3 ba
       -0.018700853 -0.0220341 -0.02624266 -0.0017325549
000390 26 c5 a4 bb 0d 44 45 bc 8c e3 fc bc 08 79 cb bc
       -0.0050283847 -0.01204015 -0.030870222 -0.024837986
0003a0 a6 e4 88 bd 43 c7 4f 3d 75 59 98 3c 5f b9 cc ba
       -0.06684236 0.05072714 0.018597344 -0.001561921
0003b0 fd 92 04 3c fe 4b 3d bc d4 c8 03 bd 2e 6c 73 3c
       0.008091685 -0.0115537625 -0.032173946 0.014857335
0003c0 cd 72 0c bd 34 c4 19 3d c0 6f b5 3c 4e 94 5b bc
       -0.03428917 0.03754063 0.022148013 -0.013402058
0003d0 75 29 83 bd 52 96 44 bd bb 53 5e ba 95 6b 27 bc
       -0.06404392 -0.04799492 -0.0008481105 -0.010218521
0003e0 4f 70 b7 bc de bd 24 3c c5 fd c6 3b ba f1 e6 bc
       -0.02239242 0.0100550335 0.006072732 -0.028191436
0003f0 6e 54 de bc 4a 7e b3 bb 0d e6 ac 3d c1 c4 fc bc
       -0.027139869 -0.0054777013 0.08442316 -0.030855538

actor.6.bias f4 [12]
000000 17 2e 45 be b8 6c 10 3e ac 87 77 bd f3 21 97 3d
       -0.19255863 0.14103973 -0.06043212 0.07379522
000010 04 3c 75 3d 72 cd 32 bd 38 a4 19 be 8f 77 ea bd
       0.05987169 -0.04365296 -0.1500405 -0.11448585
000020 68 8d 72 3c 47 35 e7 3d d4 3a 26 be 04 c5 ef 3a
       0.014804222 0.11289459 -0.16233379 0.0018292968
