logs/rsl_rl/unitree_go2_flat/2024-07-13_18-29-10/exported/policy.onnx (onnx, 163093 bytes, 8 tensors)

actor.0.weight f4 [128, 45]
0.20501909 -0.30883506 0.15286662 -0.09382192 0.2816205 -0.008908965 0.13118428 -0.038611583
-0.43343824 0.31504732 0.86664444 0.9575398 0.9932525 -0.36199376 -0.0079728905 -0.42232737
0.07689566 0.022414505 0.082737215 -0.30241594 0.3998538 -0.001917167 -0.04589789 -0.04291669
0.15104951 0.024421195 -0.029141733 -0.055496965 0.008250937 0.02319588 0.023013555 0.0348538
0.045564473 0.5078714 0.20233537 -0.06995199 -0.108766586 -0.0026707263 -0.046575084 -0.1786914
0.08278793 -0.1116325 -0.0425751 -0.118596606 -0.14800954 -0.11712042 0.44935784 -0.3131642
0.5443021 1.1832592 0.20919463 0.20873724 -0.22654144 0.77029425 -0.23588029 0.8715057
0.5703509 0.18330157 -0.3001002 0.38865432 -0.088344835 0.4118864 -0.17939942 -0.016892646
0.40175217 -0.068306044 -0.029486174 -0.0287151 -0.13102049 0.057960942 -0.003773524 -0.06700854
0.011930994 0.15726353 0.0039205635 -0.0018057226 -0.14188226 0.012920539 0.025177564 0.2067883
0.14371537 0.09083886 0.22083838 0.2677242 -0.21804969 -0.20182425 0.052772384 -0.18875873
0.09938829 -0.22972226 0.015611256 -0.13427082 -0.07321135 -0.14315894 0.5682956 0.08930599
-0.2764979 0.2178149 0.38299438 -0.74732846 -0.077776544 -0.24008453 -0.78579855 -0.8294676
-0.021584837 -0.13599676 0.26629987 -0.793357 -0.10502402 0.48173654 0.5776866 0.024901617
-0.0038207774 0.105744585 -0.09185324 0.06318076 -0.027529804 0.023041852 -0.026314508 0.0046611256
-0.092218176 0.059436776 -0.076119214 0.12694246 0.033779528 0.026713213 0.13009977 -0.16626859
0.2739258 -0.045816887 -0.25829655 -0.101613946 -0.051909477 -0.1393241 0.031536635 0.33349973
-0.17848183 0.11705432 0.38259885 -1.0548496 -0.037703477 -0.12979817 0.17586178 0.10213502
1.3834436 0.24065073 -0.00995612 0.61825544 -0.0052958326 0.80621624 -0.6016665 0.1846078
0.016511604 0.20288363 0.20377238 0.22221372 0.04802005 -0.04840833 0.08585286 0.07226083
0.04085803 -0.079002656 -0.06018233 0.036096 0.04170113 -0.13872428 0.05581709 0.042501535
-0.008298122 -0.071080886 0.024834113 0.14098667 -0.0038313696 -0.012464285 0.2149061 0.012269735
-0.1209929 0.1287637 -0.01992961 0.015628317 -0.26750347 0.2602009 0.45794064 -0.30986205
0.68619204 0.39527252 -0.07543868 -0.21736081 0.353614 0.058337577 0.329807 -0.4149117
-0.43503702 -0.5406009 0.08938536 -0.28483537 0.5984222 -0.38299537 0.22620097 -0.34061566
-0.1796027 -0.19493464 -0.07454271 0.08877711 -0.024401499 -0.18598408 -0.027490884 0.13970384
0.07564332 -0.0369728 -0.1067726 -0.061848246 -0.015619983 -0.21002908 -0.047098506 0.27285257
0.12339694 -0.10958992 0.06994153 -0.080659494 0.006006655 0.30947992 -0.009614 -0.142567
-0.11228451 0.2512699 0.3883519 -0.37422478 0.39677197 -1.9326243 0.10665311 0.118630834
-0.10330642 -1.0362668 0.57715565 0.27423847 0.33992416 0.18763776 0.15026736 -0.06093924
-0.18169071 -0.27918023 0.54634255 -0.20452197 0.15817668 -0.36431077 0.079913594 0.022818934
0.07842996 0.009813486 -0.035634827 -0.017296366 0.06990993 -0.01682177 -0.033716578 0.034363613
00000000: 86f0 513e a11f 9ebe 1189 1c3e b525 c0bd
00000010: 9030 903e e8f6 11bc 2c55 063e 2e27 1ebd
00000020: 9eeb ddbe e24d a13e 69dc 5d3f 5421 753f
00000030: cc45 7e3f 3f57 b9be baa0 02bc 4b3b d8be
00000040: 797b 9d3d a09e b73c 2172 a93d 43d6 9abe
00000050: a3b9 cc3e 7349 fbba 6dff 3bbd 69c9 2fbd
00000060: b9ac 1a3e f50e c83c a5ba eebc c950 63bd
00000070: f02e 073c 4905 be3c ec86 bc3c dcc2 0e3d
00000080: d0a1 3a3d dc03 023f 0131 4f3e fd42 8fbd
00000090: 04c1 debd 5a07 2fbb 84c5 3ebd e1fa 36be
000000a0: b88c a93d 959f e4bd 3a63 2ebd c7e2 f2bd
000000b0: d08f 17be d5dc efbd 3b12 e63e 0f57 a0be
000000c0: 6257 0b3f 0a75 973f 1e37 563e 37bf 553e
000000d0: 7bfa 67be 0132 453f 9a8a 71be ff1a 5f3f
000000e0: 8402 123f 68b3 3b3e bca6 99be b3fd c63e
000000f0: 23ee b4bd c6e2 d23e 7bb4 37be 7262 8abc
00000100: 76b2 cd3e 0ae4 8bbd fd8c f1bc ee3b ebbc
00000110: 3c2a 06be 7468 6d3d 3a4d 77bb c63b 89bd
00000120: 377a 433c b109 213e 1278 803b ffad ecba
00000130: 9549 11be abb0 533c 2e41 ce3c 50c0 533e
00000140: 1f2a 133e b909 ba3d 7523 623e 2513 893e
00000150: 6b48 5fbe 04ab 4ebe db27 583d f849 41be
00000160: 168c cb3d 503c 6bbe 5ac6 7f3c 4a7e 09be
00000170: d5ef 95bd 4298 12be d27b 113f 0fe6 b63d
00000180: 2291 8dbe df0a 5f3e d717 c43e eb50 3fbf
00000190: 4f49 9fbd b8d8 75be 182a 49bf fd57 54bf
000001a0: afd2 b0bc bc42 0bbe 7558 883e 7219 4bbf
000001b0: d516 d7bd 2ca6 f63e 45e3 133f 7afe cb3c
000001c0: 0266 7abb 9e90 d83d 8d1d bcbd ea64 813d
000001d0: 2f86 e1bc 44c2 bc3c 8691 d7bc 5bbc 983b
000001e0: e2dc bcbd fa73 733d 64e4 9bbd 34fd 013e
000001f0: 675c 0a3d abd5 da3c e038 053e 5042 2abe
00000200: 0140 8c3e 7daa 3bbd 723f 84be f91a d0bd
00000210: 089f 54bd faaa 0ebe 8f2c 013d 7ac0 aa3e
00000220: f1c3 36be 2dba ef3d ffe3 c33e 5005 87bf
00000230: f66e 1abd d0e9 04be 1c15 343e 2a2c d13d
00000240: ae14 b13f 256d 763e fe1e 23bc fd45 1e3f
00000250: aa88 adbb 3064 4e3f d106 1abf d409 3d3e
00000260: 5843 873c bac0 4f3e b5a9 503e fe8b 633e
00000270: acb0 443d d047 46bd a0d3 af3d 7cfd 933d
00000280: c05a 273d 25cc a1bd bf81 76bd 66d9 133d
00000290: cece 2a3d bd0d 0ebe 76a0 643d 1716 2e3d
000002a0: d9f4 07bc db92 91bd e970 cb3c cf5e 103e
000002b0: b717 7bbb 0037 4cbc 5810 5c3e 0007 493c
000002c0: 20cb f7bd a2da 033e 6c43 a3bc f506 803c
000002d0: 37f6 88be 0d39 853e 3277 ea3e 3da6 9ebe
000002e0: 48aa 2f3f 2961 ca3e 987f 9abd d593 5ebe
000002f0: e50c b53e 62f3 6e3d 77dc a83e 4e6f d4be
00000300: 2cbd debe d264 0abf ac0f b73d f1d5 91be
00000310: 3332 193f f817 c4be 3aa1 673e 2d65 aebe
00000320: c5e9 37be f29c 47be d9a9 98bd c6d0 b53d
00000330: a7e5 c7bc 9c72 3ebe 9034 e1bc 860e 0f3e
00000340: e3ea 9a3d ca70 17bd 98ab dabd 9654 7dbd
00000350: f5ea 7fbc dd11 57be 5dea 40bd 55b3 8b3e
00000360: 89b7 fc3d ae70 e0bd 813d 8f3d ce30 a5bd
00000370: 79d3 c43b 2774 9e3e 0a84 1dbc 15fd 11be
00000380: 6cf5 e5bd 73a6 803e 0fd6 c63e 649a bfbe
00000390: b225 cb3e 3c60 f7bf f26c da3d b9f4 f23d
000003a0: 5192 d3bd 64a4 84bf 79c0 133f fc68 8c3e
000003b0: 8a0a ae3e 1d24 403e b0df 193e 6d9b 79bd
000003c0: 210d 3abe b6f0 8ebe 1bdd 0b3f 356e 51be
000003d0: 11f9 213e f186 babe bda9 a33d c6ee ba3c
000003e0: e39f a03d bec8 203c d3f5 11bd 1cb1 8dbc
000003f0: f02c 8f3d cfcd 89bc 651a 0abd dcc0 0c3d

actor.0.bias f4 [128]
0.28284922 0.12119606 0.13319828 -0.113564625 -0.03923675 0.2052487 -0.29766273 0.026413145
0.118968196 0.24973361 -0.16329207 -0.2169046 -0.119261034 -0.18454574 0.07722494 -0.0888713
0.0008020002 -0.08680118 -0.36552733 -0.04648796 -0.08117327 0.02835655 -0.16230062 -0.014191304
0.053686243 -0.19035693 0.24508452 -0.028179185 -0.14075984 -0.15858272 -0.2829464 0.059151035
-0.15630338 0.08546571 -0.020428086 -0.23066857 -0.067985475 -0.19365849 -0.08983007 0.24822325
-0.004586889 0.17809674 -0.3216429 0.042475294 -0.25671777 -0.28732026 0.13160507 0.22837292
0.162398 -0.4309782 -0.17033811 -0.014971006 -0.12473564 -0.16384786 0.06271413 0.0140710715
0.13591725 -0.10473479 0.23137651 -0.15397044 0.15286075 0.020037316 0.023692789 -0.32271814
-0.26085952 0.11342233 -0.37693664 -0.44990966 -0.35273403 0.05081386 -0.10002791 0.1063794
0.022730336 -0.37149265 -0.06234221 0.06709929 0.19623382 -0.4402864 0.06901082 -0.01515295
-0.074702196 -0.1423622 -0.16069598 -0.045873374 -0.19907838 0.02091857 -0.20011884 -0.14863645
-0.49799553 -0.06566469 0.071794 0.19930264 -0.069045216 -0.3989817 0.17417979 -0.078411765
0.20051898 0.31072745 -0.11408594 -0.3955445 -0.08387056 -0.19347952 -0.2259851 0.1146513
-0.09331553 -0.14772767 -0.03843057 0.12005252 -0.036240205 -0.08496432 -0.36092013 -0.19866821
-0.6805798 -0.108510055 -0.01944952 -0.23444678 -0.053824667 -0.13540284 -0.48979142 -0.30266404
-0.0514294 -0.19625129 -0.13754678 -0.42182463 -0.5023757 0.067939304 -0.26469797 0.13573976
00000000: 9dd1 903e a435 f83d 2165 083e 9294 e8bd
00000010: b7b6 20bd b72c 523e 4067 98be 6160 d83c
00000020: 99a5 f33d 2bba 7f3e 0936 27be 3d1c 5ebe
00000030: 213f f4bd 8ff9 3cbe 1c28 9e3d 2802 b6bd
00000040: 533d 523a d1c4 b1bd 6626 bbbe 296a 3ebd
00000050: 2c3e a6bd ff4b e83c 2232 26be a582 68bc
00000060: 1be6 5b3d edec 42be 70f7 7a3e 09d8 e6bc
00000070: 5923 10be 8263 22be 5ade 90be 5b48 723d
00000080: fe0d 20be a508 af3d cd58 a7bc 6234 6cbe
00000090: f83b 8bbd 694e 46be d4f8 b7bd 3c2e 7e3e
000000a0: 9d4d 96bb fe5e 363e 61ae a4be 93fa 2d3d
000000b0: 8370 83be a41b 93be 7bc3 063e 97da 693e
000000c0: a94b 263e 2da9 dcbe 1d6d 2ebe f348 75bc
000000d0: 6675 ffbd bcc7 27be 4470 803d 5a8a 663c
000000e0: e42d 0b3e 327f d6bd f7ed 6c3e 6daa 1dbe
000000f0: 8787 1c3e 4c25 a43c 6117 c23c 503b a5be
00000100: 618f 85be f749 e83d d7fd c0be 8f5a e6be
00000110: 8e99 b4be 3222 503d 6fdb ccbd 71dd d93d
00000120: f834 ba3c 4934 bebe 8c5a 7fbd 5a6b 893d
00000130: 85f1 483e 386d e1be 8b55 8d3d 1444 78bc
00000140: 77fd 98bd 66c7 11be 7d8d 24be b8e5 3bbd
00000150: 34db 4bbe 6c5d ab3c f4eb 4cbe 2734 18be
00000160: 45f9 febe 367b 86bd bc08 933d fe15 4c3e
00000170: 9467 8dbd 5447 ccbe 305c 323e 5996 a0bd
00000180: d954 4d3e ab17 9f3e e4a5 e9bd cf84 cabe
00000190: 54c4 abbd 7f1f 46be a368 67be 4dce ea3d
000001a0: 361c bfbd ec45 17be 6069 1dbd 18de f53d
000001b0: 9c70 14bd c601 aebd 86ca b8be ae6f 4bbe
000001c0: 7a3a 2ebf 853a debd 9a54 9fbc d112 70be
000001d0: 4177 5cbd 0ba7 0abe f1c5 fabe c8f6 9abe
000001e0: a2a7 52bd 19f6 48be 10d9 0cbe 66f9 d7be
000001f0: b29b 00bf c323 8b3d 7e86 87be 5dff 0a3e

actor.2.weight f4 [128, 128]
-0.07727446 0.13129044 0.0115776565 -0.086728506 -0.057250556 -0.029192872 -0.05385691 -0.15087017
-0.00045156313 -0.16539557 -0.024064524 -0.10706262 0.054854084 0.08511036 -0.10595407 0.051058285
-0.0033347919 -0.059650518 0.012368093 0.007501388 -0.017045356 -0.054131523 0.16753453 0.09864223
-0.0880464 -0.022280805 -0.15806228 0.14981058 -0.10013772 -0.030864814 0.25522992 -0.06851465
0.11783542 -0.10734226 -0.0421162 0.03265558 0.033694286 0.05054957 -0.049776956 -0.058617588
0.16906503 -0.19537035 0.15544546 0.014503689 -0.024621697 0.019858044 -0.0831967 -0.38048536
-0.16050746 0.147869 0.0391665 0.07115825 -0.08496521 0.02316246 -0.03077258 0.0363619
-0.011895864 0.089817844 -0.06352522 -0.009890879 -0.15236792 -0.22042215 -0.14738019 -0.068166345
-0.11018701 -0.0015677414 -0.04287912 0.13178587 0.021452285 -0.0019226834 -0.102974296 -0.12212963
-0.13270314 0.15453567 0.081894055 -0.06968626 0.104291275 0.19985226 0.069780536 -0.06977067
0.18792988 0.12246075 -0.014472044 0.07164555 0.115516596 -0.090154275 0.16560985 0.11414862
0.013625322 -0.13660355 0.06353153 0.01024162 0.0070883953 -0.14515953 -0.110410295 -0.013203614
0.051665895 -0.20216279 0.16694653 0.09171561 0.06418149 -0.077124365 0.036646903 -0.047640733
0.14820366 0.07301382 0.25004 0.019995729 0.054558784 -0.05058726 -0.18019938 0.072529614
0.04843163 0.08812765 0.03392108 0.028239975 -0.22349182 0.099824965 0.14442192 0.20074113
-0.04437492 -0.01803405 0.051716484 0.19479895 0.10744581 -0.078261435 0.0034187783 -0.094788015
-0.12730439 -0.06263732 0.16055737 -0.25230286 -0.07649604 -0.21704197 0.034093678 -0.25527096
-0.069302045 -0.033604894 -0.05007747 0.12146118 0.05028552 -0.2751253 -0.09741171 -0.098239265
0.03878526 0.09932167 0.069959894 0.23193295 -0.010996429 -0.07967367 0.19029431 -0.076477215
0.14175487 -0.09032182 -0.15782179 -0.0056039994 -0.07292219 -0.045070138 0.14844145 -0.13096406
0.08277635 -0.07253673 -0.11026598 -0.046317235 0.08613163 0.12763844 -0.095146276 -0.10864815
0.04905016 -0.05760295 0.2789164 -0.0857142 -0.052817076 0.04518144 -0.14029011 -0.012890059
0.044004235 0.26504323 -0.052419152 0.13595095 -0.13475905 0.09246685 -0.00015853686 0.031783603
-0.11599659 0.050781146 0.015879102 0.21546559 -0.24999587 0.30308723 0.094192386 0.05662866
0.14087914 -0.06754501 0.1227636 0.21768068 -0.08854877 -0.28350458 -0.0053740493 0.098837405
-0.22532862 0.23600236 -0.085184775 -0.23281133 -0.01790005 0.11134799 -0.09335143 -0.07186071
0.062232554 -0.24492857 0.19667819 -0.13091467 -0.0018350577 -0.005573028 -0.15086028 0.13394134
0.12061156 -0.004190899 -0.16001649 0.04482941 0.16558799 0.032457817 -0.15989277 -0.23085669
0.07580724 -0.19290362 0.019494027 -0.20762773 0.082570694 0.14335795 -0.08116367 -0.09086724
-0.1850305 -0.022625398 -0.038217403 -0.047086846 0.008597548 -0.10418127 0.0464486 -0.012736702
0.018000117 -0.047554955 0.03722469 -0.013943865 -0.19570674 -0.1913652 0.101208985 0.16903603
-0.10166037 -0.17071408 -0.20258535 -0.0965237 0.02487396 -0.13673683 -0.008657846 -0.373495
00000000: 1242 9ebd 0071 063e 36b0 3d3c b79e b1bd
00000010: 8f7f 6abd e425 efbc 1099 5cbd b67d 1abe
00000020: c7bf ecb9 755d 29be f722 c5bc a643 dbbd
00000030: adae 603d 574e ae3d 73fe d8bd 7e22 513d
00000040: 868c 5abb 1a54 74bd 8ba3 4a3c 34ce f53b
00000050: b4a2 8bbc 04b9 5dbd 2c8e 2b3e f004 ca3d
00000060: ac51 b4bd 3c86 b6bc 14db 21be f267 193e
00000070: 0115 cdbd 35d8 fcbc 7fad 823e 6951 8cbd
00000080: b253 f13d 42d6 dbbd 0982 2cbd dcc1 053d
00000090: 0503 0a3d 110d 4f3d ece2 4bbd ff18 70bd
000000a0: 621f 2d3e 2a0f 48be 182d 1f3e e1a0 6d3c
000000b0: 71b3 c9bc 56ad a23c 0863 aabd face c2be
000000c0: 115c 24be f96a 173e 0d6d 203d 6bbb 913d
000000d0: 3d02 aebd 33bf bd3c c716 fcbc 37f0 143d
000000e0: dfe6 42bc 6bf2 b73d 8319 82bd 5a0d 22bc
000000f0: 5606 1cbe 58b6 61be d5ea 16be cc9a 8bbd
00000100: baa9 e1bd ac7c cdba 04a2 2fbd e0f2 063e
00000110: b4bc af3c 8d02 fcba 30e4 d2bd 191f fabd
00000120: 55e3 07be 993e 1e3e 12b8 a73d abb7 8ebd
00000130: aa96 d53d 12a6 4c3e 19e9 8e3d ede3 8ebd
00000140: b170 403e b4cc fa3d 271c 6dbc e7ba 923d
00000150: f793 ec3d cea2 b8bd a195 293e c0c6 e93d
00000160: be3c 5f3c cde1 0bbe d21c 823d 78cc 273c
00000170: c545 e83b b3a4 14be cb1e e2bd f953 58bc
00000180: 9e9f 533d c303 4fbe 08f4 2a3e 65d5 bb3d
00000190: 9671 833d 61f3 9dbd 101b 163d ee22 43bd
000001a0: b3c2 173e 4588 953d 3e05 803e 15ce a33c
000001b0: 0879 5f3d 9634 4fbd 3086 38be 688a 943d
000001c0: 3f60 463d 457c b43d d5f0 0a3d 8557 e73c
000001d0: 0adb 64be 0871 cc3d 57e3 133e 158f 4d3e
000001e0: 7ac2 35bd 25bc 93bc aad4 533d 6079 473e
000001f0: 8d0c dc3d 8847 a0bd 950d 603b 3820 c2bd
00000200: 155c 02be ff47 80bd 2769 243e d72d 81be
00000210: f5a9 9cbd 4040 5ebe d0a5 0b3d e0b2 82be
00000220: 3bee 8dbd 49a5 09bd 081e 4dbd a4c0 f83d
00000230: 30f8 4d3d 39dd 8cbe ca7f c7bd ab31 c9bd
00000240: 4bdd 1e3d 2969 cb3d 2247 8f3d d57f 6d3e
00000250: 5e2a 34bc f32b a3bd 83dc 423e 16a0 9cbd
00000260: 3028 113e a5fa b8bd 099c 21be c1a1 b7bb
00000270: 3b58 95bd 779b 38bd 0901 183e 711b 06be
00000280: a686 a93d 238e 94bd 21d3 e1bd 24b7 3dbd
00000290: c865 b03d a7b3 023e 0ddc c2bd ec82 debd
000002a0: d2e8 483d 12f1 6bbd 21ce 8e3e ed8a afbd
000002b0: b856 58bd 2c10 393d 36a8 0fbe d330 53bc
000002c0: c93d 343d bfb3 873e 77b5 56bd ba36 0b3e
000002d0: 47fe 09be 435f bd3d ea3c 26b9 862f 023d
000002e0: 9f8f edbd e4ff 4f3d e414 823c 03a3 5c3e
000002f0: ebfe 7fbe 402e 9b3e f0e7 c03d 74f3 673d
00000300: 9f42 103e 0a55 8abd 7b6b fb3d afe7 5e3e
00000310: 0f59 b5bd 8327 91be cb18 b0bb 446b ca3d
00000320: 8cbc 66be 9aaa 713e 5b75 aebd 1866 6ebe
00000330: 20a3 92bc 6a0a e43d 092f bfbd b52b 93bd
00000340: 90e7 7e3d 8ece 7abe 0266 493e 7f0e 06be
00000350: 5286 f0ba f29d b6bb 1e7b 1abe eb27 093e
00000360: 3203 f73d cf53 89bb 5ddb 23be 0b9f 373d
00000370: e68f 293e 7df2 043d eeba 23be b265 6cbe
00000380: d440 9b3d 8788 45be f0b1 9f3c 5d9c 54be
00000390: d31a a93d 6dcc 123e 2339 a6bd 9b18 babd
000003a0: a378 3dbe e658 b9bc da89 1cbd 23de 40bd
000003b0: bbdc 0c3c fd5c d5bd e340 3e3d 9aad 50bc
000003c0: fb74 933c fcc8 42bd eb78 183d cf74 64bc
000003d0: 5967 48be 3df5 43be a846 cf3d c817 2d3e
000003e0: 5033 d0bd accf 2ebe 8972 4fbe 38ae c5bd
000003f0: 7ac4 cb3c bd04 0cbe a3d9 0dbc bd3a bfbe

actor.2.bias f4 [128]
-0.20924476 -0.26891872 0.06590506 -0.2248815 -0.0035414782 -0.1330623 -0.18196543 0.026440138
-0.18447752 0.15310386 -0.12780058 -0.27702883 -0.08234738 -0.09595284 -0.21026002 -0.14509344
-0.21979958 -0.040076416 -0.21925196 0.016690882 -0.23163061 -0.11605635 -0.021904975 0.06187802
-0.17718239 0.1581806 -0.12270699 -0.104882136 -0.12587881 -0.12145803 -0.07966948 -0.091404304
-0.06580313 -0.2161703 -0.08810087 -0.0012464128 0.13142028 -0.45994547 -0.127067 0.016765041
-0.14509314 -0.051763233 0.067098685 -0.16414286 -0.08837732 -0.2961967 0.009321011 -0.08199451
-0.089930475 -0.20708519 -0.6826103 -0.08555445 -0.26454958 0.12535894 0.0135189975 0.069381304
0.14021719 0.1959455 -0.14767587 -0.078621924 0.055489153 -0.22304112 -0.13110623 -0.1679455
-0.08495842 -0.25524053 -0.27352923 -0.36694276 -0.16502003 -0.16601129 0.015478974 -0.11551623
-0.24178952 -0.022840152 -0.15001076 -0.13904235 0.0326607 -0.077389784 -0.18476504 -0.27399084
-0.049979508 -0.17818528 -0.06642554 0.050201207 -0.35399756 -0.15194617 -0.16997518 -0.23656638
-0.023904655 -0.1470905 -0.05167539 -0.06321644 0.1102921 -0.08988885 -0.35006985 -0.16116494
-0.036971115 -0.15761483 -0.2708284 -0.15596078 -0.07507895 0.02732742 -0.19033992 -0.111210614
-0.07426615 -0.007421817 0.10836421 -0.13207662 -0.08241482 -0.12791136 -0.020111252 -0.19583061
-0.25147238 -0.11738443 -0.32691813 -0.2573783 -0.0901708 -0.3682153 -0.18462375 -0.46799386
-0.09154878 0.019969055 -0.23123115 -0.09465388 -0.0752682 0.05622039 -0.19355866 -0.029873753
00000000: 4244 56be b7af 89be 3bf9 863d 5647 66be
00000010: 2518 68bb 7c41 08be 2555 3abe fd98 d83c
00000020: ade7 3cbe 42c7 1c3e 28de 02be b9d6 8dbe
00000030: bea5 a8bd ec82 c4bd 674e 57be 6093 14be
00000040: 2413 61be 2b27 24bd 9683 60be 51bb 883c
00000050: 9330 6dbe f4ae edbd 1072 b3bc cf73 7d3d
00000060: 4d6f 35be 18fa 213e cd4d fbbd 72cc d6bd
00000070: 60e6 00be fdbe f8bd c129 a3bd 2e32 bbbd
00000080: cbc3 86bd bf5b 5dbe 3b6e b4bd ac5e a3ba
00000090: 0a93 063e f97d ebbe da1d 02be d756 893c
000000a0: 4c93 14be af05 54bd 096b 893d 1115 28be
000000b0: 2bff b4bd 18a7 97be 27b7 183c bdec a7bd
000000c0: 782d b8bd 240e 54be 8cbf 2ebf 2c37 afbd
000000d0: 0b73 87be 185e 003e c97e 5d3c c917 8e3d
000000e0: 1895 0f3e f0a5 483e 5838 17be 8804 a1bd
000000f0: 9848 633d e464 64be b640 06be e8f9 2bbe
00000100: aefe adbd e3ae 82be 060c 8cbe ecdf bbbe
00000110: 03fb 28be ddfe 29be 869b 7d3c c693 ecbd
00000120: ac97 77be 451b bbbc 6c9c 19be 1e61 0ebe
00000130: 3ac7 053d 897e 9ebd 0c33 3dbe 8748 8cbe
00000140: 50b7 4cbd 3476 36be 1d0a 88bd c89f 4d3d
00000150: 2b3f b5be c797 1bbe f90d 2ebe 753e 72be
00000160: b2d3 c3bc e49e 16be 93a9 53bd 9f77 81bd
00000170: d3e0 e13d a517 b8bd 5b3c b3be 6c08 25be
00000180: 066f 17bd c865 21be 05aa 8abe 2fb4 1fbe
00000190: fec2 99bd c1dd df3c 78e8 42be 64c2 e3bd
000001a0: da18 98bd b732 f3bb 0eee dd3d 183f 07be
000001b0: 1ac9 a8bd 32fb 02be 5ac0 a4bc d287 48be
000001c0: fdc0 80be 3f67 f0bd d061 a7be 17c7 83be
000001d0: 78ab b8bd b786 bcbe 020e 3dbe e49c efbe
000001e0: ed7d bbbd 2596 a33c dcc7 6cbe e5d9 c1bd
000001f0: 3726 9abd 5a47 663d 3e34 46be cdb9 f4bc

actor.4.weight f4 [128, 128]
-0.20318344 -0.11301838 0.06590084 0.15354879 0.18171845 -0.02487086 0.06588498 -0.16893302
-0.015648944 0.08048166 0.18829735 0.059719685 0.04468573 0.19772702 -0.10066292 -0.10074166
0.067548394 -0.06744591 0.091431834 -0.049883775 0.09269298 0.08373964 -0.107993364 -0.015687954
-0.08734157 -0.004612366 0.15043265 -0.08357139 -0.075944714 0.1656247 -0.045032006 0.093508944
-0.011524328 0.11109239 -0.006335224 -0.18790056 -0.020674014 0.13292995 0.074703395 -0.10478815
0.10323035 0.10911122 0.03431447 -0.07858798 0.011462157 0.24822952 0.11993882 0.11737107
0.06315433 -0.17219184 0.05604277 0.025642566 -0.052087232 0.084721215 0.01173561 0.0043586777
-0.012702211 -0.014061884 -0.09975511 -0.08368057 -0.102228835 0.14115897 -0.16176604 0.1735104
-0.1601342 0.13529335 0.01839434 0.11971704 -0.270875 0.073775575 -0.23193124 -0.20296381
0.25509807 0.05099415 -0.3056061 -0.09040369 -0.0039866418 -0.11929066 0.093044505 -0.08102066
-0.18084837 0.06326509 -0.10079314 0.13690358 0.07270893 0.09033353 0.13639097 0.3270279
-0.07107034 -0.09703373 -0.060376573 -0.034214374 0.093916796 -0.006895206 0.030210376 0.0066870344
-0.009332905 -0.20304647 0.16780101 -0.19713108 -0.008994021 0.013315072 -0.067293815 0.12266057
-0.2938937 -0.07471569 0.12594059 0.023962814 -0.13100058 -0.11305628 0.012598142 -0.008473942
0.14301535 -0.005405791 0.28040445 0.056454074 0.039091486 0.13234583 0.21618123 0.07912479
0.20316657 -0.09393223 0.1076482 0.06427803 -0.14459266 -0.019060165 0.08425828 0.06575701
0.07949937 0.0786149 -0.19096972 -0.08114304 -0.085896686 -0.026619729 -0.09021879 -0.19130634
0.20621909 0.05757672 -0.02419995 -0.058273792 -0.08449358 -0.012851315 0.21238235 0.045360208
0.15846522 0.16206372 -0.24134064 0.09206853 0.12670104 -0.13765332 0.015170196 -0.09080974
0.06569332 -0.15298991 0.12782435 0.015178503 -0.05781582 -0.073436655 0.020847877 0.06543399
-0.16152622 -0.0620278 0.0017476027 0.019920226 0.015973922 0.24131678 0.08913933 -0.02213085
0.0350111 -0.014228505 -0.21463029 -0.12366413 -0.1293587 0.090252504 -0.055410877 -0.11741995
-0.06851481 0.22899517 0.012687116 0.13115741 0.04248465 0.084392525 0.025277149 -0.035040177
-0.06747522 -0.08687577 0.038261384 -0.3797731 -0.0317359 0.007856784 0.1385666 -0.036469363
0.065507665 0.12901868 -0.037855934 -0.1276373 0.02350524 -0.09967041 -0.025530824 -0.06516551
-0.15441409 0.17695041 0.013048373 -0.10456511 -0.12358066 -0.005534411 0.0063040694 0.040024564
0.13132496 -0.21555102 -0.01311446 -0.069179624 -0.12230321 0.097818136 -0.23898098 0.13191502
0.077756956 -0.09093193 0.18152022 0.014398096 0.002888541 0.08737802 0.26899007 0.16514874
0.013303072 0.012118797 -0.07501307 0.034373894 0.07665912 0.047559597 0.08133401 -0.14872985
0.12442548 -0.18133548 -0.014767271 0.013024286 -0.10086255 0.21260825 0.11217842 0.18555284
0.0043665455 -0.074551485 0.07527336 -0.0021308425 -0.03046883 0.039231647 -0.17416404 0.09099082
0.12115359 0.09936446 0.13503796 -0.09778753 0.08738041 -0.046716645 -0.07046751 -0.11931396
00000000: 520f 50be 2e76 e7bd 05f7 863d e53b 1d3e
00000010: 6714 3a3e f9bd cbbc b4ee 863d c7fc 2cbe
00000020: 3732 80bc 92d3 a43d 05d1 403e a19c 743d
00000030: 6208 373d f478 4a3e 5c28 cebd a551 cebd
00000040: d056 8a3d 1521 8abd 9d40 bb3d ee52 4cbd
00000050: d1d5 bd3d b07f ab3d a02b ddbd 0684 80bc
00000060: 23e0 b2bd 5523 97bb 040b 1a3e 7a27 abbd
00000070: e788 9bbd 8599 293e 7b73 38bd 9e81 bf3d
00000080: 89d0 3cbc 6884 e33d b697 cfbb 0169 40be
00000090: 8d5c a9bc ca1e 083e 18fe 983d 2b9b d6bd
000000a0: 6f6a d33d b475 df3d 548d 0c3d bcf2 a0bd
000000b0: c5cb 3b3c e12f 7e3e 7ca2 f53d 3e60 f03d
000000c0: 0f57 813d 0f53 30be 1b8d 653d 5c10 d23c
000000d0: 6c59 55bd 5182 ad3d b746 403c 3dd3 8e3b
000000e0: ef1c 50bc d163 66bc 684c ccbd b860 abbd
000000f0: 5a5d d1bd fa8b 103e ffa5 25be b6ac 313e
00000100: 38fa 23be 578a 0a3e baaf 963c 352e f53d
00000110: 21b0 8abe a617 973d 627f 6dbe bfd5 4fbe
00000120: 379c 823e 3edf 503d 6778 9cbe 9225 b9bd
00000130: 60a2 82bb a94e f4bd 1e8e be3d 29ee a5bd
00000140: 5130 39be 2191 813d a26c cebd 7430 0c3e
00000150: 6be8 943d c900 b93d 13aa 0b3e 3370 a73e
00000160: 548d 91bd 9fb9 c6bd 6d4d 77bd 5f24 0cbd
00000170: 7357 c03d 2ef1 e1bb c07b f73c e91e db3b
00000180: 0ae9 18bc 6aeb 4fbe 07d4 2b3e bbdc 49be
00000190: a95b 13bc 7627 5a3c 57d1 89bd 7735 fb3d
000001a0: 3c79 96be 8a04 99bd 92f6 003e aa4d c43c
000001b0: 0425 06be 0d8a e7bd 7068 4e3c 4ad6 0abc
000001c0: 9e72 123e 1023 b1bb 2c91 8f3e 633c 673d
000001d0: 651e 203d aa85 073e 9d5e 5d3e 2e0c a23d
000001e0: e60a 503e 8a5f c0bd a976 dc3d 33a4 833d
000001f0: 1910 14be 1024 9cbc 9b8f ac3d 9cab 863d
00000200: 91d0 a23d d900 a13d 918d 43be 522e a6bd
00000210: 9aea afbd 9e11 dabc a1c4 b8bd cfe5 43be
00000220: 192b 533e 91d5 6b3d f93e c6bc 80b0 6ebd
00000230: f80a adbd 528e 52bc c27a 593e a0cb 393d
00000240: b544 223e 08f4 253e 0022 77be 6d8e bc3d
00000250: ebbd 013e fef4 0cbe 6a8c 783c 75fa b9bd
00000260: 388a 863d 63a9 1cbe 63e4 023e 41af 783c
00000270: 48d0 6cbd f565 96bd 2bc9 aa3c 4102 863d
00000280: 2167 25be dd10 7ebd d10f e53a be2f a33c
00000290: bedb 823c bf1b 773e ae8e b63d c24b b5bc
000002a0: cd67 0f3d ad1e 69bc 0bc8 5bbe 9f43 fdbd
000002b0: 9b76 04be 4ed6 b83d 84f6 62bd df79 f0bd
000002c0: 7e51 8cbd b67d 6a3e 9fdd 4f3c 214e 063e
000002d0: 6204 2e3d fdd5 ac3d 0612 cf3c 4a86 0fbd
000002e0: 7330 8abd eceb b1bd f8b7 1c3d 9f71 c2be
000002f0: 81fd 01bd beb9 003c 67e4 0d3e e660 15bd
00000300: e228 863d 791d 043e d30e 1bbd 5ab3 02be
00000310: 108e c03c 0020 ccbd 0526 d1bc 7f75 85bd
00000320: ba1e 1ebe 7d32 353e d8c8 553c 3b26 d6bd
00000330: db17 fdbd 015a b5bb 5e92 ce3b ccf0 233d
00000340: 0d7a 063e 68b9 5cbe 08de 56bc 0cae 8dbd
00000350: 1b7a fabd e054 c83d 6eb7 74be bb14 073e
00000360: 0a3f 9f3d 853a babd 70e0 393e fee5 6b3c
00000370: ad4d 3d3b 3ff3 b23d 11b9 893e c01c 293e
00000380: 21f5 593c eb8d 463c 74a0 99bd a4cb 0c3d
00000390: 75ff 9c3d dacd 423d 7292 a63d a34c 18be
000003a0: c9d2 fe3d 02b0 39be 6cf2 71bc d163 553c
000003b0: 0691 cebd fab5 593e cdbd e53d 9001 3e3e
000003c0: 3d15 8f3b 73ae 98bd eb28 9a3d 9ba5 0bbb
000003d0: c599 f9bc 5db1 203d 0f58 32be 6559 ba3d
000003e0: 601f f83d 987f cb3d 6447 0a3e d444 c8bd
000003f0: 80f4 b23d f459 3fbd 4551 90bd e15a f4bd

actor.4.bias f4 [128]
-0.17058104 -0.279359 -0.05662918 -0.18182209 -0.03162142 -0.07489525 0.041221943 -0.00010929893
-0.18579392 -0.11057602 -0.01919678 -0.09699076 -0.25521508 -0.07091741 -0.184294 0.0026632715
-0.32013202 -0.13693544 -0.27658448 -0.091775544 -0.10655927 -0.2681292 -0.12409416 -0.017254656
-0.26599863 -0.40545446 -0.18666533 -0.08775423 -0.50941205 -0.021058735 -0.1558582 -0.24974076
-0.18041293 -0.038298987 -0.035663594 -0.30036756 -0.15753013 -0.07320941 -0.25631773 -0.13465956
-0.20630819 -0.08012982 -0.12208209 -0.04878993 -0.06756431 -0.21764012 -0.034527496 -0.17092656
0.05444959 -0.06310572 -0.0013427943 -0.07627683 -0.085931204 -0.023247765 -0.17650697 -0.11774116
-0.06456265 -0.043894816 -0.051062267 -0.09115925 0.028296214 -0.2989661 0.038312387 -0.11293515
-0.072806835 -0.049286272 -0.0459994 -0.11437939 -0.2351955 -0.015762875 -0.087410696 -0.20868592
-0.07444139 -0.115506664 -0.08496329 -0.10517833 -0.12885481 -0.17066261 -0.08301938 -0.096121274
-0.16846895 0.112639606 -0.20493828 -0.14817859 -0.16583455 -0.24294147 -0.09687218 -0.17924678
-0.033823587 -0.030221842 -0.11204458 -0.13788348 -0.20707954 -0.22755599 -0.11479688 0.090886265
-0.22525792 -0.15387028 0.018309765 0.042840134 -0.26326486 -0.009065294 -0.09055203 0.171009
-0.14040555 -0.07216933 -0.16914268 -0.20249361 -0.20841207 -0.19540125 -0.28833047 -0.25271967
-0.12782736 -0.14044946 -0.044885032 -0.45404634 -0.025079444 -0.2814775 0.04300255 -0.1181889
-0.15890093 -0.11223255 0.16682623 0.015117683 0.031770773 -0.080496155 -0.067322016 0.062467393
00000000: ccac 2ebe 2508 8fbe 00f4 67bd 922f 3abe
00000010: 7685 01bd ae62 99bd 57d8 283d 6b37 e5b8
00000020: c340 3ebe ae75 e2bd 9142 9dbc 17a3 c6bd
00000030: 8dab 82be 263d 91bd 91b7 3cbe 488a 2e3b
00000040: 58e8 a3be ce38 0cbe 7b9c 8dbe d1f4 bbbd
00000050: bf3b dabd 3b48 89be 1425 febd a359 8dbc
00000060: f930 88be ba97 cfbe 3225 3fbe 7db8 b3bd
00000070: d468 02bf 5e83 acbc 4b99 1fbe 0bbc 7fbe
00000080: 2bbe 38be 66df 1cbd fd13 12bd c7c9 99be
00000090: 944f 21be d1ee 95bd 143c 83be 32e4 09be
000000a0: 7442 53be 1a1b a4bd 2d06 fabd f3d7 47bd
000000b0: 285f 8abd 0ddd 5ebe b46c 0dbd 5f07 2fbe
000000c0: 8906 5f3d 923d 81bd b300 b0ba 0737 9cbd
000000d0: b3fc afbd 1972 bebc 3ebe 34be 4722 f1bd
000000e0: 6c39 84bd 0dcb 33bd ab26 51bd b3b1 babd
000000f0: 76cd e73c 1612 99be 73ed 1c3d 8b4a e7bd
00000100: c01b 95bd 67e0 49bd de69 3cbd be3f eabd
00000110: 17d7 70be 2521 81bc 6104 b3bd c3b1 55be
00000120: ba74 98bd c28e ecbd 3c01 aebd bc67 d7bd
00000130: 84f2 03be 2ec2 2ebe 1106 aabd 3bdb c4bd
00000140: 2083 2cbe 98af e63d 57db 51be 21bc 17be
00000150: 88d0 29be a6c5 78be ec64 c6bd 788c 37be
00000160: 9a8a 0abd cc93 f7bc a177 e5bd 5431 0dbe
00000170: a90c 54be 7004 69be a01a ebbd 9422 ba3d
00000180: 03aa 66be 2c90 1dbe 5cfe 953c 2379 2f3d
00000190: a7ca 86be 9986 14bc 5873 b9bd fc1c 2f3e
000001a0: 79c6 0fbe 84cd 93bd bd33 2dbe 7c5a 4fbe
000001b0: f969 55be 4417 48be 0da0 93be 7964 81be
000001c0: 2de5 02be fcd1 0fbe 5ed9 37bd c378 e8be
000001d0: 6873 cdbc d21d 90be 7123 303d 060d f2bd
000001e0: edb6 22be 2eda e5bd 7fd4 2a3e 29b0 773c
000001f0: 1222 023d 2bdb a4bd 20e0 89bd cfdd 7f3d

actor.6.weight f4 [12, 128]
-0.034781463 0.09080189 -0.0655037 0.038179405 -0.039921906 -0.018587708 -0.03113305 0.058968045
-0.108503684 -0.042333283 0.013167597 0.024086311 -0.046733532 0.004555148 -0.04477569 0.013413881
0.047109865 0.0037310554 -0.0136815 0.011050768 0.009389142 -0.033676665 0.08927922 -0.010554028
0.04536793 0.04298732 0.008079709 0.06850892 -0.016426492 -0.09005372 0.03128944 -0.017075462
-0.051786028 0.035203986 -0.14893523 0.020300398 0.044614658 -0.10757919 0.031518254 0.070886336
0.0018308738 0.0028051718 -0.06681905 0.03786962 0.034911696 0.01771109 -0.02466534 0.068173125
0.0044379425 0.008528368 -0.009416692 -0.012124295 -0.02022859 -0.029212037 -0.00010498256 0.095743686
0.019485421 -0.07955249 0.006457053 -0.058648575 0.0213118 -0.016069474 -0.021685636 0.0041876677
-0.005479423 0.03707063 0.039661746 0.0058011287 -0.010469446 0.03647846 0.054313723 0.01882698
-0.1259533 -0.08588816 -0.05567635 -0.006451833 0.0050656255 0.050431207 0.01468245 0.004257833
-0.106580436 0.018000796 -0.024953263 0.0019057635 -0.08408701 -0.05859297 -0.0022404613 0.023892805
0.037438277 -0.01613876 0.04374963 0.025962016 -0.05904225 -0.020688739 -0.042927504 -0.033945136
-0.0901116 0.05602606 0.018208195 0.02514082 -0.102378495 -0.062665 0.052981306 0.0075355456
0.016654437 0.06055916 0.014333604 -0.01816516 -0.043955654 0.04226045 0.02925159 0.0034103785
0.016506432 -0.0030334787 0.010085166 0.037685253 0.029625738 -0.11769637 0.022937728 -0.10573611
-0.0065881973 -0.024037665 0.0747077 0.019387765 -0.010125638 -0.04588493 0.009290657 0.0767336
-0.03620385 -0.024163442 0.09870802 0.009424312 -0.02357458 -0.04294596 -0.049706925 0.0072255637
0.12752135 0.032252852 0.04954979 0.013606364 -0.009816401 -0.039302964 -0.033375263 -0.047053095
0.103272565 0.07522562 -0.026554273 -0.10379539 -0.07699198 0.05985753 -0.04947602 -0.05609503
0.05984302 0.05882806 -0.02707973 0.011762441 0.10752935 0.02745897 0.03053189 -0.003842155
-0.013179279 0.020614207 0.11415106 0.010927926 0.028327037 0.06806202 -0.013229286 0.004982012
0.013087977 0.026211586 0.010151995 -0.038599186 -0.016940307 0.015502769 0.00157341 0.00068836723
0.054129343 0.01172087 0.0014502166 -0.02270836 -0.08697501 -0.026164241 0.13342278 -0.10626997
-0.025370495 -0.048160657 -0.05902237 0.039336413 0.025776017 0.028107805 0.053830173 -0.044946704
0.013727986 -0.03457461 0.029013108 0.04013113 0.14609647 -0.010883209 -0.005630517 -0.034615673
0.062819436 -0.027178124 -0.013722423 -0.019768763 0.0040786867 -0.046641674 -0.0014960319 -0.02911782
0.02651723 -0.0330752 0.03770849 0.009563413 0.031275373 0.010687523 0.002384192 -0.0990971
0.022938935 0.07530196 0.043868743 -0.00995269 -0.07514769 -0.0665701 -0.0079847295 0.043593127
0.04674314 -0.07474286 -0.042528145 -0.08720401 -0.022249889 0.061889336 -0.031085372 0.029796131
-0.079233 0.049463183 0.043173127 0.020139959 0.035247207 -0.03595008 0.0007928348 -0.06004344
0.03347439 -0.076015785 0.0048819403 -0.118371785 0.024175877 -0.0335224 -0.036964778 -0.008463148
0.002053865 -0.0024601356 0.009568483 0.048215646 -0.009146206 0.07198371 0.06848318 0.020126011
00000000: 0277 0ebd 57f6 b93d ce26 86bd 0262 1c3d
00000010: 2785 23bd 4045 98bc bd0a ffbc 7a88 713d
00000020: 2e37 debd aa65 2dbd e8bc 573c a850 c53c
00000030: a96b 3fbd 5a43 953b b766 37bd e5c5 5b3c
00000040: 46f6 403d b984 743b 5f28 60bc 480e 353c
00000050: ead4 193c 8bf0 09bd 06d8 b63d cdea 2cbc
00000060: b9d3 393d 7913 303d c160 043c 684e 8c3d
00000070: da90 86bc 166e b8bd 5b29 003d d7e1 8bbc
00000080: 961d 54bd 0e32 103d 7a82 18be 054d a63c
00000090: dcbd 363d 7a52 dcbd 4919 013d db2c 913d
000000a0: eef9 ef3a f9d6 373b 6dd8 88bd 2d1d 1b3d
000000b0: 91ff 0e3d d916 913c f80e cabc 5a9e 8b3d
000000c0: 296c 913b 91ba 0b3c 7848 1abc fba4 46bc
000000d0: 6eb6 a5bc 154e efbc 152a dcb8 4415 c43d
000000e0: e49f 9f3c 6aec a2bd b095 d33b 7d39 70bd
000000f0: 1696 ae3c 21a4 83bc 13a6 b1bc b438 893b
00000100: bb8c b3bb 5fd7 173d 5b74 223d 6517 be3b
00000110: 0a88 2bbc 706a 153d 1178 5e3d 0a3b 9a3c
00000120: e7f9 00be 22e6 afbd e20c 64bd e669 d3bb
00000130: 8cfd a53b f490 4e3d a98e 703c 4b85 8b3b
00000140: d846 dabd 6876 933c c96a ccbc d0ca f93a
00000150: cf35 acbd 2fff 6fbd b4d4 12bb d8ba c33c
00000160: e158 193d 6f35 84bc d032 333d 4bae d43c
00000170: 49d6 71bd 6e7b a9bc c0d4 2fbd 0e0a 0bbd
00000180: 6e8c b8bd 957b 653d 5a29 953c 1ff4 cd3c
00000190: d1ab d1bd 8256 80bd ed02 593d bdec f63b
000001a0: e36e 883c e20c 783d 7ed7 6a3c 1acf 94bc
000001b0: d80a 34bd 4b19 2d3d 08a1 ef3c a880 5f3b
000001c0: 7f38 873c 54cd 46bb 413c 253c da5b 1a3d
000001d0: adb1 f23c cb0a f1bd e7e7 bb3c 2c8c d8bd
000001e0: cee1 d7bb a3ea c4bc 5a00 993d 17d3 9e3c
000001f0: 01e6 25bc d6f1 3bbd d737 183c 8126 9d3d
00000200: 7d4a 14bd 69f2 c5bc 6e27 ca3d 6e68 1a3c
00000210: 7a1f c1bc 1ae8 2fbd 7d99 4bbd 6cc4 ec3b
00000220: f594 023e 911b 043d b8f4 4a3d 3aed 5e3c
00000230: f8d4 20bc 25fc 20bd 80b4 08bd bfba 40bd
00000240: 9180 d33d e40f 9a3d 5988 d9bc ad92 d4bd
00000250: f9ad 9dbd 2b2d 753d 5ea7 4abd e7c3 65bd
00000260: f41d 753d b1f5 703d 4fd6 ddbc 41b7 403c
00000270: 5938 dc3d a2f1 e03c 041e fa3c aacc 7bbb
00000280: e7ed 57bc 20df a83c 08c8 e93d 0b0b 333c
00000290: 1a0e e83c 1a64 8b3d a6bf 58bc 2540 a33b
000002a0: f46e 563c aeb9 d63c 8e54 263c 2e1a 1ebd
000002b0: 66c6 8abc 53ff 7d3c e13a ce3a 8b73 343a
000002c0: bbb6 5d3d e408 403c 3215 be3a e206 babc
000002d0: f41f b2bd 6456 d6bc fb9f 083e 12a4 d9bd
000002e0: c9d5 cfbc 1c44 45bd 71c1 71bd 381f 213d
000002f0: 3a28 d33c 5742 e63c 077d 5c3d 091a 38bd
00000300: 59eb 603c 1b9e 0dbd e6ac ed3c 8a60 243d
00000310: 509a 153e 7d4f 32bc 3380 b8bb 2ac9 0dbd
00000320: 7aa7 803d a8a4 debc 04d4 60bc 1af2 a1bc
00000330: 81a6 853b 570b 3fbd 8016 c4ba 7f88 eebc
00000340: a93a d93c dc79 07bd 3874 1a3d ddaf 1c3c
00000350: 9b1a 003d b81a 2f3c 1b40 1c3b 6cf3 cabd
00000360: 6fea bb3c ea37 9a3d b6af 333d 9c10 23bc
00000370: 08e7 99bd e855 88bd 62d2 02bc b58e 323d
00000380: bc75 3f3d c912 99bd fe31 2ebd 0498 b2bd
00000390: 6645 b6bc ac7f 7d3d c0a6 febc 0417 f43c
000003a0: e944 a2bd e899 4a3d 4ed6 303d 8efc a43c
000003b0: 605f 103d 6440 13bd 3ed6 4f3a 1cf0 75bd
000003c0: 711c 093d 2aae 9bbd aff8 9f3b e86c f2bd
000003d0: 7d0c c63c c94e 09bd 6168 17bd 04a9 0abc
000003e0: 239a 063b 3a3a 21bb 20c5 1c3c c57d 453d
000003f0: f8d9 15bc 326c 933d e940 8c3d 4edf a43c

actor.6.bias f4 [12]
-0.02882357 0.067884594 0.12536314 -0.04017758 -0.18807347 -0.3175392 0.30059972 0.17202267
-0.15992582 -0.08644521 0.015277017 -0.19351563
00000000: 681f ecbc 1407 8b3d 325f 003e 3f91 24bd
00000010: 5596 40be 7f94 a2be 35e8 993e b626 303e
00000020: 98c3 23be 300a b1bd 744c 7a3c f628 46be
