logs/rsl_rl/unitree_go2_flat/2024-07-13_15-04-49/exported/policy.onnx (onnx, 163093 bytes, 8 tensors)

actor.0.weight f4 [128, 45]
00000000: 10aa 3dbe 11f5 89be c46c 53bf 65fe 42bf
00000010: 2743 0040 3440 d83d f8d8 903d 6fd5 b5bc
00000020: 5376 083f ab7f bcbf f8ee 4dbf 14ec abbf
00000030: e54c 33bf 0cc2 28bf 68b0 bf3e a6e6 e2be
00000040: 7df3 ed3e c5de 6dbf 87cd 4f3e 3b7b e53e
00000050: 7be1 7a3d 174f 933c 21a6 1dbd 4e22 7d3b
00000060: 0edc b4bc 81aa 933c ea9f 903c 32d8 c0bc
00000070: a1ed 083c 80ac 263d 162e 41bc 01b6 96bc
00000080: f389 91bc 8109 80bd b2bc 313c f322 05be
00000090: 41a2 c6bd c8b9 283d dbf3 af3d 9203 883c
000000a0: 07dd 77bd 8570 793c b17c d8bd ab3f af3d
000000b0: d609 153e 0db4 813e da7d cdbc c3a9 17bf
000000c0: 240a 11bf 272c 05c0 3fb4 b4bd 33c4 9bbe
000000d0: 7dfd 7bbe 8ff9 a4be 4de6 b03e f611 0fbf
000000e0: 6882 c23d 1b24 07ba febb c4be fdbc 8fbf
000000f0: 6bbe 183e 5052 313f 668f 6abe 88da 963f
00000100: 78df c83f f0fc e1be 2255 af3c 5d9f e43d
00000110: 3ad0 153c d54e e3bc 8d8f 26bd 48b0 c6bc
00000120: fd63 993d cb54 cb3b 7333 80bc b4d0 853c
00000130: ccb1 bf3c e1ba dcbb fd26 883c a1f0 cfbd
00000140: d0d4 563d 4912 42bc 933b 1c3e 8896 14b9
00000150: e790 083d 2f34 72be 34eb cabd cb2b c1bd
00000160: 8b98 003e a88f 963d 57c9 fdbd 10af 00bf
00000170: 1468 253d 0625 a9be c29e 28bf 79e9 003e
00000180: b2dc d23d cbf6 483e 6355 7ebe 45f8 bfbf
00000190: ef94 e0be d330 913f 1a53 143f f9be 9abd
000001a0: beb4 94bf f1cc 71be 0903 ecbe ce63 b33e
000001b0: 5a92 d93e 2a8e a93f 0644 99be 4fbd 133d
000001c0: 3bca af3c deb0 b2bd e951 a23d 189b 3abd
000001d0: abb5 d9bd dfd5 f73d 89d0 bf3b 99da 893c
000001e0: 3fdc 88bd 9353 003e 4a8e 88bc f2f4 e4bd
000001f0: f87e 893d 58b8 0cbd e9f9 85bd ea3b 953d
00000200: 0f0e 083d 9d3c 6d3e d56e 47bd 046b 47bc
00000210: 2d83 af3c 590f a6be fbf0 103e 7d01 b6bd
00000220: d32d 693e 631d 98bf f9f8 593f c5c5 6f3d
00000230: 9cc6 863e cebf 9ebe 165c 48bd e082 6d3f
00000240: fabd 44be 0e3f c4be 7f83 443d 9dbe 0b3f
00000250: dd60 15bf 7ae9 7c3f b7f0 ab3f 72de 253f
00000260: 545c 9fbe 205b ccbf 8fa2 a33f 5236 873e
00000270: 6961 20bd 04e0 34bb 52d3 a1bd 3dad 99bc
00000280: 1d22 11bc 409f 37bd e42c 343d df95 4d3d
00000290: e449 103c c5e7 5f3d 0c3b 0e3d 7edc f839
000002a0: ab86 863e feb8 bb3d 5931 753c 2eb0 2abe
000002b0: 12c0 aabd dd62 70bd c99d 4639 e35f 12be
000002c0: 9a91 30bd 577e 543e b9cd 553e 3c85 f63b
000002d0: bc39 173d 59cc babe 6052 443e a008 e0bf
000002e0: d3a0 07c0 f158 3f3d 8970 643d 2e06 8fbd
000002f0: d71f 25bf 63db e73e 15bb c2be 069b db3e
00000300: 017f dd3d c360 6bbf 3673 f5be aee2 b6bf
00000310: ee86 713e 9477 b23f 3e8b 92bd 8552 bebf
00000320: c7e9 593f 7176 133d f76f 623d d70e 783d
00000330: 46a0 81bd f280 2e3c 1108 e9bd 4033 a9bd
00000340: 92c5 d6bc 7a07 393c 888f e7bc cd74 33bd
00000350: 08f5 063c 1bb8 f83d 6960 d1bc b478 2bbe
00000360: f2d0 0ebe 9941 a13d 4b2c 783d c6ff 1c3c
00000370: 519e 053c d370 c8be bdf3 943d 4308 f03d
00000380: 0436 78bc 9d0a 00be 53d4 57be 561c 4c3e
00000390: 9645 603e 2ce3 493e f7f4 a63e ff12 283f
000003a0: 9f47 4e3e c0ee 993e f0c9 4e3f ffe2 5dbf
000003b0: ec45 b13d 4523 c4be 5ca6 48bf 0c68 d63e
000003c0: 7d3f 113f 2237 8ebe ef03 853f 51db e53f
000003d0: c3d8 6d3f 0a19 483f 0540 bebc c63d 00bd
000003e0: c862 153c b9ec 2ebd 80f2 78bd 8797 933c
000003f0: 592e 023e 3f0e bd3b 84cb 2c3c 48b5 8b3d
-0.18521905 -0.26944783 -0.8258784 -0.76169425 2.0040987 0.10559121 0.070726335 -0.0221965
0.5330555 -1.4726461 -0.8044276 -1.343142 -0.70039207 -0.6592109 0.37439275 -0.44316596
0.4647483 -0.92918044 0.20293246 0.4482058 0.06125019 0.017982049 -0.03848851 0.0038625184
-0.022077587 0.018025639 0.017654378 -0.02354059 0.008357436 0.040691853 -0.011790773 -0.018397333
-0.017765975 -0.06251813 0.010848211 -0.13001613 -0.09698916 0.0411928 0.085914336 0.016603265
-0.060513522 0.015224581 -0.10570658 0.085570656 0.14554533 0.2533268 -0.025084425 -0.5924341
-0.566561 -2.0808198 -0.08823442 -0.30423126 -0.24608417 -0.32221648 0.34550706 -0.5588678
0.09497529 -0.00051552214 -0.38424677 -1.122955 0.14916389 0.69266224 -0.22906265 1.178544
1.5693197 -0.44138288 0.0214029 0.11163209 0.009143883 -0.027747551 -0.040664244 -0.02425398
0.074897744 0.0062051765 -0.015649533 0.016334869 0.02340021 -0.006736145 0.016620154 -0.10153318
0.052449048 -0.01184518 0.15257101 -0.00014170457 0.033341315 -0.23652719 -0.09908143 -0.09432181
0.1255819 0.07351619 -0.12391918 -0.50267124 0.04038246 -0.3303606 -0.65867245 0.12589063
0.102960005 0.19625394 -0.2483726 -1.4997641 -0.43863627 1.1343025 0.579393 -0.075559564
-1.1617658 -0.23613335 -0.46096066 0.35037082 0.4249447 1.324651 -0.2993471 0.03606921
0.021458736 -0.08725141 0.07925779 -0.045558065 -0.106303535 0.121013395 0.0058537167 0.016827868
-0.066826336 0.12531881 -0.016669411 -0.11179532 0.067136705 -0.03435549 -0.06541807 0.07286818
0.033216532 0.23167653 -0.048689682 -0.012171511 0.021424854 -0.32433584 0.14154427 -0.088870026
0.22771387 -1.1883968 0.8514553 0.058538217 0.26323402 -0.3100571 -0.048915945 0.92777824
-0.19213095 -0.38329357 0.047976967 0.5458773 -0.58350927 0.98793757 1.3432835 0.6479255
-0.31125128 -1.5965309 1.2783984 0.2640863 -0.039155398 -0.0027599344 -0.07901634 -0.018759364
-0.008858231 -0.044829607 0.043988124 0.050191756 0.008806679 0.054664392 0.03472428 0.00047466526
0.26274619 0.09166144 0.014965379 -0.1666877 -0.08337416 -0.058688033 0.00018941531 -0.1429439
-0.043107606 0.2075132 0.20879258 0.007523207 0.036920294 -0.3648403 0.19172049 -1.7502632
-2.119191 0.04671568 0.055771384 -0.069836006 -0.6450171 0.45284566 -0.38033357 0.4289171
0.1081524 -0.9194452 -0.4793946 -1.4287927 0.23586628 1.3942742 -0.071554646 -1.4868933
0.8512234 0.036001626 0.05528256 0.060561027 -0.06329398 0.01065086 -0.11378492 -0.08261728
-0.026217256 0.011293286 -0.028266683 -0.04381256 0.008237131 0.1214449 -0.025558667 -0.16745263
-0.13946894 0.0787384 0.060589116 0.0095824655 0.008155421 -0.39148578 0.07273052 0.11720326
-0.015149597 -0.12504049 -0.21077089 0.19932684 0.21901545 0.19715565 0.32608768 0.65653986
0.20144509 0.30064964 0.8077688 -0.86674494 0.08655915 -0.3830816 -0.78378844 0.41876256
0.567375 -0.27776438 1.0391825 1.7957555 0.9290888 0.78163207 -0.023223886 -0.03130891
0.00911779 -0.042706225 -0.06077814 0.01801659 0.12712993 0.0057695205 0.010546569 0.06821686

actor.0.bias f4 [128]
00000000: 0eec 653d 2ba1 83bc 60ee dbbd a042 b9be
00000010: 9ccc 99bd 67a0 b5be 8622 10bf 98fc 05bf
00000020: 08ef 1dbf e708 f33d e4e3 d9be ba86 7dbe
00000030: 44db 1f3f a4ae fa3d 3ded 503e 461e 8fbe
00000040: 214d 30be 30b2 0e3f 77af 32be cae6 35be
00000050: 1e13 623e b136 0f3e 12e0 ea3e 28e0 0dbd
00000060: 9fe3 8f3d fa35 3dbf deae 093e 148c 14bf
00000070: 7bfc 69be f6e1 78bf 5327 713e 7eaa b4be
00000080: a2e4 b5be f0cb 5abe b1c6 0fbf 016d d1be
00000090: 7792 11be 50a5 b63e 92e3 093e 86a0 d8bd
000000a0: 2b4d 43be d1b8 e8bc 7b71 39bd 2ba5 01bf
000000b0: f522 1fbf bc6c 133f 91a4 c0be 4659 f7bd
000000c0: 94d9 b9bd 5da2 00bf bf94 edbd 7137 c1be
000000d0: 613a 9d3e dbcf a23d 1b91 84be 9235 4fbe
000000e0: 6d3a 84bd 0984 25be 7464 f6be 65c6 4c3d
000000f0: de7a 9b3e e03a 27bf 6098 13bf 64cb 3abe
00000100: 74f3 0c3e 2a0a 0fbe b2ca 96be 8f64 033f
00000110: f3c0 cabd 8749 98bd b192 fbbe e153 74be
00000120: 9993 66be 065d e33e 745a 98be b80b 9c3e
00000130: 10c5 10bf 1f9e a1be 896d a0be 65c0 fe3d
00000140: 1fb0 a7be b2e9 c53e a58c 01bf 02ff 5bbf
00000150: 378e e5be 7b26 8fbe bca2 0bbf b3ff 35bf
00000160: caba 143e d532 a23d ac3f 40bf 9e24 cfbd
00000170: 30f5 bb3e b071 2dbd 40d2 97bc f94d e9be
00000180: 18fa 2ebf 8caa 7cbd 5f3d 44bf 384b cabe
00000190: ee20 fdbe 7a63 dabe 8241 12bf f165 bcbd
000001a0: 86f8 ad3e 08cc 1fbf b407 d9bd 8f83 c5be
000001b0: 3721 94be 1673 983d ebcc 19be a2e5 83be
000001c0: 1ea0 98bd 5b11 673e 14a6 4f3d 4b12 143f
000001d0: 230b 3bbf be8e a7be e62e 9fbe 62b6 0cbf
000001e0: 28d9 f53d ff48 5fbe 56a9 1abe dbc8 4abe
000001f0: a42d c8be 6a04 2cbf 67eb 0cbc d5c1 a13e
0.056133322 -0.016068062 -0.10738826 -0.36183643 -0.07509729 -0.3547394 -0.5630268 -0.5233855
-0.6169286 0.11866932 -0.4255668 -0.24758425 0.6244395 0.12240341 0.20402999 -0.27952784
-0.17216922 0.5574064 -0.17449747 -0.1776382 0.22077605 0.13985707 0.45874077 -0.0346376
0.07025837 -0.73910487 0.13445613 -0.5802624 -0.2285022 -0.9721979 0.23550157 -0.35286325
-0.35525995 -0.21366858 -0.56162554 -0.40903476 -0.14216028 0.35672998 0.13465717 -0.105774924
-0.19072406 -0.02840844 -0.04527424 -0.5064265 -0.62162715 0.5758779 -0.37625554 -0.120775744
-0.09074703 -0.50247747 -0.11600637 -0.3773761 0.30708602 0.079498015 -0.25891957 -0.20235279
-0.06456456 -0.16163649 -0.48123515 0.04999389 0.30367178 -0.6532421 -0.5765438 -0.1824165
0.13764745 -0.13968721 -0.2945152 0.51325315 -0.099000834 -0.07435899 -0.49135354 -0.23860122
-0.22517242 0.4440691 -0.2975651 0.3047769 -0.56550694 -0.3156595 -0.3133357 0.1243904
-0.32751557 0.38654858 -0.5060523 -0.85935986 -0.44835064 -0.27959046 -0.5454519 -0.7109329
0.1452438 0.07919852 -0.75097156 -0.10114406 0.367105 -0.04234475 -0.018532872 -0.455673
-0.6835036 -0.061686084 -0.76656145 -0.39510512 -0.49439186 -0.4265402 -0.57131207 -0.09199131
0.3397867 -0.624207 -0.105971724 -0.38576934 -0.2893159 0.07443826 -0.15019576 -0.25761133
-0.07452415 0.22565214 0.050695494 0.5784041 -0.7306387 -0.3272609 -0.31090468 -0.54965794
0.1200431 -0.2180519 -0.15103659 -0.19803183 -0.3909732 -0.67194235 -0.008601046 0.31593195

actor.2.weight f4 [128, 128]
00000000: 98b9 b53d e4b4 08be 43bf 9bbe a861 913e
00000010: 0a87 f3be 4641 d73c 903b d33d 4453 1dbe
00000020: 3c91 ef3e acf4 083f 2b55 9c3d d333 ecbd
00000030: 145e b83d 3515 bcbe 0d18 263c 3b2f c6be
00000040: 531d 9e3e 6971 0b3e bf8c bb3e 1d63 bb3e
00000050: 1095 7ebe 8f0f 54be cbc0 dabe 3971 31bd
00000060: b7d6 e73c 9b3a c43e 0016 b33c 4acd 5a3e
00000070: db4e 2f3b dd76 67bd 9f34 9dbe 83a8 9cbd
00000080: 90cb 943e 3195 90be 0cd5 b2be be2b 303c
00000090: 4a5f 95be 7ca8 d5bd f750 babe 177a 4abc
000000a0: 2a75 2c3d 7fd5 a63e 5b42 34bd da09 a0be
000000b0: 5cf4 bdbd e8c2 89be 783e 02bd 86ea 92bd
000000c0: 3d5c 4d3e c6b8 96be 87b1 c63e 5ed9 02be
000000d0: 6432 05bf 938b d93d 19c4 803e add0 c83d
000000e0: 9450 933d 6300 003e 5623 b93e 64bd 2b3e
000000f0: ecce 4b3d c44d 38bc 3efe c83c 472f a13e
00000100: d7d9 87bd 9720 92bd 8ce4 db3b 717d c73d
00000110: 9642 823e aeeb a1bd 8f20 4e3d 9c2f 85bd
00000120: 3507 42be 2f5a 7a3d 8f9e babd cb23 963d
00000130: 4c4f 77bd 38d2 b2bc ee0d 753e ed56 15bf
00000140: 6972 123e b5c1 6bbc 2963 cdbd 0625 a63e
00000150: 95dc 44bf b0c1 9f3e 5425 5ebd 7ae6 143e
00000160: 400d 55be 5e51 383e c8a0 993c aa3f 013d
00000170: 9d49 b9bd a620 0fbe 718a bdbe 3a89 93bc
00000180: 9717 ef3e 3f86 c4bd c0a5 b9be a971 afbe
00000190: fc81 b0bc 4305 2d3e 81b8 fa3e 6f88 b3be
000001a0: a505 35be 07b5 ad3e dddf 6e3e 32af a03e
000001b0: 1727 bbbe 9c28 aebd 3e04 b8bc 97ab 85be
000001c0: fbdf f4bd e272 443e aa1a e43a cc29 63bb
000001d0: 3d61 263e f412 37be 98f2 39be ba52 1a3d
000001e0: e52f fdbc bbee 37bd 7892 263e 08f7 183d
000001f0: a8ab f03d 6d51 95bd 7b7f 03bf 5aa2 93be
00000200: 781b 0abf 1f76 13be 3feb 7c3e d8a3 0f3e
00000210: 6e3c 98be e538 53be f00e 353c 2aea ecbe
00000220: f7d5 b8bd 0b79 573e 9d8c 1a3e 8ab6 5a3e
00000230: b370 31bf 833f 223e 7806 263e d810 4ebe
00000240: e1b5 e8bf f45c dcbe f97c 353e e7ea 4fbf
00000250: e0cf 723e d54f 7cbe 57cd 1c3d e445 613c
00000260: c548 45be 8fe0 8c3e 1184 783d 2123 63be
00000270: f0a0 09bf 337e 9b3d da46 823e d605 563e
00000280: d129 653e 326b 453e c4f8 9fbc 6b76 edbe
00000290: d937 243d f4cf cabe 4521 9abe a08d 42bf
000002a0: 823d 16bf 7051 d43e 5009 a3be a866 313d
000002b0: 48fe a2bd a0ac a13d 87b9 1f3e f8bd c53d
000002c0: 3f73 a63e e9f1 95be e5ca 88be e84f 4c3d
000002d0: 7a99 18bd 57d3 183e 235b 1bbf 7629 db3d
000002e0: 66af 6dbe f1ef 44bd a229 233e 585a b2be
000002f0: 00b1 643e 7a9f 2dbd 5a3b 85be 27bc 08be
00000300: ccee 903d 2f9b 06bf 90e1 aabb 7dc6 45bf
00000310: d192 cdbe c151 273e fc5c 6e3e 4914 403c
00000320: c031 8ebe 5251 403e e319 be3e 4c23 57be
00000330: 1712 71be d368 f73d 01ae 593d a383 2ebe
00000340: daae 8d3e 4826 e33e 023f ba3e eb2c 293e
00000350: 5a84 a1be f395 4ebe ac50 4bbe 472f 9b3e
00000360: de28 54be 8cf3 813e d5e4 1f3e 9c6a 4ebe
00000370: db72 8fbe 6898 4dbe e925 863e a0c6 02bf
00000380: 8dab aebd 44e1 d03e 3186 583e 7724 953b
00000390: 118d cf3e 32fd 313e 09d9 20bf 7ed1 66bc
000003a0: e776 9d3d 3041 e93c 9a25 7dbe 9bda d7be
000003b0: 2658 95be 7ab3 82be 10f5 43bd b449 c3bb
000003c0: b3b5 2ebf e905 313d 3932 193f db27 673e
000003d0: 7fd6 083f 2283 60be 1311 fa3d b6a7 8e3c
000003e0: 2cc0 28be 94fe 5f3e 7b8a ad3e 94b5 103d
000003f0: cd06 33be d98a 863c d7d8 89bd 2133 15be
0.0887329 -0.13350254 -0.3041936 0.28394818 -0.47563964 0.026276242 0.10314095 -0.15363795
0.46790493 0.5349834 0.07633432 -0.11533322 0.09002319 -0.3673493 0.01013757 -0.3870791
0.30881748 0.13617481 0.36630818 0.36599055 -0.2486155 -0.2070906 -0.42725214 -0.04332087
0.028300626 0.38325962 0.021861076 0.21367374 0.0026749882 -0.05650984 -0.3070421 -0.076493286
0.29061556 -0.28238824 -0.34928167 0.010752616 -0.29174262 -0.104325265 -0.36389896 -0.01235821
0.042103924 0.3258476 -0.044008594 -0.31257516 -0.092751235 -0.26906514 -0.031797856 -0.07173638
0.20054717 -0.29437846 0.38807318 -0.12778232 -0.52030015 0.10622325 0.2514961 0.09805427
0.071931034 0.12500148 0.36159772 0.16771466 0.049757883 -0.0112490095 0.024535295 0.31481382
-0.066333465 -0.07135122 0.0067105945 0.09740723 0.25441426 -0.079062805 0.05032402 -0.065032214
-0.18948062 0.061121162 -0.09112274 0.07331046 -0.060378358 -0.021828756 0.23931095 -0.58335763
0.14301457 -0.014389445 -0.10028679 0.32450122 -0.7689908 0.3120246 -0.054234818 0.14541045
-0.20805836 0.17999789 0.018753424 0.031554855 -0.09047244 -0.13977298 -0.37019685 -0.01800977
0.46697685 -0.09595918 -0.3625927 -0.34266403 -0.021546356 0.16896538 0.4896889 -0.35065028
-0.17677934 0.33927175 0.23327585 0.31383663 -0.3655326 -0.085038394 -0.02246296 -0.26107475
-0.119567834 0.1918445 0.0017402966 -0.0034662364 0.16248031 -0.17878324 -0.18158948 0.03767655
-0.030906627 -0.044905405 0.16266811 0.037344962 0.11751491 -0.07290921 -0.51366395 -0.28834802
-0.53948164 -0.14400528 0.24699114 0.14027345 -0.29733604 -0.20627172 0.011050925 -0.46272403
-0.090251856 0.21042268 0.15092702 0.21358696 -0.6931259 0.1584454 0.16213405 -0.20123613
-1.8180505 -0.43039668 0.17723455 -0.8121781 0.2371211 -0.24639829 0.038281765 0.013749573
-0.1926604 0.27515075 0.060672823 -0.2218137 -0.53761196 0.0759243 0.2544468 0.20900664
0.22379233 0.19279173 -0.0195278 -0.46379408 0.040092323 -0.3961178 -0.30103508 -0.7599735
-0.58687603 0.41468382 -0.31843042 0.04331079 -0.079586565 0.07894254 0.15598117 0.09655374
0.325098 -0.29286125 -0.26717296 0.049880892 -0.03725574 0.1492437 -0.6068594 0.107012674
-0.2321144 -0.04808039 0.1593385 -0.34834552 0.22333145 -0.042388417 -0.26021844 -0.13353024
0.07076797 -0.5258054 -0.0052148774 -0.77255994 -0.40151075 0.1633978 0.23277658 0.011723586
-0.2777233 0.18781021 0.37129125 -0.21009558 -0.23542057 0.120805405 0.05314446 -0.17042403
0.27672464 0.44365144 0.36376196 0.16521041 -0.3154629 -0.20174389 -0.19854993 0.30309507
-0.20718715 0.25381124 0.15614636 -0.20157856 -0.28017315 -0.2007767 0.26200798 -0.5108433
-0.085288145 0.40796864 0.2114494 0.004551466 0.40537313 0.17381743 -0.6283117 -0.014088033
0.076886944 0.028473467 -0.24721375 -0.4215897 -0.29168814 -0.25527555 -0.04784113 -0.005959714
-0.68246 0.043218527 0.5984226 0.22573797 0.53452295 -0.21925023 0.12210288 0.017413955
-0.16479558 0.21874458 0.33894715 0.035329416 -0.17483063 0.01642363 -0.06730812 -0.14570285

actor.2.bias f4 [128]
00000000: 3fa4 8cbd 238f 32bf c497 00be 62da 09be
00000010: b03a dbbc db1e 8cbe 96d5 20bf 1d48 0cbf
00000020: 0aad 97bd 435a 38be ab70 13be a7fe 85bf
00000030: 4a55 8ebd 986c 99be b54b 4dbf 6fa2 c43d
00000040: a0e2 0abf dcfe 223d 5d49 01be 0b79 1cbf
00000050: 4882 00bd 3e44 dabe 7ab7 0abf 318f c3be
00000060: 1e6a a53d b181 a4be 4a42 efbe be0f d6bc
00000070: 6259 a9be 8988 28bf 2400 6bbe 1d3c 9ebe
00000080: 5881 0dbf aa35 bebe 8e01 32bf 117c 1fbf
00000090: 311a 92be 5b93 cfbe ddf5 04bf 153d dcbe
000000a0: 8168 4c3d 17b2 73be ca52 08be e3e8 c33e
000000b0: c04a af3c b5af 0fbf 6361 b6bd d529 9abf
000000c0: 8d6f 8ebe ca72 30bf 99ae 07bf ebdc 03bf
000000d0: bd67 debe 2a61 24be 2505 eebd ede6 b8bc
000000e0: 54e2 99be 35b5 293b 19da 77be 57c4 00bf
000000f0: 2f17 a7be 5473 eebe 9157 76be a0e6 43be
00000100: 325f 3ebe 55ce fcbd 5c4a 78be ad4b f8bd
00000110: 314a 07bf d4d9 973e 8668 46be 36fe ddbd
00000120: 2e69 03bf 6de2 dfbe 7a79 8bbe 5c39 2abe
00000130: 35a6 b6be 2a32 0abf 4c41 89be 2102 e9be
00000140: 6383 8bbe 7e70 10bf 5035 34bf b949 b2be
00000150: 98c8 04be 69c2 c8be 4303 50be 107f 51be
00000160: 2e4b ffbe 1ce8 99bd 0239 92be df6a e4be
00000170: a36e d33c 0fc2 26be 841c 09bf eaa5 06bf
00000180: e31a 97be dc43 a7bc b09a d1be f4aa 92be
00000190: 5e89 8bbf b34e bcbe 71a0 223e 2008 1ebf
000001a0: 208d b0bd f052 79bc 5247 00bf 680c e2bb
000001b0: f4e2 02bf 2cb0 bfbe a533 05bf bbc3 793e
000001c0: f5ea a2be 0986 01bd 918d e5be a80f dcbe
000001d0: 042f cdbe 2133 4fbe 09d5 ddbe 905e a8be
000001e0: 048b 61bd d050 3fbd 19dd ecbe 1f54 5d3d
000001f0: 806d dfbe a6c1 69be 6f9f 75be 7456 fabd
-0.06867265 -0.6974966 -0.12557894 -0.13462213 -0.026761383 -0.2736729 -0.62825906 -0.54797536
-0.074060515 -0.18003182 -0.14398448 -1.0468339 -0.06949861 -0.29965663 -0.80193645 0.09601294
-0.5425205 0.039793834 -0.12625642 -0.61122197 -0.031374246 -0.4263019 -0.54186213 -0.38195184
0.08076881 -0.32130197 -0.46730262 -0.026130553 -0.33076006 -0.65833336 -0.22949272 -0.30905238
-0.5527549 -0.37150317 -0.6953362 -0.62298685 -0.28535607 -0.4054211 -0.5193766 -0.43015352
0.04990435 -0.23798405 -0.13312832 0.38263616 0.021397948 -0.5612748 -0.08905294 -1.2044016
-0.27819481 -0.68925154 -0.5300079 -0.5150897 -0.4343852 -0.1605269 -0.11622075 -0.022571051
-0.30055487 0.0025895361 -0.24204291 -0.5029959 -0.32634875 -0.46572363 -0.24056841 -0.19130945
-0.18591002 -0.12344042 -0.24247116 -0.12123809 -0.5284758 0.29658377 -0.1937581 -0.108395025
-0.51332366 -0.43727437 -0.27241117 -0.16623443 -0.3567368 -0.53982794 -0.2680763 -0.45509437
-0.27248678 -0.5642165 -0.7039385 -0.3482187 -0.12967145 -0.39210823 -0.20313744 -0.20458627
-0.49862045 -0.075149745 -0.28559119 -0.44612786 0.025809592 -0.16284965 -0.53559136 -0.52596915
-0.295127 -0.0204181 -0.4093833 -0.28646052 -1.0901296 -0.36778793 0.15881516 -0.6173115
-0.086206675 -0.015217528 -0.50108826 -0.0068984516 -0.51127553 -0.37439096 -0.5203193 0.24391071
-0.31819883 -0.031621967 -0.4483457 -0.42980695 -0.40074933 -0.20234348 -0.43326595 -0.32884645
-0.055064216 -0.04670793 -0.46262434 0.054035302 -0.4363823 -0.22827777 -0.239866 -0.12223521

actor.4.weight f4 [128, 128]
00000000: 53ad 0abb cab7 98ba 8697 6cbe 986a 2c39
00000010: 212e 07bb f21b 96bd 1cb5 e4bd 4389 0d3e
00000020: 0764 103e 7659 5ebe 5718 5f3e 64be 373e
00000030: e72a f5bd 1468 a23d 7489 d83d 7e44 a9be
00000040: 4053 06be 76cb 263e d03c b4be d314 08be
00000050: fcad c9be b32e 07be 680d 2a3e 4470 2c3e
00000060: 4022 dabb c66e c6bd 4c81 ee3c 25af 563e
00000070: f246 f7bd 1945 1c3e 46bb 4b3e 9215 f4be
00000080: bfd5 463b 7669 22be c465 883e c9d0 26bd
00000090: be8b 603e 5086 043e a28f 903d 0751 593e
000000a0: d1cd dfbd 3d9c c83e 43b4 2abe b3c2 27be
000000b0: e421 4fbe 783d 883e 9966 a83d 3b8a a73d
000000c0: 42e1 783e 0c89 fa3d d1ed 17be 0f1c 75be
000000d0: ef64 07be a58b 973e d5e0 943d 4556 933c
000000e0: 1123 09be a3d8 cd3a 66fd 66be 6406 43bd
000000f0: 8fd6 47bd b42f a2bd b27d 85bd 6b39 133c
00000100: dd80 113e ff64 b4bd 24d7 113d 3203 2dbd
00000110: a2f1 993e 7d2d 053d 6f54 ee3d 2c1f a2bd
00000120: 4e34 02be 1c3e 383e 3dd9 283e eb7a 60bd
00000130: a572 893d e935 473e 51f3 983d fd88 f9bd
00000140: a2b1 3fbd 9002 393e 9efe 95bd ec14 cdbd
00000150: 1ff2 f4be 157e b4bd 3b73 473e aa60 5bba
00000160: c6e1 393d eecd 4cbd b42c d73d de60 4cbe
00000170: 730c c4bd 1d51 bbbe 4981 af3e 6c25 033e
00000180: f46a 383e 7b52 c3bc 6533 64be 1253 053e
00000190: 46bd 043e e7c3 e1bd c3fc b4bd 26da 613e
000001a0: fece 343e bd0f bbbd 1e23 f03c dd8e 163c
000001b0: a79b e1bc 5a4b 763d e8fd 6ebe 68cb 60bd
000001c0: bed9 46be 4a1d d03d 0922 9f3e a045 9dbe
000001d0: d5eb d13c 26ef 1bbe 1305 94bb 45dc ec3b
000001e0: 97ed d33c ccdc 80bd eef1 5a3d d9f4 cf3d
000001f0: e0bf 563c fea6 84be 81dc 193e 686c da3d
00000200: 948b cebc 1d3e d13c f7b7 08be d71d d03c
00000210: e0f2 3ebe c270 613d 5db2 1c3b 9153 843d
00000220: b13c e4be 4c41 e2be 6db7 d9bd f078 bcbd
00000230: 9ff7 a93d cae0 633c 2e0a 363a 6853 06be
00000240: e41a 18bf 027d bfbc d2ca 30be 2815 303d
00000250: 7ff9 f53b 30dc 40be 22a9 783e ad58 3e3d
00000260: 9622 5dbd 6816 023e 59f4 60bc a4db 87bd
00000270: 333d 85be f5d9 8cbc c624 78bc c74a a53c
00000280: 91c2 66bc 737f 1dbc 4c26 af3e 39d3 343d
00000290: a45d 4ebd a191 ab3e edc4 003e 9b91 203e
000002a0: 89d2 61be ba9b 8d3d 1665 ad3d bb6d 96bc
000002b0: aa1b 873c a672 fd3d 7e37 6bbe e370 2e3e
000002c0: 401d 7fbe a8f6 883d 2df7 48bd 1f70 663d
000002d0: d95f de3d 8bb9 e8ba 2f8f 053e 7859 dbbd
000002e0: c0dd b6bd 8065 9ebe 0923 323d f8e5 663d
000002f0: fb10 32be 1ca2 e33d efa2 cabd 8de5 61be
00000300: d88c b53b 2773 0a3e d10e 3cbe 3602 8bbd
00000310: 4176 18be c7d8 f73b d0db 0cbe 545c 513e
00000320: fe3c 8ebe dedf 82be 9c2b 6b3d 50f6 64be
00000330: 79ae 3fbe 7dab 8a3d d332 c1bd 6150 0b3a
00000340: dc13 8cbe 3c02 7abd b57b 293d 19d9 9a3e
00000350: a106 53be a8bb 44bd 1964 aabe 7d09 163d
00000360: 333b 683d 156d 293e e67e 143d ebf6 533c
00000370: 3420 ab3c 86cb 1fbe 79a1 9b3d 6e50 ad3d
00000380: 7310 18bd 5efb 8fbe 9477 833e 6d6e babc
00000390: 4ffd fd3d b29c 86be fc6b e6be 2db8 dfbd
000003a0: 574d babe 8c2a c5be eee0 86bd b55a 11be
000003b0: c101 a83c 31d7 04be 3863 0d3d bd7a 6bbe
000003c0: c82d 64be 3609 a2be 42df 1a3e a221 173e
000003d0: de7d 063e 60d7 f13d 0e15 60be 6927 a43d
000003e0: 1516 5fbc 6fee bfbb 7a2d 893d bf20 123e
000003f0: 037e 533d c124 37be cec3 193d dfb5 133e
-0.0021160438 -0.0011651453 -0.23104677 0.00016442908 -0.002062686 -0.07329549 -0.11167356 0.13821892
0.14100657 -0.21713814 0.21786629 0.17943722 -0.119710736 0.079300076 0.10573092 -0.33060068
-0.13117695 0.16288552 -0.35202646 -0.13289194 -0.39390552 -0.13201408 0.16606677 0.16839701
-0.006656915 -0.09689097 0.029114388 0.2096525 -0.120740786 0.15260734 0.19895658 -0.47672707
0.0030339805 -0.15860543 0.2664014 -0.040726457 0.21928307 0.12941861 0.07058646 0.21222316
-0.10927928 0.391817 -0.16670327 -0.16382866 -0.20227772 0.26609397 0.08222694 0.08180662
0.24304679 0.12233171 -0.14836814 -0.23936485 -0.13222097 0.29598728 0.07269446 0.017985472
-0.13392283 0.0015704822 -0.22557601 -0.047613516 -0.048788603 -0.07919255 -0.06518115 0.0089858575
0.14209314 -0.08808326 0.035605565 -0.042239375 0.30067164 0.032514084 0.11637198 -0.07916102
-0.12715265 0.17992443 0.1648912 -0.054804724 0.0671132 0.19454159 0.07468284 -0.121843316
-0.046800263 0.18067384 -0.07323955 -0.10013756 -0.47840974 -0.08813111 0.1947755 -0.0008368591
0.04538133 -0.050001077 0.10506573 -0.19958827 -0.09572687 -0.36585322 0.34278324 0.12807244
0.1800955 -0.02384304 -0.2228523 0.1301997 0.12962827 -0.110236935 -0.08837273 0.22055873
0.17657086 -0.09133861 0.02931362 0.009189335 -0.027540041 0.060130455 -0.23339045 -0.054881483
-0.19419 0.101618364 0.31080654 -0.30717182 0.025625149 -0.15227947 -0.0045172065 0.0072284066
0.025870128 -0.06292114 0.05345338 0.10154123 0.01310727 -0.25908655 0.15025522 0.10665208
-0.02521304 0.025542313 -0.13351427 0.025404854 -0.18647337 0.055039175 0.0023910024 0.064612515
-0.44577554 -0.44190443 -0.10630689 -0.092027545 0.08299183 0.013908574 0.0006944266 -0.13117754
-0.5941603 -0.023375038 -0.1726487 0.042988926 0.007506549 -0.18833995 0.24283269 0.046471287
-0.05398806 0.1270386 -0.013730132 -0.0663369 -0.26023254 -0.017193774 -0.015145486 0.020177258
-0.014084474 -0.009612906 0.34208906 0.04414675 -0.05038227 0.33509544 0.12575121 0.15680544
-0.22052969 0.06914468 0.08466546 -0.01836287 0.016492683 0.12375383 -0.22970387 0.1703525
-0.24913502 0.06687671 -0.04906385 0.05625927 0.10858125 -0.0017755491 0.13042901 -0.10710424
-0.08929014 -0.30936813 0.043490443 0.05637166 -0.1738929 0.11114904 -0.09894358 -0.22060223
0.0055404715 0.1352049 -0.18365027 -0.06787531 -0.1488886 0.0075636837 -0.13755727 0.20445377
-0.27780908 -0.25561422 0.057414636 -0.22359586 -0.187189 0.0677099 -0.09433522 0.00053144066
-0.27358902 -0.061037287 0.04137774 0.30243757 -0.20607997 -0.048030525 -0.33279493 0.036630142
0.05669708 0.16545518 0.036253832 0.012937288 0.02088938 -0.15604982 0.07599158 0.08462606
-0.037125062 -0.28121465 0.25677168 -0.022757733 0.124018304 -0.26291424 -0.4500426 -0.109238006
-0.3638713 -0.38509023 -0.06585871 -0.14194758 0.020508649 -0.12972714 0.03451845 -0.2299604
-0.22283089 -0.31647652 0.15124229 0.14758924 0.13133952 0.11808658 -0.21883032 0.080153294
-0.013616105 -0.005857281 0.06698127 0.14270304 0.051633846 -0.17885114 0.03754025 0.14424847

actor.4.bias f4 [128]
00000000: c440 9abe 5c2b c7be 3d80 84be f49f afbc
00000010: 81c9 c2bd d9f4 a0bd 39cd 72be e34c 4abe
00000020: 18b4 ebbe 82f5 80bf 80e2 9cbe 0cae 70be
00000030: a700 73bd 2df5 75be 997d dabe 53d9 3abe
00000040: b9db dcbe 3418 87be c15d acbe a8df 8bbe
00000050: e24c 27be afe8 a7be 7b94 dcbe ce2e 4dbe
00000060: 1606 a5be 708a a4be 7ef4 fcbe 2e89 1fbe
00000070: b902 afbe 8550 12bf 8bec 2fbe 7b57 28bf
00000080: ed97 f9bc 1825 a3be c803 f4be b539 98be
00000090: 420f babe d9b0 abbe c505 bb3c 0977 0dbe
000000a0: eea5 60be acfb b5be ef8e c5be e91d 96be
000000b0: 0edd c1bd 8f6d efbd 3995 a7be 5455 b7be
000000c0: 2564 4ebd 26d7 2ebe 6abf 14be 468d 60be
000000d0: 2b01 74be 234c 80be f2c5 0cbf 5964 36be
000000e0: 40ef 0fbf 2358 86be b8ef c2be 21fd 71bc
000000f0: 0895 d2be 1dfe 27be c2b4 b0be dad6 38bf
00000100: c410 8bbe 9e29 96be 9d2f 45be 11eb 2bbf
00000110: 7d3f 87bd 1903 76be 162e 6bbe 3b6e 05bf
00000120: f14d 27be d394 70be 44cc a5be 0d82 52be
00000130: c7ac 15bd 721b b6be 1a10 e9be c23b 9fbe
00000140: 7ee4 17be 6d53 63be ea90 69be 421f d3be
00000150: 78e2 e4be aa11 b1bf fd6c b4be 5ff1 98be
00000160: aa07 d3be 3992 82bd 0636 79be 10d4 90be
00000170: 8962 e2be 2b87 a2bf 4c75 c2be 9d44 6bbe
00000180: d6be 65be 9d4c 6dbe 38c4 36be bd80 b0be
00000190: fb9c 7cbe a213 d0be b4bd 9cbe 4732 60be
000001a0: 012e c4be 9587 6bbe 7e01 2dbf b545 69be
000001b0: a44b d9be 494c 81bf 962a 8bbe 52a7 b9be
000001c0: 680e c8bd 0d9a 7ebe 0291 cebd 1463 31be
000001d0: 8568 15be 327b b7be 8720 5dbe 265a d2be
000001e0: 0c3a e1be 3776 82bd b192 e4be dba4 c0bd
000001f0: 87cd 1ebf 6e01 f6bd 59d2 55be 931b 55be
-0.30127537 -0.38900268 -0.25879088 -0.021438576 -0.0951109 -0.07859201 -0.23711099 -0.19755892
-0.46035838 -1.0074923 -0.30641556 -0.23503894 -0.059326794 -0.24019308 -0.42673948 -0.18246965
-0.43136385 -0.26385653 -0.3366528 -0.27319074 -0.16337922 -0.3279471 -0.43082032 -0.20037386
-0.32231206 -0.3213687 -0.49405283 -0.15579674 -0.34181765 -0.57154113 -0.17180078 -0.65758485
-0.030467952 -0.31864238 -0.47659135 -0.29731527 -0.36339766 -0.33533362 0.0228299 -0.1381494
-0.21938297 -0.35543573 -0.38585612 -0.29319695 -0.09465991 -0.116908185 -0.32731035 -0.35807288
-0.050388474 -0.1707426 -0.14526144 -0.21928892 -0.2382857 -0.25058088 -0.5498954 -0.17811717
-0.5622444 -0.26239118 -0.38073516 -0.014769823 -0.41129327 -0.1640553 -0.34512907 -0.7220284
-0.2716123 -0.29328626 -0.19256444 -0.6715556 -0.06603906 -0.24024619 -0.22966799 -0.52121323
-0.16338326 -0.23494272 -0.32382405 -0.20557423 -0.036541726 -0.35567814 -0.45520097 -0.3110028
-0.14833257 -0.22199793 -0.22809187 -0.41234785 -0.44704032 -1.3833516 -0.352394 -0.29871652
-0.41216785 -0.06375546 -0.24337015 -0.2828679 -0.442158 -1.26975 -0.37980115 -0.22975393
-0.2243608 -0.23173757 -0.17848289 -0.3447322 -0.24669258 -0.4063998 -0.30613482 -0.2189418
-0.38316348 -0.23000939 -0.675804 -0.22780497 -0.42440522 -1.0101405 -0.27180928 -0.36260468
-0.09768373 -0.24863453 -0.10086252 -0.17322952 -0.14590652 -0.35836178 -0.2159444 -0.41084403
-0.439896 -0.06370204 -0.44643167 -0.09406444 -0.6203236 -0.120119914 -0.20881023 -0.208113

actor.6.weight f4 [12, 128]
00000000: c9a6 6d3d e249 1ebd a704 00be 8ae7 45bc
00000010: 9c28 64bb ffe7 2a3d c94e 513d 2508 3dbc
00000020: 7983 f23d db18 82bd 2861 c6bc 39a1 27bb
00000030: e46c c0bc 46e5 e1bc a252 7dbb 49fd 253c
00000040: 3a4d debd cd9a cfbb cfe6 6b3d c03a 773d
00000050: 4e9c 873d b75b 853a 4be3 b4bc 0526 3a3d
00000060: bd98 afbd fd86 afbc 868b 89bb 83de 8c3d
00000070: f856 c5bc ebf9 f4bd cd8d 3d3c c42e ad3d
00000080: 0bc6 c8bb 6b17 153d 3d76 643d 714c 0dbc
00000090: 6b92 97bc d4ff 09bd b338 9cbd a428 383d
000000a0: 66c7 4c3d 26dc 4fbc b7d9 e2b9 69db 9c3c
000000b0: c620 3e3c a1fc debb 4749 4cbd d708 853c
000000c0: f2c2 95bc ca33 d83b 0b2f dabc 735d f3bc
000000d0: 5c48 a73c bb23 693d 682b 33bc 5807 323c
000000e0: c814 6b3c 0c23 f3bc 0971 203d b4f8 2f3d
000000f0: 6a43 073c 8cc4 793d d9a1 b93c 4049 133e
00000100: 3ace 25bc e31d 67bb 9648 e63c 1bbf 8abb
00000110: e1f2 f23c 6e26 0fbe 919b a6bd 11b7 c23b
00000120: c25c 3dbd 1ece efbc b073 29bd 20f8 7e3d
00000130: f6d8 a5bd 8c66 c13c 510a 343d 5451 01bc
00000140: e763 dbbd ce92 fb3b 4c1c 443d 709f d7bb
00000150: 7bb8 6c3d 65bd 1d3d 409f dcbc 5393 40bc
00000160: 4943 083c 7f24 14bd 8aea e33b 28ed 64bc
00000170: 9974 183d 0a2c f83c fc70 cf3d 1c0b 94bc
00000180: c9c4 9bbd b5d4 9ebc 943a b33c 6c6b 3abc
00000190: bb7d bf3c b84c b03c 8dbe 0b3c ff43 01be
000001a0: 4745 7bbc 5fbc e73b 2f9f 1b3d 62df 233d
000001b0: 7283 c53c eca1 b2bc d6cf aabc d2d5 6ebb
000001c0: a5f4 8d3d db3f 2c3c 0ab2 233c cace 6bba
000001d0: 443d 3f3c d97f a63c 2be7 1a3d 2349 63bb
000001e0: 2247 06bc 39e1 19bd ba51 21bd 8d62 aa3c
000001f0: 7f2e 1f3c f2ed 9cbc 1d39 87bd 1900 5fbc
00000200: 82fc 27bd 4164 163d 949f b33d b2d5 053d
00000210: 4cad eb3c 333b 66bd 296c 53bc 434d 633d
00000220: d68e 2fbd 3b23 51bd fc95 093d 53c5 353c
00000230: 9ae3 f8bc 5e1d 583d 111a 303d 05de 45bd
00000240: 6cd9 033c bfba 1fbc c19a 71bc 7961 f6bb
00000250: 44aa 3fbd 3c00 6abd a446 973b 7a1f 9bbd
00000260: 57fc c83c 39be 5d3c 5104 7c3d 2b39 1abd
00000270: b0f4 d6bc 6218 6b3d 9362 75bc c780 28be
00000280: 859c dabc e94a bf3c d54e d8bb c922 3f3d
00000290: c24d 093c bf6a 3fbc 4c01 69bd d491 fbbd
000002a0: f64e 803d 5174 50bb 8bd8 0cbb 80bc a5bc
000002b0: 12a2 0dbb 8c46 00bd d2ff 6fbd e275 b63c
000002c0: 182f debc 84d8 1ebd 388a 383d 9306 c6bb
000002d0: 0329 253d bcea 01bd 59af 353c 206d 06bd
000002e0: 6eba 9e3d 05d6 aa3c 534e 5f3b 76c6 d63d
000002f0: 7d7a 1ebd 5287 62bd 77ef 9d3d 4d59 1cbe
00000300: f214 35bb e55e ed3c 7554 083c 68dd 0fbc
00000310: 59e9 91bc 7f35 163e d703 68bd 1c2d 1ebd
00000320: 1c31 b0bc f838 e33c fe11 fc3c 6f02 c8bc
00000330: b3bd 313c 9d8c 2fbc d2c0 813b ae85 88bc
00000340: a085 eb3c dea9 dbbc f39f 90bb ae9d 09bc
00000350: ab14 18be 2345 1dbc a10e 1d3d b3d2 12bd
00000360: e4cb 203c 049a d63a 37f6 143d d14f 113d
00000370: 18ce 2dbd da04 323d 1dbf 433c 67b8 a13d
00000380: e363 aabb 2eb1 56bd 77ad 073d 7bde f63c
00000390: 75f8 42bc 7400 1fbd 98b2 f9bc 3d04 963d
000003a0: 3501 5a3b 3846 f5bc 2968 c4bd e144 a13c
000003b0: 1ed2 4e3d 7e92 d83c 6dcb ac3c a5fb 0b3d
000003c0: e8a7 093c b9fd 583d 4be7 873d 6d77 3fbd
000003d0: 5f1b 1cbd 14d0 f53c 67f6 d23c e842 fd3b
000003e0: 766d 3a3d df48 313c 476d 763d 766f 703c
000003f0: 2011 5abd 2270 693d bc37 923b 9839 86bd
0.058020387 -0.03864468 -0.12501775 -0.012079129 -0.0034814244 0.041725155 0.051100526 -0.011537586
0.11841483 -0.06352397 -0.02421625 -0.0025578274 -0.023489423 -0.027575146 -0.003865399 0.010131189
-0.108545735 -0.0063355924 0.057593163 0.060358763 0.0662161 0.0010174428 -0.022081038 0.045446415
-0.085740544 -0.021426672 -0.0041975407 0.06878378 -0.024089321 -0.119617306 0.0115694525 0.084561855
-0.006127124 0.036399286 0.055776823 -0.008624182 -0.018502435 -0.033691242 -0.07628002 0.044960633
0.04999485 -0.012686765 -0.0004326829 0.019147592 0.0116044935 -0.006805018 -0.04987457 0.016239567
-0.018281434 0.0065979706 -0.02663376 -0.029707646 0.020420246 0.05691884 -0.010935642 0.010866009
0.014348216 -0.029679798 0.0391703 0.04296179 0.008255819 0.060978457 0.022660183 0.14383411
-0.010119969 -0.0035265617 0.028110784 -0.0042342073 0.02965683 -0.13979504 -0.08135141 0.0059422334
-0.04623104 -0.029273089 -0.041370094 0.06224835 -0.08098023 0.023608468 0.04395515 -0.007892925
-0.10712414 0.0076774126 0.04787855 -0.0065802857 0.05779312 0.0385107 -0.026931405 -0.011753875
0.008316823 -0.036167618 0.0069554495 -0.013972558 0.03722057 0.030294437 0.10128972 -0.018071704
-0.07605893 -0.019388536 0.021878518 -0.01137815 0.023375383 0.021520957 0.008529318 -0.12623595
-0.015336341 0.007072016 0.037993606 0.040007956 0.02411053 -0.021805726 -0.020851057 -0.0036443365
0.06931428 0.010513271 0.009991178 -0.00089953525 0.011672322 0.020324634 0.037818115 -0.0034681044
-0.00819567 -0.037568305 -0.03938458 0.020798946 0.009715675 -0.01915643 -0.0660269 -0.013610863
-0.041012295 0.036716703 0.087706715 0.0326745 0.028769158 -0.0562088 -0.012904205 0.055493604
-0.04286083 -0.05105899 0.033590302 0.011094409 -0.030381966 0.05276238 0.04299361 -0.048307437
0.008047443 -0.009749114 -0.014746369 -0.007518944 -0.046793237 -0.05712913 0.0046165753 -0.07574363
0.024534388 0.013534122 0.061527554 -0.037652176 -0.026239723 0.0573963 -0.014977115 -0.16455375
-0.026685962 0.02335115 -0.0066011944 0.046664033 0.008380355 -0.011683165 -0.056886002 -0.12283674
0.062650606 -0.0031807611 -0.0021491374 -0.020231485 -0.0021611494 -0.03131728 -0.05859358 0.022273008
-0.027122065 -0.038780704 0.04505369 -0.006043264 0.040322315 -0.031718 0.011089169 -0.032818913
0.077504024 0.020854006 0.0034073784 0.10487072 -0.038691033 -0.055304833 0.0771169 -0.1526844
-0.0027630893 0.028975913 0.008320917 -0.008780815 -0.017811464 0.14668845 -0.056644287 -0.03861724
-0.021507792 0.027737126 0.030770298 -0.024415223 0.0108484505 -0.010714677 0.0039597536 -0.016665306
0.02875024 -0.026814397 -0.0044135987 -0.00839941 -0.14851634 -0.009599003 0.03834403 -0.03584547
0.009814236 0.0016372805 0.03636762 0.03547651 -0.042432874 0.043461658 0.01194742 0.078965
-0.0051998957 -0.052415065 0.033124413 0.030135384 -0.011900057 -0.03881879 -0.030480668 0.07325027
0.003326488 -0.02994071 -0.095901795 0.019686164 0.050493352 0.02643704 0.021093095 0.034175534
0.008401848 0.052976344 0.066359125 -0.046744753 -0.03811204 0.030006446 0.02575226 0.007728923
0.045514546 0.0108205965 0.06016281 0.014675012 -0.053238988 0.056991704 0.0044622105 -0.06553954

actor.6.bias f4 [12]
00000000: b996 85be b8f9 333e ce16 b5be 8b02 6e3d
00000010: 6fcd f1bd 02ef 7abe 28aa 04be 6aa1 a4bb
00000020: 275c 833e 3298 5f3e a369 1c3e 37a7 84bd
-0.26091555 0.17575729 -0.3536896 0.058107894 -0.118067615 -0.24505237 -0.12955534 -0.005024125
0.25656244 0.21835402 0.15274672 -0.06477206
