logs/rsl_rl/unitree_go2_flat/2024-07-13_17-35-06/exported/policy.onnx (onnx, 163093 bytes, 8 tensors)

actor.0.weight f4 [128, 45]
000000 b3 ab 6f be be eb 0c 3e c1 30 ad bd 3f 72 bb 3e
       -0.23405342 0.13761804 -0.08456565 0.366106
000010 6a 53 27 3e 03 5f 35 bd 48 96 31 3d e0 0c 01 3e
       0.16340414 -0.044280063 0.04335621 0.12602568
000020 14 49 15 3e 2d aa cf be 57 f7 b4 be 9d 43 28 3e
       0.14578658 -0.4055952 -0.35344955 0.16432042
000030 f9 1c 06 bc 23 ad 2b 3e c0 0b 86 3c c4 0c 19 3e
       -0.008185619 0.16765265 0.016363025 0.14946276
000040 7f bc 9d 3e 6d 32 56 3f 66 a7 e1 3e 75 f6 f0 bd
       0.30807874 0.83670694 0.44073027 -0.11765758
000050 50 a2 f1 3d 22 2b 26 3b 8e af d0 bd 28 71 39 3d
       0.11798537 0.00253553 -0.101897344 0.04527393
000060 cd 4b d0 3b 11 fe a5 3c 23 a4 7b 3d 17 3f a0 3d
       0.0063566924 0.02026275 0.06143583 0.078245334
000070 0e 15 2f bd 22 c0 87 bb b0 73 17 be 6b b6 8d 3d
       -0.04274469 -0.004142777 -0.14790225 0.06919559
000080 d2 44 9b bc 63 5c c8 bd 43 ec 4a be f7 3c 4f bd
       -0.018953715 -0.09783246 -0.19816689 -0.05059525
000090 0f f5 a8 3d 41 10 16 bd 4a 7a 17 3e 5b f0 df 3d
       0.08249866 -0.036636595 0.14792743 0.10934516
0000a0 b5 51 0a bc 21 1e 25 3e db 76 5c be 4f 20 73 bd
       -0.008442332 0.16124775 -0.21529715 -0.059356984
0000b0 b8 50 cb 3d 0b ac 24 3e 3d b8 e7 be c8 b0 10 be
       0.09927505 0.16081254 -0.4525775 -0.14129937
0000c0 0e 45 24 3e ba f3 7d bc e7 24 04 3e 4a 6c b9 3c
       0.16041967 -0.0155000035 0.12904702 0.022634644
0000d0 d4 3c ef bd bd b8 6a 3d c8 31 e6 bd a4 cf a3 3e
       -0.11681524 0.057305086 -0.11239964 0.31994355
0000e0 da ea 61 be 11 79 ec be ad 3c 49 3e c6 8e 9f 3d
       -0.22062245 -0.46186116 0.19652052 0.07790904
0000f0 ed 9d 26 3e 70 17 08 bf ac aa 6d be 48 5f 17 3e
       0.16271181 -0.5316076 -0.23209637 0.1478244
000100 a6 ce d6 3d d3 d6 05 3e 4e d3 8f bc ae 33 a9 bc
       0.10488634 0.1307023 -0.017556813 -0.020654526
000110 f9 b2 d3 3d 93 b4 d2 3d b3 de 15 be 51 b1 7d bb
       0.10336871 0.10288348 -0.14635734 -0.0038710425
000120 a7 4d a2 3d 9d a2 ab 3c cd bc 40 bd 3c d5 25 3d
       0.07924967 0.020951563 -0.047055054 0.04048656
000130 c0 55 3d bc d1 5b d6 3a 7a 85 b6 3c 9e 8c 54 3d
       -0.011556089 0.0016354268 0.022280443 0.051891916
000140 db c4 53 be 51 9b 02 3d a1 15 83 3e b4 73 e4 bd
       -0.20680563 0.031886403 0.2560244 -0.11154881
000150 4a 29 49 bd 26 03 11 be 06 ac c0 bd df 63 c6 3d
       -0.049111642 -0.14161357 -0.09407811 0.09687018
000160 37 97 3c ba d3 9e ad 3e 5a 46 8b 3d 1f ab 15 3d
       -0.00071941636 0.33910236 0.06800528 0.036540147
000170 51 8a 4e 3e 13 21 72 bd 2f 68 8a be 81 de 70 bd
       0.20169951 -0.059113573 -0.2703261 -0.058805946
000180 ee d8 24 be 37 d2 ad 3d 6d 21 90 be 3c af e8 3e
       -0.16098377 0.08487361 -0.28150502 0.45446193
000190 40 f9 33 3f 24 c3 16 3f 58 8c 0e be f8 d1 b3 bd
       0.703022 0.5889151 -0.13920724 -0.08780283
0001a0 a6 87 24 bf b9 4e 30 3d 3a 93 43 be ff ac 82 3e
       -0.64269483 0.043043826 -0.19099131 0.2552261
0001b0 3c 06 51 be 1f 8c 3d 3e c5 7d 24 3f 38 4c 4f 3b
       -0.20412534 0.18510483 0.6425441 0.0031631123
0001c0 d2 36 a6 3c f3 88 ff bc 98 4a 7f 3d ea 82 3c bc
       0.020289812 -0.031193232 0.062326998 -0.011505822
0001d0 fa 7e fa bb f4 4e 59 3d e3 c9 ef 3d cd 85 e7 bc
       -0.0076445313 0.05305381 0.11708429 -0.028262043
0001e0 83 17 8f bb 82 f0 c9 bc 43 8b 15 3d 79 1f 0e 3d
       -0.0043668165 -0.024650816 0.036509763 0.034697983
0001f0 7d 11 c5 bd e9 f9 b8 3c d7 18 9f bc ee ce b0 3c
       -0.09622476 0.022580104 -0.019421024 0.021583047
000200 68 9b 23 bc 99 35 73 bc 51 19 ea bd 44 be ee bd
       -0.009985782 -0.014844322 -0.1143061 -0.11657384
000210 cc 78 f3 3d 99 de 34 3e 67 b5 5f 3e d3 d6 66 3d
       0.118882746 0.1766304 0.21846543 0.056357216
000220 37 e8 a3 be ba 08 0b 3f 2c 9c 0d bf 92 e2 03 bf
       -0.32013103 0.5431019 -0.55316424 -0.51517594
000230 a4 f3 33 be af 15 cb bd 76 93 11 3e 0a 7a fb bd
       -0.1757341 -0.09916245 0.14216408 -0.122791365
000240 d3 74 33 3f d8 18 43 3f cd 59 0a 3f ef 54 bc 3e
       0.70100135 0.76209784 0.54043275 0.3678355
000250 a7 dc 4e be a4 09 99 be 1b a0 58 be cf 47 26 bf
       -0.2020136 -0.29890168 -0.21154825 -0.6495332
000260 2f 84 01 be c1 58 f0 be d7 25 14 be d9 36 aa be
       -0.1264808 -0.46942714 -0.1446756 -0.3324497
000270 74 81 b5 bb b1 a6 40 bc c2 ea 2e 3d 80 db 1a bc
       -0.0055391137 -0.011758492 0.04270435 -0.009451747
000280 84 b6 a6 bc 52 d5 00 bd c4 d7 9f 3c 48 9b 98 bc
       -0.020350702 -0.031453438 0.019512065 -0.018628731
000290 27 a0 ca bb e9 ab b2 bd 7b 56 98 3d 6b 6e dc 3c
       -0.0061836424 -0.087241955 0.0743837 0.02690812
0002a0 70 ce 16 3e 64 05 e4 3d 39 6d c3 3d da 9b 9c 3e
       0.14727187 0.11133841 0.09542317 0.30587655
0002b0 b3 e0 3b 3c f3 ce bc bc 62 b1 0b bc 57 fe c5 39
       0.011467147 -0.0230479 -0.008526178 0.00037764266
0002c0 5d ac 9a 3d 73 4f ae 3d 9c 9d e1 bd 74 25 78 bc
       0.07552407 0.085112475 -0.1101639 -0.015145648
0002d0 32 c0 58 3d 46 f0 4c 3e 1c 7e c7 bc d8 60 19 bf
       0.052917667 0.20013532 -0.024352126 -0.59913397
0002e0 3e 4b 3c be 37 69 34 3e a2 dc 90 3d d6 4e bc bc
       -0.18388078 0.17618261 0.07073332 -0.02298681
0002f0 5a 4a 34 bc 7e 5e 91 bc e6 66 39 be 7d a1 67 3d
       -0.011004055 -0.017745253 -0.18105659 0.05655049
000300 f9 3e b6 be 8d df 16 be 19 7c db bd cb 57 99 3e
       -0.3559492 -0.14733715 -0.10717029 0.29949793
000310 9a 43 bd 3e c2 c0 f4 be 31 46 2d bf 95 00 9f be
       0.36965638 -0.47803313 -0.6768523 -0.31055132
000320 6b fb 93 be 50 de 3d 3e 2d 8e 17 bc ff a3 57 3d
       -0.28902754 0.18541837 -0.009250206 0.052646633
000330 5c 0f cb 3d a9 e4 ef ba e2 4a 05 be 1d e0 09 3d
       0.09915039 -0.0018302399 -0.13016847 0.033660997
000340 bd e4 ba bc 8b a1 04 3d 35 9c 65 bd 4f 50 15 bc
       -0.022814149 0.032380622 -0.056057174 -0.009113385
000350 fe 0a 97 3c 29 fd 11 be 0b cf 1c be 53 e4 86 3d
       0.018437859 -0.14256729 -0.15313356 0.06586518
000360 1e 7e 90 3b c3 af 5c 3e 1b c3 9c 3d ba aa 33 3d
       0.0044095656 0.21551423 0.07654401 0.04386399
000370 a1 52 0a 3d ed c0 1a 3e 99 d5 72 be 76 35 e1 3c
       0.033770207 0.15112658 -0.23714294 0.027491312
000380 bc 6d 17 3e 61 81 87 3d 98 ac 8f 3e 3c 85 9f bd
       0.14787954 0.06616474 0.28061366 -0.07789084
000390 3b d0 db 3e 7c 8b 39 be 37 24 0b 3e 53 4e 0f be
       0.42932305 -0.18119615 0.13588034 -0.13994722
0003a0 bd 01 18 3e 96 b5 1a be 2b 66 ff 3c 3f b9 9e 3e
       0.14844413 -0.15108332 0.031176647 0.31000707
0003b0 23 7b f8 3e a1 14 5c 3e 3e fe 6d be 4e 4f 37 3e
       0.48531446 0.21492244 -0.23241517 0.17901346
0003c0 82 fc 89 be 61 98 83 be a8 d3 d1 3e 96 65 dc 3d
       -0.2695046 -0.25702193 0.40981793 0.107615635
0003d0 90 70 af 3e 9a b0 94 bd 19 1d 48 3d d7 37 a8 bd
       0.34265566 -0.072602466 0.048855875 -0.082137756
0003e0 03 b6 1e bc 26 be f8 bd 19 1b 18 be e9 23 d5 3c
       -0.00968695 -0.12145643 -0.14854087 0.0260181
0003f0 14 60 ac 3d f1 57 4a 3e 27 5f ac 3d da 50 cd bd
       0.08416763 0.1976011 0.08416586 -0.10025187

actor.0.bias f4 [128]
000000 bc db f0 3d 46 15 31 bb 25 02 0e 3c 9b 66 1d 3e
       0.11760661 -0.0027020737 0.0086675035 0.15371172
000010 96 3b 96 be 5b 22 55 bd 7c b8 81 3e 75 9b 03 be
       -0.29342335 -0.052034717 0.25336063 -0.12852271
000020 8f 7e 14 bc 90 28 20 bd 2d ad aa be a8 7b b5 bd
       -0.009063377 -0.039101183 -0.33335248 -0.08861476
000030 b0 94 bd bd 3f d2 d1 3c d3 30 8d be 70 28 73 bb
       -0.092568755 0.025612948 -0.27576312 -0.003710296
000040 82 e2 31 3d 58 ad 9a be 98 85 01 be 78 0c 20 3d
       0.043428905 -0.30210376 -0.12648618 0.03907439
000050 76 0e 0c 3c 15 77 a6 bc a9 b6 10 be e9 ac 84 3a
       0.00854837 -0.020320455 -0.1413218 0.0010122332
000060 e4 db 98 be c6 99 59 be c5 2c 95 be b2 94 45 be
       -0.29855263 -0.21250066 -0.2913572 -0.19295004
000070 95 44 82 be 63 f6 1b be 6b 4c 3f bd ca cc 02 be
       -0.2544295 -0.15230708 -0.046703737 -0.12773433
000080 02 fc 83 be f0 50 5f be 4f c4 09 be bb b4 ef bb
       -0.25778204 -0.21808219 -0.13453792 -0.007315246
000090 41 50 b4 be 02 98 9d be ee 83 31 3e 12 65 f2 bd
       -0.3521748 -0.30780035 0.17335483 -0.11835684
0000a0 c7 28 1f be af 79 e2 bd b1 1b 43 be 46 3c 30 be
       -0.15542899 -0.110583656 -0.19053532 -0.17210492
0000b0 32 93 4d be 52 ad d7 3c c6 59 00 be 5e a5 64 be
       -0.20075682 0.026327763 -0.12534246 -0.22328708
0000c0 ce 3b 05 be 08 9b 1d 3c 1f 71 90 bd 22 ad f9 3d
       -0.13011095 0.009619482 -0.07052826 0.121912256
0000d0 1d ac d2 3c 86 84 bc be 68 12 4c be ce f6 d9 3d
       0.025716836 -0.36819857 -0.19928896 0.106427774
0000e0 42 51 09 3e c3 31 9e bd 9e 6b 40 be 95 67 2f 3e
       0.13409904 -0.07724335 -0.18791053 0.17129357
0000f0 b7 be 10 be 68 59 d2 bd 2b 43 35 3d 3c 65 c0 bd
       -0.14135252 -0.10270959 0.04425351 -0.09394309
000100 3c 51 d6 bd a0 df 0e be 97 6a b2 3c 71 39 70 be
       -0.10464713 -0.13952494 0.021779342 -0.23459412
000110 e4 ff e6 bd b7 3a e4 bd 89 af 63 3d 16 aa 41 3d
       -0.11279276 -0.111440115 0.055587325 0.047281347
000120 d1 eb 32 bd 56 99 dc bd b0 ae 35 bd 66 b6 8c bd
       -0.043681923 -0.10771434 -0.044356048 -0.06870727
000130 ce 9a e6 3d 4a 22 47 be ae 5e e9 bd 6f d5 b9 bc
       0.112599954 -0.19446674 -0.11395012 -0.02268478
000140 c1 f7 d7 3c 4f 31 7d bd b7 1d de bd 0e 97 46 be
       0.026363255 -0.061814602 -0.108455114 -0.1939356
000150 22 d5 15 3d c1 c4 68 3d 06 29 8e be 9b e8 9f bb
       0.036580212 0.056828264 -0.27765673 -0.0048800237
000160 c2 98 b0 3d 4e 8f 6a be c8 56 ae bd b8 da 05 3e
       0.08622886 -0.22906229 -0.08512646 0.13071716
000170 e8 54 3f be 0b cb c2 3d 7f db 49 3d dd e7 52 3e
       -0.18684733 0.095113836 0.049281593 0.20596261
000180 fc 4f a5 bc f8 ed 64 3d a3 5c b4 bd 8c 55 d8 bc
       -0.020179741 0.055891007 -0.088067316 -0.02640798
000190 35 3d d7 bc 59 f4 53 bd 38 bd 18 be 1b 64 36 be
       -0.026274303 -0.0517467 -0.14915931 -0.17811625
0001a0 90 2c 9a 3d c4 5c 4b 3c 21 7b 89 bd ba 73 21 be
       0.07528031 0.012412254 -0.06712938 -0.15766802
0001b0 d8 b2 83 bd c8 44 27 3d 1b f7 34 3d a7 85 84 bd
       -0.06430596 0.04083708 0.04418097 -0.06470805
0001c0 b9 d9 35 3e 2a a3 83 3a 0d 6f cd 3d 00 bc ce bd
       0.17758836 0.0010043134 0.10030947 -0.10094452
0001d0 d0 9b 1f 3e 06 a2 ba bd c9 39 71 3d b4 19 a2 be
       0.15586782 -0.09112935 0.058893 -0.31660235
0001e0 e0 e8 15 be 1c e5 66 be 25 3a 8f 3c 52 b3 e0 bd
       -0.14639616 -0.22548336 0.01748378 -0.10971703
0001f0 c8 a6 55 bd e3 ae 95 bd b0 f7 55 bb 7e 7d 02 3e
       -0.052161008 -0.073087476 -0.0032648854 0.12743184

actor.2.weight f4 [128, 128]
000000 01 61 81 bd 20 18 17 3d 63 d8 4f bd d9 2f 69 bd
       -0.0631733 0.03688824 -0.05074347 -0.056930397
000010 0f b4 33 bd 7e 14 0b 3d 7f e2 a9 bd ad 01 01 be
       -0.04387289 0.03395509 -0.08295154 -0.12598296
000020 00 79 ab 3c e6 78 fe bd 5e 8c 9d 3d fd 6e 72 3d
       0.02093172 -0.12425403 0.076927885 0.059187878
000030 6c d0 01 bd 5c 5e 34 be 6f 54 45 be 42 b9 3e 3d
       -0.031692907 -0.1761412 -0.1927049 0.046563394
000040 49 02 f5 3d 24 eb 81 3d f5 73 03 3e 9c 40 82 bd
       0.119633265 0.06343678 0.12837203 -0.063599795
000050 aa 08 2b bd 90 d1 e7 bd 6d 8f aa bc 6d 04 7c bd
       -0.04175631 -0.11319268 -0.020820344 -0.06152766
000060 fc ea 46 3e b8 64 ad 3d b7 d3 9d bd a8 6a 81 3d
       0.19425577 0.08466476 -0.07706397 0.06319171
000070 92 28 7c 3d 58 55 9b bd 8a aa 77 3d c3 82 c5 bc
       0.06156213 -0.075846374 0.060465373 -0.024110204
000080 17 43 08 3e bb d6 26 3d bc cf 9d bd 24 79 41 3a
       0.13306843 0.040732127 -0.07705638 0.0007380417
000090 b2 f2 08 3e c2 e8 1a 3d e3 72 70 bd 0e 62 08 bc
       0.13373831 0.03781963 -0.058703315 -0.008324159
0000a0 50 2c a1 bd 61 47 70 3d 22 b7 d7 3c e4 d4 93 bd
       -0.0786978 0.058661822 0.026332442 -0.0721834
0000b0 ef 9e 7b bd e4 96 ba 3d 74 db a1 3d a3 c0 18 bd
       -0.061430868 0.09110811 0.079031855 -0.037293088
0000c0 c8 b1 d3 bd 47 63 d4 3d 7f 96 05 be 23 3e 2d 3d
       -0.103366435 0.10370498 -0.13045691 0.042295586
0000d0 99 5a 22 3e 3a c2 7c 3d d9 50 86 3d 9d da 37 bd
       0.15854873 0.061708666 0.06558389 -0.04488622
0000e0 00 37 71 be 28 b2 44 bd 63 83 2a 3d 81 79 51 bd
       -0.23556137 -0.048021466 0.041629206 -0.051141266
0000f0 ca fe 68 3d 14 65 b7 3d a0 8c 31 3c 03 2b bc bc
       0.05688361 0.08954826 0.01083675 -0.022969728
000100 50 16 b4 bc 77 bb 9f bd bf 3e 06 be 70 49 ea bc
       -0.021983296 -0.07799428 -0.13109873 -0.02859947
000110 eb 08 65 bd d5 b3 02 bd 9f ba 9c bd 62 2d 02 be
       -0.055916708 -0.031909782 -0.07652783 -0.12712625
000120 36 39 5d 3c 87 58 8d bc 67 23 5e bd d2 f9 01 be
       0.01350241 -0.017254127 -0.05423298 -0.12692955
000130 d6 a5 24 3d 73 a2 2a be ab 5c 07 3b 96 e7 bc bc
       0.040197216 -0.16663532 0.00206546 -0.023059648
000140 07 95 1f bc 60 eb 76 bd 18 92 31 3e 37 86 de bc
       -0.009740121 -0.060283065 0.17340887 -0.027163608
000150 7e 81 f7 bb 28 90 f4 bd 09 3c 35 bc b7 31 9b bd
       -0.0075532785 -0.11941558 -0.011061677 -0.07577842
000160 91 fb 94 be bf 1e 93 3d f9 d2 5c 3d 13 22 cb bc
       -0.2909818 0.07183599 0.053912137 -0.024796521
000170 0e 41 f3 3c aa 66 04 be 4b 49 6d be 42 67 c9 3b
       0.029694106 -0.12929788 -0.2317249 0.0061463425
000180 3b f3 a3 bd 46 71 98 bc 9b e0 e9 3c 41 ee df 3d
       -0.08005377 -0.0186087 0.028549483 0.10934115
000190 c6 2e c9 39 1d f5 0f 3d fc 69 63 bd db c2 ce bd
       0.00038372556 0.035145868 -0.055520996 -0.100957595
0001a0 7f 44 2b 3d 4f ad 8d bd 82 97 13 3d 7d 0a 44 3d
       0.04181337 -0.069178216 0.03603316 0.047861565
0001b0 32 3f 2e bc eb 18 47 bd 81 7b 35 3d 05 94 8a 3d
       -0.010635184 -0.048607748 0.044307236 0.06766514
0001c0 a4 90 1f bb 45 7a f3 bb fd 95 99 bd 42 7e 76 bd
       -0.0024347687 -0.007430347 -0.07499311 -0.060179003
0001d0 b3 10 02 bd 6a 8e 95 3d 86 14 10 be e2 26 66 3d
       -0.031754207 0.07302554 -0.14070329 0.056189425
0001e0 fd c0 97 bb cb f6 6b bd a4 c7 64 bc b6 21 91 3d
       -0.0046311603 -0.057608407 -0.013963614 0.07086508
0001f0 f4 02 89 bc 31 da 50 3e 36 89 5b bc 2c d3 c2 bd
       -0.016725041 0.20395733 -0.013399413 -0.09512934
000200 78 e1 18 be 48 c5 d1 bb 32 61 77 bd 19 1b c4 bb
       -0.1492976 -0.0064016916 -0.060395427 -0.0059846756
000210 ce 29 b8 3c a9 af 96 bc c3 ff 57 bd 1a c5 aa 3c
       0.022480872 -0.018394308 -0.052734148 0.020845938
000220 e5 1a 75 be b4 19 1c 3e 94 c0 2a 3d 9f 95 83 3d
       -0.2393604 0.1524418 0.041687563 0.06425022
000230 c0 96 9c ba f8 f8 a9 3d 62 24 cc bb 38 91 b5 bc
       -0.0011946782 0.0829944 -0.006229923 -0.022163972
000240 62 d8 6c be 6a 97 84 3d ca 5b b4 3d e2 14 0f 3e
       -0.23129418 0.064741924 0.0880657 0.1397281
000250 23 4c 36 3d 43 52 00 bd e5 3e 13 bd ab ce e4 3c
       0.044506203 -0.03132845 -0.035948653 0.027930578
000260 e4 54 b1 bd 54 db 31 bd 0c 1e 40 3d e5 c3 27 3e
       -0.0865877 -0.04342206 0.046903655 0.16383322
000270 56 ed fc 3d cd b8 3c 3d e1 88 11 3d 9a 30 c1 3d
       0.12349956 0.046074677 0.03553093 0.09433098
000280 de 84 23 bd 95 14 c8 3d bd 64 ed 3c e0 58 22 bc
       -0.039921634 0.09769551 0.0289787 -0.009908885
000290 99 d6 c4 3d 8c df 42 bc b6 d5 a0 3d 78 24 fa 3d
       0.09611244 -0.011894118 0.07853262 0.12213987
0002a0 2d 2d 02 be b4 55 86 bd 20 21 f7 bd 4f b2 58 bd
       -0.12712546 -0.06559315 -0.12066865 -0.052904423
0002b0 b3 ff e5 bd 75 c6 49 be 73 f6 79 bb 2f 85 cf 3d
       -0.112304114 -0.19704612 -0.003814128 0.10132825
0002c0 c6 7a 68 3d 02 81 01 3d 4f 81 7b 3b a6 3d 5b be
       0.05675771 0.031617172 0.0038376634 -0.21410236
0002d0 ca 24 0d be c5 48 39 3c 02 3d 14 3e cb b2 92 bd
       -0.13783565 0.0113088535 0.14476398 -0.07163008
0002e0 c8 54 82 bd 36 f6 0a 3d ee 33 97 bd 31 df e1 3c
       -0.06363827 0.03392621 -0.07382952 0.027572246
0002f0 d4 2b 51 3e cf bc 10 3c 17 33 a3 3d 72 9f 36 3e
       0.20426875 0.008834078 0.07968729 0.17834261
000300 95 ba 99 bd 0c d7 06 3e 9a 8e 0f 3e ec 4f a7 bd
       -0.07506291 0.13167971 0.14019242 -0.08169541
000310 d4 a3 0e be 48 b6 fd 3d 44 32 1d 3d f5 10 0f be
       -0.13929683 0.12388283 0.038378015 -0.13971312
000320 3f 18 e9 3c 86 e8 ef 3d ed 4c 0f bd 65 a0 06 3d
       0.028453944 0.11714272 -0.03498547 0.032867808
000330 12 b4 a4 3d 97 99 8e bd 88 f1 31 bd 63 b8 b6 3d
       0.08042158 -0.06962889 -0.043443233 0.08921888
000340 62 8b e1 3d 00 52 c1 bd eb 88 b6 bd 04 f2 33 3d
       0.11012913 -0.094394684 -0.08912834 0.043931976
000350 94 09 e4 bd aa df f3 3d 00 08 38 3e cf 76 ff bd
       -0.111346394 0.11907895 0.17971802 -0.12473833
000360 7d e5 80 3d 7f fe 75 3d 6c 3e 53 bd 94 ca a4 bc
       0.062937714 0.06005716 -0.051573202 -0.020116128
000370 0d 14 83 3d 1a e0 50 bc e8 6c 0a bd 39 a8 a5 bc
       0.06400309 -0.0127487425 -0.033795267 -0.020221816
000380 2f 9c 96 bd da b2 7c 3d 27 c3 22 3e 85 b0 82 3d
       -0.073540084 0.061694004 0.15894757 0.06381325
000390 e9 29 19 3e 88 36 3b 3e 9c 03 71 bc ce 0a 27 bd
       0.14957394 0.18282521 -0.014710333 -0.04078179
0003a0 3c cb 44 bd b3 c2 84 be bd 54 85 3c b1 ee 94 3d
       -0.048045382 -0.25929794 0.016275758 0.07272089
0003b0 f4 de 9c bd 71 8a c5 bd 7d 55 75 3d 7b e9 0b be
       -0.076597124 -0.09645546 0.05989598 -0.13663284
0003c0 32 7d be bd 1c 9d 1b bd c7 88 45 3e 69 57 24 3c
       -0.09301223 -0.037991628 0.19290458 0.010030606
0003d0 3d dc 90 bd e4 25 99 3c 90 d8 a1 bc fe 61 12 bd
       -0.07073257 0.018694825 -0.019756585 -0.035737984
0003e0 76 db 8e 3d de 29 6d bd 6b c4 f3 bd 59 5e 1b be
       0.069754526 -0.057901256 -0.11902698 -0.1517271
0003f0 4c d5 a4 bd 6d 0c 0b be 4b b6 e0 b9 c9 0a ba bc
       -0.08048496 -0.13578959 -0.00042860428 -0.02271022

actor.2.bias f4 [128]
000000 6e a8 9a bd cc be 36 be 91 a8 65 bd cf d6 74 bd
       -0.07551657 -0.1784622 -0.05606896 -0.05977517
000010 3b 3d 39 be a3 f9 5e be 58 ab 76 bd cf 8d af be
       -0.18089764 -0.21774916 -0.060222 -0.3428788
000020 b7 5c 04 be fc c6 e8 bd c6 69 b2 bd 43 89 2d be
       -0.12925993 -0.11366078 -0.08711581 -0.16946892
000030 0a 7c f0 3a 42 18 5f bd 4f 05 67 bc cd 9c e3 3d
       0.0018347513 -0.054466493 -0.014100387 0.11113892
000040 f6 90 45 bd cb 79 24 3b 5d aa d0 bc 6b b2 6a bd
       -0.04823395 0.0025097008 -0.02547186 -0.05729906
000050 7d a6 b6 3c 16 f7 95 3c 3a 86 88 bd 96 4f b4 3d
       0.022296185 0.018306296 -0.06666227 0.08804242
000060 f3 bf 99 3b 49 c0 1d be 00 09 1b be 75 98 b8 bd
       0.0046920716 -0.15405382 -0.15140152 -0.09013454
000070 7a 97 69 be 5a ed 43 be 8d 73 5f 3c 02 de fd bd
       -0.2281169 -0.19133511 0.013638389 -0.1239586
000080 e4 c2 15 3d 34 9a a9 bd 52 6b fd bd 4b d7 df bd
       0.036562815 -0.08281365 -0.12373985 -0.10929736
000090 ba 1d 00 be 29 2d 59 be a8 37 cd bd e6 a8 87 bd
       -0.1251134 -0.21208633 -0.10020381 -0.06624012
0000a0 c6 48 22 be d7 0f 85 be ae 5d 32 be 1c cc c4 3c
       -0.15848073 -0.25988647 -0.17418548 0.024023108
0000b0 36 08 47 be 40 58 f0 bd 74 3e c2 bd f4 85 e8 bd
       -0.19436726 -0.11735582 -0.09484568 -0.113536745
0000c0 54 2a 01 bd b4 b1 48 bd 47 2e db bc 31 b3 8b be
       -0.031534508 -0.048997596 -0.026755465 -0.2728515
0000d0 84 15 19 be 0e ec 71 bd d6 b7 56 3d b0 fe e8 bd
       -0.14949614 -0.05906301 0.052421413 -0.11376703
0000e0 8e 5a f4 3c ec 4c 8f bd 90 ba e6 bd ae a1 12 be
       0.029828336 -0.069970936 -0.11266053 -0.14319488
0000f0 01 5f 2a be 85 74 0d be 53 de 6e 3b d8 07 51 be
       -0.16637804 -0.1381398 0.0036448434 -0.20413148
000100 73 e6 4c be 53 d3 59 3d 04 ce ad 3b 46 4b d3 bd
       -0.20009784 0.05318005 0.0053041 -0.10317092
000110 3e 85 2e be 87 78 bc 3d 3c c5 2d be e4 e8 55 be
       -0.17043015 0.09202676 -0.1696977 -0.20889622
000120 d9 a1 71 bd b7 fc e5 3c 20 6c 8c bd be 9a a6 bd
       -0.05899224 0.028074605 -0.06856561 -0.081349835
000130 02 c7 80 be 8b 90 b2 be d0 28 86 3d 17 cc ec bd
       -0.2515183 -0.34875903 0.06550753 -0.115623645
000140 21 88 ec bd e1 f7 4b be 5d 7a e3 bc d0 56 78 3d
       -0.11549402 -0.19918777 -0.027768308 0.060629666
000150 6b 43 de bd f2 99 a4 bd 93 80 5f be 15 ee 01 be
       -0.10852703 -0.08037175 -0.21826391 -0.12688477
000160 1b 20 27 3b 23 6e 03 be b5 9b 7b 3d db b9 57 3d
       0.0025501314 -0.12834983 0.06142779 0.05266748
000170 c7 b6 14 be ad c0 8a bc 49 65 34 3d 5b 0d 3d bd
       -0.14522849 -0.016937578 0.044041906 -0.046155315
000180 d0 06 a8 bd b7 d3 ed bd 1e 6e ae 3d d7 c1 5d 3c
       -0.082044244 -0.11612647 0.08517097 0.013534985
000190 f5 25 32 bd 5e a2 04 be 8e 33 a8 bd de 15 d1 bd
       -0.04349323 -0.12952563 -0.08212958 -0.10209249
0001a0 63 40 ea bd 45 db 01 be 2e 1e 32 be c0 77 12 be
       -0.11438062 -0.12681301 -0.17394325 -0.14303493
0001b0 41 63 79 3b 54 f9 b1 3d b5 d4 89 be d5 a4 07 be
       0.0038053545 0.08690134 -0.26920095 -0.13246472
0001c0 96 65 73 bc 24 ca d7 bd d8 46 65 be 6a 31 25 3c
       -0.014855763 -0.10536602 -0.22390306 0.010082582
0001d0 ba 4d 1d be 47 09 88 3c 19 91 2a bd d3 1d 49 be
       -0.15361682 0.016605986 -0.041642282 -0.19640283
0001e0 d3 98 b4 bd 17 f8 8f bd c6 98 1a be 06 29 06 be
       -0.088182114 -0.07029741 -0.15097341 -0.13101587
0001f0 b5 e5 ad bd d4 35 5d bc a2 bc 57 be b4 1c c8 bd
       -0.08491079 -0.013501603 -0.21068051 -0.097711

actor.4.weight f4 [128, 128]
000000 95 3e dc 3c 48 03 84 3d 1b 5c 67 bd 05 43 84 bd
       0.02688531 0.06445938 -0.056484323 -0.064580955
000010 8e 12 65 3e 1f d8 83 3d 34 ab 1d 3e 89 02 e5 3d
       0.2237036 0.06437706 0.1539734 0.11182124
000020 c3 57 04 3e 3e 67 da 3d e6 a6 85 ba 19 d0 04 bc
       0.12924103 0.10664223 -0.0010196834 -0.008106255
000030 9e eb 13 bd 18 cf 99 3c 6d e7 15 3e 9e b4 35 bd
       -0.036113374 0.018775508 0.14639063 -0.044361703
000040 bf 13 a4 ba 3a f1 f8 bc 4e dd 31 bd a0 d2 d4 bd
       -0.0012518092 -0.030388463 -0.043423943 -0.10391736
000050 84 87 ce bc 9f 86 17 bd 29 63 38 3d 04 1f 4e bd
       -0.025211103 -0.03699362 0.04501644 -0.050322548
000060 e6 8d c0 bc 4e 66 4b 3e 9a 4a 95 bc 01 b5 b3 3d
       -0.023505162 0.19863245 -0.01822405 0.08774758
000070 a2 5b 9c bd 48 68 a7 bd 61 07 a2 bc eb 61 2b 3d
       -0.07634665 -0.08174187 -0.01977891 0.04184143
000080 e5 d8 e4 bc e0 a3 64 bd d7 dc 1f 3c 74 72 d2 bc
       -0.027935455 -0.055820346 0.009757242 -0.025689341
000090 2c 58 78 3d a3 ef ae 3d d8 47 e0 bc 33 56 77 3d
       0.060630962 0.08541801 -0.027378008 0.06038494
0000a0 a4 f9 36 bd f7 8d e2 bd c3 a3 37 bd 95 15 42 bd
       -0.04467167 -0.11062234 -0.04483391 -0.047383863
0000b0 2f a7 65 bd 15 1a 10 bd 2f 75 86 3d ea 9b 0b be
       -0.05606764 -0.035181124 0.0656532 -0.13633695
0000c0 a1 db 59 3d 8b 0b 98 bd 94 a5 02 be e1 c7 39 3d
       0.05318797 -0.07424077 -0.12758476 0.045356635
0000d0 b9 60 19 3e 44 b5 ff 3c 13 47 4e 3d 3c 4e 0c 3e
       0.14978303 0.031214364 0.05036075 0.13701719
0000e0 e9 0f 52 3d 73 f4 36 bd 0d 64 2c bd c4 36 56 3d
       0.051284704 -0.04466672 -0.042087603 0.052298322
0000f0 07 79 fa 3c 8c b6 07 3e 96 b3 0b 3d f6 91 cc 3d
       0.030575288 0.1325323 0.034106813 0.09988777
000100 d7 63 43 3c fe 64 d5 bd e9 be e2 bb 97 48 c0 bd
       0.011925659 -0.10419653 -0.006919731 -0.093888454
000110 ca d7 1f 3e cb 91 61 bd 62 a1 0e 3d 8d b2 2d 3d
       0.1560966 -0.05507068 0.034821875 0.042406607
000120 d9 10 e0 3a 1e 60 e3 bd 9a 5f e9 bd b6 b4 a8 bc
       0.0017094865 -0.11102317 -0.11395188 -0.020593982
000130 30 a6 aa 3d 13 11 25 3e 51 65 82 3c 28 a5 b9 3b
       0.08332479 0.16119795 0.015917452 0.00566544
000140 b7 02 36 3d f8 c9 ae bd 4d 1b 82 bc aa 22 85 3d
       0.044436183 -0.08534616 -0.015882159 0.06500752
000150 00 6c 26 bd 37 a7 c5 bd 4e 3e 8e 3d 07 e7 30 bd
       -0.04063034 -0.09651034 0.069454774 -0.043189075
000160 79 b3 0a 3e 53 dd 85 3d bf b4 bc bc 4e e9 11 bd
       0.13545026 0.06536355 -0.023035405 -0.035622887
000170 f1 bf 28 3e 02 35 4a 3c df 18 60 bd da 3a 0e 3d
       0.1647947 0.01234174 -0.05471122 0.034724094
000180 27 e3 ae 3c cb a1 a1 bd e4 2e 67 3d eb 6e 06 be
       0.021348549 -0.07892188 0.056441203 -0.1312825
000190 c7 d9 f0 bc e4 a5 2d bd 2d 69 07 bd 57 3b 73 3d
       -0.02940072 -0.042394534 -0.033059288 0.059382763
0001a0 1c bf c0 bb e3 28 a5 bc e1 bf 96 3d 41 62 fa bc
       -0.005882157 -0.020161098 0.07360817 -0.03056443
0001b0 5f ab 8c bc 05 d0 b9 bc 1e 05 e2 3d 27 9d 9d ba
       -0.01717156 -0.0226822 0.11036132 -0.0012024984
0001c0 ef 20 ab bd 15 c5 1c 3d 48 ea 52 3e 01 05 03 be
       -0.08355891 0.03827389 0.20597184 -0.12794878
0001d0 2d 85 b0 3d 24 7a 90 3d 6a cf 51 bc c7 d5 2c 3e
       0.08619151 0.070545465 -0.012805799 0.16878425
0001e0 ec 84 a8 bd a1 15 56 3d d7 01 fa 3c f2 2a bf 3c
       -0.08228478 0.05226672 0.030518455 0.023335908
0001f0 b7 f3 73 3d 1a 08 0d bd 3a 62 e2 3d b4 63 13 3b
       0.059558596 -0.034431554 0.110538915 0.0022489848
000200 2d 36 cf 3d dd 03 04 bd 8a 8b a8 3d ef 9c 6e 3d
       0.10117755 -0.032230247 0.0822974 0.058255132
000210 6c cf 09 3d 1c 54 ad 3c bb 40 78 3d 50 09 84 3d
       0.03364508 0.02115827 0.060608607 0.06447089
000220 85 9a f2 bd 65 1c 9f bd 7d d9 8e 3d ab c9 c0 bd
       -0.118458785 -0.07769088 0.06975076 -0.09413465
000230 6f ca 37 3c aa da 2f bd 06 d7 c8 bd 2e 54 2e bd
       0.0112176975 -0.042933144 -0.098066375 -0.04256075
000240 ff df c5 bd 3d f7 23 3d 57 bc b6 3c 59 f3 1c bc
       -0.096618645 0.040030707 0.022306604 -0.009579503
000250 56 85 20 3e f2 1c 1b bd 32 2d ae 3d 17 da c2 bd
       0.15675864 -0.0378694 0.08504714 -0.095142536
000260 cf d9 c9 bd 97 4b 71 bd aa 73 36 bd 4c 3d b0 bc
       -0.09855997 -0.05890998 -0.0445439 -0.021513604
000270 b6 16 7f bd 4f 4b d3 3d 06 21 f5 3d be cf 3d 3e
       -0.06227752 0.10317098 0.11969189 0.18536279
000280 85 79 d8 3d 82 35 5e be 4d aa 45 3d ec 44 85 3d
       0.10570053 -0.21700099 0.048258115 0.065072864
000290 bb 81 c3 3d 1c aa 93 3d 95 23 a9 3c be 7f 1e 3e
       0.095462285 0.0721018 0.02064685 0.15478417
0002a0 49 74 c0 3c 50 11 05 3e 0e d0 b5 bd 54 98 6b 3d
       0.02349295 0.12994885 -0.08877574 0.05751832
0002b0 a8 5f a0 3d b4 30 86 bb 44 17 e3 3d cd 55 e9 3c
       0.07830745 -0.0040951613 0.11088422 0.028483296
0002c0 61 0b de 3b 42 00 c1 3c 7b e1 c2 3d de 77 2d bc
       0.006776259 0.023559693 0.09515663 -0.010587661
0002d0 e2 0b f0 3c 11 f9 0c 3c e8 fb aa 3d 4b 0d b4 3a
       0.029302541 0.008604304 0.083488286 0.0013736872
0002e0 d7 98 90 bd ef 1b eb bd 0a 50 4c 3c 46 fe 30 3c
       -0.07060402 -0.11479937 0.012470255 0.010802811
0002f0 21 a1 8b bd cd 60 1a 3e e3 ca b3 3d 49 7b 4c 3c
       -0.06817842 0.15075989 0.08778932 0.012480565
000300 39 b0 31 bd e6 d5 2f 3b 08 83 96 3d 60 09 94 bd
       -0.04338095 0.0026830374 0.07349211 -0.07228351
000310 12 1b 8c bc c5 d2 05 be 0e 14 63 3d c1 f1 9c bd
       -0.017102752 -0.13068683 0.055439048 -0.076632984
000320 13 14 35 3e c1 39 8d 3d c3 9a c4 3d 2d bc 08 be
       0.17683439 0.06895781 0.09599831 -0.13353033
000330 03 d8 ce 3d c4 be 3b 3e 1c 2f 84 be 16 35 32 3d
       0.10099795 0.1833449 -0.25817192 0.043507658
000340 ff 7e e7 3c 4d 97 7d bd 8a 4b bf 3d c0 38 66 bb
       0.028258799 -0.06191187 0.0934058 -0.003512904
000350 7c 7a 9f 3d 3d 0a c5 bb cb a7 cb bc 77 26 54 3d
       0.07787034 -0.0060131834 -0.024860283 0.051794495
000360 57 b5 a4 b9 c2 0a a4 3d 2a 93 70 3d 9a 34 37 3c
       -0.00031415626 0.080098644 0.058734097 0.011181975
000370 d0 22 33 3e d8 d3 e9 3d 40 d7 54 bc 5e 00 b8 bd
       0.17493749 0.11417359 -0.012990773 -0.08984445
000380 59 f5 17 3e 87 fd ba 3d ae 8c 88 3d 1f f5 d1 bd
       0.14839686 0.09130388 0.066674575 -0.10251831
000390 18 7f 08 bc af 69 44 3e e5 73 1e 3d ef 0c 74 bd
       -0.008331083 0.1918094 0.038684744 -0.059582647
0003a0 48 74 0a 3e a7 ef 05 3e b1 e6 78 3d 5c 08 0f be
       0.1352092 0.13079701 0.06076688 -0.13968033
0003b0 fe d1 a0 bc c1 99 5c bd 9c 4a bc 3d 05 8d a5 bc
       -0.019631382 -0.05385757 0.09193918 -0.020208845
0003c0 3b d2 71 3d aa 26 8a 3d 90 8a 20 3e 3f fb 1a bb
       0.059038382 0.06745656 0.15677857 -0.002364829
0003d0 4b fd 50 bd 47 60 28 3e 6d 8a d6 3d 60 d5 db 3c
       -0.05102281 0.16442977 0.10475621 0.026835144
0003e0 f9 7c a7 bb 59 2c df 3b 39 77 13 bd d5 97 42 3d
       -0.0051113334 0.0068107066 -0.03600237 0.04750808
0003f0 87 18 18 3d c3 3f 0b bd e0 29 c6 3c c6 82 bb 3d
       0.037132766 -0.033996355 0.02418989 0.091558024

actor.4.bias f4 [128]
000000 a6 1f f0 bd bc b4 ab bd ca 30 5a be 3c b2 80 bc
       -0.117247865 -0.08384082 -0.21307674 -0.015709989
000010 fc 16 7f 3d 14 b2 d2 bd dd 7b 85 be b5 41 58 3d
       0.06227778 -0.10287872 -0.26071063 0.052797038
000020 70 7b 5d be 14 2a 6f be 91 d3 99 bd 27 85 4b be
       -0.21629119 -0.23355895 -0.07511056 -0.19875012
000030 57 b8 03 bc 19 63 61 3d 23 eb 6f be 0d 9f 4b 3d
       -0.0080395555 0.055026148 -0.23429541 0.04971223
000040 e0 1a 26 bd 0c 6e 22 bd 16 7c f6 bd 43 56 fa bd
       -0.040552974 -0.03965573 -0.12035386 -0.12223484
000050 1e 3c eb bc 06 11 8e 3b d9 38 13 be 5c 67 37 3d
       -0.02871519 0.0043355254 -0.14377154 0.044776306
000060 a3 82 66 3d 03 99 88 bc 80 28 1d be 6b 1b 44 be
       0.05627693 -0.016674524 -0.15347481 -0.19151084
000070 a4 2e 5e bc db 07 05 be 9e de 08 be d4 6b 0d bc
       -0.013560925 -0.12991278 -0.13366172 -0.008631665
000080 79 65 04 3d f2 4c 24 3d b2 28 b0 bc f6 da c7 bc
       0.032323334 0.040112443 -0.02150378 -0.0243964
000090 fb d2 9e bc e6 86 05 3d ab 45 d7 bd 21 e1 b8 bd
       -0.019387713 0.032599352 -0.10511335 -0.09027315
0000a0 2b 2e bf bc e3 a6 22 be e4 e3 9b bd 87 3f c0 3b
       -0.023337444 -0.15883975 -0.07611826 0.005866948
0000b0 9f c0 ad bd 59 51 a1 3b 43 6c 77 bd 9d 63 41 be
       -0.08484005 0.0049230275 -0.06040598 -0.18885656
0000c0 1f d9 a3 bc 2d 28 af bd 65 3f 32 bc 56 bc b4 bc
       -0.020000992 -0.08552585 -0.010879372 -0.022062462
0000d0 1f 55 b8 bd 8e 9a e8 bd 57 e1 a0 bd be 34 16 be
       -0.090006106 -0.11357604 -0.0785548 -0.14668557
0000e0 79 31 07 3c 57 bb 82 bd 99 b0 11 3e 86 f5 c5 bd
       0.008251541 -0.063833885 0.14227523 -0.096659705
0000f0 71 26 46 3c 84 fd 22 bd 18 4f 99 bd 52 0a de bb
       0.012094126 -0.039792553 -0.07485789 -0.0067761326
000100 6a 0e ec bd 12 c4 92 bd d5 0f a1 bc e6 18 61 bd
       -0.11526187 -0.07166304 -0.01966087 -0.054955386
000110 ab 76 f7 bc 9f f2 f5 bd ed 5c 99 3c 67 81 ee bd
       -0.030207952 -0.12009167 0.018721068 -0.11645775
000120 d3 eb d3 bd a8 9f f1 3c ba 53 a4 3d f2 91 34 be
       -0.10347714 0.029495075 0.08023782 -0.17633799
000130 d0 0c 0f be f2 11 3e bd 66 60 46 bd 06 49 77 bc
       -0.13969731 -0.046403833 -0.048431776 -0.015093094
000140 b2 8d a2 bd f2 e1 5f bb 62 fb e8 bd 02 4b ad bd
       -0.079371825 -0.0034161774 -0.113760725 -0.08461572
000150 7f c0 ed 3b eb fa 1f be 57 a7 74 39 f2 41 ed bc
       0.0072556133 -0.15623061 0.00023331992 -0.02896211
000160 9a a7 87 bd 20 1d 04 be f1 92 6a ba 6c 90 14 be
       -0.06623764 -0.12901735 -0.00089482876 -0.14508218
000170 9f 3e 10 be 00 cb 8e 3d 38 d4 45 bd 89 67 34 bd
       -0.14086388 0.06972313 -0.04829809 -0.04404405
000180 04 26 e4 bc f8 c3 5c 3d 28 a8 23 3d 6d fe f2 bc
       -0.027850159 0.053897828 0.03995529 -0.029662335
000190 df 39 b7 bd 88 a9 a6 3c 45 d1 57 be 81 e1 25 bd
       -0.08946585 0.02034451 -0.21075924 -0.04049826
0001a0 84 fb 84 bd 26 37 89 bd 15 8a f9 bd f4 ac 0c 3d
       -0.06493285 -0.06699972 -0.1218454 0.03434463
0001b0 0b 69 18 be 70 ff b3 3d 5f 9d dc 3d d3 c2 34 bd
       -0.1488382 0.08788955 0.10772204 -0.04413111
0001c0 07 18 ee bc b8 1a e4 3b 11 81 54 3d 58 92 2c 3d
       -0.029064192 0.006961193 0.0518809 0.04213175
0001d0 3f be 57 3d bf 9b b5 bd ee 05 b2 bd ba fd 48 bd
       0.052671667 -0.08867597 -0.08692537 -0.049070098
0001e0 ae 1b 53 3d aa 7a 7d bb 31 0f 34 be 19 77 d6 bb
       0.05154007 -0.003867785 -0.1758392 -0.0065449593
0001f0 6c 24 25 3c c2 52 98 bd b2 1d 17 bb 84 42 16 3d
       0.010079484 -0.0743766 -0.0023058471 0.036684528

actor.6.weight f4 [12, 128]
000000 84 f7 a5 3d 22 77 d3 3d 07 d3 8c 3d b1 a5 70 38
       0.081038505 0.10325457 0.06876188 5.737477e-05
000010 93 2d 12 3c 89 e8 6b 3c c7 8b 5c 3d f9 be 42 bb
       0.008921999 0.014398702 0.05384424 -0.002971588
000020 07 4d 18 bc 2a c1 2f be e6 c3 22 bc 7a 4e 84 3c
       -0.0092957085 -0.1716353 -0.009934401 0.016150702
000030 b7 9b 06 3d 7a 68 a3 bc d2 58 52 3d eb c8 82 bb
       0.032863345 -0.01994728 0.051354237 -0.0039912364
000040 56 1e 89 3c c6 46 2e bb cd d1 1c 3c fe e2 ab 3b
       0.016738098 -0.0026592477 0.009571505 0.0052455654
000050 a0 40 45 bc 80 ce 0b bd b8 bb c8 3b 73 a4 e2 3b
       -0.012039334 -0.03413248 0.0061258934 0.0069165765
000060 37 d4 23 bc a5 d1 13 bc f7 f7 39 3c 75 d6 8e 3c
       -0.009999326 -0.009022151 0.011350623 0.017436245
000070 3c 11 d9 ba a3 af a2 bc 17 67 60 3c 68 df 0e 3c
       -0.0016560922 -0.01985914 0.0136964535 0.008720256
000080 68 e3 01 bc d2 7e 97 bb a1 e2 c6 3b 1b 25 59 bc
       -0.007927753 -0.0046232725 0.0060694967 -0.013253476
000090 43 5e 54 3d 99 8d 26 3c a0 f6 30 bc 8f a9 5d bc
       0.051847707 0.010165595 -0.0108009875 -0.013529195
0000a0 5f 58 86 3c c3 d0 2c 3d 39 fe aa 3a ca b5 81 bb
       0.01639956 0.04219128 0.0013045735 -0.0039584385
0000b0 54 46 6c 3b b9 a3 3f 3d bb d2 86 3c 9b d7 0f 3c
       0.003605266 0.046786997 0.016457906 0.008779432
0000c0 51 a2 14 3c ee b0 3f 3c c3 99 27 3d 12 01 1d bd
       0.009071902 0.011699898 0.040918123 -0.0383311
0000d0 71 e0 e9 3c 31 cb b1 3b ae 46 01 bc 57 bd e6 3b
       0.028549405 0.0054258336 -0.0078903865 0.007041614
0000e0 b9 eb d2 bb d5 31 ef 3c 04 fe 4c 3c 4e af c6 ba
       -0.0064367917 0.029198566 0.012511734 -0.0015158446
0000f0 62 54 b6 3b 51 cc ca 3c 7f 13 96 bb 1a 41 01 be
       0.0055642584 0.024755629 -0.004579961 -0.1262249
000100 e8 c7 0a 3b 77 ab b6 3c 3e d5 81 bc c3 55 26 bc
       0.0021176282 0.022298558 -0.015848752 -0.010152283
000110 31 92 9d bd c0 fb 88 bd e5 cd 3e 3d 75 b3 ae bc
       -0.076938994 -0.066886425 0.046583075 -0.021325806
000120 9a a8 56 3c 89 16 4b 3b 73 b7 02 3c 00 64 f2 bc
       0.013101721 0.0030988774 0.007978308 -0.0295887
000130 ab 22 06 bd 61 77 00 bb 67 07 fb 3c 07 f8 59 3b
       -0.032747906 -0.0019602405 0.030643178 0.0033259408
000140 3c c9 4b 3b 9c 13 17 bc 82 41 94 3c 6b a7 bc bb
       0.0031095287 -0.009220984 0.018097643 -0.0057572625
000150 e8 54 8a bc 58 0b 50 3c 36 47 9b bc 19 a3 2c 3d
       -0.01688619 0.012698017 -0.018954854 0.04214773
000160 0f ac fe bc 7c 2c b6 bc 7c 43 84 bc dc e5 92 3c
       -0.031087903 -0.022238009 -0.01614546 0.017931871
000170 b4 14 77 3b 0b 90 c1 bc 96 6e 99 bc 27 6e aa 3b
       0.003770155 -0.023628255 -0.01872949 0.0052011195
000180 3c ed 80 bb a1 e6 aa bc c0 ff d7 3b b6 76 46 bc
       -0.0039345305 -0.020861926 0.006591767 -0.012113264
000190 76 12 df bc aa 8c 85 3c 65 a3 59 3b a0 5d ae 3b
       -0.027230483 0.016302425 0.0033208963 0.0053212196
0001a0 88 31 1f bc 50 ec 0d 3b 42 64 d2 bc c8 9b 6d bc
       -0.009716399 0.0021655746 -0.025682572 -0.014502473
0001b0 87 62 c7 bb e3 a9 8b 3b 97 fe a5 3b d5 1b 0e 3c
       -0.0060847434 0.0042621954 0.00506575 0.008673628
0001c0 8a e0 d0 3c f6 48 30 3c 3b 9f 39 bc 29 af dd 3c
       0.025497694 0.010759583 -0.011329467 0.027061062
0001d0 b8 f4 17 bc f1 72 83 ba dd 8b 8b bd 24 49 29 3b
       -0.009274654 -0.0010028762 -0.06813786 0.0025830949
0001e0 cd ee 7b 3c b2 92 91 bc 95 c1 11 bd 3d 7d 87 bc
       0.015376759 -0.017770145 -0.035585005 -0.01653921
0001f0 81 6a 33 3d a7 17 6f bc f0 87 f2 bb 92 a8 9a bc
       0.043802742 -0.0145930415 -0.007401459 -0.018879209
000200 39 95 d7 3c 58 61 ff bc 25 b9 2c bd 70 67 eb bb
       0.026316272 -0.031174347 -0.042168755 -0.0071839616
000210 20 64 5c 3b ba db 24 3c a7 b3 6c bd fd 81 62 bc
       0.0033629015 0.0100621525 -0.057788517 -0.013824937
000220 44 ef 0c bd 5a ab 0f 3b 8c ea bb bc 9e a8 81 bc
       -0.03440787 0.0021922202 -0.02293899 -0.015827473
000230 b7 f2 18 3d d3 79 71 ba f3 f3 8f bc e7 45 89 3b
       0.037340846 -0.00092115736 -0.017572379 0.004189241
000240 12 bb ce 3b bf fc db 3a 67 47 c5 3c dc 34 b1 bb
       0.0063089216 0.0016783698 0.024081899 -0.0054079127
000250 ca 49 36 3b 91 c7 46 3c a2 69 81 3b 08 6e 3b 3c
       0.0027814978 0.012132541 0.00394936 0.011439808
000260 b7 a4 c4 bb fd b0 81 bd 42 04 b3 3c de d0 37 bc
       -0.006001081 -0.06332586 0.021852616 -0.011219231
000270 07 84 b3 3b de a7 4c bc 49 e6 4d bb 9c 2b 3c bc
       0.0054783854 -0.0124911945 -0.0031417778 -0.011485007
000280 76 82 c5 3c 30 d2 b5 bb 63 b5 93 3c ae 52 31 3c
       0.02411006 -0.005548738 0.018030828 0.010822935
000290 2b 21 90 3d 73 e8 31 bc 9d a6 6f b9 8e 2f a5 3c
       0.07037576 -0.010858643 -0.00022854884 0.020164277
0002a0 13 81 12 bd 15 03 05 bd 74 d0 d9 bc 71 1c 02 3c
       -0.035767626 -0.032473642 -0.026588656 0.007941351
0002b0 09 ea 47 3d e4 8e e2 bb 63 4f 00 bc 0d 3b 66 bd
       0.048807178 -0.0069140065 -0.007831427 -0.05620866
0002c0 d8 7f 2c bb 15 c7 6f bc 7c ee 93 3d e7 32 c4 3c
       -0.0026321318 -0.014634867 0.07223222 0.023950053
0002d0 e7 07 dd bb 39 57 c9 bc e1 78 dd bc 04 54 21 bd
       -0.006745327 -0.024577724 -0.027035179 -0.039386764
0002e0 4f df 8e bc e9 1d 53 bd 5d 2e 08 3a cd 7a 82 bd
       -0.017440466 -0.051542196 0.0005194897 -0.06371079
0002f0 af b4 02 3d 7a ad fb 3c 6b 2e bf bc 49 c1 64 3d
       0.031910595 0.030722369 -0.023337563 0.055848394
000300 86 68 25 3d 26 96 aa bc 05 f3 fe 3c 88 44 9d bc
       0.040382884 -0.02082355 0.03112174 -0.019197717
000310 91 8c a1 3d 9c 5f b0 bb 2b a8 3c 3d dc ec de bb
       0.07888139 -0.0053824913 0.046058815 -0.006803138
000320 4f 53 5c 3c a9 72 2f bc 85 ec 70 3a 90 76 fe bb
       0.013447597 -0.010708489 0.00091905176 -0.0077655986
000330 68 40 4b bc 36 e8 38 3d 8f 8c 92 bc 5b f7 58 3b
       -0.012405492 0.04514333 -0.01788929 0.003310642
000340 3b a3 eb bb 15 25 1b 3c 9d 73 f0 bc d9 2b 8d bc
       -0.0071910894 0.00946929 -0.029352004 -0.017232822
000350 da b3 90 3c d4 33 83 bc 97 70 56 bc 78 e3 a7 bc
       0.017663885 -0.016015925 -0.013088367 -0.020494208
000360 30 14 15 bc 8f bd 7d bd 9e 3f 4a bc 14 7b 90 bd
       -0.009099051 -0.061948355 -0.012344269 -0.07054725
000370 2e a2 c1 bc 80 7d a3 ba 9b f7 aa bb 66 39 64 3c
       -0.023636904 -0.0012473315 -0.005217505 0.0139297005
000380 76 fb c1 bc a2 f2 3d bd 3a 24 88 3b e7 1a 50 bc
       -0.023679476 -0.04637397 0.004154709 -0.0127017265
000390 53 b4 5a 3c b0 58 47 3c 2f 0d aa bd 5b 36 56 bc
       0.013348657 0.012167141 -0.08303296 -0.013074483
0003a0 2c 90 f7 b9 49 c5 9f 39 99 4a 18 bc 7c 50 cd bc
       -0.00047218928 0.00030473832 -0.009295129 -0.025062792
0003b0 29 b7 ca 3c 23 15 3b 3c 72 e2 25 bc 5e ba 6a 3d
       0.02474554 0.011418614 -0.01012479 0.05730664
0003c0 70 5f 21 bc 96 bd c8 bc 4c c3 77 bc 67 64 ec b8
       -0.009849414 -0.024504464 -0.015122246 -0.00011272058
0003d0 f3 af 06 3b 42 7a a5 bc d8 5b 15 bd b9 47 0b bc
       0.0020551651 -0.020199899 -0.036464542 -0.008500987
0003e0 e1 22 9d bb 7d 21 12 3d e5 cc ea bc c8 d7 31 bc
       -0.0047954177 0.03567647 -0.028662154 -0.010854669
0003f0 25 39 85 3c 1e df af bc 07 c2 7e 3c 08 a2 49 3d
       0.0162626 -0.021468695 0.015549189 0.04922679

actor.6.bias f4 [12]
000000 40 8b 36 be d0 5f 0b 3e d4 68 8b ba 43 69 30 bd
       -0.17826557 0.13610768 -0.00106361 -0.043069135
000010 f8 00 27 be 15 5f 85 be b6 c7 b6 3d e0 b8 fc 3d
       -0.16308963 -0.26049104 0.089248106 0.123399496
000020 57 17 39 bd c3 1f 69 bd 20 66 a0 bd b9 1a 40 bd
       -0.045188274 -0.056915056 -0.07831979 -0.046900485
