logs/rsl_rl/unitree_go2_flat/2024-07-11_16-06-29/exported/policy.onnx (onnx, 163093 bytes, 8 tensors)

actor.0.weight f4 [128, 45]
000000 e1 57 15 3c 25 24 bc be dc 02 f5 bc f6 cf c4 3e
       0.00911519 -0.36746326 -0.02990859 0.38439912
000010 fe 6e c3 3d 1c ff 33 3b 98 54 be bc 8c 45 aa bd
       0.095426545 0.002746529 -0.023233697 -0.08314046
000020 72 cf a0 bf 66 1d 36 bf 92 d7 18 bf 45 1f 3c 3e
       -1.2563307 -0.7113861 -0.59703934 0.18371303
000030 50 1d c3 3e 61 05 14 be d6 46 4a bf 4d 07 2a bf
       0.381083 -0.14455177 -0.7901434 -0.6641739
000040 33 e0 81 bf eb 75 2c 3e 65 52 2e 3d a0 ea 00 3f
       -1.0146545 0.16841857 0.042559046 0.5035801
000050 96 25 1d be 5e be d0 3d 63 20 52 bd 8a a8 a5 3d
       -0.15346369 0.1019256 -0.051300418 0.08088787
000060 4b 1f 46 3c c3 67 1e 3d ee 80 e8 3c 0a 50 3d bd
       0.012092422 0.038673174 0.028381791 -0.04621891
000070 1c 42 24 3c d8 17 2a 3d f0 50 3a be 41 8c f3 bd
       0.010025527 0.041526645 -0.18194938 -0.11891986
000080 98 eb 7d 3d 08 be bd be 97 12 23 bf 00 81 0b 3f
       0.061992258 -0.37059045 -0.6370024 0.54493713
000090 d2 23 5e 3d 4d b1 9b bd 54 3e 92 bd b8 07 5c 3d
       0.05423338 -0.07602177 -0.071407944 0.0537183
0000a0 84 46 3a bd 5d 4c 9f bc 3f 52 52 3d f6 02 a3 be
       -0.045477405 -0.019445593 0.051347967 -0.31838197
0000b0 42 00 4d be 9b e0 ff 3d 6b 2c 74 3c 85 89 f5 be
       -0.2001963 0.12494012 0.014903168 -0.47956482
0000c0 9c 50 c9 3a cf 97 6b bf 7b 19 0b be 92 82 95 3d
       0.0015359106 -0.92028517 -0.13583939 0.07300295
0000d0 d8 91 5c 3d b7 b7 ef be 06 d5 00 bf ae 31 ad bd
       0.053850025 -0.4681985 -0.5032505 -0.08456741
0000e0 f3 2a d9 be 9b e9 b8 bf 5d 76 e1 bc 31 b5 c4 3f
       -0.4241558 -1.4446291 -0.02752226 1.5367795
0000f0 f8 62 a9 3e 39 b9 9b 3d 27 03 3a be bd f2 20 bf
       0.3308332 0.07603688 -0.18165265 -0.6287039
000100 e1 7a fe bd 79 af 95 be 1e ad ed 3c 8b 0a 0d bb
       -0.12425781 -0.29235438 0.029013213 -0.0021521177
000110 ce 6a 35 bc 7b 65 ef 3c 37 ca 4e bd d0 b9 57 bd
       -0.0110728275 0.029223194 -0.050485816 -0.05266744
000120 07 33 9d bd 9a 83 97 3b 52 a0 ed bc 42 b6 ab 3d
       -0.07675748 0.0046238424 -0.02900711 0.08384372
000130 03 4b d4 3d 77 1c df 3c 6f a4 39 be 13 1b 9b be
       0.1036587 0.027235253 -0.18129133 -0.30294093
000140 c0 91 43 3e d2 da 17 be f4 cc 6a be 46 a5 68 3e
       0.19098568 -0.14829567 -0.22929746 0.22719297
000150 24 f2 34 3d e6 b7 75 bd 93 f8 d4 bc 4d 1e f3 3c
       0.044176236 -0.059989832 -0.025997436 0.029677534
000160 80 ed ca bd 0a e1 4e 3e 7b 15 ce 3d 60 32 26 3c
       -0.09908581 0.20203033 0.10062691 0.010143846
000170 6f 20 36 3d b0 ff 7b 3f 71 b5 58 3e f5 7b 1d be
       0.044464525 0.98437023 0.21162964 -0.15379317
000180 59 29 e8 bc d9 6f 62 3d 60 5e 90 be 00 00 09 3e
       -0.028340029 0.055282447 -0.28197002 0.13378906
000190 f8 e5 60 3f 86 b3 f7 3e cc c1 b4 bd 14 f9 8d 3f
       0.87850904 0.48379153 -0.08826026 1.1091638
0001a0 9e e6 29 3f 9e bd c7 3e 63 a0 1b bd dc e3 34 bf
       0.6636752 0.39011854 -0.037994754 -0.70660186
0001b0 f3 a9 f9 3d 06 ab 53 be c3 d0 21 bd 1b ce c1 3d
       0.12190618 -0.20670709 -0.03950573 0.094631396
0001c0 0d 8a 5a bd f4 51 17 bd 93 d8 02 be df a3 2c bd
       -0.05335431 -0.03694339 -0.12777929 -0.042148467
0001d0 34 0a ae 3d bf 14 84 bc 63 73 82 bd 23 4a ad 3b
       0.0849804 -0.016123174 -0.063696645 0.005288379
0001e0 c7 63 cc bc bc 2d 1e bd c1 37 a6 3d 30 31 61 be
       -0.024949921 -0.038617834 0.08116103 -0.2199142
0001f0 46 11 c5 3e f2 ff 54 3e 8d 8b 04 bb 1b 68 a7 3d
       0.3848974 0.2080076 -0.002022478 0.081741534
000200 36 4a 62 3d f2 e5 e9 bc ce ef 0d bd a2 22 aa be
       0.055246554 -0.02855203 -0.034652524 -0.33229548
000210 1e ed dd bd 5d 4f 58 3d ed 7d eb bd 53 b0 8a be
       -0.10836242 0.05281006 -0.11498628 -0.2708765
000220 1c 3d 04 bf d9 18 be 3e 81 ec 26 3e 8f 40 fa be
       -0.51655746 0.37128332 0.16301157 -0.4887738
000230 d6 28 64 3d 7e 83 9f 3d d7 31 08 3e 1e 97 62 bd
       0.055703007 0.07788752 0.13300262 -0.055319898
000240 00 90 0c bf f7 71 c5 3e 5c fc 15 bf f5 7a c4 3f
       -0.54907227 0.3856351 -0.58588195 1.5350024
000250 a2 71 36 3d c4 07 6a bf ac 6d 87 3f bf a2 5a 3f
       0.044541962 -0.914181 1.0580344 0.8540458
000260 9b d1 0b bf 22 7d 24 bf 5b 26 be be e3 a9 80 bf
       -0.5461671 -0.6425344 -0.37138638 -1.0051845
000270 3c 90 87 3c dd 9a 1f bd 5e 9a a9 bd 55 0c 0b be
       0.016548268 -0.03896605 -0.08281396 -0.13578923
000280 33 3f a0 3d b6 27 c4 bd c6 8f e0 3c 78 ef 86 bd
       0.07824554 -0.09577887 0.027412307 -0.06588644
000290 20 66 18 3c 0d 0c b4 bd 40 f8 6f bd 98 2b 4a 3c
       0.009301692 -0.08791361 -0.05858636 0.012339495
0002a0 df 1b 92 be 4a 75 c7 be 32 02 85 3e c1 a8 d0 3e
       -0.2853689 -0.38956672 0.25978237 0.4075375
0002b0 01 96 ea 3c 61 c4 d3 3a 66 0a 6c 3e ac f9 3b bd
       0.02863598 0.0016156548 0.23050842 -0.045892403
0002c0 60 3a 40 be 58 15 8a 3b 39 c0 61 be 5e 50 11 be
       -0.18772268 0.00421397 -0.22045983 -0.14190814
0002d0 d5 f2 d4 3d 1a b0 89 be 2a 4b 58 3d 48 a1 a3 be
       0.10397879 -0.26892167 0.052806057 -0.31958985
0002e0 f1 c7 1c be d0 28 65 bd 5e 85 d8 bc dc 80 17 be
       -0.15310647 -0.055947125 -0.026430782 -0.1479525
0002f0 31 13 ec bc 29 4b 6c be 3e c9 cc bd 70 83 48 3f
       -0.028817745 -0.23075546 -0.099993214 0.7832556
000300 a7 bd 24 bf 97 b9 fe 3e df 7b 94 bf 68 19 79 bf
       -0.64351887 0.4975097 -1.1600302 -0.9730439
000310 cb 35 95 bf 1e 10 aa be 7c 60 9f 3e 70 3f 3b 3f
       -1.1657041 -0.3321542 0.311283 0.7314367
000320 27 2c 25 be b1 cf b7 3c 14 c9 92 bd b3 77 7f 3d
       -0.16130124 0.022437902 -0.07167259 0.062370013
000330 70 70 a0 3c b9 a6 55 3c 89 26 4d bd a6 2e cb bd
       0.019584864 0.013040238 -0.050085578 -0.09921007
000340 84 de 2a 3d 73 10 71 3c b6 82 ee 3c cd 52 0f bd
       0.041716114 0.014713394 0.029115062 -0.034991074
000350 a3 17 38 3d 02 d5 1c bd 5f 6c 14 3e 14 86 3e 3e
       0.044944417 -0.038289078 0.14494465 0.18605834
000360 b8 60 78 bd d4 72 3b 3e 9a 72 3a bd 1c 7c 2f 3e
       -0.060639113 0.18305522 -0.04551945 0.17137188
000370 5a 45 e5 bd 43 34 9a 3c c5 8a 72 3e 19 f6 f5 3e
       -0.111948684 0.018823748 0.23685749 0.4803932
000380 b5 df fa 3b b7 ea b2 bd ec 67 2e 3f 4a 44 05 3f
       0.0076560625 -0.087361746 0.6812732 0.52057326
000390 e1 35 ae be 68 c4 73 be 66 4f 80 3e 0a 84 15 be
       -0.3402548 -0.23805392 0.25060576 -0.1460115
0003a0 f5 c8 cb 3c 96 ef 54 bf 9b 5e 1c 3e d0 6e 00 be
       0.024876097 -0.8317808 0.15270464 -0.12542272
0003b0 17 dc 76 3e 25 21 0e 3f 82 f8 5a 3f d6 36 6c 3e
       0.24107395 0.55519325 0.8553544 0.23067793
0003c0 b2 8b 69 3f 86 fa a5 3f 04 84 0d bf f2 25 43 3c
       0.91228783 1.2967079 -0.55279565 0.011910902
0003d0 a3 d0 48 bf 8a 74 5e bf 18 b3 e2 bc 0a 3b 57 3c
       -0.78443354 -0.86896574 -0.02767329 0.013136635
0003e0 26 cc 08 bd 30 e1 8c bc f7 d6 99 bd 0f 0e ca 3d
       -0.033397816 -0.017197222 -0.075117044 0.09865963
0003f0 da ac 26 3d 8e ff f2 3b aa 85 f4 3d 2f 97 d7 3c
       0.040692188 0.0074157184 0.11939557 0.026317207

actor.0.bias f4 [128]
000000 00 d9 2e bd 4a af 14 3d ca 37 42 bd eb 02 87 be
       -0.042687416 0.03629998 -0.047416486 -0.26369414
000010 d8 74 7e 3d f7 bb 02 be d6 9d 02 be 69 a3 75 be
       0.06212315 -0.12767015 -0.12755522 -0.23988117
000020 69 79 4e 3e db 63 be 3d 6e 7c 20 3e f0 00 74 bc
       0.20163502 0.0929639 0.15672466 -0.014892802
000030 59 ff 39 3d 38 a7 b3 3c 3e d5 8b be bb 65 80 3d
       0.045409534 0.021930322 -0.27311128 0.062694035
000040 88 70 fe bd ac 0e 84 bb 54 be cd be 8e 8e 08 be
       -0.124238074 -0.0040300693 -0.4018427 -0.1333563
000050 1f 7a 08 be bb 6e 3b be eb 56 98 be 9c e1 42 bc
       -0.13327836 -0.18303959 -0.29753813 -0.01189461
000060 3e 49 04 be b3 41 54 be 4f 7c 69 3d 78 0e 5c be
       -0.12918565 -0.20728187 0.057003316 -0.21489894
000070 89 27 46 be 8b 2f e6 bd da 90 ae 3d 3d 53 4f 3d
       -0.19351019 -0.11239537 0.08523722 0.05061649
000080 1e 20 48 be 1a 0a 4a 3c 07 fc 3f be 7a 46 59 3e
       -0.19543502 0.01233151 -0.18748485 0.21218291
000090 f5 2a a8 be e1 bb 89 bd bf 21 92 bd 50 d0 ca be
       -0.32845274 -0.06725288 -0.07135343 -0.39612055
0000a0 e0 b6 9b be 5d 8d 29 3e 3c 6f 50 3e cd 9f 08 be
       -0.3041296 0.16557832 0.20354933 -0.13342209
0000b0 9d af 10 be 49 e4 88 be 40 83 9e be d1 63 a7 be
       -0.14129491 -0.26736668 -0.3095951 -0.3269334
0000c0 67 71 b4 be eb 5a d6 bd 18 ea c5 bd 48 c8 d6 bd
       -0.3524277 -0.1046656 -0.096637905 -0.10487419
0000d0 80 65 ce 3a 26 8e dc bd 79 27 c4 bd 41 f2 1a be
       0.0015746802 -0.107693 -0.09577841 -0.15131475
0000e0 ba e5 e5 bd f2 79 98 be 84 c3 3d bd 93 71 b2 3c
       -0.112254575 -0.29780537 -0.046329036 0.021782672
0000f0 d4 66 c1 be 2c 08 2e be 21 37 c2 3d 77 63 45 3d
       -0.37773764 -0.16995305 0.09483171 0.04819056
000100 cf f2 6a be 38 0c bc bb f9 51 6e 3d 32 e9 ae bd
       -0.22944187 -0.0057387613 0.058183644 -0.08540572
000110 d2 47 b2 3e 61 6a d4 3d 25 b2 f4 bd 9b d8 0d 3d
       0.3482042 0.10371853 -0.11948041 0.0346304
000120 21 05 29 be a7 43 ea bc e1 7c 93 3d d6 94 85 bd
       -0.16505863 -0.028596712 0.07201553 -0.06522529
000130 93 4e 4e bd 4c 64 14 3c 35 de b6 bd f3 75 a0 3d
       -0.050367903 0.009057116 -0.089291014 0.07834997
000140 4d 39 49 be 62 16 65 3e 3f e0 fc 3d 1b c5 05 3e
       -0.19650765 0.2237182 0.12347459 0.13063471
000150 60 84 59 bd 4c c0 af be f5 cf 7a be fc 35 e1 be
       -0.05310476 -0.34326398 -0.24493392 -0.439865
000160 40 c5 f6 bd 90 24 6a bd 45 84 2c be 30 c1 66 be
       -0.12049341 -0.057163775 -0.16847332 -0.22534633
000170 9a 71 db 3c 30 b8 8b be b5 13 86 3d 90 28 87 bd
       0.026787568 -0.2728896 0.065467276 -0.065995336
000180 36 87 da be 8a 37 1d 3e 97 ce cf 3d a8 6f 66 3e
       -0.42681283 0.15353218 0.10146826 0.22503531
000190 65 9b c5 be f9 a1 35 bd 76 7e 47 3d a3 1f 41 3e
       -0.3859512 -0.044343922 0.048704587 0.18859725
0001a0 09 f7 89 bc c4 41 2d be ef 92 66 be d5 2f 15 3e
       -0.016841428 -0.16919619 -0.22516988 0.14569028
0001b0 aa 4d a1 bd b4 9a 8b 3e 6e d0 37 3b 7a cc b0 bd
       -0.07876141 0.27266467 0.0028047818 -0.08632751
0001c0 29 59 ac 3d 97 d3 10 3e fc 57 48 bd 9b 1a 14 be
       0.084154435 0.14143215 -0.048912033 -0.14463274
0001d0 56 66 96 3d ad 78 5b be 60 10 15 3e 15 45 37 bc
       0.07343738 -0.21432753 0.14557028 -0.011185904
0001e0 3c 4d af bc b7 14 5a bd 1a 16 44 be 0b 8c 88 3b
       -0.021399133 -0.05324241 -0.19149056 0.004167085
0001f0 4b 1d e9 3d 09 9a ef bd 55 53 c2 be a9 5a 3d be
       0.1138254 -0.11699302 -0.37954202 -0.18491615

actor.2.weight f4 [128, 128]
000000 76 c6 0d be 1a 2b 47 3d 86 d3 1d bd f0 43 3a bc
       -0.13845238 0.04862509 -0.038531803 -0.011368737
000010 83 0b 0b 3d cc 81 4f be 9e a9 e9 3d 7c c1 53 bd
       0.033946525 -0.20264357 0.11409305 -0.051698193
000020 3f ea 98 3c cb ea c3 bd b3 25 a5 bc d8 c5 7e 3b
       0.018666385 -0.095662676 -0.020159578 0.0038875248
000030 68 8e d1 3d 0b 23 ca bd 87 36 59 3e 88 04 90 3d
       0.1023224 -0.09869965 0.21212207 0.07032114
000040 80 30 cd 3d a1 4f 23 bd 1f 29 72 bd 6d 8f 4e 3d
       0.10019016 -0.039870862 -0.059121247 0.05042975
000050 b5 7d 7f 3d bb ab f1 3d 06 c9 15 bd 51 2f b4 3c
       0.062375743 0.11800333 -0.036568664 0.021995218
000060 6d 8d b2 bd f4 e3 0b 3c f8 a2 87 3d f0 4c 59 3e
       -0.08718381 0.008538235 0.06622881 0.21220756
000070 df 28 9f 3c 61 c7 ad bc 57 95 f2 bb 2f e4 cd bd
       0.019428669 -0.021213235 -0.0074030566 -0.10053288
000080 8b b2 cb 3d c5 61 34 be 44 a9 44 bd 09 be 16 be
       0.09946164 -0.17615421 -0.048012987 -0.1472093
000090 3a 53 2c 3e 47 21 1a be 3c 8a b1 3d 0d f5 76 3d
       0.16828623 -0.15051757 0.08668944 0.060292292
0000a0 57 8f 46 be 7b a9 48 3d 3e 73 85 3e 87 54 d8 3c
       -0.19390617 0.048989754 0.26064485 0.026407493
0000b0 90 37 eb 3b 95 69 fc bc d3 d9 06 3e 55 15 1b bc
       0.0071782544 -0.030812064 0.13169031 -0.009465535
0000c0 48 5e f9 3d e9 e7 78 3e 90 a1 1d bd 5a 56 a4 be
       0.12176186 0.24307217 -0.038484156 -0.3209713
0000d0 a0 48 67 3d eb a8 0f 3e 46 c2 88 3c 26 4a c9 bd
       0.056465745 0.14029281 0.0166942 -0.09828596
0000e0 90 3d 87 bd 79 21 40 3e ba 1c 49 bc 12 6f 00 bd
       -0.06603539 0.18762769 -0.012274915 -0.031355925
0000f0 4a fc 96 bd d1 66 7b be fd bf ae 3c c3 69 97 be
       -0.07372339 -0.2455094 0.021331782 -0.29572877
000100 47 f7 fc bd 80 e6 14 3c 48 21 18 3d 04 78 0e be
       -0.12351852 0.009088159 0.037141114 -0.1391297
000110 6a 76 d3 3d 62 12 8d bd 38 64 81 bd 2d 23 85 3d
       0.1032532 -0.06888272 -0.06317943 0.0650085
000120 97 5d 0f 3e 07 f0 40 bd 5a 02 ec bb 14 61 c7 3d
       0.14000545 -0.047103908 -0.0072024288 0.09735313
000130 10 96 4d be c0 b1 75 3e 33 e7 11 3e 5d 02 3a bd
       -0.20076776 0.23993587 0.14248352 -0.04541241
000140 3c ad cf 3d 56 ea 6e bd c5 93 36 be 93 5f 09 3e
       0.10140464 -0.05832895 -0.17829807 0.13415365
000150 3d 23 f1 3a 6d f5 c3 bd e4 d9 df 3d fe d8 f4 bc
       0.0018397343 -0.09568296 0.10930231 -0.029888626
000160 c3 2d cc 3c 03 ab 39 bd d6 89 1d bd 7c 8b d4 bd
       0.024924165 -0.045329105 -0.03846153 -0.10378167
000170 89 01 65 be 8d d3 a1 3c fe 74 fc 3d a9 6b 19 be
       -0.22363867 0.019754196 0.12327002 -0.14982475
000180 4a 89 86 bd a0 69 d2 bd f0 97 95 3d bd 31 04 be
       -0.065691546 -0.102740526 0.073043704 -0.12909599
000190 ab ce f4 3d 1d a4 34 3b 91 df c5 3d c1 16 b6 3b
       0.11953481 0.002756364 0.096617825 0.0055569117
0001a0 ba 48 ed 3d 54 40 68 3b c6 95 06 3d 2e a5 2c 3b
       0.11586137 0.0035438733 0.03285768 0.0026343572
0001b0 9f 95 1b be a1 fb db 3d 02 7a 0a be 0b d0 a7 bc
       -0.15193795 0.10741354 -0.13523105 -0.020484945
0001c0 c1 cf 5a bc 41 3a 3a be 8c 53 6e 3d 62 9a 28 be
       -0.013355196 -0.18186285 0.058185145 -0.16465142
0001d0 c2 42 e9 bd b0 5e 8c bd 06 c4 f3 3d dc 24 fc bd
       -0.11389686 -0.06853998 0.11902623 -0.12311718
0001e0 d6 32 61 3e 9d 80 07 bd 11 f2 c6 bc a0 01 00 be
       0.21992049 -0.03308164 -0.024285348 -0.1250062
0001f0 60 c6 87 bd 6d 15 26 3e ae 24 8b 39 aa 1e 09 3e
       -0.06629634 0.16219111 0.00026539474 0.13390604
000200 6a a7 c8 bc 09 ad 21 be ee 49 3b bd 20 ea e8 3d
       -0.024493892 -0.15788664 -0.0457248 0.11372781
000210 c5 b4 17 be 1a 4e ae bd 55 e1 3a bd 0c 8a b9 bc
       -0.14815052 -0.085109904 -0.04562505 -0.022648834
000220 85 e3 01 be 29 d9 bd bd fb c9 9a be 1c ed 90 3e
       -0.12684448 -0.09269936 -0.30232224 0.283059
000230 97 82 57 3d ce fd 69 bd 6d 5c 37 bd b9 f0 02 3c
       0.052614775 -0.057126813 -0.04476588 0.007991963
000240 09 1b f8 3d 90 8a 10 bd 2d c1 25 bd a8 14 e0 3d
       0.121145315 -0.035288393 -0.04046743 0.1094144
000250 f4 5e 86 be 52 42 ae be fa a4 b2 bd d4 b0 55 3e
       -0.26244318 -0.34034973 -0.08722873 0.20868236
000260 ae bc 44 bd 7b c4 24 3d 31 bb 81 bc dd cc 0e be
       -0.0480315 0.04022644 -0.01583633 -0.13945337
000270 b1 82 65 bd 84 ec 10 bd b5 fc 00 be 57 49 43 3e
       -0.05603284 -0.03538181 -0.125964 0.19070946
000280 0e b7 1c 3e a4 1a 5c bd c7 fd 01 be 81 39 e3 bd
       0.15304205 -0.053736344 -0.12694465 -0.110949524
000290 3c 4b 1f bd cf 61 4c bd 8b 91 40 3d a1 af 8b 3d
       -0.03889011 -0.049897965 0.0470138 0.06820608
0002a0 0e 3c 20 bc ba b9 80 3b 21 2a 0f 3e b8 47 c4 bd
       -0.009779943 0.0039283903 0.13980915 -0.09583992
0002b0 32 f2 c1 3d 1b 9c c3 3b a7 0d 2d 3d 9b 51 f0 3d
       0.09470023 0.005969537 0.042249348 0.11734315
0002c0 93 04 14 bd 7e 40 e5 3d db c7 ce 3b 26 44 0e 3e
       -0.036137175 0.111939415 0.0063104457 0.13893184
0002d0 16 b2 28 bc 67 72 58 3e 28 79 3e be 82 61 92 3c
       -0.010296365 0.21137391 -0.18600905 0.017868761
0002e0 20 18 b2 bb 53 68 51 be 26 14 b3 bd 38 1f 1e 3d
       -0.005435005 -0.20449953 -0.087440774 0.03860399
0002f0 e7 d6 33 3e f8 bc 18 be 63 b2 02 bd 87 89 80 be
       0.17562447 -0.14915836 -0.031908404 -0.25104925
000300 07 f7 7a bd 58 71 17 be ea a4 1c be 18 16 52 3e
       -0.06127074 -0.14789331 -0.15297285 0.2051624
000310 b6 c9 d6 ba f4 87 a0 bd 9f 6e 52 3e 72 32 92 bb
       -0.0016387019 -0.07838431 0.20550011 -0.00446158
000320 3d 73 1d bd ab c8 cf bd 95 8f d8 3d 15 6d 2f bc
       -0.038439978 -0.10145696 0.10574261 -0.0107071595
000330 66 82 3b be 46 27 70 bd 0f d7 a5 3d d0 f5 1a 3e
       -0.18311462 -0.058631204 0.0809766 0.15132833
000340 17 ce d5 3d 31 93 92 bd 2b 6c f9 bd 3d 96 f8 3d
       0.10439699 -0.07156981 -0.121788345 0.12138031
000350 49 59 9b bd 05 19 14 3e b6 9b 86 3c c3 7f 75 bb
       -0.07585389 0.14462669 0.01643167 -0.0037460185
000360 ef c9 f4 3d 34 4a 37 bd 3d 8f 0d 3c 84 03 1e 3e
       0.11952578 -0.0447485 0.008640108 0.15431029
000370 d1 2c d5 bc f1 33 44 3d ed d3 0a 3d 81 3e b8 3c
       -0.026022347 0.047901098 0.033893514 0.022490742
000380 02 61 28 3d d4 4d ed bc c2 45 ac ba 5c 14 27 bd
       0.04110814 -0.028967775 -0.0013143348 -0.0407909
000390 5a 74 30 3d 6c c8 06 be 70 9a a1 3d 46 84 9f 3c
       0.04307971 -0.13162392 0.07890785 0.019472253
0003a0 5a 90 cd 3c 8b d5 44 be 9a 92 98 3d a2 bc a6 3d
       0.025093246 -0.19222085 0.07449837 0.081414476
0003b0 7b c5 dc 3d f0 50 1c 3d 36 66 6c bd 6b f9 80 bc
       0.10779854 0.038163126 -0.057714663 -0.015743932
0003c0 fc f9 93 bc 0d 36 47 bd a7 10 7b bd 6a 61 b7 bc
       -0.018063538 -0.04863553 -0.061295178 -0.022385318
0003d0 d2 96 97 bd 2f de 40 3c 4f de d0 bd b5 12 b6 bd
       -0.074018136 0.011771723 -0.10198652 -0.08890287
0003e0 58 48 06 be 12 bb 4c 3d 6c 8d 27 3b c7 bb 5e 3e
       -0.13113534 0.04998309 0.0025566472 0.21751319
0003f0 64 65 ed bd 97 26 89 bd 11 db 70 bd 15 94 ad 3d
       -0.11591604 -0.066968136 -0.058802668 0.0847551

actor.2.bias f4 [128]
000000 3e 4e 4a be f0 ba 2e be 77 f7 91 be 7f 6f 13 be
       -0.1975641 -0.17063498 -0.28509113 -0.14398001
000010 b1 5f 15 be 73 41 22 be 42 ae c8 bd c8 15 27 be
       -0.14587285 -0.1584528 -0.09798862 -0.16316903
000020 64 58 83 be fe 1b 8e bd 61 c1 2e be 49 21 ae 3c
       -0.25653374 -0.06938933 -0.17065956 0.021256106
000030 d5 b6 9e bd 8e 78 bb bd 4c 01 27 be b2 47 e8 bd
       -0.07749716 -0.09153853 -0.16309088 -0.113418
000040 01 52 16 be db 70 43 be 9e f1 e3 bd 3f e3 a1 bd
       -0.1467972 -0.1908602 -0.11130069 -0.07904672
000050 67 78 0c be f5 10 32 be db b7 fe bd bb 67 b4 3b
       -0.13717805 -0.17389281 -0.124374114 0.0055055297
000060 ea 7a 48 be 9c f6 07 be 68 23 84 bd 9e e0 71 be
       -0.19578138 -0.13277668 -0.06452066 -0.23620841
000070 85 d5 e7 3c ad 12 49 be 98 a9 57 bd 36 6b d5 be
       0.028300056 -0.1963603 -0.05265197 -0.41683358
000080 f3 32 15 be bc cc 3b be 02 c8 88 bd 03 87 2e be
       -0.14570217 -0.18339819 -0.066787735 -0.1704369
000090 bd 9a d1 bd 56 85 66 be b1 7e d3 bd 65 97 e2 bd
       -0.10234592 -0.22511801 -0.10326899 -0.110640325
0000a0 2a 41 01 be 62 2f 1f be a6 65 36 be 8a 76 4d bd
       -0.12622514 -0.15545419 -0.17812213 -0.050161876
0000b0 8f 76 22 bd a2 ea a2 bd 82 b0 69 be 57 b3 bb bd
       -0.039663848 -0.07954909 -0.22821239 -0.09165066
0000c0 5e 68 a6 3a 1a 68 58 be ba e3 99 3c 4a 7e 9d be
       0.0012695899 -0.21133462 0.018785346 -0.30760413
0000d0 10 56 d8 3c b0 8d 15 bd d7 80 53 be 61 13 e2 bd
       0.026408225 -0.036512077 -0.20654617 -0.110388525
0000e0 48 1f b3 be 6e 78 0a be 12 64 24 be 49 59 1a be
       -0.34984803 -0.13522503 -0.16053799 -0.15073122
0000f0 81 2c 2a be 49 22 a0 be 09 62 98 be 5c ca fc bd
       -0.1661854 -0.31276157 -0.29762295 -0.123432845
000100 2f fa 21 be 42 9e 88 be 85 0f 78 bd 95 e9 21 be
       -0.15818094 -0.2668324 -0.060561676 -0.1581176
000110 30 f9 6a bd 00 25 6e be e0 5e 23 be 87 d0 1f be
       -0.05736655 -0.23256302 -0.1595416 -0.1560689
000120 22 e2 12 be 85 bc 8a bd 29 f1 76 be 1f a9 e6 bd
       -0.14344075 -0.067742385 -0.24115433 -0.11262726
000130 66 19 a6 3c 3c 63 92 be 2a 7c 60 bd 10 00 02 be
       0.020275783 -0.28591335 -0.054805912 -0.12695336
000140 9c d6 26 be e6 62 4a be a9 50 76 3d 13 77 46 be
       -0.16292804 -0.1976429 0.060135517 -0.1938136
000150 47 09 64 be 8f 89 c5 bd 3a 6c 57 be 33 e0 b3 bd
       -0.22269164 -0.09645378 -0.21037379 -0.08782997
000160 7d b9 e1 3c 91 65 be bd ab d3 86 bd 57 2f 15 bd
       0.027554268 -0.09296716 -0.06583341 -0.0364221
000170 c1 a9 76 bd 3e 4d 80 bd 9a 12 7d be aa e5 17 be
       -0.060220484 -0.06264733 -0.24714127 -0.14833704
000180 17 d8 b6 be cd 75 3f be dc de 39 bd d2 57 60 3c
       -0.35711738 -0.18697281 -0.04537855 0.013692813
000190 8f 72 27 3c 96 ef 05 be 18 ef 35 bc b6 d0 3e bd
       0.010220184 -0.13079676 -0.011104368 -0.04658576
0001a0 e9 ba 79 be b7 c7 2c be c7 3e 9b be 7d a7 ef bc
       -0.24387707 -0.1687306 -0.30321333 -0.02925467
0001b0 ac e2 1d be 72 5e b8 3b 50 50 38 be fa cc bf bd
       -0.154185 0.005626493 -0.17999387 -0.09365268
0001c0 6e a8 66 be 05 c2 9f be 06 1d 1d be c4 e5 19 be
       -0.22525188 -0.31202713 -0.15343103 -0.15029055
0001d0 a0 92 52 be 11 5f b7 be 66 ed 9c bd e0 f0 0a be
       -0.20563745 -0.35814717 -0.07662468 -0.13568449
0001e0 e3 10 20 be db be b1 be fe 46 75 bd 49 83 95 bd
       -0.15631442 -0.34715924 -0.059882157 -0.07300431
0001f0 3d 71 96 bd 3f 22 37 bd 19 00 13 be cf 09 4e be
       -0.07345817 -0.044710394 -0.14355506 -0.20120929

actor.4.weight f4 [128, 128]
000000 36 5d ed bd 1c ec 51 3d 17 61 e3 3d 4e 15 c3 3d
       -0.11590044 0.051250562 0.11102503 0.09525548
000010 9d bb 03 3e 55 44 ec bd d5 ee 02 be e1 f2 7f 3e
       0.12864538 -0.11536471 -0.1278642 0.24994995
000020 46 25 75 bc 50 ee 8e 3d 88 2d 9a be 69 7a e6 bd
       -0.0149625 0.06979048 -0.30112863 -0.11253817
000030 4a ef 88 bd f1 9a 4f 3d 57 b3 34 3c 02 96 35 be
       -0.06686266 0.050684873 0.011029086 -0.17733005
000040 e4 73 0a be 6e 6d b0 bc 3c 1e 0d be 76 f0 0a be
       -0.13520771 -0.021536555 -0.13781065 -0.13568291
000050 4f 6b 52 3e c1 85 da bd 48 60 65 3d a2 20 06 bd
       0.20548747 -0.10670043 0.056000024 -0.032745965
000060 39 6c a2 3d d6 0c d7 3d 59 cc f8 bb 6e 39 93 3d
       0.07930798 0.10500495 -0.0075927195 0.07188688
000070 76 e3 da bd 36 2b 82 3b 84 30 1f 3b bc 7a e7 3d
       -0.10687916 0.0039724363 0.0024290392 0.113027066
000080 98 b3 45 3d 38 ce a4 3d 95 cb 53 3d cf 51 47 3e
       0.048266977 0.080471456 0.051707823 0.19464801
000090 0c 67 1b bd 10 a4 5c 3a 95 d6 e3 bd e8 ce 16 be
       -0.03794007 0.0008416781 -0.11124913 -0.14727366
0000a0 0e 94 07 3e 0c ed 97 3d 6e cf 1a bc 21 8f 9a bd
       0.13240072 0.0741826 -0.009448869 -0.07546831
0000b0 bb 6f 99 bd ad 26 e0 bd d1 2e d6 3d 06 05 f3 bb
       -0.07492014 -0.10944877 0.10458148 -0.0074163703
0000c0 f7 ae ab 3c 06 6b 1b 3c d7 64 5e be 00 00 9a bd
       0.020957453 0.009485966 -0.21718155 -0.07519531
0000d0 10 bf 6e bd 5e 06 5b bd 2f 90 af bd 8e 85 95 3d
       -0.05828768 -0.05347287 -0.08572423 0.07300864
0000e0 6c e9 80 3d a0 e6 34 bc c6 39 da 3c 5e c0 3b bc
       0.06294522 -0.011041313 0.026638877 -0.011459438
0000f0 ab b0 24 3e 4b 9e 0e 3e 4c ca b0 bd ec 20 28 bd
       0.16083018 0.13927571 -0.08632335 -0.04104702
000100 0d 25 20 bd 1b cd 8e 3d 54 6e f3 bc 76 c7 dd 3c
       -0.039097834 0.069727145 -0.029715694 0.02707265
000110 d2 19 be 3d 20 04 dc 3d 99 17 21 bd 29 28 96 3c
       0.092822686 0.10742974 -0.039329145 0.018329697
000120 b2 97 07 3d 83 5e e3 bd 2a 4d d2 3d 86 79 e7 3d
       0.033103652 -0.11102011 0.10268624 0.11302476
000130 9f 94 f0 bc 84 28 0e 3d e0 81 6d bd e4 e9 c2 bd
       -0.029367743 0.034706607 -0.057985187 -0.09517267
000140 77 39 f7 3d 6b 95 ec 3d 1a dd 12 3d 0e 7e 6b bd
       0.120715074 0.11551937 0.03585539 -0.057493262
000150 3a c6 ea bc b6 59 59 3d a3 cb 58 3e af 47 88 3c
       -0.028658975 0.05306407 0.21171431 0.016635744
000160 34 37 15 be 86 d1 c7 bd 80 fa 5b 3c ad 69 e6 bb
       -0.1457184 -0.0975676 0.013426423 -0.0070316405
000170 6c 85 3e 3d bb 28 8f 3d 02 6b 1a bd ac 35 a4 3d
       0.04651396 0.069901906 -0.037699707 0.080180496
000180 63 8b b5 bd dd 6d 46 3d 8b be e0 3d 4f 93 5f 3b
       -0.088644765 0.048444618 0.10973843 0.0034114902
000190 eb 9d da 3d 0e dd aa bd 61 ad 87 bb eb 2e ff 3d
       0.10674652 -0.08342944 -0.0041405414 0.12460121
0001a0 23 39 b1 3d 02 fc 97 bd 4d 71 0b 3e a6 3a 33 3d
       0.08653476 -0.074211136 0.1361744 0.043757103
0001b0 cf c3 c6 bc 23 11 a3 3c b1 d6 af 3d 65 12 a0 bd
       -0.02426329 0.019905632 0.08585871 -0.078160085
0001c0 ec 2b 50 3d 83 1f 82 bc 5c 94 00 3e 2f e1 d9 bd
       0.050823137 -0.015884167 0.12556595 -0.106386535
0001d0 54 46 bd 3d 13 ad cb 3c 7d 1c 90 3d ba 67 86 3c
       0.0924193 0.024862802 0.07036684 0.016406883
0001e0 e2 7d ea bc b0 69 2d 3d 35 91 5b bd be cf a2 3d
       -0.028624479 0.04233712 -0.053605277 0.0794978
0001f0 6c 0b ab bd dd 3c 52 bc 08 c2 45 3d 31 df 1c be
       -0.08351788 -0.012831894 0.048280746 -0.15319516
000200 e2 8b 91 bd 73 31 db 3d be 2e 18 3c b4 6c e7 bc
       -0.07106759 0.10702791 0.009288488 -0.028250076
000210 53 e6 d9 3a 8d 4c 5a bd 14 51 52 bd 10 ef 79 3c
       0.0016624428 -0.05329566 -0.051346853 0.015254751
000220 ce 73 78 3b 7f f2 78 3d 87 6b f1 3d 3c 29 6f 3d
       0.0037910822 0.060778137 0.11788087 0.058388934
000230 2c 0c 60 3d c2 7b d7 bd 18 24 98 bd d3 0d d8 bd
       0.054699108 -0.10521652 -0.07428759 -0.10549512
000240 7a 9a 38 3d 00 b8 57 bc d3 6d 54 3d b6 c1 90 3d
       0.045069195 -0.013166428 0.05186255 0.070681974
000250 2d c2 e1 bd 1d db 74 3d 2d 90 d0 bc d8 a8 a2 3d
       -0.11023364 0.059779275 -0.025459373 0.07942361
000260 84 a1 b8 bd fa 09 4e 3c d2 55 e3 3c 29 ce c7 3d
       -0.09015182 0.012575621 0.027750883 0.09756119
000270 df 92 11 3e 87 e8 e7 3c 17 d4 5e 3d 0b 87 ac 3d
       0.14216183 0.02830912 0.054401483 0.08424195
000280 45 79 e2 bd 3f 5f 8a bd 12 9e c3 3b cf c4 f4 bc
       -0.110582866 -0.06756448 0.005969771 -0.029879002
000290 1f b7 a7 3c a9 7c 91 3d 16 56 ad 3d 58 31 00 be
       0.020473061 0.07103855 0.08463685 -0.12518823
0002a0 fc 7c 63 3c 6b 6c 35 bd 75 14 d3 3d 69 de e4 3d
       0.013884779 -0.04429285 0.10306636 0.11175234
0002b0 1d ef f0 3c a6 98 98 3d 47 80 62 3d ab 25 05 3d
       0.029410893 0.074509904 0.055298116 0.032506626
0002c0 49 3e c4 bd fa 9b 90 bb 64 9e a0 3c 16 f5 80 3d
       -0.095821925 -0.004413125 0.019606777 0.062967464
0002d0 6f 01 00 3b 9b df 5c bd 72 0f 85 3d 8c 7b 9a 3d
       0.0019532104 -0.053924184 0.064970866 0.07543096
0002e0 78 73 87 3d a5 82 36 3c 78 60 61 3c 67 dd ee 3d
       0.06613821 0.0111395465 0.01375591 0.11663323
0002f0 ce 73 51 bd bf b5 41 be 38 f2 59 3c e2 e9 c0 3d
       -0.05113583 -0.18916987 0.013302378 0.094196096
000300 0e 82 0f bd 7a 2a 3e be 9d ce 33 be 11 af ed 3d
       -0.03503614 -0.18570891 -0.17559285 0.11605657
000310 29 44 c5 bb 92 7f ca 3b 8b 33 25 3d 15 44 00 bd
       -0.006020088 0.0061797583 0.04033236 -0.031314928
000320 e6 50 33 bd e9 d6 20 be 72 1b 77 bc df 3b e1 bc
       -0.043778323 -0.15706982 -0.015082227 -0.02749437
000330 45 f0 81 3c 48 a4 a2 bc a8 9b 13 3e 92 c9 3e be
       0.01586164 -0.019853726 0.14414847 -0.1863158
000340 bd f3 0f 3d a4 ef 03 be 9c 66 8e bd 9e 8a 8d 3d
       0.035144556 -0.12884384 -0.06953165 0.06911205
000350 ee 81 97 bd 31 6c 99 3c 78 91 c5 bd 28 69 ba 3d
       -0.07397829 0.018728347 -0.096468866 0.09102088
000360 eb c7 93 bd 79 7f 27 bd 25 ef 52 bd f4 db 34 bd
       -0.07215866 -0.04089305 -0.051497597 -0.044155076
000370 b9 54 f3 3c 83 0f 82 bd 7d d1 e8 3d b3 27 9d bd
       0.029703485 -0.06350615 0.11368082 -0.07673588
000380 9f dc 6d bd 14 37 3c 3d a6 81 01 3d ce b4 ad bd
       -0.05807173 0.045950964 0.031617783 -0.084817514
000390 94 16 3b be 42 d9 3c 3e fc 94 a0 be 2c e7 af bc
       -0.18270332 0.18442252 -0.31363666 -0.021472536
0003a0 e4 d7 62 3b da a3 72 bc b0 ea 97 3d 40 7c 81 3d
       0.0034613544 -0.014809573 0.0741781 0.06322527
0003b0 2f 68 14 bd 3c 89 98 3d cf f2 11 bd 35 6b a1 3d
       -0.03623217 0.074480504 -0.03563195 0.07881776
0003c0 6d 4a 45 bc 2c 7f 5c 3c 16 ba 2e 3d 5f 86 78 bd
       -0.01204167 0.0134580545 0.042657934 -0.06067502
0003d0 51 f6 55 bd 7c d8 87 3e 88 76 2e 3e 81 04 e8 3c
       -0.05223686 0.26532352 0.17037404 0.02832246
0003e0 ef 05 75 3d 73 0d 5b bd 84 49 ea 3d bc 4b 05 bd
       0.05982011 -0.053479623 0.11439803 -0.03254293
0003f0 1b 5f 89 bd f2 8a 5b be a0 55 6a bd 85 02 76 be
       -0.06707593 -0.21439722 -0.057210565 -0.24024399

actor.4.bias f4 [128]
000000 b8 24 1a be 6c 37 07 be 13 bc c1 3d 78 d5 70 3d
       -0.1505307 -0.13204736 0.094597004 0.05879733
000010 03 ca f5 bc 33 82 0a be ac af a3 3c dc 14 c2 3d
       -0.030003553 -0.1352623 0.019981228 0.09476635
000020 28 e6 98 bd b0 a7 31 be f1 b8 ce bd ed b0 8e be
       -0.07465774 -0.17349124 -0.100938685 -0.2786936
000030 2c a1 ac bd f3 04 1c be a0 5b 8f 3d aa bd 64 3d
       -0.084291786 -0.15236263 0.06999898 0.05584494
000040 0d 9b b8 bc 44 ad 2a be 57 cf 97 3d 44 e8 7d be
       -0.022534871 -0.16667658 0.07412594 -0.24795634
000050 54 87 31 be ff 75 89 bc e6 5d 8f bd f4 78 12 bc
       -0.1733678 -0.016779898 -0.070003316 -0.00893997
000060 e9 10 f2 bd a3 f4 8f bd 02 98 3c be 4b e1 83 bd
       -0.118196316 -0.070290826 -0.18417361 -0.064394556
000070 77 0d bc bd 0d 01 5f be 1d 01 2d be ba 43 5d bd
       -0.09182256 -0.21777745 -0.16894956 -0.054019667
000080 3d 13 c1 bd 56 cc 38 be 8b 1b 5c be 12 05 7f bc
       -0.094274975 -0.18046698 -0.21494882 -0.015565174
000090 ee 76 96 bd 33 3f 29 be 4d 5a cf bd 39 26 b9 bd
       -0.07346903 -0.16528015 -0.101246454 -0.090404935
0000a0 51 6d 50 3d 97 e3 74 3c eb a7 2f 3d 00 7b 83 be
       0.050885502 0.01494684 0.04288475 -0.2567978
0000b0 fa 2b e6 bd e4 e0 93 bc dc cb 18 be bf 08 01 bd
       -0.112388566 -0.018051572 -0.14921516 -0.03150248
0000c0 b6 6a 3c be 7a a8 f3 bd 19 e8 3d 3d 91 4c 21 bd
       -0.18400082 -0.11897369 0.046363924 -0.03937966
0000d0 32 8a ee bd 69 be 64 bd e0 9c 49 bd 7b 44 5d be
       -0.116474524 -0.05584565 -0.049221873 -0.21608154
0000e0 e4 b7 4f be 5c e0 01 be a5 68 44 bd 83 f4 4f be
       -0.20284992 -0.12683243 -0.04795136 -0.20308118
0000f0 77 e9 6f be f2 4e 1e be 49 50 cb 3a 7e d8 27 be
       -0.23428904 -0.15459803 0.0015511598 -0.16391179
000100 f0 93 40 bd 68 9b a2 bd 26 d4 81 be e8 a4 87 bc
       -0.047016084 -0.07939798 -0.2535717 -0.016558126
000110 5e 56 db bd d0 54 c9 bd 21 2b b9 bc cd 1a 6f bc
       -0.107098326 -0.0983063 -0.022603573 -0.014593792
000120 c3 7b c7 bd f0 98 74 bd db ab c3 bd ce f6 f0 3b
       -0.097404025 -0.059716165 -0.09554263 0.00735364
000130 8e fd eb bd 0b 99 3b be c8 0f 0d bc e5 58 98 3b
       -0.11522971 -0.183201 -0.00860972 0.004649269
000140 3b b1 a7 bc a2 99 09 be f9 65 29 bd d3 7d 1c be
       -0.020470252 -0.13437513 -0.041357014 -0.15282373
000150 22 7f 5f 3c 2f e2 11 be 32 8f 34 bd 06 42 51 bd
       0.013641151 -0.14246438 -0.044081874 -0.051088355
000160 59 ae 64 3c dc 61 17 be 2f 70 ff bc 6d 66 1f bd
       0.013957583 -0.14783424 -0.031181423 -0.03891604
000170 bf bb 05 3d d5 3b 98 3c 1d 15 d4 3c 3e ad cc bd
       0.03264975 0.018583218 0.025888974 -0.09993981
000180 06 f0 1d be 20 d0 0b bd e5 21 0a bd ba cd 28 be
       -0.15423593 -0.03413403 -0.03372373 -0.16484728
000190 8d 02 bc bd 70 31 95 bd 8c f4 18 be d4 2f 09 bd
       -0.09180174 -0.0728482 -0.14937037 -0.033492878
0001a0 34 a7 dc bd fc 6e ba bd 5e ef d1 bd 24 db 70 3d
       -0.10774079 -0.091032 -0.10250734 0.05880274
0001b0 2b b7 0e be e6 f2 52 be df b2 3a 3b e7 00 92 bc
       -0.1393706 -0.20600471 0.0028487963 -0.017822696
0001c0 33 b4 30 bc f6 1a d1 3c 8f 57 08 be 25 19 72 bd
       -0.01078515 0.025525551 -0.13314651 -0.05910601
0001d0 27 8f b5 be 43 21 1c be 55 99 a0 bc 1e 6d f4 bd
       -0.3546078 -0.15247063 -0.019604364 -0.11934875
0001e0 6f 8a d0 bd 2c c3 a9 bc 5b 71 c5 3c f2 ea 08 3d
       -0.10182654 -0.020722948 0.024101904 0.033427186
0001f0 8c b0 54 bd a6 0c ea bd 74 14 8a bd c0 e6 4b bd
       -0.05192618 -0.11428194 -0.067421824 -0.049780607

actor.6.weight f4 [12, 128]
000000 32 49 8c bc 34 21 55 bc 31 54 5c 3d 52 41 cd 3b
       -0.017124746 -0.0130084045 0.05379123 0.0062638903
000010 c5 a4 ca bb 29 2e fb 3c de d9 bd 3a 2d 82 62 bc
       -0.006184193 0.03066166 0.0014484485 -0.013824982
000020 48 47 36 3b 1a 9d 8c bd 7a c5 ea ba 75 6d ce bb
       0.0027813483 -0.06865902 -0.0017911636 -0.0062996694
000030 22 f3 e3 bc 99 26 89 bc a9 eb ca 3a d9 41 9e 3c
       -0.027825896 -0.016742038 0.0015481609 0.019318508
000040 82 fb cb 3a b2 da b8 3b c3 fe 0b bd 11 5b 41 3c
       0.0015562626 0.005641305 -0.034178507 0.011801497
000050 be 9b 85 3b 0e 07 98 bd eb c2 29 bc 79 cb 49 3b
       0.004077404 -0.074232206 -0.0103614135 0.0030791445
000060 c4 53 65 3c ae 1a f2 bb a0 d8 7f 3c 95 3a 70 bb
       0.013997022 -0.0073884344 0.015615612 -0.0036656011
000070 e5 01 c8 bb eb 42 13 bd 65 30 08 bb 7a 3d 38 bc
       -0.0061037415 -0.03595249 -0.0020780799 -0.011245126
000080 38 1e 35 bd 4d 0f d1 3c 92 e8 02 3c 38 ea 3b bd
       -0.044218272 0.025519991 0.007990019 -0.045877665
000090 6b 83 e7 3d 53 44 2f bc 0a f2 2d 3d 96 79 a6 bc
       0.11304363 -0.010697442 0.042467155 -0.020321649
0000a0 ad 23 db 3b 04 67 05 3c fd 11 e6 3c 83 76 18 ba
       0.0066876025 0.008142237 0.02808475 -0.00058159995
0000b0 6a 9c b8 3c 53 ca 18 bc db be 7b 3a 11 2f 3e bd
       0.022535522 -0.009325582 0.000960333 -0.046431605
0000c0 f1 18 3f bd 39 c7 8c 3b 57 30 3c ba 8b e4 79 3c
       -0.046654645 0.00429621 -0.0007178834 0.015252243
0000d0 8c db 4b 3d 2f 3e 45 bc 39 64 30 3c ff 3e e1 bc
       0.049769923 -0.0120387515 0.010766082 -0.02749586
0000e0 6c 8f 85 bb 5a f6 6e bc dc dd 87 bc 40 d0 50 bd
       -0.004075935 -0.014585102 -0.016585283 -0.050979853
0000f0 f4 22 ee bb 47 6f 00 bd fc c9 0b bc 46 60 8d 3d
       -0.0072673503 -0.031356122 -0.008532044 0.06903128
000100 7d 1d e2 bc c6 2c 9e 3b 4e 58 e0 bd 97 d0 b5 ba
       -0.027601952 0.0048271148 -0.10954343 -0.0013871369
000110 f1 d6 93 bd 16 06 a9 bc 09 a6 af bb b0 7c 01 3d
       -0.07218731 -0.020632785 -0.005360369 0.031613052
000120 77 4e e4 bb cd 8f 5f 3c 20 7a 6b bc d9 f8 f2 bb
       -0.0069673616 0.013645125 -0.014372379 -0.007414919
000130 6e c1 8c 3c 4a b9 cc bb 17 7c 53 bb 9f 33 82 3c
       0.017182078 -0.006247674 -0.0032270008 0.015893755
000140 ee 9e be 39 2d bd 63 bb fb e9 62 bc 44 4d 9e 3c
       0.00036358036 -0.0034750209 -0.013849731 0.019323952
000150 93 75 3f 3c 69 38 e7 3b 18 20 8a bc d4 0d ef 3c
       0.011685747 0.007056285 -0.016861007 0.029181398
000160 1a 2c 99 3c a1 ce 99 3d 5f cc 5f bc 4f 69 30 3d
       0.018697787 0.075101145 -0.013659566 0.04306918
000170 9b c0 40 bc 63 f3 a1 bc 25 31 4f 3c 36 e2 06 3d
       -0.011764671 -0.019769376 0.012645994 0.032930575
000180 62 35 df 3c fe 12 aa bc e8 65 39 ba 0c 0b eb bc
       0.027247135 -0.02076101 -0.0007072375 -0.028691791
000190 a1 9b 40 bd 8d a4 15 3d 75 2b 7a 3c bb e6 a2 3c
       -0.04702342 0.03653388 0.01526915 0.019885411
0001a0 1a 63 9f bb 10 23 d0 3c 47 5d de bb ec b6 a4 3c
       -0.0048641087 0.025407344 -0.006786022 0.020106755
0001b0 a6 30 07 3d 42 4e 33 3c 16 46 51 3c ee 4f 5c bc
       0.03300538 0.010943951 0.012773057 -0.013446791
0001c0 4a 45 a8 3b 8f e9 f4 3c fd 21 df 3b d8 eb cf 3a
       0.005135213 0.029896526 0.0068094716 0.0015863134
0001d0 13 0a 44 bd 5e a4 bd bb c2 3b 1d bc f1 90 52 3b
       -0.04786117 -0.0057874164 -0.009596767 0.003212985
0001e0 26 04 13 bd a7 8f f8 3c 94 f7 80 bb 99 10 1d bc
       -0.035892628 0.030341936 -0.0039357636 -0.009586477
0001f0 7f 86 ce bc 36 5f 04 3d 65 1d 08 bd ce 2a 63 bc
       -0.025210617 0.032317363 -0.033231158 -0.013865186
000200 bb 44 c4 3c 17 7f 95 3c dc 95 47 3d 45 5a 33 3c
       0.023958554 0.018249078 0.0487269 0.010946815
000210 46 23 88 bb 35 94 1a bb 44 1f 5b bb b5 2b bd 3d
       -0.0041545955 -0.0023586873 -0.0033435384 0.09236852
000220 90 ac 78 bc c0 fe 41 3d 65 b7 d0 3b 89 07 06 bd
       -0.015177861 0.04736209 0.0063695186 -0.03272203
000230 68 27 70 bd 14 99 32 bd 7b 13 df ba 7c 5d d1 bb
       -0.05863133 -0.043603018 -0.0017019355 -0.006389318
000240 1c fd 0b 3c e8 96 81 bc 66 d1 bc bc de c6 73 bd
       0.008544233 -0.015819028 -0.023049068 -0.059515826
000250 ed 95 83 bc 13 f6 b5 3c 20 23 cf 3c c9 a5 6b bc
       -0.016062701 0.022212064 0.025285304 -0.014382788
000260 a3 f5 23 bb 75 d4 d0 3b 94 f9 7b bd 27 59 99 bc
       -0.0025018237 0.006372983 -0.061517313 -0.018719269
000270 9c 3d e2 bd 71 7d 2d bd 27 5f b9 3a c2 ae c1 bb
       -0.11046907 -0.04235596 0.0014142737 -0.0059107253
000280 68 6b fc bc 54 2a 06 3d 4d 37 26 3d 92 d7 07 3d
       -0.030812934 0.03275521 0.040580083 0.03316457
000290 9e 3c 2f bc fe 88 57 3b 1d 4e 02 bd ae e6 7e bd
       -0.010695605 0.003288805 -0.031812776 -0.062231712
0002a0 01 f6 dc bb ed 3b 1f bc 2d 1c b6 3d 38 f2 30 39
       -0.006743193 -0.009718877 0.08892093 0.00016874901
0002b0 28 ff d9 bc 42 74 4f 3c ab 4f 57 3d 67 2e c4 3c
       -0.026610926 0.012661995 0.05256621 0.023947908
0002c0 23 77 0b bc aa 3e 1a bb 9b 2a 2d 3c dd 36 8f bc
       -0.008512291 -0.0023535886 0.01056924 -0.017482216
0002d0 25 75 f1 3d a4 bf 25 3b 69 64 c4 ba 4a f2 50 bc
       0.11789922 0.0025291229 -0.0014983538 -0.012753079
0002e0 e4 42 98 3c bb a1 8c 3c 20 86 e9 3b 2f fc 71 ba
       0.018586583 0.017166963 0.0071265846 -0.00092309987
0002f0 17 c0 e0 bb 71 6b 32 3d 80 55 aa 3c 40 7f e7 3c
       -0.0068588364 0.043559495 0.020792723 0.02825892
000300 5d b1 9c 3c f0 55 1e bc b0 23 c9 bc c1 a3 8b 3c
       0.019127542 -0.009664044 -0.02455315 0.017045857
000310 93 29 2b 3d fd 1b 01 3c c1 7b a9 bc 46 80 12 3c
       0.041787695 0.007880208 -0.020688893 0.008941716
000320 fc 03 a7 bc 3f 4e 17 bc 4f 2d 76 bc af c0 40 3c
       -0.020387642 -0.009234964 -0.015025451 0.011764689
000330 79 c4 4e 3c 15 8a 11 bb c2 a4 42 3d c9 b8 07 3c
       0.012620085 -0.0022207547 0.047520407 0.008283802
000340 15 0f 50 3c d6 5f 6f bc 4b 3a c3 bd 9d 8e 53 3c
       0.012698908 -0.014610251 -0.09532603 0.01291242
000350 90 6e 24 3c 3d 69 94 bc 17 82 88 bd 2f 30 62 bc
       0.010036126 -0.018116588 -0.06665438 -0.013805433
000360 80 1a 1f bc a4 ff fe bc c4 94 bb b9 61 8f 86 3c
       -0.009710908 -0.031127758 -0.00035778258 0.01642579
000370 8a 64 b2 3c 9c 9c bd bb 34 f3 bd bc e8 4d 06 bc
       0.021776456 -0.0057864916 -0.023187257 -0.008197285
000380 51 a3 11 bc 2f c0 0d 3d 9b 8f 20 3d 5e 1b bc bc
       -0.008889035 0.03460711 0.039199453 -0.022962268
000390 e9 a2 58 3d b5 4b 55 3d ea 05 be bd 4d a2 84 bb
       0.05288974 0.052074153 -0.09278472 -0.004047668
0003a0 37 de ae 3c db 80 0b bc 04 69 73 bb d5 81 86 3c
       0.021346195 -0.008514608 -0.0037141452 0.01641933
0003b0 c0 bd 2e 3d af 52 72 bb 66 4f a8 3d 93 82 19 3d
       0.04266143 -0.0036975553 0.08218269 0.03747804
0003c0 9f f5 2e bd f4 66 4f 3d 9b a8 64 bc e3 3c 95 bc
       -0.04271471 0.050635293 -0.013956214 -0.01821751
0003d0 5f 20 97 bd 4d ea 65 3d a6 cf 77 bc 3d a9 13 bc
       -0.07379221 0.05613165 -0.015125191 -0.0090125175
0003e0 0f c1 6c bc d2 e3 e2 bd 14 e8 01 ba a2 e8 29 3c
       -0.014450326 -0.110786095 -0.0004955542 0.010370405
0003f0 9d 9a 95 3b 48 27 49 bb 99 b6 38 3c 6d 0b 47 3c
       0.0045655505 -0.003069358 0.011274003 0.01214872

actor.6.bias f4 [12]
000000 18 7d a3 3e 98 02 88 3c cd 1d e2 3d eb 09 fc 3d
       0.31931376 0.0166028 0.1104084 0.12306579
000010 27 de 57 be df 8e 59 be 13 0d b3 bb 35 6e 76 be
       -0.21080838 -0.21245907 -0.005464205 -0.24065478
000020 d7 30 df bd ce b1 90 3d d8 b7 4d bd 71 8b 60 bd
       -0.10897987 0.070651636 -0.050224155 -0.05482048
