logs/rsl_rl/unitree_go2_flat/2024-07-09_16-34-09/exported/policy.onnx (onnx, 165141 bytes, 8 tensors)

actor.0.weight f4 [128, 49]
00000000: f64a 0fbd 1af4 3e3d 60cf 50be ae75 313f
00000010: 9695 243c 5aab 7e3d 978f 3dbd 8198 5a3d
00000020: 7bc6 78be 6ea5 1cbe 9aab a9bd 4a66 0dbd
00000030: 3f1d 063e a4f8 0d3f 234e 1ebf fc96 cfbe
00000040: 725e e03e 5497 123e 6878 183f c73e 1cbf
00000050: 1e46 783e 69d6 24bd 4f1c de3d 0e48 893e
00000060: 37b6 b1be 39b7 2dbd df04 e73b 808b 4d3c
00000070: 91dd abbc b610 22bd 3478 6cbc 9559 483d
00000080: 1b5a 3d3d 64be 9abd 9185 83bd e311 033d
00000090: 63a9 af3d ef69 0a3e 6a57 4c3c 25dc 17be
000000a0: 366d e83d f925 03be 6e88 933e 6720 e0bd
000000b0: 070a d63d 0eab dfbd 03f5 953d 0b06 873e
000000c0: f9bf 38be bd33 26be 9b7e 5d3d 83e7 3d3e
000000d0: 42f9 87be 663d c7bc e00c 113e 6edd dfbc
000000e0: ea86 303d 73d0 363d e45e 25bd 734a 7c3d
000000f0: 0a0f f03d e8d6 01be 3f29 5e3f 982f e03e
00000100: da6c c03b 68ee 0fbf 591c cebe 0d6b 343e
00000110: a0b6 d3bf f030 f4bd 4470 28bd 9f7b 38be
00000120: 2acc 19bd ea04 a7bd a2bd 02bd 36bd 4cbd
00000130: f8c8 a8bd b3f5 05be 584c afbd 8d66 51bd
00000140: c962 c2bc ebe7 e5bd 6905 303d f2ae 033e
00000150: 0913 cbbd d752 f8bd 331c a53e 341c 213e
00000160: cdbe 073e b402 9bbd c773 ba3d f362 a13d
00000170: d583 5cbe 918c b53d 7b2f 52be 5529 213e
00000180: f855 563e cb01 32be 7fc4 e73d 8908 55bb
00000190: 7cdc f2bd 3895 073e bdd2 193e 66f6 a9bd
000001a0: 3ac3 f6bd 6717 84bd b8c4 b43c ff46 2bbe
000001b0: e56b c0bd b7d2 4cbc 4ee6 56bd 8aa3 90be
000001c0: ce9f 383f f75c 563e 0464 0ebf 4060 9abe
000001d0: 4b2e 6abe cb43 d9bf 6c6e 3f3f af90 b4be
000001e0: 4500 abbe 7887 ac3b 5e17 e03e 0885 c7bc
000001f0: 7681 03ba a6a9 a13d cf76 6f3b 06c7 f93b
00000200: f66a 34bc 142c 69bc 5b36 60bc 3061 8a3d
00000210: c363 9abd fba7 0a3d 2f96 c03d a000 bcbd
00000220: 3255 db3d b84d a43d c4da b1bd 9cb7 5ebd
00000230: 4be9 813d bd73 35be eb0c 073e b478 62bc
00000240: 3217 89bd 2797 58be 505a e63e 98e9 8ebd
00000250: 137d 023e e70d 04be ad0f 5f3d 99c6 a8be
00000260: c8c3 193e 6e03 f1bd 8183 55bc 4802 15bc
00000270: 2a7e e63a 454d a93d aa3d d7bd 9752 3dbd
00000280: 7f60 30bf 206b 6cbf 68b5 233f 7d7e a5bd
00000290: 9fc9 f13e f0f5 3fbf a2ec 413d b2ce 5d3e
000002a0: f58b 4cbe 3341 4fbe 65d7 993e a24b d4bd
000002b0: 2cf7 1fbd 98f8 953d c9a3 f23c 2aac 8dbd
000002c0: 47b3 a4bd aaed 153d 8e81 9ebc bc49 06bc
000002d0: d842 c23d fd35 003c 393e c9bd 0bb0 1dbe
000002e0: 5625 5cbe c7b6 bfbe 4b6b 973e 71ff 4ebd
000002f0: 4b82 853d cbba 3abe e02a 713d 3c02 683d
00000300: 5206 593d d59f 69be f157 413e 8666 3c3e
00000310: dd92 cdbd 1f4f eabd 7cd0 153e c0c6 10be
00000320: ef4a e4be be51 a2bd 4ef6 ebbd dc08 2bbc
00000330: c08a 02be 5873 e8bd d5c8 8a3d 8364 a93d
00000340: cb59 0f3e e697 9cbe 12b6 5e3e 8ca3 153e
00000350: a909 82bd 177f 213f 1f4f ddbe 9f53 733f
00000360: 91ef 183f 99b9 cf3e 4328 14be 01cc b73e
00000370: afe4 18be 9ea6 2a3c 2146 09be 21ff 563d
00000380: 2ecc c83c 061b b73d 62fc 603d 65d7 07bd
00000390: dd89 683c 705c c3bd 7e01 e5ba 3961 4c3d
000003a0: 22b0 e93d b177 5f3c 1d95 963d 3802 a63d
000003b0: a1af 13bd ec94 803d 6620 30be 15fc 473e
000003c0: 3914 8c3e 12cf 123f f50b 023d 7487 643e
000003d0: a5b5 37be 38f3 c13d a421 293e 9497 fdbb
000003e0: e124 54be e902 4f3e b710 833d 4a65 fb3c
000003f0: 935e 553b 2281 b9bd ad5f cebc 2a68 443d
-0.034983598 0.046619512 -0.20391607 0.6932019 0.01004543 0.062175132 -0.046279516 0.053368095
-0.24294464 -0.15297481 -0.082846835 -0.03452138 0.13097094 0.5545752 -0.6183798 -0.4054488
0.43822056 0.1431554 0.59558725 -0.6103329 0.24245498 -0.04024354 0.10845243 0.26812786
-0.3470933 -0.042411063 0.007050141 0.012545466 -0.020979675 -0.039566718 -0.0144329555 0.048913557
0.04622851 -0.075558454 -0.0642196 0.03199948 0.0857723 0.13516973 0.012472013 -0.14830072
0.11348955 -0.12807454 0.28815025 -0.1094368 0.10451131 -0.10921298 0.07322123 0.26371798
-0.18041982 -0.16230674 0.05407582 0.18545346 -0.26557356 -0.02432127 0.14165068 -0.027327266
0.043097414 0.044632386 -0.040373698 0.061594438 0.117216185 -0.12679636 0.86781687 0.4378631
0.005872351 -0.56223154 -0.40256003 0.17618962 -1.6540108 -0.119233966 -0.04112269 -0.18015908
-0.03754822 -0.08155234 -0.03191913 -0.049985133 -0.08241457 -0.13082008 -0.08559483 -0.05112319
-0.023728745 -0.112258755 0.04297391 0.12859705 -0.0991574 -0.121251754 0.32248077 0.15733415
0.13256378 -0.07568875 0.09104114 0.07880201 -0.21534665 0.088647015 -0.20525925 0.15738423
0.20931232 -0.17383496 0.113167755 -0.0032506308 -0.1185846 0.13240516 0.15021797 -0.0829895
-0.12048955 -0.06449776 0.022066459 -0.16726302 -0.09395579 -0.01250141 -0.05246573 -0.2824977
0.7211884 0.20933901 -0.5562136 -0.30151558 -0.22869222 -1.6973814 0.74777865 -0.35266635
-0.33398643 0.0052651726 0.43767828 -0.024355426 -0.00050165446 0.07893686 0.0036539321 0.0076226024
-0.01101183 -0.0142317 -0.013684834 0.06756818 -0.07538559 0.033851605 0.09403645 -0.09179807
0.10709609 0.08022636 -0.08684304 -0.054374322 0.06343325 -0.17719932 0.13188522 -0.013822723
-0.06693877 -0.2115141 0.44990778 -0.06978148 0.12743025 -0.12895928 0.05445831 -0.32964018
0.15016091 -0.11768232 -0.013031841 -0.009094782 0.0017585207 0.08266691 -0.10509808 -0.046221342
-0.6889724 -0.9235096 0.6394868 -0.08080766 0.47224137 -0.74984646 0.04734481 0.21660879
-0.19975264 -0.20239715 0.30047145 -0.10365988 -0.03905408 0.07322806 0.029619114 -0.06917603
-0.08042007 0.036603607 -0.019348886 -0.008196291 0.09485406 0.007825372 -0.09826321 -0.15399186
-0.21498618 -0.37444136 0.29574046 -0.050536577 0.06518992 -0.18235318 0.05887878 0.056642756
0.052984543 -0.22814877 0.18881203 0.18398485 -0.100377776 -0.114408724 0.14630312 -0.14138317
-0.4458842 -0.07925747 -0.11521588 -0.010439124 -0.12748241 -0.11350125 0.06776587 0.08271124
0.13999097 -0.3058464 0.21749142 0.1461317 -0.06349499 0.6308455 -0.43224427 0.9504947
0.5974055 0.40571287 -0.14468484 0.3589783 -0.14930986 0.010415701 -0.13405658 0.052489404
0.024511423 0.08940701 0.05492819 -0.0331644 0.014193025 -0.095391154 -0.0017471758 0.049897406
0.11410548 0.0136393765 0.0735266 0.08105892 -0.036056165 0.062784046 -0.17199859 0.19529755
0.2735918 0.57347214 0.031749684 0.22317296 -0.17940386 0.094702184 0.16516739 -0.007739017
-0.20717193 0.20215954 0.063996725 0.030687947 0.0032557591 -0.09057833 -0.025192106 0.0479509

actor.0.bias f4 [128]
00000000: 652a 1cbe 96f2 e2bc 56d6 9dba 13d1 013d
00000010: f02d 65bd 5c1a 8e3d e12f d3bd ddf9 40ba
00000020: b82d bfbd 1469 e83d ea0e 3bbe 400a 173c
00000030: f00a 883c 17ea ae3b 530c 00be 4e0d 19be
00000040: 25fd 663b 2be7 e2bd de99 a73d d56a 2dbc
00000050: 2978 aebc 9542 253d b6d0 d8bd a875 01be
00000060: bd06 c7bd 9af7 613c 5605 023c bef1 8a3b
00000070: cb19 93bb bf8f c93c 9cb2 e0bc 23d5 f5bc
00000080: 13c2 bebd 0462 7ebd 173d b7bc 0d0a 94bd
00000090: 7418 953d 3f59 bebd 7251 e9bc dd2c 4ebd
000000a0: 9459 443d 7aae 07be 0141 1ebe f0ef 0fbe
000000b0: 1939 cc3c e608 52be 6e81 903c f3e3 19bd
000000c0: 2191 ddbd 999c 1e3d 2d87 24be e773 d3bd
000000d0: 146d ac3c 009b 9f3c 81d3 36bc 991e c8bd
000000e0: b6f5 213e 357d 873d 13b8 90bd 8dfa aebc
000000f0: c54e b9bd 92e8 d6bb 290a a4bd cede 67bd
00000100: 248a 9f3d 06ba ecbd 6c21 3fbe c42f af3d
00000110: ea2e d9bd 291e debd df45 843c c4ce e93d
00000120: ed96 01be 6442 d53c e2e6 0ebe 3dd9 cfbd
00000130: dd8f 05bd 4aed d5bd 8053 6e3d a246 ccbd
00000140: 8f0f b8bb df22 56bc df74 4bbe fd94 fabd
00000150: 7624 3bbe db7a 233d 91dd 9abc 00c3 f2bd
00000160: 8d7e 003e 277c ba3c 2b91 14bd a855 aa3d
00000170: fef1 26bd fee8 91bd 124b 1e3d e178 74bd
00000180: fff1 c23d 5ec5 0fbd 8cb8 88bd 235e b3bd
00000190: 6da6 633b 0878 12bd 6b03 6f3d d861 8f3c
000001a0: d4fc 2e3c f832 52be e4a5 fdbd a013 13be
000001b0: 1d90 14be 5881 7f3d 8952 adbd 1d26 60bc
000001c0: 380b 71bd 0724 89bc 6d5f c5bd dd2a bcbd
000001d0: 6dfd 963d cddf 43bc 151a b6bd 9b19 543d
000001e0: deae cfbd cc3b 71be edd1 03be 6fd7 aabb
000001f0: 9da1 dabd 5234 dbbd e24f 923d 6c91 acbd
-0.15250547 -0.027703565 -0.0012042027 0.03169353 -0.055952013 0.069386214 -0.103118666 -0.0007361451
-0.09334892 0.11348167 -0.18267408 0.009218752 0.016606778 0.0053379643 -0.12504701 -0.14946482
0.00352461 -0.11079248 0.08183645 -0.010584553 -0.021297531 0.0403467 -0.105866835 -0.12642539
-0.09718082 0.013791943 0.0079358425 0.0042402437 -0.0044891587 0.024604676 -0.027428918 -0.030008858
-0.093143605 -0.062105194 -0.022367997 -0.072284795 0.07280055 -0.09294366 -0.028481219 -0.050335754
0.04793699 -0.13250151 -0.15454485 -0.14056373 0.02492957 -0.20511207 0.017639842 -0.037570905
-0.10818697 0.038723562 -0.1606719 -0.10324841 0.021048106 0.01948309 -0.011158825 -0.09771461
0.15816388 0.06615678 -0.07066359 -0.021359706 -0.09048227 -0.0065584863 -0.080097504 -0.056608967
0.0779002 -0.11558919 -0.18665093 0.085540324 -0.10604651 -0.10845596 0.016146598 0.114163905
-0.1265523 0.026032634 -0.13955262 -0.10148857 -0.0326079 -0.1044565 0.0581851 -0.0997441
-0.005617089 -0.013069837 -0.19868802 -0.122354485 -0.18275627 0.039912086 -0.01890448 -0.118535995
0.12548275 0.022764279 -0.036271255 0.08317119 -0.040758125 -0.07124518 0.03864581 -0.05968559
0.09518813 -0.035100333 -0.066758245 -0.087581895 0.0034736649 -0.035759002 0.05835287 0.01750271
0.010680396 -0.20527256 -0.12385157 -0.14362955 -0.145081 0.06237921 -0.08463008 -0.013680962
-0.05884859 -0.016740812 -0.09637342 -0.09187863 0.07372556 -0.011955214 -0.088916935 0.05178223
-0.10140775 -0.23557967 -0.12873049 -0.00521367 -0.106753565 -0.10703339 0.07144143 -0.084261745

actor.2.weight f4 [128, 128]
00000000: d24f 7e3d 6271 81bd 85b0 66be 67b2 d8bc
00000010: 86d6 7a3d 6065 bb3d 70dd 4bbc 569d ff3c
00000020: e408 48bc 75fb 89be d3f5 4d3d 4fc4 b7bc
00000030: d4e1 27bd 1ecd edbc 3513 3e3d 8776 e53c
00000040: 8cce 89bd 5c7b 65bd ebc5 38bd 67c1 79bc
00000050: 9058 22bd 70f8 25bd 8710 523c a7b2 6c3c
00000060: b5cb b0ba 4d86 8dbd 9d71 87bd e2dd 513d
00000070: 056c 823d 0151 91bd 327d 67bc 25e3 0b3d
00000080: 3d78 093e 9439 97bd b1ad 01be 4bef 23bd
00000090: 73fa e03d bbff e63c 4fe3 bcbb a45e 7c3d
000000a0: 27ea 2e3d ba39 063e b895 7b3d c5dd 883d
000000b0: 198d 533d 420e b0bd 4c75 7ebd 4cad 663d
000000c0: b11b 7abc 3da0 7abd eaea b2bd a9ce 23bd
000000d0: 6579 153e 71a3 fabc 55d0 963c d078 e33c
000000e0: 01c8 ad3d 17a7 9dbd 789d 933c 3130 41bc
000000f0: 3707 833d 378c a1bb dd49 b83d 05a1 86bb
00000100: eb66 99bc 6f00 7abc 6ac4 d63c 0c13 c1bd
00000110: 2860 3f3d b76d 583d efaf 89bc b1cf 33be
00000120: 47a7 24bc b858 1bbc 6331 93bd 59b4 173d
00000130: d7e5 353c 0239 59bd 5033 b9bd b8a4 843c
00000140: ffeb 27bd c3e1 fabd e6d0 e4bd 4996 a7bd
00000150: ba51 d73d 7dc7 d9bc e8f3 323d 53ac 723d
00000160: d9f7 073d 8224 36be e2d5 4abd 76b4 df3c
00000170: 89f3 4d3d e7e4 353d 66aa 0d3d e40c f5bd
00000180: aad8 f9bb 5f25 a03b d2b3 15bc a1fc 0dbe
00000190: d57c 133d 54fd 28be df08 353d 6d0a afbd
000001a0: eead 1c3d 4139 fdbd e5f0 f7bb 1f91 023d
000001b0: 6950 3e3d 27dd fabd afb8 26be 13c4 0cbc
000001c0: c158 4bbd 08dd aebd b422 f73b 76f5 c3bd
000001d0: aa46 91bc fbeb b5bc e197 ab3c 6319 80be
000001e0: e034 813c 60a8 0e3d c925 a23d 0eba c33d
000001f0: 0c2a 18be fdba 4dbd b5e7 a4bc 7a73 e63b
00000200: dadc cd3c f365 a53c 4197 fcbd dc56 4dbd
00000210: e3d8 17bb 3ad1 ba3a 0b03 20be f240 ca3d
00000220: 929b 0a3d 0f12 193d 5bce 373d 8b6b b3bd
00000230: 694c a0bb 9462 43bd db02 0a3e f26b 6dbd
00000240: 079e c43d 3938 5dbd 931a 0bbd 28bb 94bd
00000250: 308c ed3c 81c1 86bd c8bb 0b3c d999 b8bd
00000260: 10c3 963d d5cb ac3d 1ca1 253e 253b 313d
00000270: 50f8 13bb 8020 edbc 8d1e a5bd 662a 39bd
00000280: 2a28 093d 7410 bdbd fd43 ecbd 36cd b5bc
00000290: 06b8 e5bc ad48 e43b 46b9 063d 648b e6bd
000002a0: 602c 103d 4a0f 8c3c cd33 893d 182d 4fbe
000002b0: a03d f1bc 8025 cdbc 9dc1 c03d 7fb9 46be
000002c0: c477 d83c 2388 76bd e02f 68bc e203 1ebd
000002d0: a986 233c ac78 e33d 2550 df3d 0db4 0abe
000002e0: 94df a2bd 3340 06be a18e a43c f514 aa3c
000002f0: 6854 45bc b0e0 f8bc 7dab c3bd e260 62bd
00000300: 742c 21bd 1dde 78bd dbf2 00be 2459 293d
00000310: 3d5c 98bd 3ec3 3e3d f00f babd 006a 593d
00000320: af32 fcbd 8bb3 913d 57d4 403c c953 cfbd
00000330: 7ba6 df3d 377a d4bc 346c 0ebe 6752 ff3a
00000340: 9ae4 5b3c b2f7 df3d b86d 0bbe fd5b babd
00000350: 6fd9 23bd 0122 40bd 8576 ddbb 4e99 d0bd
00000360: 9bd9 ebbd f730 fcbd ab45 55bd f8c2 46bd
00000370: e154 35be b9ef ab3d dcd2 20bd dff8 fc3d
00000380: 33b3 0dbc 3627 233d 2e1a 9dbd db31 cc3d
00000390: 00ed 843d a824 81bd 6c08 51bc d3d1 18bd
000003a0: 32a1 223d b950 0a3e e88c 7b3d 3f4e 923c
000003b0: 8323 ae3d 1487 843b 3136 4abd dc58 04bd
000003c0: becf d03d e6c4 9abd 757f d5bc e75a 3fbd
000003d0: fbd3 253d dc46 1ebe be92 b4bd 7ac9 0e3e
000003e0: 5e0f 233c a589 49bd 8910 dfbd 107d 9bbd
000003f0: 0599 e53c 942f b3bd 6752 df3d 4077 2a3d
0.06208784 -0.06320454 -0.22528274 -0.026452256 0.06123974 0.09150195 -0.0124429315 0.031202953
-0.012209151 -0.2694966 0.050283264 -0.022432474 -0.04098685 -0.029028472 0.046405036 0.02801062
-0.06728849 -0.056025848 -0.045110624 -0.015243865 -0.03963524 -0.04052013 0.012821323 0.014446891
-0.0013488444 -0.069103815 -0.06613467 0.051236995 0.06368259 -0.070955284 -0.01412897 0.03415217
0.13424774 -0.07384029 -0.12663914 -0.04002313 0.109852694 0.028198114 -0.005764402 0.061613694
0.042703774 0.13107958 0.06142208 0.06682924 0.051648233 -0.085964695 -0.06212358 0.056317613
-0.015265391 -0.06118797 -0.087362126 -0.03999201 0.1459709 -0.030595513 0.018409887 0.027767569
0.08485413 -0.076978855 0.018019423 -0.011791275 0.063978605 -0.004930045 0.08998463 -0.0041085505
-0.018725833 -0.015258892 0.026216704 -0.09427461 0.04672256 0.052839007 -0.016807524 -0.17559697
-0.010049648 -0.009481601 -0.07187154 0.037037227 0.011102161 -0.053032883 -0.0904299 0.016191825
-0.040996548 -0.12250092 -0.11172657 -0.081829615 0.10513635 -0.026584381 0.04368964 0.059246372
0.03319535 -0.17787364 -0.04952038 0.02730773 0.05028108 0.04440775 0.034586333 -0.11965349
-0.0076247053 0.0048872675 -0.009137111 -0.13865902 0.03600772 -0.16502887 0.044197913 -0.085469104
0.03825181 -0.12364436 -0.0075665587 0.03187668 0.046463404 -0.12249213 -0.16281389 -0.00859167
-0.04964519 -0.08538252 0.0075419787 -0.09568302 -0.01773389 -0.02220725 0.020946445 -0.2501937
0.015772283 0.034828544 0.07917363 0.095569715 -0.1485979 -0.050227154 -0.020130018 0.007032809
0.025129724 0.020190215 -0.12333537 -0.050131664 -0.0023170046 0.0014253028 -0.15626161 0.098756686
0.03383977 0.037370738 0.04487453 -0.087607466 -0.0048919213 -0.047701433 0.13477652 -0.057964273
0.09600454 -0.054008696 -0.03396089 -0.0726226 0.02899751 -0.06579877 0.008528657 -0.09013719
0.07361424 0.084373154 0.1617474 0.043269295 -0.0022578426 -0.028946161 -0.08062468 -0.04520645
0.03348557 -0.09231654 -0.11536405 -0.022192579 -0.02804185 0.0069666714 0.032891534 -0.112570554
0.03519857 0.017097134 0.06699333 -0.20232046 -0.02944833 -0.025042295 0.09411929 -0.19406699
0.026424296 -0.060188424 -0.014171571 -0.03857792 0.009980836 0.11107001 0.10903958 -0.13545246
-0.079528004 -0.13110428 0.020087542 0.020761946 -0.01204405 -0.030380577 -0.09554193 -0.055268176
-0.039349034 -0.0607587 -0.12592642 0.041344777 -0.07439468 0.046572916 -0.09085071 0.053079605
-0.12314355 0.07114323 0.011769376 -0.101234026 0.109204255 -0.025937183 -0.13908464 0.0019479514
0.013421202 0.10935916 -0.13616073 -0.090995766 -0.040002283 -0.04690743 -0.0067585134 -0.101854905
-0.11516114 -0.12314027 -0.052068394 -0.04852578 -0.1770816 0.08395333 -0.03926359 0.12352156
-0.008648681 0.039832316 -0.07671009 0.09970447 0.06490517 -0.0630582 -0.012758356 -0.03730948
0.03970451 0.13507356 0.061413676 0.017859576 0.08502867 0.004044423 -0.049368087 -0.032311305
0.10195874 -0.07557087 -0.026061753 -0.04671755 0.040485363 -0.15456718 -0.08817051 0.13944045
0.009952394 -0.049203534 -0.10891826 -0.07592213 0.028027067 -0.08749309 0.10904389 0.041617632

actor.2.bias f4 [128]
00000000: d6c5 6cbd 1eae 703c 6bfe dbbd eacd 69bd
00000010: af4b 04bc d7c4 11be 4fe8 e93c 52c8 85bd
00000020: 9039 273c db65 02be 6c54 c6bd 4b8a d8bd
00000030: 3b64 e8bd e00d 5eba 90bb 62bd 4f42 9fbd
00000040: 6904 e3bd 59cc b6bd 3039 55bd 7e0c 76bd
00000050: 4a54 e4bd 8b43 bbbd bdf2 2cbe 2d20 65bd
00000060: 57af 933c c48e 8cbd ce63 13be 63e5 f7bc
00000070: d9bf eebd d9fb 09be 0cfe 87bd 46ec 0ebe
00000080: a5b1 573c aaf5 cabd 288e d8bd f8d1 00be
00000090: 904b 8fbd 11f5 e3bc 7e77 80bd cc0f acbb
000000a0: 613e 0fbd e986 a5bc ac2e 1dbe fec0 b0bd
000000b0: 4c70 ddbd 6051 1e3d 0ebe dbbd 5c18 88bd
000000c0: d1ca bdbb bfcd 19bd 52de 90bd e343 f0bd
000000d0: f035 16be 5278 bdbc 4048 d0bc 2fad f4bd
000000e0: 1ce1 c9bd fe8c 0ebc 590d 12be 72b4 54bd
000000f0: 8584 aebd 4ae4 ce3c f6a3 c1bd 02d4 263d
00000100: d50a f6bd c244 203c 61c7 febc 7092 8fbd
00000110: 6dbe b6bd 4458 38be 666e 03be 11e5 b2bd
00000120: 63b8 97bd d04f 8a3b 554a c4bd c9ea 7bbd
00000130: eb34 0cbd 8e5f 583b 4890 dfbd 37df 6ebd
00000140: 2f0e a6bd 5db3 51bd 66ed f4bc 7bec b2bd
00000150: 7269 a3bd b05b e5bb 0f07 21be 0c62 cabc
00000160: 9b3d 6dbd 1c3b 1a3d 9cee 05be 017b 01be
00000170: 99d7 1dbd ef8e d0bc 2d41 5dbc 0146 d5bd
00000180: e7a9 33bc b71b 0dbd c0a8 2a3a 80a1 533c
00000190: 7425 cfbd 0f06 7d3c c365 54bd 30e3 73bd
000001a0: 9a21 febd c1b1 dbbc 7c6e f7bd 73ee 83bd
000001b0: da15 1fbd 9c42 2abd 2a3f edbd d598 41bb
000001c0: f507 99bd ad1b d3bd 65b1 f63c 5fbc cbbd
000001d0: 2f9c 7f3c 6879 22be 4245 55be 7b85 99bd
000001e0: 55e1 eebc c441 04bc 3234 24bc 9e63 e7bd
000001f0: 268d 64bb 7df8 223d 3dcd 68bc 7c46 c0bb
-0.05780586 0.01468995 -0.10741886 -0.05708114 -0.008074685 -0.14235245 0.028553156 -0.06532349
0.010206595 -0.12734167 -0.09684071 -0.10573252 -0.113472424 -0.00084706955 -0.055354655 -0.07776319
-0.110848255 -0.08925695 -0.05205649 -0.060070507 -0.11148889 -0.09143742 -0.16889472 -0.05593889
0.018027944 -0.06863168 -0.14393541 -0.030260747 -0.11657686 -0.13474979 -0.066402525 -0.13957319
0.013164912 -0.09910138 -0.10573989 -0.12580097 -0.06996834 -0.027826818 -0.06272791 -0.0052509066
-0.0349716 -0.020205932 -0.15349835 -0.0863056 -0.108124346 0.038651824 -0.107296094 -0.06645271
-0.005792 -0.03754973 -0.07073654 -0.11731698 -0.14669013 -0.023128662 -0.025425076 -0.11947095
-0.09857389 -0.008700607 -0.14262904 -0.0519299 -0.0852137 0.025255341 -0.09455101 0.04072953
-0.12013785 0.009782018 -0.03110093 -0.070103526 -0.089230396 -0.1800242 -0.12835082 -0.08735097
-0.07408216 0.00422094 -0.0958449 -0.061503205 -0.034230154 0.003301594 -0.10916191 -0.058318343
-0.08108174 -0.051196445 -0.029898357 -0.08736511 -0.079790965 -0.0069994554 -0.15725349 -0.024704956
-0.05792008 0.037654027 -0.13079304 -0.12644579 -0.038535688 -0.025458781 -0.013504309 -0.10413743
-0.010965801 -0.03445026 0.0006510131 0.012916923 -0.101145655 0.015443339 -0.05185486 -0.059542835
-0.12408753 -0.026818158 -0.1208162 -0.06441965 -0.0388392 -0.04156743 -0.11584313 -0.0029540558
-0.07472221 -0.10308013 0.030113885 -0.09948038 0.015601202 -0.15866625 -0.20827201 -0.074961625
-0.029160181 -0.00807232 -0.01002221 -0.11298297 -0.003487417 0.03978776 -0.014209089 -0.0058677774

actor.4.weight f4 [128, 128]
00000000: 5e9a 713b b8d9 c4bd 6023 4f3d 06d9 81bd
00000010: 3be6 83bd 4d4c 7cbd 148b 613b 6e6a bebc
00000020: a059 9ebd dd9a ce3b ed00 c3bd 3a69 c0bb
00000030: 997d 423b ef0b e33b 6016 d0bc 24f4 113d
00000040: b8e0 ae3c c2f2 b83d 754d 733c f261 28bd
00000050: cc20 c23c 9b93 933d c52f 953c 0c00 663d
00000060: 2318 c13c d621 f1bd d042 01bc 413e 543c
00000070: ed3d 22bd f978 f13c 5957 3abd ab6e 2cbc
00000080: d493 82bc 42d3 b73c 4771 1c3c baae c23b
00000090: 9abd 643a f910 01bc ffd4 d23d e11d 4f3d
000000a0: c94a 623d c3f1 2e3d 7766 3b3d 588d 053e
000000b0: 2b79 b2bd a58b 9cbd d9a6 fe3c 8daf 9d3c
000000c0: 5af4 9ebc db4b b53c 545b 82bd c313 253d
000000d0: 432d c63c c6ca 533a 6cc7 dabd 5fa3 f33c
000000e0: 4fb9 973d f4fe b6bd 7fe3 4fbd 94a2 993c
000000f0: 3201 cf3d fd94 d63c 696c 803c fca5 45bd
00000100: 926c 12bd 0f9a 5fbd a821 80bd 9cfb 993d
00000110: 30bf 3f3c 66fb 683d af35 4dbc 2557 753d
00000120: 2ba3 9d3d 336a e63c 8474 bcbc 5631 40bd
00000130: 2f32 e73b b37e 6a3d e7ba 9f3c 6dfd a5bd
00000140: 9d46 85bc 70cf fabb a948 e7bb 55a7 653b
00000150: 6a98 e2bc a562 973d 3eb8 40bb 55da eebb
00000160: d24a 5f3d 3221 45bd d436 47bd f4b1 7d3d
00000170: b655 b83c b6a1 ecbc c1c9 da3a 1e69 cc3b
00000180: f5cb a63c 1c00 acbc cafc a43c 643c 30bd
00000190: ec1d e2bc fc8d 7abc 817d c63c 85e9 0abd
000001a0: 2a9f 56bd 9737 f93c 070f 18ba cb7d 513c
000001b0: c58b 8b3d 3e94 1e3d 0159 923c e3d0 2bbd
000001c0: f86e a0bd d12e d23c 3fb4 123d 871c 08b9
000001d0: 9541 803d 83d7 0a3d 05ee a53d 99c1 bc3c
000001e0: cc8f f43c 27ae 3dbd 3fc5 73bd 6246 723d
000001f0: 552c 0cbd 1d65 c2bd a9b9 223d 3f0b 0d3d
00000200: 9bfc edbd 7f46 cbbd 6138 f7bb 3aa5 213e
00000210: f123 7f3c c433 053d 6ea7 e2bd 43ce 6d3d
00000220: f08c 22bd 050d aabd 7eac b9bb 98ea f13c
00000230: 25dc a43c ea38 7b3d c44f 88bd 7301 693d
00000240: a3f2 1a3d 1de2 193d db3b f6bd 4d92 293c
00000250: c89a cabc 106d 0bbd f7aa 383d e456 c93c
00000260: 4aab 15bc a7f5 fb3d 24b9 84bd e823 0a3d
00000270: 7c2f d93d c81f 3cbc ad13 39bd dfa2 e23b
00000280: 4f10 0c3d 63a5 a03d 0379 90bd 0a0f ce3d
00000290: 8005 4dbd 66d8 a43d a12c 083d 3f21 a03d
000002a0: ee9f 6fbd 8eae 0ebe 262d 023e 1c40 c6bd
000002b0: 2b67 29bd 3061 14bc 0ad8 623d e00e be3d
000002c0: 7b3e 033d 14c1 d63d 1d88 e0bc 47d8 30bd
000002d0: f7cb 883d 4f65 febd 0ff5 903d bfa6 f53c
000002e0: 4430 023c e73c d43d b91f 083e d871 92bb
000002f0: 9b16 73bd 3bea 80bd 3e83 e13b 3335 8a3d
00000300: da1e 923d 7761 82bd 1b87 05be 7efe 44bc
00000310: 6851 e83d b383 13bd 8593 943d eeaa d03c
00000320: e40f 123d 8c9c 323d bfd4 8ebd 237d aabd
00000330: c73a 01bd cddb db3c 0c22 553c aa49 bc3c
00000340: 24b6 cdbc 6379 25bd 6197 5dbc 82e7 d23c
00000350: 2f67 953d 70cd e03c 12d7 69bb f002 2abd
00000360: cd99 bb3c be6c a53d af26 93bd 5567 353e
00000370: 8a55 78bd ce56 4abd cb20 bf3d 2b08 b63d
00000380: b67d 583d d908 b5bd f631 e7bd 77ee 323d
00000390: 22ac d93a 495c 6bbc fe2a a53d 09a4 bdbc
000003a0: 42fb 05be d853 093b 3470 263e 56fc c0bd
000003b0: abbe d23d 3f25 c53d f123 50bd 938b 943d
000003c0: 9b47 e33c 6bae 6dbc 2172 b7bd 4a36 42bd
000003d0: 6747 e53d 1195 04bd 42e8 9a3d c6de f33b
000003e0: 359c 00bd c754 5f3d 8e07 c13d 9156 88bd
000003f0: 73ac d6bd 2a50 2abd 59d6 9fbb f8c3 3dbd
0.0036865692 -0.09611839 0.050570846 -0.06340222 -0.06440397 -0.061596204 0.0034415172 -0.023244109
-0.07731938 0.0063050822 -0.09521661 -0.005871919 0.0029676913 0.006928913 -0.025401294 0.03563322
0.021347389 0.090306774 0.01485001 -0.041109033 0.02369728 0.07205888 0.018211255 0.05615239
0.02357108 -0.11774032 -0.0078894645 0.012954296 -0.03960984 0.02947663 -0.045493457 -0.010524432
-0.01593963 0.022439603 0.009548492 0.005941239 0.00087257626 -0.007877582 0.10294532 0.050565604
0.055247102 0.04271103 0.045752015 0.130422 -0.08714517 -0.076438226 0.031085419 0.019248748
-0.019403625 0.022130897 -0.06365076 0.04030205 0.024191504 0.0008079227 -0.10682568 0.029740987
0.07408392 -0.08935347 -0.050754067 0.018754281 0.1010765 0.02619409 0.015676694 -0.048254
-0.035748072 -0.05459028 -0.062564194 0.07518694 0.0117032975 0.056880377 -0.012525006 0.05989756
0.076971374 0.028126812 -0.023004778 -0.04692205 0.007055543 0.057249736 0.019498302 -0.08104978
-0.016269023 -0.007654123 -0.0070582223 0.0035042365 -0.027660567 0.07391862 -0.0029406692 -0.007289211
0.054514714 -0.04812736 -0.048636273 0.061937287 0.022501808 -0.028885704 0.0016692207 0.006238117
0.020360926 -0.020996146 0.02014007 -0.043026343 -0.027602158 -0.015292641 0.024229767 -0.033914108
-0.052397884 0.030422015 -0.0005800579 0.012786339 0.06813768 0.038715594 0.017864706 -0.041947257
-0.078336656 0.02565709 0.035816427 -0.00012980598 0.06262509 0.033896934 0.08102039 0.023041533
0.029853724 -0.046308663 -0.05951428 0.059149154 -0.034221966 -0.09491942 0.03972784 0.034434553
-0.11620446 -0.099255554 -0.0075445627 0.15785685 0.015572534 0.03252007 -0.11067091 0.058058035
-0.03968519 -0.083032645 -0.0056663146 0.029530808 0.020124504 0.061333574 -0.06655839 0.056886148
0.037829053 0.037569154 -0.12023135 0.010349822 -0.024732009 -0.034039557 0.04508492 0.024577565
-0.009135077 0.12302714 -0.06480625 0.03372565 0.1060476 -0.011482187 -0.04518478 0.0069163884
0.03419524 0.07844045 -0.07054331 0.10061462 -0.050054073 0.08049087 0.033245686 0.07818841
-0.05850213 -0.13933775 0.12712535 -0.09680197 -0.041358154 -0.009056374 0.055381812 0.09280181
0.032042008 0.104860455 -0.027408654 -0.04317501 0.06679528 -0.12421667 0.07077991 0.029986737
0.007946078 0.10363179 0.13293351 -0.0044691376 -0.05934773 -0.06294676 0.0068821004 0.06748428
0.07134791 -0.06366246 -0.1303982 -0.012023566 0.11343652 -0.03601427 0.072546996 0.02547213
0.035659686 0.043606326 -0.06974172 -0.08324649 -0.031550195 0.026838208 0.013008606 0.022984345
-0.025111265 -0.040398967 -0.013524861 0.025745157 0.07295071 0.02744171 -0.003568117 -0.041506708
0.022900486 0.080773816 -0.07185113 0.177152 -0.06062845 -0.04939919 0.09332427 0.08888277
0.052854262 -0.08839578 -0.11288826 0.04368445 0.0016607086 -0.014365264 0.08064841 -0.023149507
-0.13084128 0.0020954516 0.1625374 -0.09423129 0.10290273 0.09626245 -0.050815526 0.07253184
0.027744105 -0.0145069165 -0.08957315 -0.047415055 0.111952595 -0.032368723 0.07563831 0.007442328
-0.03139897 0.05452421 0.09425269 -0.06657136 -0.10482111 -0.041580357 -0.004877847 -0.04632947

actor.4.bias f4 [128]
00000000: 5171 edb8 5136 1abe 821c 1cbd b550 7fbd
00000010: e48e 0ebe 3a4b a1bd 5940 febc 72d1 15be
00000020: c8c5 c63c 2d45 2dbd 5c43 44bd 51f0 5fbd
00000030: 8c35 1fbd 6a4e f2bd 0364 b6bd bebe 40bd
00000040: b3e8 953a d161 b2bd 524c a0bd f439 2fbb
00000050: 4f7e 9dbc b9d5 103d 3116 95bd bad2 d9bc
00000060: 820c 813c 46f8 343c 597e 6cbd 6277 03bd
00000070: e7e2 dfbd bad1 afbc 3f07 95bb f848 8abd
00000080: 2646 78bd 2c09 1b3c e60c 6cbd 43d4 203b
00000090: 4ca1 74bd 8892 80bd 112e 83bd 6c83 443c
000000a0: 67aa f2bd cf9d 93bd fb78 f83c 8bef 513c
000000b0: 9c0f 3fbd 25ca 883b fd3e 04be 7bcf 9f3d
000000c0: 2a30 ffbc 5744 fbbc 5321 4fbd 92a6 803c
000000d0: 8431 6a3c 33ec b0bd fb25 323c 81ff d8bc
000000e0: 9935 7bbd 29d7 323d e066 19bd 72ea 1cbc
000000f0: 7b81 d0bb ec41 cbbd 14aa 22bd f09a 7dba
00000100: 1ef9 c0bd 4d4b aebd 6565 ccbd a244 c1bc
00000110: f186 63bc 3bae ef3c c69a 33bd ba36 053d
00000120: 5772 40bb ce43 d3bb 4273 f6bd f22e 34bd
00000130: e6e1 ddbb feb6 8cbc 3a55 543d 1190 bf3c
00000140: 14ea a3bd f400 c8bd 26d5 dabd 5b27 763c
00000150: 1c54 5ebd 3602 8e3d a3bd 3bbd f3b9 dfbc
00000160: 50b0 94bd f301 c53c c0f4 d43b 3f9e df3b
00000170: eada 14be f74c 82bc 4c82 7dbc a041 6ebd
00000180: c437 3cbc 3a75 e8bc cc2f 843d 6b11 19bd
00000190: 993a adbd 9437 f2ba 5eb2 65bc b148 8dbd
000001a0: 37de abbc 15b2 6fbd c506 29bc 6e30 94bd
000001b0: f47b ba3c 77a2 943b eaf4 d1bc 9f17 733d
000001c0: 4023 12be 0aff d6bd ce97 78bd 76c1 76bd
000001d0: 5aa3 b1bc 5130 11bd b657 663d 516f 2ebd
000001e0: 99ee cfbd c286 4a3d 003f b6bd a977 8ebd
000001f0: 516f bdbd 8b07 1bbd 355e f63b ed12 c6bd
-0.000113221475 -0.15059783 -0.038113125 -0.062332828 -0.13921696 -0.078756765 -0.031036543 -0.14630678
0.024264231 -0.0423023 -0.0479158 -0.054672543 -0.038869426 -0.118313625 -0.089057945 -0.047056906
0.0011437148 -0.08710063 -0.07827057 -0.0026737424 -0.019225268 0.03536007 -0.07279623 -0.02658974
0.015753035 0.011045521 -0.057737682 -0.032096274 -0.1093195 -0.02146231 -0.004547983 -0.06752199
-0.060613774 0.009462636 -0.05762949 0.002454058 -0.059724137 -0.062779486 -0.06405271 0.011994224
-0.11848908 -0.07207834 0.030331125 0.012813459 -0.046645746 0.004174488 -0.12914653 0.07803246
-0.031150896 -0.030672235 -0.05056889 0.015704427 0.014294032 -0.086388014 0.010873313 -0.026489021
-0.06133041 0.043662224 -0.037451625 -0.0095773805 -0.0063630915 -0.09924683 -0.03971298 -0.00096742716
-0.09422515 -0.08510456 -0.09980277 -0.023592297 -0.013887153 0.029257884 -0.043848775 0.032522894
-0.0029365027 -0.006447292 -0.120337024 -0.043990083 -0.006771314 -0.017177101 0.05183909 0.023384126
-0.08003631 -0.09765807 -0.10685186 0.0150240315 -0.05427943 0.069340155 -0.04583515 -0.027310347
-0.072601914 0.024048781 0.006498903 0.0068242843 -0.14536634 -0.01590584 -0.01547296 -0.058168054
-0.011487905 -0.02837621 0.06454429 -0.037370127 -0.08458442 -0.0018479698 -0.014019577 -0.068986304
-0.020979984 -0.05851944 -0.010316555 -0.072358 0.022764184 0.004535969 -0.02562948 0.0593487
-0.1427126 -0.104978636 -0.060691647 -0.060243092 -0.021684337 -0.03544647 0.05623599 -0.04258663
-0.10152931 0.04944492 -0.08898735 -0.06956417 -0.092497475 -0.03784899 0.0075185546 -0.096715786

actor.6.weight f4 [12, 128]
00000000: bae8 15bc 091c 3dbd 7353 3c3a 728c bf3c
00000010: 1e6b 1d3d 5de8 2dbd 7189 153c a460 1c3d
00000020: 65a6 1cbc d7db a53c 6b80 bbbc a50b 603d
00000030: 525d 37ba ea8f 22bd f6e5 92bd 4c43 17bb
00000040: 8bc8 11bd b200 debb 5d4d 4cbc 0c48 cdbb
00000050: 4397 c5bc 9cf3 45bb fa12 9cbb e1e1 483a
00000060: ec91 163c d5dc e13c 10ae 84bc b4f9 4fb9
00000070: 7107 78bd 8370 9a3b 008f 3e3c ac35 503d
00000080: d02e bcbb e965 a33d 6a60 033c 42c2 4e3c
00000090: 1e3d 5dbc 3639 a1bb f59e f9bb da47 a739
000000a0: 253e dbbb 66a7 cebc c503 0abd 1e2a 37bc
000000b0: 18db 1ebd 562d f6ba b4ed d4bc 56ed bc3c
000000c0: 99e5 cf3c 4906 f9ba d37e 763d 7b14 fa3a
000000d0: 0411 d23b 0d0a 8bbc 40ff 4d3b b2ae 26bb
000000e0: 9a0e cabb a1e9 423c f087 01bd 7048 173d
000000f0: ad70 4fbb 312c 5bbc a2af 95bc 36ea 22bc
00000100: ca68 e0bb ec05 83bc aedd 64bc b502 13bb
00000110: 6a3f 8e3a 87f1 a53a e527 00bc a2ab 103d
00000120: 620a 8fba 965b d7bc 46b6 45bc 29f9 debb
00000130: f2c2 d03c 1725 81bc e369 1b3d 15ae c9bb
00000140: 5f45 933d 3589 7a3d ca62 a63d e5a1 60bb
00000150: 4ce8 bd3b a987 233b 35a4 163c 3e6d e33b
00000160: efae 90bc bd06 dfbc 082a 74bb ff57 b23b
00000170: 8c69 aabd cd30 41bc 79b8 513d 6d44 3c3c
00000180: eea4 653a 0ce5 673b 7b37 a1bc 5e86 9cbb
00000190: ba99 7cbd b5fa f6bc aff9 c3bc f19e d93c
000001a0: 6c62 c3bb 0211 5ebc 67e5 25bc 2f1b 053d
000001b0: 02e5 353c 0893 a93b 613b 6fbb efc8 9e3d
000001c0: 4ea2 f7bb b46a a6bc d308 dd3c 1989 01bd
000001d0: 558e 30bc 8aa3 093c 3d91 c7bb 20b5 14bb
000001e0: ef64 2c3b eb7e 26bc 3f21 c03b 9c73 e43c
000001f0: e550 82bc c38b be3c 5b66 90bc b6e9 093d
00000200: 0c0f 3e3c caa1 cfbc e4cb 92ba 3fc4 e03c
00000210: dac2 96bb a5a4 e63c ccf6 e4bb 7a8a 68bd
00000220: 67bd a0bb 36ef 11bc f19e 70bd 1cec 2f3d
00000230: 961a 69bc c3ae b6bc 13ba 3dbd 8fe8 b23b
00000240: cd68 683c 8676 873c 1cde 90bc 557d e63b
00000250: 4489 07bc c431 a4bc 6df8 f8bc e166 0b3c
00000260: 7dc2 66bb e260 0d3a d504 a7bb 0477 033c
00000270: 50d2 5f3d 3b53 aebc d175 3abc 9e0d 40bd
00000280: 730b d3bb 38a0 7d3d e3cf 2d3b bd60 c03c
00000290: 4e9a 513d d47c 1b3c 83a2 0cbc 6ce1 2d3b
000002a0: 1603 083d 9f7a eb3c 61c0 0b3d 3d76 84bc
000002b0: 03cf b43c a228 5dba 2180 953d c55a 7b3c
000002c0: 871d 8e3c 5389 6f3c a6aa b9bd e103 5f3b
000002d0: 3506 bb3b ccf4 f53c f0fe 533c 45fd 22bc
000002e0: 6273 38bd 0871 b3bc 5237 96bc e55d 53bb
000002f0: 7121 053c 056c e93b 2d83 453c 2a21 b7bb
00000300: 457d 253d 6090 513c be66 eebc 5c77 5b3c
00000310: 2c97 02bc 12c9 aabc 0e7a c63b bd5a 2f3d
00000320: 249d c73c 937b cebc a03f 95bb 9ef1 5f3c
00000330: 034a 57bc 6004 f63c e1f7 b63b 45ee 3a3a
00000340: 15c6 b2bc 30ee 3dbc b829 a7bd 104b ca3c
00000350: ed99 c8ba cc29 4e3d 49c6 a039 a64f 32bc
00000360: 37d9 f03c 09b7 47bc 76dc 10bb f4a4 553c
00000370: d9f6 83bc 4a7a ec3b d1f7 2fbc 962c 533d
00000380: 2ae1 3cbc cc74 9e3c f615 5abc 0203 b73a
00000390: 746e b23c 4ea8 babc 38aa 863c ecef 4d3c
000003a0: 8a8f 34bd 1133 8fbc 2085 313c 1de4 8f3d
000003b0: 0da1 1dbd 7d1b 833b 1641 9d3d c8f2 343d
000003c0: 96ca f4bb b641 abbb 50d5 b9bb b9c2 7ebd
000003d0: e35b c8ba a008 edbc 6d89 20bc 66b2 24bd
000003e0: 04e9 3a3d a14d 3abd a61a 83bc faff 113d
000003f0: 6cfc e03c db67 b23c 67c5 eeba 95c7 b03c
-0.009149725 -0.046169315 0.0007184066 0.0233824 0.038432233 -0.042457927 0.009127007 0.0381781
-0.009561156 0.02024643 -0.022888383 0.054698605 -0.0006994802 -0.03968803 -0.07172768 -0.0023080884
-0.035591643 -0.006774985 -0.012469617 -0.006264692 -0.024119979 -0.0030205017 -0.0047630044 0.0007663053
0.009190064 0.027571121 -0.01619628 -0.0001983408 -0.06055397 0.0047131195 0.011630774 0.050832435
-0.005742885 0.07978422 0.008018592 0.012619557 -0.013503341 -0.00492015 -0.007617826 0.00031906256
-0.006690758 -0.025226306 -0.033695 -0.011179475 -0.038783163 -0.0018781822 -0.025992252 0.02306239
0.025378035 -0.0018999066 0.060179543 0.001907959 0.00641072 -0.016972566 0.0031432658 -0.0025433716
-0.0061662914 0.011896522 -0.03162378 0.036934316 -0.0031652853 -0.013377235 -0.018272225 -0.009943536
-0.0068484293 -0.015994035 -0.013968868 -0.0022432033 0.0010852639 0.0012660482 -0.007822012 0.03531993
-0.0010913128 -0.026288789 -0.012067383 -0.0068046045 0.025483582 -0.015764756 0.03794278 -0.0061547854
0.07190966 0.061166007 0.08124311 -0.0034276184 0.005795514 0.0024952686 0.009194423 0.006940513
-0.01766154 -0.027224893 -0.0037256498 0.005442619 -0.08320913 -0.01179142 0.051201317 0.011490923
0.0008760233 0.0035384325 -0.019679775 -0.00477676 -0.061670043 -0.030148843 -0.02392277 0.026565047
-0.0059626605 -0.01355386 -0.010125495 0.032496627 0.011101963 0.005174998 -0.0036503898 0.07753169
-0.00755719 -0.020314552 0.026981747 -0.031624887 -0.010776122 0.008400807 -0.006090312 -0.0022690967
0.0026305278 -0.010162096 0.0058633382 0.027887158 -0.015907714 0.023260003 -0.017626932 0.03367015
0.011600267 -0.025345702 -0.001119968 0.027437327 -0.004600865 0.02815468 -0.0069874283 -0.056772687
-0.004905391 -0.00890713 -0.05874533 0.04294978 -0.01422753 -0.02230013 -0.046320032 0.005459852
0.014185143 0.016536009 -0.017684035 0.0070339837 -0.008272473 -0.020043261 -0.030391896 0.008508415
-0.003521114 0.000539316 -0.0050970116 0.008023981 0.05464393 -0.021279922 -0.011380629 -0.046887986
-0.006440574 0.061920375 0.0026521615 0.023483628 0.051172547 0.009490211 -0.008583668 0.0026532067
0.033206068 0.028744994 0.034119014 -0.016169662 0.022071367 -0.0008436536 0.07299829 0.015341465
0.017348064 0.014620143 -0.09065752 0.0034029412 0.005707527 0.030023955 0.0129392 -0.0099480795
-0.045031913 -0.021904483 -0.018336926 -0.003225201 0.008125649 0.0071234726 0.0120552005 -0.0055886703
0.04040267 0.012790769 -0.029101726 0.013395157 -0.0079706125 -0.02084783 0.0060570305 0.042811144
0.024366923 -0.02520541 -0.004554704 0.013668446 -0.013140204 0.030031383 0.0055837487 0.0007130842
-0.021822968 -0.011592433 -0.08162254 0.024693996 -0.0015304663 0.05033283 0.00030665312 -0.0108832475
0.029400451 -0.012189635 -0.0022104061 0.013039816 -0.016108917 0.0072167264 -0.010740236 0.051556192
-0.011528293 0.019342802 -0.0133109 0.0013962688 0.021781184 -0.022785332 0.016438589 0.012569409
-0.044082202 -0.017480405 0.010834962 0.07025931 -0.038483668 0.0040010796 0.0767843 0.044176847
-0.007470439 -0.005226339 -0.005671181 -0.06219742 -0.0015286173 -0.028934777 -0.00979839 -0.040209197
0.045632377 -0.04548419 -0.016003918 0.03564451 0.027464114 0.021778038 -0.001821679 0.021579543

actor.6.bias f4 [12]
00000000: eed6 19bd 7a7d ed3c 3572 ab3d c1c2 ecbc
00000010: 9c54 31bd a4e1 b33d 3fa4 b93d b222 38bd
00000020: d964 cdbd 0023 4d3a 0973 d5bd 0eb8 e23b
-0.03755849 0.028990496 0.08371393 -0.02890146 -0.04329358 0.08783272 0.090645306 -0.044954963
-0.10029001 0.0007825345 -0.10422332 0.0069189137
